…
base_lr: 0.001
display: 1
max_iter: 40000
lr_policy: "step"
gamma: 0.1
momentum: 0.9
weight_decay: 0.0005
stepsize: 10000
snapshot: 0
snapshot_prefix: "alexnet"
I0618 12:46:49.375238 129519 solver.cpp:81] Creating training net from train_net file: models/caffenet/train_self.prototxt
I0618 12:46:49.375777 129519 net.cpp:49] Initializing net from parameters: 
name: "102FlowerCaffeNet"
state {
  phase: TRAIN
}
layer {
  name: "data"
  type: "Python"
  top: "data"
  top: "labels"
  python_param {
    module: "datalayer.wdatalayer"
    layer: "DataLayer"
  }
}
layer {
  name: "conv1"
  type: "Convolution"
  bottom: "data"
  top: "conv1"
  param {
    lr_mult: 1
    decay_mult: 1
  }
  param {
    lr_mult: 2
    decay_mult: 0
  }
  convolution_param {
    num_output: 96
    kernel_size: 11
    stride: 4
    weight_filler {
      type: "gaussian"
      std: 0.01
    }
    bias_filler {
      type: "constant"
      value: 0
    }
  }
}
layer {
  name: "relu1"
  type: "ReLU"
  bottom: "conv1"
  top: "conv1"
}
layer {
  name: "pool1"
  type: "Pooling"
  bottom: "conv1"
  top: "pool1"
  pooling_param {
    pool: MAX
    kernel_size: 3
    stride: 2
  }
}
layer {
  name: "norm1"
  type: "LRN"
  bottom: "pool1"
  top: "norm1"
  lrn_param {
    local_size: 5
    alpha: 0.0001
    beta: 0.75
  }
}
layer {
  name: "conv2"
  type: "Convolution"
  bottom: "norm1"
  top: "conv2"
  param {
    lr_mult: 1
    decay_mult: 1
  }
  param {
    lr_mult: 2
    decay_mult: 0
  }
  convolution_param {
    num_output: 256
    pad: 2
    kernel_size: 5
    group: 2
    weight_filler {
      type: "gaussian"
      std: 0.01
    }
    bias_filler {
      type: "constant"
      value: 1
    }
  }
}
layer {
  name: "relu2"
  type: "ReLU"
  bottom: "conv2"
  top: "conv2"
}
layer {
  name: "pool2"
  type: "Pooling"
  bottom: "conv2"
  top: "pool2"
  pooling_param {
    pool: MAX
    kernel_size: 3
    stride: 2
  }
}
layer {
  name: "norm2"
  type: "LRN"
  bottom: "pool2"
  top: "norm2"
  lrn_param {
    local_size: 5
    alpha: 0.0001
    beta: 0.75
  }
}
layer {
  name: "conv3"
  type: "Convolution"
  bottom: "norm2"
  top: "conv3"
  param {
    lr_mult: 1
    decay_mult: 1
  }
  param {
    lr_mult: 2
    decay_mult: 0
  }
  convolution_param {
    num_output: 384
    pad: 1
    kernel_size: 3
    weight_filler {
      type: "gaussian"
      std: 0.01
    }
    bias_filler {
      type: "constant"
      value: 0
    }
  }
}
layer {
  name: "relu3"
  type: "ReLU"
  bottom: "conv3"
  top: "conv3"
}
layer {
  name: "conv4"
  type: "Convolution"
  bottom: "conv3"
  top: "conv4"
  param {
    lr_mult: 1
    decay_mult: 1
  }
  param {
    lr_mult: 2
    decay_mult: 0
  }
  convolution_param {
    num_output: 384
    pad: 1
    kernel_size: 3
    group: 2
    weight_filler {
      type: "gaussian"
      std: 0.01
    }
    bias_filler {
      type: "constant"
      value: 1
    }
  }
}
layer {
  name: "relu4"
  type: "ReLU"
  bottom: "conv4"
  top: "conv4"
}
layer {
  name: "conv5"
  type: "Convolution"
  bottom: "conv4"
  top: "conv5"
  param {
    lr_mult: 1
    decay_mult: 1
  }
  param {
    lr_mult: 2
    decay_mult: 0
  }
  convolution_param {
    num_output: 256
    pad: 1
    kernel_size: 3
    group: 2
    weight_filler {
      type: "gaussian"
      std: 0.01
    }
    bias_filler {
      type: "constant"
      value: 1
    }
  }
}
layer {
  name: "relu5"
  type: "ReLU"
  bottom: "conv5"
  top: "conv5"
}
layer {
  name: "pool5"
  type: "Pooling"
  bottom: "conv5"
  top: "pool5"
  pooling_param {
    pool: MAX
    kernel_size: 3
    stride: 2
  }
}
layer {
  name: "fc6"
  type: "InnerProduct"
  bottom: "pool5"
  top: "fc6"
  param {
    lr_mult: 1
    decay_mult: 1
  }
  param {
    lr_mult: 2
    decay_mult: 0
  }
  inner_product_param {
    num_output: 4096
    weight_filler {
      type: "gaussian"
      std: 0.005
    }
    bias_filler {
      type: "constant"
      value: 1
    }
  }
}
layer {
  name: "relu6"
  type: "ReLU"
  bottom: "fc6"
  top: "fc6"
}
layer {
  name: "drop6"
  type: "Dropout"
  bottom: "fc6"
  top: "fc6"
  dropout_param {
    dropout_ratio: 0.5
  }
}
layer {
  name: "fc7"
  type: "InnerProduct"
  bottom: "fc6"
  top: "fc7"
  param {
    lr_mult: 1
    decay_mult: 1
  }
  param {
    lr_mult: 2
    decay_mult: 0
  }
  inner_product_param {
    num_output: 4096
    weight_filler {
      type: "gaussian"
      std: 0.005
    }
    bias_filler {
      type: "constant"
      value: 1
    }
  }
}
layer {
  name: "relu7"
  type: "ReLU"
  bottom: "fc7"
  top: "fc7"
}
layer {
  name: "drop7"
  type: "Dropout"
  bottom: "fc7"
  top: "fc7"
  dropout_param {
    dropout_ratio: 0.5
  }
}
layer {
  name: "102flower"
  type: "InnerProduct"
  bottom: "fc7"
  top: "102flower"
  param {
    lr_mult: 5
    decay_mult: 1
  }
  param {
    lr_mult: 10
    decay_mult: 0
  }
  inner_product_param {
    num_output: 102
    weight_filler {
      type: "gaussian"
      std: 0.01
    }
    bias_filler {
      type: "constant"
      value: 0
    }
  }
}
layer {
  name: "loss"
  type: "SoftmaxWithLoss"
  bottom: "102flower"
  bottom: "labels"
  top: "loss"
}
I0618 12:46:49.375847 129519 layer_factory.hpp:77] Creating layer data
I0618 12:46:49.396246 129519 net.cpp:106] Creating Layer data
I0618 12:46:49.396265 129519 net.cpp:411] data -> data
I0618 12:46:49.396281 129519 net.cpp:411] data -> labels
I0618 12:46:49.403705 129519 net.cpp:150] Setting up data
I0618 12:46:49.403723 129519 net.cpp:157] Top shape: 255 3 227 227 (39419685)
I0618 12:46:49.403729 129519 net.cpp:157] Top shape: 255 (255)
I0618 12:46:49.403733 129519 net.cpp:165] Memory required for data: 157679760
I0618 12:46:49.403738 129519 layer_factory.hpp:77] Creating layer conv1
I0618 12:46:49.403756 129519 net.cpp:106] Creating Layer conv1
I0618 12:46:49.403760 129519 net.cpp:454] conv1 <- data
I0618 12:46:49.403767 129519 net.cpp:411] conv1 -> conv1
I0618 12:46:49.516902 129519 net.cpp:150] Setting up conv1
I0618 12:46:49.516937 129519 net.cpp:157] Top shape: 255 96 55 55 (74052000)
I0618 12:46:49.516942 129519 net.cpp:165] Memory required for data: 453887760
I0618 12:46:49.516957 129519 layer_factory.hpp:77] Creating layer relu1
I0618 12:46:49.516969 129519 net.cpp:106] Creating Layer relu1
I0618 12:46:49.516974 129519 net.cpp:454] relu1 <- conv1
I0618 12:46:49.516980 129519 net.cpp:397] relu1 -> conv1 (in-place)
I0618 12:46:49.517115 129519 net.cpp:150] Setting up relu1
I0618 12:46:49.517124 129519 net.cpp:157] Top shape: 255 96 55 55 (74052000)
I0618 12:46:49.517128 129519 net.cpp:165] Memory required for data: 750095760
I0618 12:46:49.517132 129519 layer_factory.hpp:77] Creating layer pool1
I0618 12:46:49.517139 129519 net.cpp:106] Creating Layer pool1
I0618 12:46:49.517143 129519 net.cpp:454] pool1 <- conv1
I0618 12:46:49.517148 129519 net.cpp:411] pool1 -> pool1
I0618 12:46:49.517181 129519 net.cpp:150] Setting up pool1
I0618 12:46:49.517187 129519 net.cpp:157] Top shape: 255 96 27 27 (17845920)
I0618 12:46:49.517190 129519 net.cpp:165] Memory required for data: 821479440
I0618 12:46:49.517194 129519 layer_factory.hpp:77] Creating layer norm1
I0618 12:46:49.517201 129519 net.cpp:106] Creating Layer norm1
I0618 12:46:49.517204 129519 net.cpp:454] norm1 <- pool1
I0618 12:46:49.517210 129519 net.cpp:411] norm1 -> norm1
I0618 12:46:49.517496 129519 net.cpp:150] Setting up norm1
I0618 12:46:49.517508 129519 net.cpp:157] Top shape: 255 96 27 27 (17845920)
I0618 12:46:49.517511 129519 net.cpp:165] Memory required for data: 892863120
I0618 12:46:49.517514 129519 layer_factory.hpp:77] Creating layer conv2
I0618 12:46:49.517526 129519 net.cpp:106] Creating Layer conv2
I0618 12:46:49.517530 129519 net.cpp:454] conv2 <- norm1
I0618 12:46:49.517536 129519 net.cpp:411] conv2 -> conv2
I0618 12:46:49.528096 129519 net.cpp:150] Setting up conv2
I0618 12:46:49.528110 129519 net.cpp:157] Top shape: 255 256 27 27 (47589120)
I0618 12:46:49.528113 129519 net.cpp:165] Memory required for data: 1083219600
I0618 12:46:49.528121 129519 layer_factory.hpp:77] Creating layer relu2
I0618 12:46:49.528127 129519 net.cpp:106] Creating Layer relu2
I0618 12:46:49.528131 129519 net.cpp:454] relu2 <- conv2
I0618 12:46:49.528136 129519 net.cpp:397] relu2 -> conv2 (in-place)
I0618 12:46:49.528270 129519 net.cpp:150] Setting up relu2
I0618 12:46:49.528278 129519 net.cpp:157] Top shape: 255 256 27 27 (47589120)
I0618 12:46:49.528281 129519 net.cpp:165] Memory required for data: 1273576080
I0618 12:46:49.528285 129519 layer_factory.hpp:77] Creating layer pool2
I0618 12:46:49.528291 129519 net.cpp:106] Creating Layer pool2
I0618 12:46:49.528295 129519 net.cpp:454] pool2 <- conv2
I0618 12:46:49.528300 129519 net.cpp:411] pool2 -> pool2
I0618 12:46:49.528331 129519 net.cpp:150] Setting up pool2
I0618 12:46:49.528337 129519 net.cpp:157] Top shape: 255 256 13 13 (11032320)
I0618 12:46:49.528340 129519 net.cpp:165] Memory required for data: 1317705360
I0618 12:46:49.528343 129519 layer_factory.hpp:77] Creating layer norm2
I0618 12:46:49.528349 129519 net.cpp:106] Creating Layer norm2
I0618 12:46:49.528352 129519 net.cpp:454] norm2 <- pool2
I0618 12:46:49.528357 129519 net.cpp:411] norm2 -> norm2
I0618 12:46:49.528717 129519 net.cpp:150] Setting up norm2
I0618 12:46:49.528728 129519 net.cpp:157] Top shape: 255 256 13 13 (11032320)
I0618 12:46:49.528733 129519 net.cpp:165] Memory required for data: 1361834640
I0618 12:46:49.528735 129519 layer_factory.hpp:77] Creating layer conv3
I0618 12:46:49.528744 129519 net.cpp:106] Creating Layer conv3
I0618 12:46:49.528748 129519 net.cpp:454] conv3 <- norm2
I0618 12:46:49.528753 129519 net.cpp:411] conv3 -> conv3
I0618 12:46:49.554193 129519 net.cpp:150] Setting up conv3
I0618 12:46:49.554208 129519 net.cpp:157] Top shape: 255 384 13 13 (16548480)
I0618 12:46:49.554210 129519 net.cpp:165] Memory required for data: 1428028560
I0618 12:46:49.554219 129519 layer_factory.hpp:77] Creating layer relu3
I0618 12:46:49.554226 129519 net.cpp:106] Creating Layer relu3
I0618 12:46:49.554229 129519 net.cpp:454] relu3 <- conv3
I0618 12:46:49.554234 129519 net.cpp:397] relu3 -> conv3 (in-place)
I0618 12:46:49.554499 129519 net.cpp:150] Setting up relu3
I0618 12:46:49.554510 129519 net.cpp:157] Top shape: 255 384 13 13 (16548480)
I0618 12:46:49.554513 129519 net.cpp:165] Memory required for data: 1494222480
I0618 12:46:49.554517 129519 layer_factory.hpp:77] Creating layer conv4
I0618 12:46:49.554527 129519 net.cpp:106] Creating Layer conv4
I0618 12:46:49.554529 129519 net.cpp:454] conv4 <- conv3
I0618 12:46:49.554535 129519 net.cpp:411] conv4 -> conv4
I0618 12:46:49.574630 129519 net.cpp:150] Setting up conv4
I0618 12:46:49.574641 129519 net.cpp:157] Top shape: 255 384 13 13 (16548480)
I0618 12:46:49.574645 129519 net.cpp:165] Memory required for data: 1560416400
I0618 12:46:49.574651 129519 layer_factory.hpp:77] Creating layer relu4
I0618 12:46:49.574658 129519 net.cpp:106] Creating Layer relu4
I0618 12:46:49.574661 129519 net.cpp:454] relu4 <- conv4
I0618 12:46:49.574668 129519 net.cpp:397] relu4 -> conv4 (in-place)
I0618 12:46:49.574805 129519 net.cpp:150] Setting up relu4
I0618 12:46:49.574815 129519 net.cpp:157] Top shape: 255 384 13 13 (16548480)
I0618 12:46:49.574817 129519 net.cpp:165] Memory required for data: 1626610320
I0618 12:46:49.574821 129519 layer_factory.hpp:77] Creating layer conv5
I0618 12:46:49.574829 129519 net.cpp:106] Creating Layer conv5
I0618 12:46:49.574833 129519 net.cpp:454] conv5 <- conv4
I0618 12:46:49.574841 129519 net.cpp:411] conv5 -> conv5
I0618 12:46:49.588955 129519 net.cpp:150] Setting up conv5
I0618 12:46:49.588968 129519 net.cpp:157] Top shape: 255 256 13 13 (11032320)
I0618 12:46:49.588973 129519 net.cpp:165] Memory required for data: 1670739600
I0618 12:46:49.588980 129519 layer_factory.hpp:77] Creating layer relu5
I0618 12:46:49.588990 129519 net.cpp:106] Creating Layer relu5
I0618 12:46:49.588994 129519 net.cpp:454] relu5 <- conv5
I0618 12:46:49.588999 129519 net.cpp:397] relu5 -> conv5 (in-place)
I0618 12:46:49.589138 129519 net.cpp:150] Setting up relu5
I0618 12:46:49.589146 129519 net.cpp:157] Top shape: 255 256 13 13 (11032320)
I0618 12:46:49.589149 129519 net.cpp:165] Memory required for data: 1714868880
I0618 12:46:49.589153 129519 layer_factory.hpp:77] Creating layer pool5
I0618 12:46:49.589159 129519 net.cpp:106] Creating Layer pool5
I0618 12:46:49.589161 129519 net.cpp:454] pool5 <- conv5
I0618 12:46:49.589169 129519 net.cpp:411] pool5 -> pool5
I0618 12:46:49.589203 129519 net.cpp:150] Setting up pool5
I0618 12:46:49.589210 129519 net.cpp:157] Top shape: 255 256 6 6 (2350080)
I0618 12:46:49.589213 129519 net.cpp:165] Memory required for data: 1724269200
I0618 12:46:49.589216 129519 layer_factory.hpp:77] Creating layer fc6
I0618 12:46:49.589228 129519 net.cpp:106] Creating Layer fc6
I0618 12:46:49.589231 129519 net.cpp:454] fc6 <- pool5
I0618 12:46:49.589238 129519 net.cpp:411] fc6 -> fc6
I0618 12:46:50.762620 129519 net.cpp:150] Setting up fc6
I0618 12:46:50.762665 129519 net.cpp:157] Top shape: 255 4096 (1044480)
I0618 12:46:50.762672 129519 net.cpp:165] Memory required for data: 1728447120
I0618 12:46:50.762686 129519 layer_factory.hpp:77] Creating layer relu6
I0618 12:46:50.762702 129519 net.cpp:106] Creating Layer relu6
I0618 12:46:50.762711 129519 net.cpp:454] relu6 <- fc6
I0618 12:46:50.762720 129519 net.cpp:397] relu6 -> fc6 (in-place)
I0618 12:46:50.763312 129519 net.cpp:150] Setting up relu6
I0618 12:46:50.763329 129519 net.cpp:157] Top shape: 255 4096 (1044480)
I0618 12:46:50.763335 129519 net.cpp:165] Memory required for data: 1732625040
I0618 12:46:50.763341 129519 layer_factory.hpp:77] Creating layer drop6
I0618 12:46:50.763366 129519 net.cpp:106] Creating Layer drop6
I0618 12:46:50.763372 129519 net.cpp:454] drop6 <- fc6
I0618 12:46:50.763381 129519 net.cpp:397] drop6 -> fc6 (in-place)
I0618 12:46:50.763422 129519 net.cpp:150] Setting up drop6
I0618 12:46:50.763432 129519 net.cpp:157] Top shape: 255 4096 (1044480)
I0618 12:46:50.763437 129519 net.cpp:165] Memory required for data: 1736802960
I0618 12:46:50.763442 129519 layer_factory.hpp:77] Creating layer fc7
I0618 12:46:50.763456 129519 net.cpp:106] Creating Layer fc7
I0618 12:46:50.763463 129519 net.cpp:454] fc7 <- fc6
I0618 12:46:50.763470 129519 net.cpp:411] fc7 -> fc7
I0618 12:46:51.308437 129519 net.cpp:150] Setting up fc7
I0618 12:46:51.308466 129519 net.cpp:157] Top shape: 255 4096 (1044480)
I0618 12:46:51.308470 129519 net.cpp:165] Memory required for data: 1740980880
I0618 12:46:51.308481 129519 layer_factory.hpp:77] Creating layer relu7
I0618 12:46:51.308493 129519 net.cpp:106] Creating Layer relu7
I0618 12:46:51.308497 129519 net.cpp:454] relu7 <- fc7
I0618 12:46:51.308503 129519 net.cpp:397] relu7 -> fc7 (in-place)
I0618 12:46:51.308701 129519 net.cpp:150] Setting up relu7
I0618 12:46:51.308709 129519 net.cpp:157] Top shape: 255 4096 (1044480)
I0618 12:46:51.308712 129519 net.cpp:165] Memory required for data: 1745158800
I0618 12:46:51.308715 129519 layer_factory.hpp:77] Creating layer drop7
I0618 12:46:51.308723 129519 net.cpp:106] Creating Layer drop7
I0618 12:46:51.308727 129519 net.cpp:454] drop7 <- fc7
I0618 12:46:51.308734 129519 net.cpp:397] drop7 -> fc7 (in-place)
I0618 12:46:51.308756 129519 net.cpp:150] Setting up drop7
I0618 12:46:51.308761 129519 net.cpp:157] Top shape: 255 4096 (1044480)
I0618 12:46:51.308764 129519 net.cpp:165] Memory required for data: 1749336720
I0618 12:46:51.308768 129519 layer_factory.hpp:77] Creating layer 102flower
I0618 12:46:51.308776 129519 net.cpp:106] Creating Layer 102flower
I0618 12:46:51.308779 129519 net.cpp:454] 102flower <- fc7
I0618 12:46:51.308790 129519 net.cpp:411] 102flower -> 102flower
I0618 12:46:51.320906 129519 net.cpp:150] Setting up 102flower
I0618 12:46:51.320919 129519 net.cpp:157] Top shape: 255 102 (26010)
I0618 12:46:51.320921 129519 net.cpp:165] Memory required for data: 1749440760
I0618 12:46:51.320929 129519 layer_factory.hpp:77] Creating layer loss
I0618 12:46:51.320935 129519 net.cpp:106] Creating Layer loss
I0618 12:46:51.320938 129519 net.cpp:454] loss <- 102flower
I0618 12:46:51.320942 129519 net.cpp:454] loss <- labels
I0618 12:46:51.320946 129519 net.cpp:411] loss -> loss
I0618 12:46:51.320961 129519 layer_factory.hpp:77] Creating layer loss
…
