…
 'ROOT_DIR': '/home/zheda/workspace/cnn/flower-classify',
 'TEST': {'TARGET_SIZE': [227, 227]},
 'TRAIN': {'BATCH_SIZE': 255,
           'SNAPSHOT_INFIX': '',
           'SNAPSHOT_ITERS': 10000,
           'TARGET_SIZE': [227, 227],
           'USE_FLIPPED': True,
           'USE_PREFETCH': False}}
WARNING: Logging before InitGoogleLogging() is written to STDERR
I0622 08:59:40.923866 68229 net.cpp:49] Initializing net from parameters: 
name: "102FlowerCaffeNet"
input: "data"
state {
  phase: TEST
}
input_shape {
  dim: 10
  dim: 3
  dim: 227
  dim: 227
}
layer {
  name: "conv1"
  type: "Convolution"
  bottom: "data"
  top: "conv1"
  convolution_param {
    num_output: 96
    kernel_size: 11
    stride: 4
  }
}
layer {
  name: "relu1"
  type: "ReLU"
  bottom: "conv1"
  top: "conv1"
}
layer {
  name: "pool1"
  type: "Pooling"
  bottom: "conv1"
  top: "pool1"
  pooling_param {
    pool: MAX
    kernel_size: 3
    stride: 2
  }
}
layer {
  name: "norm1"
  type: "LRN"
  bottom: "pool1"
  top: "norm1"
  lrn_param {
    local_size: 5
    alpha: 0.0001
    beta: 0.75
  }
}
layer {
  name: "conv2"
  type: "Convolution"
  bottom: "norm1"
  top: "conv2"
  convolution_param {
    num_output: 256
    pad: 2
    kernel_size: 5
    group: 2
  }
}
layer {
  name: "relu2"
  type: "ReLU"
  bottom: "conv2"
  top: "conv2"
}
layer {
  name: "pool2"
  type: "Pooling"
  bottom: "conv2"
  top: "pool2"
  pooling_param {
    pool: MAX
    kernel_size: 3
    stride: 2
  }
}
layer {
  name: "norm2"
  type: "LRN"
  bottom: "pool2"
  top: "norm2"
  lrn_param {
    local_size: 5
    alpha: 0.0001
    beta: 0.75
  }
}
layer {
  name: "conv3"
  type: "Convolution"
  bottom: "norm2"
  top: "conv3"
  convolution_param {
    num_output: 384
    pad: 1
    kernel_size: 3
  }
}
layer {
  name: "relu3"
  type: "ReLU"
  bottom: "conv3"
  top: "conv3"
}
layer {
  name: "conv4"
  type: "Convolution"
  bottom: "conv3"
  top: "conv4"
  convolution_param {
    num_output: 384
    pad: 1
    kernel_size: 3
    group: 2
  }
}
layer {
  name: "relu4"
  type: "ReLU"
  bottom: "conv4"
  top: "conv4"
}
layer {
  name: "conv5"
  type: "Convolution"
  bottom: "conv4"
  top: "conv5"
  convolution_param {
    num_output: 256
    pad: 1
    kernel_size: 3
    group: 2
  }
}
layer {
  name: "relu5"
  type: "ReLU"
  bottom: "conv5"
  top: "conv5"
}
layer {
  name: "pool5"
  type: "Pooling"
  bottom: "conv5"
  top: "pool5"
  pooling_param {
    pool: MAX
    kernel_size: 3
    stride: 2
  }
}
layer {
  name: "fc6"
  type: "InnerProduct"
  bottom: "pool5"
  top: "fc6"
  inner_product_param {
    num_output: 4096
  }
}
layer {
  name: "relu6"
  type: "ReLU"
  bottom: "fc6"
  top: "fc6"
}
layer {
  name: "drop6"
  type: "Dropout"
  bottom: "fc6"
  top: "fc6"
  dropout_param {
    dropout_ratio: 0.5
  }
}
layer {
  name: "fc7"
  type: "InnerProduct"
  bottom: "fc6"
  top: "fc7"
  inner_product_param {
    num_output: 4096
  }
}
layer {
  name: "relu7"
  type: "ReLU"
  bottom: "fc7"
  top: "fc7"
}
layer {
  name: "drop7"
  type: "Dropout"
  bottom: "fc7"
  top: "fc7"
  dropout_param {
    dropout_ratio: 0.5
  }
}
layer {
  name: "102flower"
  type: "InnerProduct"
  bottom: "fc7"
  top: "102flower"
  inner_product_param {
    num_output: 102
  }
}
layer {
  name: "prob"
  type: "Softmax"
  bottom: "102flower"
  top: "prob"
}
I0622 08:59:40.923974 68229 net.cpp:413] Input 0 -> data
I0622 08:59:40.933825 68229 layer_factory.hpp:77] Creating layer conv1
I0622 08:59:40.933852 68229 net.cpp:106] Creating Layer conv1
I0622 08:59:40.933857 68229 net.cpp:454] conv1 <- data
I0622 08:59:40.933866 68229 net.cpp:411] conv1 -> conv1
I0622 08:59:41.049072 68229 net.cpp:150] Setting up conv1
I0622 08:59:41.049103 68229 net.cpp:157] Top shape: 10 96 55 55 (2904000)
I0622 08:59:41.049108 68229 net.cpp:165] Memory required for data: 11616000
I0622 08:59:41.049124 68229 layer_factory.hpp:77] Creating layer relu1
I0622 08:59:41.049135 68229 net.cpp:106] Creating Layer relu1
I0622 08:59:41.049139 68229 net.cpp:454] relu1 <- conv1
I0622 08:59:41.049144 68229 net.cpp:397] relu1 -> conv1 (in-place)
I0622 08:59:41.049288 68229 net.cpp:150] Setting up relu1
I0622 08:59:41.049296 68229 net.cpp:157] Top shape: 10 96 55 55 (2904000)
I0622 08:59:41.049299 68229 net.cpp:165] Memory required for data: 23232000
I0622 08:59:41.049302 68229 layer_factory.hpp:77] Creating layer pool1
I0622 08:59:41.049310 68229 net.cpp:106] Creating Layer pool1
I0622 08:59:41.049314 68229 net.cpp:454] pool1 <- conv1
I0622 08:59:41.049319 68229 net.cpp:411] pool1 -> pool1
I0622 08:59:41.049372 68229 net.cpp:150] Setting up pool1
I0622 08:59:41.049379 68229 net.cpp:157] Top shape: 10 96 27 27 (699840)
I0622 08:59:41.049381 68229 net.cpp:165] Memory required for data: 26031360
I0622 08:59:41.049384 68229 layer_factory.hpp:77] Creating layer norm1
I0622 08:59:41.049396 68229 net.cpp:106] Creating Layer norm1
I0622 08:59:41.049398 68229 net.cpp:454] norm1 <- pool1
I0622 08:59:41.049402 68229 net.cpp:411] norm1 -> norm1
I0622 08:59:41.049716 68229 net.cpp:150] Setting up norm1
I0622 08:59:41.049727 68229 net.cpp:157] Top shape: 10 96 27 27 (699840)
I0622 08:59:41.049731 68229 net.cpp:165] Memory required for data: 28830720
I0622 08:59:41.049733 68229 layer_factory.hpp:77] Creating layer conv2
I0622 08:59:41.049744 68229 net.cpp:106] Creating Layer conv2
I0622 08:59:41.049747 68229 net.cpp:454] conv2 <- norm1
I0622 08:59:41.049752 68229 net.cpp:411] conv2 -> conv2
I0622 08:59:41.052762 68229 net.cpp:150] Setting up conv2
I0622 08:59:41.052777 68229 net.cpp:157] Top shape: 10 256 27 27 (1866240)
I0622 08:59:41.052779 68229 net.cpp:165] Memory required for data: 36295680
I0622 08:59:41.052793 68229 layer_factory.hpp:77] Creating layer relu2
I0622 08:59:41.052801 68229 net.cpp:106] Creating Layer relu2
I0622 08:59:41.052804 68229 net.cpp:454] relu2 <- conv2
I0622 08:59:41.052809 68229 net.cpp:397] relu2 -> conv2 (in-place)
I0622 08:59:41.052963 68229 net.cpp:150] Setting up relu2
I0622 08:59:41.052971 68229 net.cpp:157] Top shape: 10 256 27 27 (1866240)
I0622 08:59:41.052973 68229 net.cpp:165] Memory required for data: 43760640
I0622 08:59:41.052978 68229 layer_factory.hpp:77] Creating layer pool2
I0622 08:59:41.052983 68229 net.cpp:106] Creating Layer pool2
I0622 08:59:41.052986 68229 net.cpp:454] pool2 <- conv2
I0622 08:59:41.052992 68229 net.cpp:411] pool2 -> pool2
I0622 08:59:41.053045 68229 net.cpp:150] Setting up pool2
I0622 08:59:41.053051 68229 net.cpp:157] Top shape: 10 256 13 13 (432640)
I0622 08:59:41.053053 68229 net.cpp:165] Memory required for data: 45491200
I0622 08:59:41.053056 68229 layer_factory.hpp:77] Creating layer norm2
I0622 08:59:41.053063 68229 net.cpp:106] Creating Layer norm2
I0622 08:59:41.053066 68229 net.cpp:454] norm2 <- pool2
I0622 08:59:41.053071 68229 net.cpp:411] norm2 -> norm2
I0622 08:59:41.053392 68229 net.cpp:150] Setting up norm2
I0622 08:59:41.053403 68229 net.cpp:157] Top shape: 10 256 13 13 (432640)
I0622 08:59:41.053406 68229 net.cpp:165] Memory required for data: 47221760
I0622 08:59:41.053409 68229 layer_factory.hpp:77] Creating layer conv3
I0622 08:59:41.053419 68229 net.cpp:106] Creating Layer conv3
I0622 08:59:41.053422 68229 net.cpp:454] conv3 <- norm2
I0622 08:59:41.053427 68229 net.cpp:411] conv3 -> conv3
I0622 08:59:41.056303 68229 net.cpp:150] Setting up conv3
I0622 08:59:41.056314 68229 net.cpp:157] Top shape: 10 384 13 13 (648960)
I0622 08:59:41.056318 68229 net.cpp:165] Memory required for data: 49817600
I0622 08:59:41.056326 68229 layer_factory.hpp:77] Creating layer relu3
I0622 08:59:41.056332 68229 net.cpp:106] Creating Layer relu3
I0622 08:59:41.056335 68229 net.cpp:454] relu3 <- conv3
I0622 08:59:41.056341 68229 net.cpp:397] relu3 -> conv3 (in-place)
I0622 08:59:41.056632 68229 net.cpp:150] Setting up relu3
I0622 08:59:41.056641 68229 net.cpp:157] Top shape: 10 384 13 13 (648960)
I0622 08:59:41.056644 68229 net.cpp:165] Memory required for data: 52413440
I0622 08:59:41.056648 68229 layer_factory.hpp:77] Creating layer conv4
I0622 08:59:41.056658 68229 net.cpp:106] Creating Layer conv4
I0622 08:59:41.056660 68229 net.cpp:454] conv4 <- conv3
I0622 08:59:41.056668 68229 net.cpp:411] conv4 -> conv4
I0622 08:59:41.059901 68229 net.cpp:150] Setting up conv4
I0622 08:59:41.059914 68229 net.cpp:157] Top shape: 10 384 13 13 (648960)
I0622 08:59:41.059917 68229 net.cpp:165] Memory required for data: 55009280
I0622 08:59:41.059924 68229 layer_factory.hpp:77] Creating layer relu4
I0622 08:59:41.059929 68229 net.cpp:106] Creating Layer relu4
I0622 08:59:41.059933 68229 net.cpp:454] relu4 <- conv4
I0622 08:59:41.059939 68229 net.cpp:397] relu4 -> conv4 (in-place)
I0622 08:59:41.060083 68229 net.cpp:150] Setting up relu4
I0622 08:59:41.060093 68229 net.cpp:157] Top shape: 10 384 13 13 (648960)
I0622 08:59:41.060096 68229 net.cpp:165] Memory required for data: 57605120
I0622 08:59:41.060099 68229 layer_factory.hpp:77] Creating layer conv5
I0622 08:59:41.060106 68229 net.cpp:106] Creating Layer conv5
I0622 08:59:41.060109 68229 net.cpp:454] conv5 <- conv4
I0622 08:59:41.060114 68229 net.cpp:411] conv5 -> conv5
I0622 08:59:41.063169 68229 net.cpp:150] Setting up conv5
I0622 08:59:41.063182 68229 net.cpp:157] Top shape: 10 256 13 13 (432640)
I0622 08:59:41.063186 68229 net.cpp:165] Memory required for data: 59335680
I0622 08:59:41.063195 68229 layer_factory.hpp:77] Creating layer relu5
I0622 08:59:41.063201 68229 net.cpp:106] Creating Layer relu5
I0622 08:59:41.063205 68229 net.cpp:454] relu5 <- conv5
I0622 08:59:41.063210 68229 net.cpp:397] relu5 -> conv5 (in-place)
I0622 08:59:41.063356 68229 net.cpp:150] Setting up relu5
I0622 08:59:41.063365 68229 net.cpp:157] Top shape: 10 256 13 13 (432640)
I0622 08:59:41.063369 68229 net.cpp:165] Memory required for data: 61066240
I0622 08:59:41.063372 68229 layer_factory.hpp:77] Creating layer pool5
I0622 08:59:41.063379 68229 net.cpp:106] Creating Layer pool5
I0622 08:59:41.063381 68229 net.cpp:454] pool5 <- conv5
I0622 08:59:41.063385 68229 net.cpp:411] pool5 -> pool5
I0622 08:59:41.063437 68229 net.cpp:150] Setting up pool5
I0622 08:59:41.063443 68229 net.cpp:157] Top shape: 10 256 6 6 (92160)
I0622 08:59:41.063446 68229 net.cpp:165] Memory required for data: 61434880
I0622 08:59:41.063449 68229 layer_factory.hpp:77] Creating layer fc6
I0622 08:59:41.063457 68229 net.cpp:106] Creating Layer fc6
I0622 08:59:41.063459 68229 net.cpp:454] fc6 <- pool5
I0622 08:59:41.063463 68229 net.cpp:411] fc6 -> fc6
I0622 08:59:41.190943 68229 net.cpp:150] Setting up fc6
I0622 08:59:41.190985 68229 net.cpp:157] Top shape: 10 4096 (40960)
I0622 08:59:41.190990 68229 net.cpp:165] Memory required for data: 61598720
I0622 08:59:41.191006 68229 layer_factory.hpp:77] Creating layer relu6
I0622 08:59:41.191025 68229 net.cpp:106] Creating Layer relu6
I0622 08:59:41.191030 68229 net.cpp:454] relu6 <- fc6
I0622 08:59:41.191041 68229 net.cpp:397] relu6 -> fc6 (in-place)
I0622 08:59:41.191680 68229 net.cpp:150] Setting up relu6
I0622 08:59:41.191695 68229 net.cpp:157] Top shape: 10 4096 (40960)
I0622 08:59:41.191699 68229 net.cpp:165] Memory required for data: 61762560
I0622 08:59:41.191704 68229 layer_factory.hpp:77] Creating layer drop6
I0622 08:59:41.191722 68229 net.cpp:106] Creating Layer drop6
I0622 08:59:41.191726 68229 net.cpp:454] drop6 <- fc6
I0622 08:59:41.191735 68229 net.cpp:397] drop6 -> fc6 (in-place)
I0622 08:59:41.191788 68229 net.cpp:150] Setting up drop6
I0622 08:59:41.191797 68229 net.cpp:157] Top shape: 10 4096 (40960)
I0622 08:59:41.191800 68229 net.cpp:165] Memory required for data: 61926400
I0622 08:59:41.191805 68229 layer_factory.hpp:77] Creating layer fc7
I0622 08:59:41.191815 68229 net.cpp:106] Creating Layer fc7
I0622 08:59:41.191819 68229 net.cpp:454] fc7 <- fc6
I0622 08:59:41.191828 68229 net.cpp:411] fc7 -> fc7
I0622 08:59:41.235437 68229 net.cpp:150] Setting up fc7
I0622 08:59:41.235474 68229 net.cpp:157] Top shape: 10 4096 (40960)
I0622 08:59:41.235478 68229 net.cpp:165] Memory required for data: 62090240
I0622 08:59:41.235492 68229 layer_factory.hpp:77] Creating layer relu7
I0622 08:59:41.235503 68229 net.cpp:106] Creating Layer relu7
I0622 08:59:41.235508 68229 net.cpp:454] relu7 <- fc7
I0622 08:59:41.235515 68229 net.cpp:397] relu7 -> fc7 (in-place)
I0622 08:59:41.235743 68229 net.cpp:150] Setting up relu7
I0622 08:59:41.235750 68229 net.cpp:157] Top shape: 10 4096 (40960)
I0622 08:59:41.235754 68229 net.cpp:165] Memory required for data: 62254080
I0622 08:59:41.235756 68229 layer_factory.hpp:77] Creating layer drop7
I0622 08:59:41.235765 68229 net.cpp:106] Creating Layer drop7
I0622 08:59:41.235769 68229 net.cpp:454] drop7 <- fc7
I0622 08:59:41.235772 68229 net.cpp:397] drop7 -> fc7 (in-place)
I0622 08:59:41.235806 68229 net.cpp:150] Setting up drop7
I0622 08:59:41.235816 68229 net.cpp:157] Top shape: 10 4096 (40960)
I0622 08:59:41.235819 68229 net.cpp:165] Memory required for data: 62417920
I0622 08:59:41.235822 68229 layer_factory.hpp:77] Creating layer 102flower
I0622 08:59:41.235828 68229 net.cpp:106] Creating Layer 102flower
I0622 08:59:41.235831 68229 net.cpp:454] 102flower <- fc7
I0622 08:59:41.235836 68229 net.cpp:411] 102flower -> 102flower
I0622 08:59:41.237315 68229 net.cpp:150] Setting up 102flower
I0622 08:59:41.237326 68229 net.cpp:157] Top shape: 10 102 (1020)
I0622 08:59:41.237329 68229 net.cpp:165] Memory required for data: 62422000
I0622 08:59:41.237335 68229 layer_factory.hpp:77] Creating layer prob
I0622 08:59:41.237342 68229 net.cpp:106] Creating Layer prob
I0622 08:59:41.237345 68229 net.cpp:454] prob <- 102flower
I0622 08:59:41.237349 68229 net.cpp:411] prob -> prob
I0622 08:59:41.237774 68229 net.cpp:150] Setting up prob
I0622 08:59:41.237784 68229 net.cpp:157] Top shape: 10 102 (1020)
I0622 08:59:41.237788 68229 net.cpp:165] Memory required for data: 62426080
I0622 08:59:41.237792 68229 net.cpp:228] prob does not need backward computation.
I0622 08:59:41.237794 68229 net.cpp:228] 102flower does not need backward computation.
I0622 08:59:41.237797 68229 net.cpp:228] drop7 does not need backward computation.
I0622 08:59:41.237800 68229 net.cpp:228] relu7 does not need backward computation.
…
