…
 'ROOT_DIR': '/home/zheda/workspace/cnn/flower-classify',
 'TEST': {'TARGET_SIZE': [227, 227]},
 'TRAIN': {'BATCH_SIZE': 64,
           'MAX_ITERATION': 100000,
           'SNAPSHOT_INFIX': '',
           'SNAPSHOT_ITERS': 10000,
           'TARGET_SIZE': [227, 227],
           'USE_FLIPPED': True,
           'USE_PREFETCH': False}}
WARNING: Logging before InitGoogleLogging() is written to STDERR
I0628 23:54:24.306452 84111 net.cpp:49] Initializing net from parameters: 
name: "GoogleNet"
input: "data"
state {
  phase: TEST
}
input_shape {
  dim: 10
  dim: 3
  dim: 224
  dim: 224
}
layer {
  name: "conv1/7x7_s2"
  type: "Convolution"
  bottom: "data"
  top: "conv1/7x7_s2"
  param {
    lr_mult: 1
    decay_mult: 1
  }
  param {
    lr_mult: 2
    decay_mult: 0
  }
  convolution_param {
    num_output: 64
    pad: 3
    kernel_size: 7
    stride: 2
    weight_filler {
      type: "xavier"
    }
    bias_filler {
      type: "constant"
      value: 0.2
    }
  }
}
layer {
  name: "conv1/relu_7x7"
  type: "ReLU"
  bottom: "conv1/7x7_s2"
  top: "conv1/7x7_s2"
}
layer {
  name: "pool1/3x3_s2"
  type: "Pooling"
  bottom: "conv1/7x7_s2"
  top: "pool1/3x3_s2"
  pooling_param {
    pool: MAX
    kernel_size: 3
    stride: 2
  }
}
layer {
  name: "pool1/norm1"
  type: "LRN"
  bottom: "pool1/3x3_s2"
  top: "pool1/norm1"
  lrn_param {
    local_size: 5
    alpha: 0.0001
    beta: 0.75
  }
}
layer {
  name: "conv2/3x3_reduce"
  type: "Convolution"
  bottom: "pool1/norm1"
  top: "conv2/3x3_reduce"
  param {
    lr_mult: 1
    decay_mult: 1
  }
  param {
    lr_mult: 2
    decay_mult: 0
  }
  convolution_param {
    num_output: 64
    kernel_size: 1
    weight_filler {
      type: "xavier"
    }
    bias_filler {
      type: "constant"
      value: 0.2
    }
  }
}
layer {
  name: "conv2/relu_3x3_reduce"
  type: "ReLU"
  bottom: "conv2/3x3_reduce"
  top: "conv2/3x3_reduce"
}
layer {
  name: "conv2/3x3"
  type: "Convolution"
  bottom: "conv2/3x3_reduce"
  top: "conv2/3x3"
  param {
    lr_mult: 1
    decay_mult: 1
  }
  param {
    lr_mult: 2
    decay_mult: 0
  }
  convolution_param {
    num_output: 192
    pad: 1
    kernel_size: 3
    weight_filler {
      type: "xavier"
    }
    bias_filler {
      type: "constant"
      value: 0.2
    }
  }
}
layer {
  name: "conv2/relu_3x3"
  type: "ReLU"
  bottom: "conv2/3x3"
  top: "conv2/3x3"
}
layer {
  name: "conv2/norm2"
  type: "LRN"
  bottom: "conv2/3x3"
  top: "conv2/norm2"
  lrn_param {
    local_size: 5
    alpha: 0.0001
    beta: 0.75
  }
}
layer {
  name: "pool2/3x3_s2"
  type: "Pooling"
  bottom: "conv2/norm2"
  top: "pool2/3x3_s2"
  pooling_param {
    pool: MAX
    kernel_size: 3
    stride: 2
  }
}
layer {
  name: "inception_3a/1x1"
  type: "Convolution"
  bottom: "pool2/3x3_s2"
  top: "inception_3a/1x1"
  param {
    lr_mult: 1
    decay_mult: 1
  }
  param {
    lr_mult: 2
    decay_mult: 0
  }
  convolution_param {
    num_output: 64
    kernel_size: 1
    weight_filler {
      type: "xavier"
    }
    bias_filler {
      type: "constant"
      value: 0.2
    }
  }
}
layer {
  name: "inception_3a/relu_1x1"
  type: "ReLU"
  bottom: "inception_3a/1x1"
  top: "inception_3a/1x1"
}
layer {
  name: "inception_3a/3x3_reduce"
  type: "Convolution"
  bottom: "pool2/3x3_s2"
  top: "inception_3a/3x3_reduce"
  param {
    lr_mult: 1
    decay_mult: 1
  }
  param {
    lr_mult: 2
    decay_mult: 0
  }
  convolution_param {
    num_output: 96
    kernel_size: 1
    weight_filler {
      type: "xavier"
    }
    bias_filler {
      type: "constant"
      value: 0.2
    }
  }
}
layer {
  name: "inception_3a/relu_3x3_reduce"
  type: "ReLU"
  bottom: "inception_3a/3x3_reduce"
  top: "inception_3a/3x3_reduce"
}
layer {
  name: "inception_3a/3x3"
  type: "Convolution"
  bottom: "inception_3a/3x3_reduce"
  top: "inception_3a/3x3"
  param {
    lr_mult: 1
    decay_mult: 1
  }
  param {
    lr_mult: 2
    decay_mult: 0
  }
  convolution_param {
    num_output: 128
    pad: 1
    kernel_size: 3
    weight_filler {
      type: "xavier"
    }
    bias_filler {
      type: "constant"
      value: 0.2
    }
  }
}
layer {
  name: "inception_3a/relu_3x3"
  type: "ReLU"
  bottom: "inception_3a/3x3"
  top: "inception_3a/3x3"
}
layer {
  name: "inception_3a/5x5_reduce"
  type: "Convolution"
  bottom: "pool2/3x3_s2"
  top: "inception_3a/5x5_reduce"
  param {
    lr_mult: 1
    decay_mult: 1
  }
  param {
    lr_mult: 2
    decay_mult: 0
  }
  convolution_param {
    num_output: 16
    kernel_size: 1
    weight_filler {
      type: "xavier"
    }
    bias_filler {
      type: "constant"
      value: 0.2
    }
  }
}
layer {
  name: "inception_3a/relu_5x5_reduce"
  type: "ReLU"
  bottom: "inception_3a/5x5_reduce"
  top: "inception_3a/5x5_reduce"
}
layer {
  name: "inception_3a/5x5"
  type: "Convolution"
  bottom: "inception_3a/5x5_reduce"
  top: "inception_3a/5x5"
  param {
    lr_mult: 1
    decay_mult: 1
  }
  param {
    lr_mult: 2
    decay_mult: 0
  }
  convolution_param {
    num_output: 32
    pad: 2
    kernel_size: 5
    weight_filler {
      type: "xavier"
    }
    bias_filler {
      type: "constant"
      value: 0.2
    }
  }
}
layer {
  name: "inception_3a/relu_5x5"
  type: "ReLU"
  bottom: "inception_3a/5x5"
  top: "inception_3a/5x5"
}
layer {
  name: "inception_3a/pool"
  type: "Pooling"
  bottom: "pool2/3x3_s2"
  top: "inception_3a/pool"
  pooling_param {
    pool: MAX
    kernel_size: 3
    stride: 1
    pad: 1
  }
}
layer {
  name: "inception_3a/pool_proj"
  type: "Convolution"
  bottom: "inception_3a/pool"
  top: "inception_3a/pool_proj"
  param {
    lr_mult: 1
    decay_mult: 1
  }
  param {
    lr_mult: 2
    decay_mult: 0
  }
  convolution_param {
    num_output: 32
    kernel_size: 1
    weight_filler {
      type: "xavier"
    }
    bias_filler {
      type: "constant"
      value: 0.2
    }
  }
}
layer {
  name: "inception_3a/relu_pool_proj"
  type: "ReLU"
  bottom: "inception_3a/pool_proj"
  top: "inception_3a/pool_proj"
}
layer {
  name: "inception_3a/output"
  type: "Concat"
  bottom: "inception_3a/1x1"
  bottom: "inception_3a/3x3"
  bottom: "inception_3a/5x5"
  bottom: "inception_3a/pool_proj"
  top: "inception_3a/output"
}
layer {
  name: "inception_3b/1x1"
  type: "Convolution"
  bottom: "inception_3a/output"
  top: "inception_3b/1x1"
  param {
    lr_mult: 1
    decay_mult: 1
  }
  param {
    lr_mult: 2
    decay_mult: 0
  }
  convolution_param {
    num_output: 128
    kernel_size: 1
    weight_filler {
      type: "xavier"
    }
    bias_filler {
      type: "constant"
      value: 0.2
    }
  }
}
layer {
  name: "inception_3b/relu_1x1"
  type: "ReLU"
  bottom: "inception_3b/1x1"
  top: "inception_3b/1x1"
}
layer {
  name: "inception_3b/3x3_reduce"
  type: "Convolution"
  bottom: "inception_3a/output"
  top: "inception_3b/3x3_reduce"
  param {
    lr_mult: 1
    decay_mult: 1
  }
  param {
    lr_mult: 2
    decay_mult: 0
  }
  convolution_param {
    num_output: 128
    kernel_size: 1
    weight_filler {
      type: "xavier"
    }
    bias_filler {
      type: "constant"
      value: 0.2
    }
  }
}
layer {
  name: "inception_3b/relu_3x3_reduce"
  type: "ReLU"
  bottom: "inception_3b/3x3_reduce"
  top: "inception_3b/3x3_reduce"
}
layer {
  name: "inception_3b/3x3"
  type: "Convolution"
  bottom: "inception_3b/3x3_reduce"
  top: "inception_3b/3x3"
  param {
    lr_mult: 1
    decay_mult: 1
  }
  param {
    lr_mult: 2
    decay_mult: 0
  }
  convolution_param {
    num_output: 192
    pad: 1
    kernel_size: 3
    weight_filler {
      type: "xavier"
    }
    bias_filler {
      type: "constant"
      value: 0.2
    }
  }
}
layer {
  name: "inception_3b/relu_3x3"
  type: "ReLU"
  bottom: "inception_3b/3x3"
  top: "inception_3b/3x3"
}
layer {
  name: "inception_3b/5x5_reduce"
  type: "Convolution"
  bottom: "inception_3a/output"
  top: "inception_3b/5x5_reduce"
  param {
    lr_mult: 1
    decay_mult: 1
  }
  param {
    lr_mult: 2
    decay_mult: 0
  }
  convolution_param {
    num_output: 32
    kernel_size: 1
    weight_filler {
      type: "xavier"
    }
    bias_filler {
      type: "constant"
      value: 0.2
    }
  }
}
layer {
  name: "inception_3b/relu_5x5_reduce"
  type: "ReLU"
  bottom: "inception_3b/5x5_reduce"
  top: "inception_3b/5x5_reduce"
}
layer {
  name: "inception_3b/5x5"
  type: "Convolution"
  bottom: "inception_3b/5x5_reduce"
  top: "inception_3b/5x5"
  param {
    lr_mult: 1
    decay_mult: 1
  }
  param {
    lr_mult: 2
    decay_mult: 0
  }
  convolution_param {
    num_output: 96
    pad: 2
    kernel_size: 5
    weight_filler {
      type: "xavier"
    }
    bias_filler {
      type: "constant"
      value: 0.2
    }
  }
}
layer {
  name: "inception_3b/relu_5x5"
  type: "ReLU"
  bottom: "inception_3b/5x5"
  top: "inception_3b/5x5"
}
layer {
  name: "inception_3b/pool"
  type: "Pooling"
  bottom: "inception_3a/output"
  top: "inception_3b/pool"
  pooling_param {
    pool: MAX
    kernel_size: 3
    stride: 1
    pad: 1
  }
}
layer {
  name: "inception_3b/pool_proj"
  type: "Convolution"
  bottom: "inception_3b/pool"
  top: "inception_3b/pool_proj"
  param {
    lr_mult: 1
    decay_mult: 1
  }
  param {
    lr_mult: 2
    decay_mult: 0
  }
  convolution_param {
    num_output: 64
    kernel_size: 1
    weight_filler {
      type: "xavier"
    }
    bias_filler {
      type: "constant"
      value: 0.2
    }
  }
}
layer {
  name: "inception_3b/relu_pool_proj"
  type: "ReLU"
  bottom: "inception_3b/pool_proj"
  top: "inception_3b/pool_proj"
}
layer {
  name: "inception_3b/output"
  type: "Concat"
  bottom: "inception_3b/1x1"
  bottom: "inception_3b/3x3"
  bottom: "inception_3b/5x5"
  bottom: "inception_3b/pool_proj"
  top: "inception_3b/output"
}
layer {
  name: "pool3/3x3_s2"
  type: "Pooling"
  bottom: "inception_3b/output"
  top: "pool3/3x3_s2"
  pooling_param {
    pool: MAX
    kernel_size: 3
    stride: 2
  }
}
layer {
  name: "inception_4a/1x1"
  type: "Convolution"
  bottom: "pool3/3x3_s2"
  top: "inception_4a/1x1"
  param {
    lr_mult: 1
    decay_mult: 1
  }
  param {
    lr_mult: 2
    decay_mult: 0
  }
  convolution_param {
    num_output: 192
    kernel_size: 1
    weight_filler {
      type: "xavier"
    }
    bias_filler {
      type: "constant"
      value: 0.2
    }
  }
}
layer {
  name: "inception_4a/relu_1x1"
  type: "ReLU"
  bottom: "inception_4a/1x1"
  top: "inception_4a/1x1"
}
layer {
  name: "inception_4a/3x3_reduce"
  type: "Convolution"
  bottom: "pool3/3x3_s2"
  top: "inception_4a/3x3_reduce"
  param {
    lr_mult: 1
    decay_mult: 1
  }
  param {
    lr_mult: 2
    decay_mult: 0
  }
  convolution_param {
    num_output: 96
    kernel_size: 1
    weight_filler {
      type: "xavier"
    }
    bias_filler {
      type: "constant"
      value: 0.2
    }
  }
}
layer {
  name: "inception_4a/relu_3x3_reduce"
  type: "ReLU"
  bottom: "inception_4a/3x3_reduce"
  top: "inception_4a/3x3_reduce"
}
layer {
  name: "inception_4a/3x3"
  type: "Convolution"
  bottom: "inception_4a/3x3_reduce"
  top: "inception_4a/3x3"
  param {
    lr_mult: 1
    decay_mult: 1
  }
  param {
    lr_mult: 2
    decay_mult: 0
  }
  convolution_param {
    num_output: 208
    pad: 1
    kernel_size: 3
    weight_filler {
      type: "xavier"
    }
    bias_filler {
      type: "constant"
      value: 0.2
    }
  }
}
layer {
  name: "inception_4a/relu_3x3"
  type: "ReLU"
  bottom: "inception_4a/3x3"
  top: "inception_4a/3x3"
}
layer {
  name: "inception_4a/5x5_reduce"
  type: "Convolution"
  bottom: "pool3/3x3_s2"
  top: "inception_4a/5x5_reduce"
  param {
    lr_mult: 1
    decay_mult: 1
  }
  param {
    lr_mult: 2
    decay_mult: 0
  }
  convolution_param {
    num_output: 16
    kernel_size: 1
    weight_filler {
      type: "xavier"
    }
    bias_filler {
      type: "constant"
      value: 0.2
    }
  }
}
layer {
  name: "inception_4a/relu_5x5_reduce"
  type: "ReLU"
  bottom: "inception_4a/5x5_reduce"
  top: "inception_4a/5x5_reduce"
}
layer {
  name: "inception_4a/5x5"
  type: "Convolution"
  bottom: "inception_4a/5x5_reduce"
  top: "inception_4a/5x5"
  param {
    lr_mult: 1
    decay_mult: 1
  }
  param {
    lr_mult: 2
    decay_mult: 0
  }
  convolution_param {
    num_output: 48
    pad: 2
    kernel_size: 5
    weight_filler {
      type: "xavier"
    }
    bias_filler {
      type: "constant"
      value: 0.2
    }
  }
}
layer {
  name: "inception_4a/relu_5x5"
  type: "ReLU"
  bottom: "inception_4a/5x5"
  top: "inception_4a/5x5"
}
layer {
  name: "inception_4a/pool"
  type: "Pooling"
  bottom: "pool3/3x3_s2"
  top: "inception_4a/pool"
  pooling_param {
    pool: MAX
    kernel_size: 3
    stride: 1
    pad: 1
  }
}
layer {
  name: "inception_4a/pool_proj"
  type: "Convolution"
  bottom: "inception_4a/pool"
  top: "inception_4a/pool_proj"
  param {
    lr_mult: 1
    decay_mult: 1
  }
  param {
    lr_mult: 2
    decay_mult: 0
  }
  convolution_param {
    num_output: 64
    kernel_size: 1
    weight_filler {
      type: "xavier"
    }
    bias_filler {
      type: "constant"
      value: 0.2
    }
  }
}
layer {
  name: "inception_4a/relu_pool_proj"
  type: "ReLU"
  bottom: "inception_4a/pool_proj"
  top: "inception_4a/pool_proj"
}
layer {
  name: "inception_4a/output"
  type: "Concat"
  bottom: "inception_4a/1x1"
  bottom: "inception_4a/3x3"
  bottom: "inception_4a/5x5"
  bottom: "inception_4a/pool_proj"
  top: "inception_4a/output"
}
layer {
  name: "loss1/ave_pool"
  type: "Pooling"
  bottom: "inception_4a/output"
  top: "loss1/ave_pool"
  pooling_param {
    pool: AVE
    kernel_size: 5
    stride: 3
  }
}
layer {
  name: "loss1/conv"
  type: "Convolution"
  bottom: "loss1/ave_pool"
  top: "loss1/conv"
  param {
    lr_mult: 1
    decay_mult: 1
  }
  param {
    lr_mult: 2
    decay_mult: 0
  }
  convolution_param {
    num_output: 128
    kernel_size: 1
    weight_filler {
      type: "xavier"
    }
    bias_filler {
      type: "constant"
      value: 0.2
    }
  }
}
layer {
  name: "loss1/relu_conv"
  type: "ReLU"
  bottom: "loss1/conv"
  top: "loss1/conv"
}
layer {
  name: "loss1/fc"
  type: "InnerProduct"
  bottom: "loss1/conv"
  top: "loss1/fc"
  param {
    lr_mult: 1
    decay_mult: 1
  }
  param {
    lr_mult: 2
    decay_mult: 0
  }
  inner_product_param {
    num_output: 1024
    weight_filler {
      type: "xavier"
    }
    bias_filler {
      type: "constant"
      value: 0.2
    }
  }
}
layer {
  name: "loss1/relu_fc"
  type: "ReLU"
  bottom: "loss1/fc"
  top: "loss1/fc"
}
layer {
  name: "loss1/drop_fc"
  type: "Dropout"
  bottom: "loss1/fc"
  top: "loss1/fc"
  dropout_param {
    dropout_ratio: 0.7
  }
}
layer {
  name: "102flowers1/classifier"
  type: "InnerProduct"
  bottom: "loss1/fc"
  top: "102flowers1/classifier"
  param {
    lr_mult: 1
    decay_mult: 1
  }
  param {
    lr_mult: 2
    decay_mult: 0
  }
  inner_product_param {
    num_output: 102
    weight_filler {
      type: "xavier"
    }
    bias_filler {
      type: "constant"
      value: 0
    }
  }
}
layer {
  name: "inception_4b/1x1"
  type: "Convolution"
  bottom: "inception_4a/output"
  top: "inception_4b/1x1"
  param {
    lr_mult: 1
    decay_mult: 1
  }
  param {
    lr_mult: 2
    decay_mult: 0
  }
  convolution_param {
    num_output: 160
    kernel_size: 1
    weight_filler {
      type: "xavier"
    }
    bias_filler {
      type: "constant"
      value: 0.2
    }
  }
}
layer {
  name: "inception_4b/relu_1x1"
  type: "ReLU"
  bottom: "inception_4b/1x1"
  top: "inception_4b/1x1"
}
layer {
  name: "inception_4b/3x3_reduce"
  type: "Convolution"
  bottom: "inception_4a/output"
  top: "inception_4b/3x3_reduce"
  param {
    lr_mult: 1
    decay_mult: 1
  }
  param {
    lr_mult: 2
    decay_mult: 0
  }
  convolution_param {
    num_output: 112
    kernel_size: 1
    weight_filler {
      type: "xavier"
    }
    bias_filler {
      type: "constant"
      value: 0.2
    }
  }
}
layer {
  name: "inception_4b/relu_3x3_reduce"
  type: "ReLU"
  bottom: "inception_4b/3x3_reduce"
  top: "inception_4b/3x3_reduce"
}
layer {
  name: "inception_4b/3x3"
  type: "Convolution"
  bottom: "inception_4b/3x3_reduce"
  top: "inception_4b/3x3"
  param {
    lr_mult: 1
    decay_mult: 1
  }
  param {
    lr_mult: 2
    decay_mult: 0
  }
  convolution_param {
    num_output: 224
    pad: 1
    kernel_size: 3
    weight_filler {
      type: "xavier"
    }
    bias_filler {
      type: "constant"
      value: 0.2
    }
  }
}
layer {
  name: "inception_4b/relu_3x3"
  type: "ReLU"
  bottom: "inception_4b/3x3"
  top: "inception_4b/3x3"
}
layer {
  name: "inception_4b/5x5_reduce"
  type: "Convolution"
  bottom: "inception_4a/output"
  top: "inception_4b/5x5_reduce"
  param {
    lr_mult: 1
    decay_mult: 1
  }
  param {
    lr_mult: 2
    decay_mult: 0
  }
  convolution_param {
    num_output: 24
    kernel_size: 1
    weight_filler {
      type: "xavier"
    }
    bias_filler {
      type: "constant"
      value: 0.2
    }
  }
}
layer {
  name: "inception_4b/relu_5x5_reduce"
  type: "ReLU"
  bottom: "inception_4b/5x5_reduce"
  top: "inception_4b/5x5_reduce"
}
layer {
  name: "inception_4b/5x5"
  type: "Convolution"
  bottom: "inception_4b/5x5_reduce"
  top: "inception_4b/5x5"
  param {
    lr_mult: 1
    decay_mult: 1
  }
  param {
    lr_mult: 2
    decay_mult: 0
  }
  convolution_param {
    num_output: 64
    pad: 2
    kernel_size: 5
    weight_filler {
      type: "xavier"
    }
    bias_filler {
      type: "constant"
      value: 0.2
    }
  }
}
layer {
  name: "inception_4b/relu_5x5"
  type: "ReLU"
  bottom: "inception_4b/5x5"
  top: "inception_4b/5x5"
}
layer {
  name: "inception_4b/pool"
  type: "Pooling"
  bottom: "inception_4a/output"
  top: "inception_4b/pool"
  pooling_param {
    pool: MAX
    kernel_size: 3
    stride: 1
    pad: 1
  }
}
layer {
  name: "inception_4b/pool_proj"
  type: "Convolution"
  bottom: "inception_4b/pool"
  top: "inception_4b/pool_proj"
  param {
    lr_mult: 1
    decay_mult: 1
  }
  param {
    lr_mult: 2
    decay_mult: 0
  }
  convolution_param {
    num_output: 64
    kernel_size: 1
    weight_filler {
      type: "xavier"
    }
    bias_filler {
      type: "constant"
      value: 0.2
    }
  }
}
layer {
  name: "inception_4b/relu_pool_proj"
  type: "ReLU"
  bottom: "inception_4b/pool_proj"
  top: "inception_4b/pool_proj"
}
layer {
  name: "inception_4b/output"
  type: "Concat"
  bottom: "inception_4b/1x1"
  bottom: "inception_4b/3x3"
  bottom: "inception_4b/5x5"
  bottom: "inception_4b/pool_proj"
  top: "inception_4b/output"
}
layer {
  name: "inception_4c/1x1"
  type: "Convolution"
  bottom: "inception_4b/output"
  top: "inception_4c/1x1"
  param {
    lr_mult: 1
    decay_mult: 1
  }
  param {
    lr_mult: 2
    decay_mult: 0
  }
  convolution_param {
    num_output: 128
    kernel_size: 1
    weight_filler {
      type: "xavier"
    }
    bias_filler {
      type: "constant"
      value: 0.2
    }
  }
}
layer {
  name: "inception_4c/relu_1x1"
  type: "ReLU"
  bottom: "inception_4c/1x1"
  top: "inception_4c/1x1"
}
layer {
  name: "inception_4c/3x3_reduce"
  type: "Convolution"
  bottom: "inception_4b/output"
  top: "inception_4c/3x3_reduce"
  param {
    lr_mult: 1
    decay_mult: 1
  }
  param {
    lr_mult: 2
    decay_mult: 0
  }
  convolution_param {
    num_output: 128
    kernel_size: 1
    weight_filler {
      type: "xavier"
    }
    bias_filler {
      type: "constant"
      value: 0.2
    }
  }
}
layer {
  name: "inception_4c/relu_3x3_reduce"
  type: "ReLU"
  bottom: "inception_4c/3x3_reduce"
  top: "inception_4c/3x3_reduce"
}
layer {
  name: "inception_4c/3x3"
  type: "Convolution"
  bottom: "inception_4c/3x3_reduce"
  top: "inception_4c/3x3"
  param {
    lr_mult: 1
    decay_mult: 1
  }
  param {
    lr_mult: 2
    decay_mult: 0
  }
  convolution_param {
    num_output: 256
    pad: 1
    kernel_size: 3
    weight_filler {
      type: "xavier"
    }
    bias_filler {
      type: "constant"
      value: 0.2
    }
  }
}
layer {
  name: "inception_4c/relu_3x3"
  type: "ReLU"
  bottom: "inception_4c/3x3"
  top: "inception_4c/3x3"
}
layer {
  name: "inception_4c/5x5_reduce"
  type: "Convolution"
  bottom: "inception_4b/output"
  top: "inception_4c/5x5_reduce"
  param {
    lr_mult: 1
    decay_mult: 1
  }
  param {
    lr_mult: 2
    decay_mult: 0
  }
  convolution_param {
    num_output: 24
    kernel_size: 1
    weight_filler {
      type: "xavier"
    }
    bias_filler {
      type: "constant"
      value: 0.2
    }
  }
}
layer {
  name: "inception_4c/relu_5x5_reduce"
  type: "ReLU"
  bottom: "inception_4c/5x5_reduce"
  top: "inception_4c/5x5_reduce"
}
layer {
  name: "inception_4c/5x5"
  type: "Convolution"
  bottom: "inception_4c/5x5_reduce"
  top: "inception_4c/5x5"
  param {
    lr_mult: 1
    decay_mult: 1
  }
  param {
    lr_mult: 2
    decay_mult: 0
  }
  convolution_param {
    num_output: 64
    pad: 2
    kernel_size: 5
    weight_filler {
      type: "xavier"
    }
    bias_filler {
      type: "constant"
      value: 0.2
    }
  }
}
layer {
  name: "inception_4c/relu_5x5"
  type: "ReLU"
  bottom: "inception_4c/5x5"
  top: "inception_4c/5x5"
}
layer {
  name: "inception_4c/pool"
  type: "Pooling"
  bottom: "inception_4b/output"
  top: "inception_4c/pool"
  pooling_param {
    pool: MAX
    kernel_size: 3
    stride: 1
    pad: 1
  }
}
layer {
  name: "inception_4c/pool_proj"
  type: "Convolution"
  bottom: "inception_4c/pool"
  top: "inception_4c/pool_proj"
  param {
    lr_mult: 1
    decay_mult: 1
  }
  param {
    lr_mult: 2
    decay_mult: 0
  }
  convolution_param {
    num_output: 64
    kernel_size: 1
    weight_filler {
      type: "xavier"
    }
    bias_filler {
      type: "constant"
      value: 0.2
    }
  }
}
layer {
  name: "inception_4c/relu_pool_proj"
  type: "ReLU"
  bottom: "inception_4c/pool_proj"
  top: "inception_4c/pool_proj"
}
layer {
  name: "inception_4c/output"
  type: "Concat"
  bottom: "inception_4c/1x1"
  bottom: "inception_4c/3x3"
  bottom: "inception_4c/5x5"
  bottom: "inception_4c/pool_proj"
  top: "inception_4c/output"
}
layer {
  name: "inception_4d/1x1"
  type: "Convolution"
  bottom: "inception_4c/output"
  top: "inception_4d/1x1"
  param {
    lr_mult: 1
    decay_mult: 1
  }
  param {
    lr_mult: 2
    decay_mult: 0
  }
  convolution_param {
    num_output: 112
    kernel_size: 1
    weight_filler {
      type: "xavier"
    }
    bias_filler {
      type: "constant"
      value: 0.2
    }
  }
}
layer {
  name: "inception_4d/relu_1x1"
  type: "ReLU"
  bottom: "inception_4d/1x1"
  top: "inception_4d/1x1"
}
layer {
  name: "inception_4d/3x3_reduce"
  type: "Convolution"
  bottom: "inception_4c/output"
  top: "inception_4d/3x3_reduce"
  param {
    lr_mult: 1
    decay_mult: 1
  }
  param {
    lr_mult: 2
    decay_mult: 0
  }
  convolution_param {
    num_output: 144
    kernel_size: 1
    weight_filler {
      type: "xavier"
    }
    bias_filler {
      type: "constant"
      value: 0.2
    }
  }
}
layer {
  name: "inception_4d/relu_3x3_reduce"
  type: "ReLU"
  bottom: "inception_4d/3x3_reduce"
  top: "inception_4d/3x3_reduce"
}
layer {
  name: "inception_4d/3x3"
  type: "Convolution"
  bottom: "inception_4d/3x3_reduce"
  top: "inception_4d/3x3"
  param {
    lr_mult: 1
    decay_mult: 1
  }
  param {
    lr_mult: 2
    decay_mult: 0
  }
  convolution_param {
    num_output: 288
    pad: 1
    kernel_size: 3
    weight_filler {
      type: "xavier"
    }
    bias_filler {
      type: "constant"
      value: 0.2
    }
  }
}
layer {
  name: "inception_4d/relu_3x3"
  type: "ReLU"
  bottom: "inception_4d/3x3"
  top: "inception_4d/3x3"
}
layer {
  name: "inception_4d/5x5_reduce"
  type: "Convolution"
  bottom: "inception_4c/output"
  top: "inception_4d/5x5_reduce"
  param {
    lr_mult: 1
    decay_mult: 1
  }
  param {
    lr_mult: 2
    decay_mult: 0
  }
  convolution_param {
    num_output: 32
    kernel_size: 1
    weight_filler {
      type: "xavier"
    }
    bias_filler {
      type: "constant"
      value: 0.2
    }
  }
}
layer {
  name: "inception_4d/relu_5x5_reduce"
  type: "ReLU"
  bottom: "inception_4d/5x5_reduce"
  top: "inception_4d/5x5_reduce"
}
layer {
  name: "inception_4d/5x5"
  type: "Convolution"
  bottom: "inception_4d/5x5_reduce"
  top: "inception_4d/5x5"
  param {
    lr_mult: 1
    decay_mult: 1
  }
  param {
    lr_mult: 2
    decay_mult: 0
  }
  convolution_param {
    num_output: 64
    pad: 2
    kernel_size: 5
    weight_filler {
      type: "xavier"
    }
    bias_filler {
      type: "constant"
      value: 0.2
    }
  }
}
layer {
  name: "inception_4d/relu_5x5"
  type: "ReLU"
  bottom: "inception_4d/5x5"
  top: "inception_4d/5x5"
}
layer {
  name: "inception_4d/pool"
  type: "Pooling"
  bottom: "inception_4c/output"
  top: "inception_4d/pool"
  pooling_param {
    pool: MAX
    kernel_size: 3
    stride: 1
    pad: 1
  }
}
layer {
  name: "inception_4d/pool_proj"
  type: "Convolution"
  bottom: "inception_4d/pool"
  top: "inception_4d/pool_proj"
  param {
    lr_mult: 1
    decay_mult: 1
  }
  param {
    lr_mult: 2
    decay_mult: 0
  }
  convolution_param {
    num_output: 64
    kernel_size: 1
    weight_filler {
      type: "xavier"
    }
    bias_filler {
      type: "constant"
      value: 0.2
    }
  }
}
layer {
  name: "inception_4d/relu_pool_proj"
  type: "ReLU"
  bottom: "inception_4d/pool_proj"
  top: "inception_4d/pool_proj"
}
layer {
  name: "inception_4d/output"
  type: "Concat"
  bottom: "inception_4d/1x1"
  bottom: "inception_4d/3x3"
  bottom: "inception_4d/5x5"
  bottom: "inception_4d/pool_proj"
  top: "inception_4d/output"
}
layer {
  name: "loss2/ave_pool"
  type: "Pooling"
  bottom: "inception_4d/output"
  top: "loss2/ave_pool"
  pooling_param {
    pool: AVE
    kernel_size: 5
    stride: 3
  }
}
layer {
  name: "loss2/conv"
  type: "Convolution"
  bottom: "loss2/ave_pool"
  top: "loss2/conv"
  param {
    lr_mult: 1
    decay_mult: 1
  }
  param {
    lr_mult: 2
    decay_mult: 0
  }
  convolution_param {
    num_output: 128
    kernel_size: 1
    weight_filler {
      type: "xavier"
    }
    bias_filler {
      type: "constant"
      value: 0.2
    }
  }
}
layer {
  name: "loss2/relu_conv"
  type: "ReLU"
  bottom: "loss2/conv"
  top: "loss2/conv"
}
layer {
  name: "loss2/fc"
  type: "InnerProduct"
  bottom: "loss2/conv"
  top: "loss2/fc"
  param {
    lr_mult: 1
    decay_mult: 1
  }
  param {
    lr_mult: 2
    decay_mult: 0
  }
  inner_product_param {
    num_output: 1024
    weight_filler {
      type: "xavier"
    }
    bias_filler {
      type: "constant"
      value: 0.2
    }
  }
}
layer {
  name: "loss2/relu_fc"
  type: "ReLU"
  bottom: "loss2/fc"
  top: "loss2/fc"
}
layer {
  name: "loss2/drop_fc"
  type: "Dropout"
  bottom: "loss2/fc"
  top: "loss2/fc"
  dropout_param {
    dropout_ratio: 0.7
  }
}
layer {
  name: "102flowers2/classifier"
  type: "InnerProduct"
  bottom: "loss2/fc"
  top: "102flowers2/classifier"
  param {
    lr_mult: 1
    decay_mult: 1
  }
  param {
    lr_mult: 2
    decay_mult: 0
  }
  inner_product_param {
    num_output: 102
    weight_filler {
      type: "xavier"
    }
    bias_filler {
      type: "constant"
      value: 0
    }
  }
}
layer {
  name: "inception_4e/1x1"
  type: "Convolution"
  bottom: "inception_4d/output"
  top: "inception_4e/1x1"
  param {
    lr_mult: 1
    decay_mult: 1
  }
  param {
    lr_mult: 2
    decay_mult: 0
  }
  convolution_param {
    num_output: 256
    kernel_size: 1
    weight_filler {
      type: "xavier"
    }
    bias_filler {
      type: "constant"
      value: 0.2
    }
  }
}
layer {
  name: "inception_4e/relu_1x1"
  type: "ReLU"
  bottom: "inception_4e/1x1"
  top: "inception_4e/1x1"
}
layer {
  name: "inception_4e/3x3_reduce"
  type: "Convolution"
  bottom: "inception_4d/output"
  top: "inception_4e/3x3_reduce"
  param {
    lr_mult: 1
    decay_mult: 1
  }
  param {
    lr_mult: 2
    decay_mult: 0
  }
  convolution_param {
    num_output: 160
    kernel_size: 1
    weight_filler {
      type: "xavier"
    }
    bias_filler {
      type: "constant"
      value: 0.2
    }
  }
}
layer {
  name: "inception_4e/relu_3x3_reduce"
  type: "ReLU"
  bottom: "inception_4e/3x3_reduce"
  top: "inception_4e/3x3_reduce"
}
layer {
  name: "inception_4e/3x3"
  type: "Convolution"
  bottom: "inception_4e/3x3_reduce"
  top: "inception_4e/3x3"
  param {
    lr_mult: 1
    decay_mult: 1
  }
  param {
    lr_mult: 2
    decay_mult: 0
  }
  convolution_param {
    num_output: 320
    pad: 1
    kernel_size: 3
    weight_filler {
      type: "xavier"
    }
    bias_filler {
      type: "constant"
      value: 0.2
    }
  }
}
layer {
  name: "inception_4e/relu_3x3"
  type: "ReLU"
  bottom: "inception_4e/3x3"
  top: "inception_4e/3x3"
}
layer {
  name: "inception_4e/5x5_reduce"
  type: "Convolution"
  bottom: "inception_4d/output"
  top: "inception_4e/5x5_reduce"
  param {
    lr_mult: 1
    decay_mult: 1
  }
  param {
    lr_mult: 2
    decay_mult: 0
  }
  convolution_param {
    num_output: 32
    kernel_size: 1
    weight_filler {
      type: "xavier"
    }
    bias_filler {
      type: "constant"
      value: 0.2
    }
  }
}
layer {
  name: "inception_4e/relu_5x5_reduce"
  type: "ReLU"
  bottom: "inception_4e/5x5_reduce"
  top: "inception_4e/5x5_reduce"
}
layer {
  name: "inception_4e/5x5"
  type: "Convolution"
  bottom: "inception_4e/5x5_reduce"
  top: "inception_4e/5x5"
  param {
    lr_mult: 1
    decay_mult: 1
  }
  param {
    lr_mult: 2
    decay_mult: 0
  }
  convolution_param {
    num_output: 128
    pad: 2
    kernel_size: 5
    weight_filler {
      type: "xavier"
    }
    bias_filler {
      type: "constant"
      value: 0.2
    }
  }
}
layer {
  name: "inception_4e/relu_5x5"
  type: "ReLU"
  bottom: "inception_4e/5x5"
  top: "inception_4e/5x5"
}
layer {
  name: "inception_4e/pool"
  type: "Pooling"
  bottom: "inception_4d/output"
  top: "inception_4e/pool"
  pooling_param {
    pool: MAX
    kernel_size: 3
    stride: 1
    pad: 1
  }
}
layer {
  name: "inception_4e/pool_proj"
  type: "Convolution"
  bottom: "inception_4e/pool"
  top: "inception_4e/pool_proj"
  param {
    lr_mult: 1
    decay_mult: 1
  }
  param {
    lr_mult: 2
    decay_mult: 0
  }
  convolution_param {
    num_output: 128
    kernel_size: 1
    weight_filler {
      type: "xavier"
    }
    bias_filler {
      type: "constant"
      value: 0.2
    }
  }
}
layer {
  name: "inception_4e/relu_pool_proj"
  type: "ReLU"
  bottom: "inception_4e/pool_proj"
  top: "inceptio
I0628 23:54:24.306982 84111 net.cpp:413] Input 0 -> data
I0628 23:54:24.314491 84111 layer_factory.hpp:77] Creating layer conv1/7x7_s2
I0628 23:54:24.314514 84111 net.cpp:106] Creating Layer conv1/7x7_s2
I0628 23:54:24.314518 84111 net.cpp:454] conv1/7x7_s2 <- data
I0628 23:54:24.314525 84111 net.cpp:411] conv1/7x7_s2 -> conv1/7x7_s2
I0628 23:54:24.426009 84111 net.cpp:150] Setting up conv1/7x7_s2
I0628 23:54:24.426041 84111 net.cpp:157] Top shape: 10 64 112 112 (8028160)
I0628 23:54:24.426045 84111 net.cpp:165] Memory required for data: 32112640
I0628 23:54:24.426060 84111 layer_factory.hpp:77] Creating layer conv1/relu_7x7
I0628 23:54:24.426072 84111 net.cpp:106] Creating Layer conv1/relu_7x7
I0628 23:54:24.426076 84111 net.cpp:454] conv1/relu_7x7 <- conv1/7x7_s2
I0628 23:54:24.426082 84111 net.cpp:397] conv1/relu_7x7 -> conv1/7x7_s2 (in-place)
I0628 23:54:24.426209 84111 net.cpp:150] Setting up conv1/relu_7x7
I0628 23:54:24.426218 84111 net.cpp:157] Top shape: 10 64 112 112 (8028160)
I0628 23:54:24.426220 84111 net.cpp:165] Memory required for data: 64225280
I0628 23:54:24.426223 84111 layer_factory.hpp:77] Creating layer pool1/3x3_s2
I0628 23:54:24.426231 84111 net.cpp:106] Creating Layer pool1/3x3_s2
I0628 23:54:24.426234 84111 net.cpp:454] pool1/3x3_s2 <- conv1/7x7_s2
I0628 23:54:24.426239 84111 net.cpp:411] pool1/3x3_s2 -> pool1/3x3_s2
I0628 23:54:24.426292 84111 net.cpp:150] Setting up pool1/3x3_s2
I0628 23:54:24.426300 84111 net.cpp:157] Top shape: 10 64 56 56 (2007040)
I0628 23:54:24.426303 84111 net.cpp:165] Memory required for data: 72253440
I0628 23:54:24.426306 84111 layer_factory.hpp:77] Creating layer pool1/norm1
I0628 23:54:24.426318 84111 net.cpp:106] Creating Layer pool1/norm1
I0628 23:54:24.426321 84111 net.cpp:454] pool1/norm1 <- pool1/3x3_s2
I0628 23:54:24.426338 84111 net.cpp:411] pool1/norm1 -> pool1/norm1
I0628 23:54:24.426630 84111 net.cpp:150] Setting up pool1/norm1
I0628 23:54:24.426640 84111 net.cpp:157] Top shape: 10 64 56 56 (2007040)
I0628 23:54:24.426643 84111 net.cpp:165] Memory required for data: 80281600
I0628 23:54:24.426646 84111 layer_factory.hpp:77] Creating layer conv2/3x3_reduce
I0628 23:54:24.426659 84111 net.cpp:106] Creating Layer conv2/3x3_reduce
I0628 23:54:24.426662 84111 net.cpp:454] conv2/3x3_reduce <- pool1/norm1
I0628 23:54:24.426667 84111 net.cpp:411] conv2/3x3_reduce -> conv2/3x3_reduce
I0628 23:54:24.428015 84111 net.cpp:150] Setting up conv2/3x3_reduce
I0628 23:54:24.428027 84111 net.cpp:157] Top shape: 10 64 56 56 (2007040)
I0628 23:54:24.428030 84111 net.cpp:165] Memory required for data: 88309760
I0628 23:54:24.428038 84111 layer_factory.hpp:77] Creating layer conv2/relu_3x3_reduce
I0628 23:54:24.428045 84111 net.cpp:106] Creating Layer conv2/relu_3x3_reduce
I0628 23:54:24.428048 84111 net.cpp:454] conv2/relu_3x3_reduce <- conv2/3x3_reduce
I0628 23:54:24.428052 84111 net.cpp:397] conv2/relu_3x3_reduce -> conv2/3x3_reduce (in-place)
I0628 23:54:24.428174 84111 net.cpp:150] Setting up conv2/relu_3x3_reduce
I0628 23:54:24.428182 84111 net.cpp:157] Top shape: 10 64 56 56 (2007040)
I0628 23:54:24.428184 84111 net.cpp:165] Memory required for data: 96337920
I0628 23:54:24.428189 84111 layer_factory.hpp:77] Creating layer conv2/3x3
I0628 23:54:24.428196 84111 net.cpp:106] Creating Layer conv2/3x3
I0628 23:54:24.428200 84111 net.cpp:454] conv2/3x3 <- conv2/3x3_reduce
I0628 23:54:24.428205 84111 net.cpp:411] conv2/3x3 -> conv2/3x3
I0628 23:54:24.430302 84111 net.cpp:150] Setting up conv2/3x3
I0628 23:54:24.430315 84111 net.cpp:157] Top shape: 10 192 56 56 (6021120)
I0628 23:54:24.430318 84111 net.cpp:165] Memory required for data: 120422400
I0628 23:54:24.430326 84111 layer_factory.hpp:77] Creating layer conv2/relu_3x3
I0628 23:54:24.430332 84111 net.cpp:106] Creating Layer conv2/relu_3x3
I0628 23:54:24.430335 84111 net.cpp:454] conv2/relu_3x3 <- conv2/3x3
I0628 23:54:24.430341 84111 net.cpp:397] conv2/relu_3x3 -> conv2/3x3 (in-place)
I0628 23:54:24.430611 84111 net.cpp:150] Setting up conv2/relu_3x3
I0628 23:54:24.430622 84111 net.cpp:157] Top shape: 10 192 56 56 (6021120)
I0628 23:54:24.430624 84111 net.cpp:165] Memory required for data: 144506880
I0628 23:54:24.430629 84111 layer_factory.hpp:77] Creating layer conv2/norm2
I0628 23:54:24.430636 84111 net.cpp:106] Creating Layer conv2/norm2
I0628 23:54:24.430639 84111 net.cpp:454] conv2/norm2 <- conv2/3x3
I0628 23:54:24.430644 84111 net.cpp:411] conv2/norm2 -> conv2/norm2
I0628 23:54:24.430789 84111 net.cpp:150] Setting up conv2/norm2
I0628 23:54:24.430797 84111 net.cpp:157] Top shape: 10 192 56 56 (6021120)
I0628 23:54:24.430800 84111 net.cpp:165] Memory required for data: 168591360
I0628 23:54:24.430804 84111 layer_factory.hpp:77] Creating layer pool2/3x3_s2
I0628 23:54:24.430809 84111 net.cpp:106] Creating Layer pool2/3x3_s2
I0628 23:54:24.430812 84111 net.cpp:454] pool2/3x3_s2 <- conv2/norm2
I0628 23:54:24.430816 84111 net.cpp:411] pool2/3x3_s2 -> pool2/3x3_s2
I0628 23:54:24.430843 84111 net.cpp:150] Setting up pool2/3x3_s2
I0628 23:54:24.430848 84111 net.cpp:157] Top shape: 10 192 28 28 (1505280)
I0628 23:54:24.430851 84111 net.cpp:165] Memory required for data: 174612480
I0628 23:54:24.430855 84111 layer_factory.hpp:77] Creating layer pool2/3x3_s2_pool2/3x3_s2_0_split
I0628 23:54:24.430865 84111 net.cpp:106] Creating Layer pool2/3x3_s2_pool2/3x3_s2_0_split
I0628 23:54:24.430867 84111 net.cpp:454] pool2/3x3_s2_pool2/3x3_s2_0_split <- pool2/3x3_s2
I0628 23:54:24.430871 84111 net.cpp:411] pool2/3x3_s2_pool2/3x3_s2_0_split -> pool2/3x3_s2_pool2/3x3_s2_0_split_0
I0628 23:54:24.430877 84111 net.cpp:411] pool2/3x3_s2_pool2/3x3_s2_0_split -> pool2/3x3_s2_pool2/3x3_s2_0_split_1
I0628 23:54:24.430882 84111 net.cpp:411] pool2/3x3_s2_pool2/3x3_s2_0_split -> pool2/3x3_s2_pool2/3x3_s2_0_split_2
I0628 23:54:24.430888 84111 net.cpp:411] pool2/3x3_s2_pool2/3x3_s2_0_split -> pool2/3x3_s2_pool2/3x3_s2_0_split_3
I0628 23:54:24.430927 84111 net.cpp:150] Setting up pool2/3x3_s2_pool2/3x3_s2_0_split
I0628 23:54:24.430933 84111 net.cpp:157] Top shape: 10 192 28 28 (1505280)
I0628 23:54:24.430937 84111 net.cpp:157] Top shape: 10 192 28 28 (1505280)
I0628 23:54:24.430939 84111 net.cpp:157] Top shape: 10 192 28 28 (1505280)
I0628 23:54:24.430943 84111 net.cpp:157] Top shape: 10 192 28 28 (1505280)
I0628 23:54:24.430945 84111 net.cpp:165] Memory required for data: 198696960
I0628 23:54:24.430948 84111 layer_factory.hpp:77] Creating layer inception_3a/1x1
I0628 23:54:24.430956 84111 net.cpp:106] Creating Layer inception_3a/1x1
I0628 23:54:24.430959 84111 net.cpp:454] inception_3a/1x1 <- pool2/3x3_s2_pool2/3x3_s2_0_split_0
I0628 23:54:24.430965 84111 net.cpp:411] inception_3a/1x1 -> inception_3a/1x1
I0628 23:54:24.432343 84111 net.cpp:150] Setting up inception_3a/1x1
I0628 23:54:24.432354 84111 net.cpp:157] Top shape: 10 64 28 28 (501760)
I0628 23:54:24.432358 84111 net.cpp:165] Memory required for data: 200704000
I0628 23:54:24.432364 84111 layer_factory.hpp:77] Creating layer inception_3a/relu_1x1
I0628 23:54:24.432370 84111 net.cpp:106] Creating Layer inception_3a/relu_1x1
I0628 23:54:24.432374 84111 net.cpp:454] inception_3a/relu_1x1 <- inception_3a/1x1
I0628 23:54:24.432379 84111 net.cpp:397] inception_3a/relu_1x1 -> inception_3a/1x1 (in-place)
I0628 23:54:24.432513 84111 net.cpp:150] Setting up inception_3a/relu_1x1
I0628 23:54:24.432523 84111 net.cpp:157] Top shape: 10 64 28 28 (501760)
I0628 23:54:24.432524 84111 net.cpp:165] Memory required for data: 202711040
I0628 23:54:24.432528 84111 layer_factory.hpp:77] Creating layer inception_3a/3x3_reduce
I0628 23:54:24.432536 84111 net.cpp:106] Creating Layer inception_3a/3x3_reduce
I0628 23:54:24.432539 84111 net.cpp:454] inception_3a/3x3_reduce <- pool2/3x3_s2_pool2/3x3_s2_0_split_1
I0628 23:54:24.432545 84111 net.cpp:411] inception_3a/3x3_reduce -> inception_3a/3x3_reduce
I0628 23:54:24.434171 84111 net.cpp:150] Setting up inception_3a/3x3_reduce
I0628 23:54:24.434183 84111 net.cpp:157] Top shape: 10 96 28 28 (752640)
I0628 23:54:24.434186 84111 net.cpp:165] Memory required for data: 205721600
I0628 23:54:24.434197 84111 layer_factory.hpp:77] Creating layer inception_3a/relu_3x3_reduce
I0628 23:54:24.434203 84111 net.cpp:106] Creating Layer inception_3a/relu_3x3_reduce
I0628 23:54:24.434206 84111 net.cpp:454] inception_3a/relu_3x3_reduce <- inception_3a/3x3_reduce
I0628 23:54:24.434212 84111 net.cpp:397] inception_3a/relu_3x3_reduce -> inception_3a/3x3_reduce (in-place)
I0628 23:54:24.434499 84111 net.cpp:150] Setting up inception_3a/relu_3x3_reduce
I0628 23:54:24.434509 84111 net.cpp:157] Top shape: 10 96 28 28 (752640)
I0628 23:54:24.434512 84111 net.cpp:165] Memory required for data: 208732160
I0628 23:54:24.434516 84111 layer_factory.hpp:77] Creating layer inception_3a/3x3
I0628 23:54:24.434526 84111 net.cpp:106] Creating Layer inception_3a/3x3
I0628 23:54:24.434530 84111 net.cpp:454] inception_3a/3x3 <- inception_3a/3x3_reduce
I0628 23:54:24.434537 84111 net.cpp:411] inception_3a/3x3 -> inception_3a/3x3
I0628 23:54:24.436090 84111 net.cpp:150] Setting up inception_3a/3x3
I0628 23:54:24.436102 84111 net.cpp:157] Top shape: 10 128 28 28 (1003520)
I0628 23:54:24.436105 84111 net.cpp:165] Memory required for data: 212746240
I0628 23:54:24.436111 84111 layer_factory.hpp:77] Creating layer inception_3a/relu_3x3
I0628 23:54:24.436118 84111 net.cpp:106] Creating Layer inception_3a/relu_3x3
I0628 23:54:24.436121 84111 net.cpp:454] inception_3a/relu_3x3 <- inception_3a/3x3
I0628 23:54:24.436126 84111 net.cpp:397] inception_3a/relu_3x3 -> inception_3a/3x3 (in-place)
I0628 23:54:24.436270 84111 net.cpp:150] Setting up inception_3a/relu_3x3
I0628 23:54:24.436278 84111 net.cpp:157] Top shape: 10 128 28 28 (1003520)
I0628 23:54:24.436281 84111 net.cpp:165] Memory required for data: 216760320
I0628 23:54:24.436285 84111 layer_factory.hpp:77] Creating layer inception_3a/5x5_reduce
I0628 23:54:24.436293 84111 net.cpp:106] Creating Layer inception_3a/5x5_reduce
I0628 23:54:24.436297 84111 net.cpp:454] inception_3a/5x5_reduce <- pool2/3x3_s2_pool2/3x3_s2_0_split_2
I0628 23:54:24.436305 84111 net.cpp:411] inception_3a/5x5_reduce -> inception_3a/5x5_reduce
I0628 23:54:24.437258 84111 net.cpp:150] Setting up inception_3a/5x5_reduce
I0628 23:54:24.437268 84111 net.cpp:157] Top shape: 10 16 28 28 (125440)
I0628 23:54:24.437271 84111 net.cpp:165] Memory required for data: 217262080
I0628 23:54:24.437278 84111 layer_factory.hpp:77] Creating layer inception_3a/relu_5x5_reduce
I0628 23:54:24.437283 84111 net.cpp:106] Creating Layer inception_3a/relu_5x5_reduce
I0628 23:54:24.437288 84111 net.cpp:454] inception_3a/relu_5x5_reduce <- inception_3a/5x5_reduce
I0628 23:54:24.437294 84111 net.cpp:397] inception_3a/relu_5x5_reduce -> inception_3a/5x5_reduce (in-place)
I0628 23:54:24.437433 84111 net.cpp:150] Setting up inception_3a/relu_5x5_reduce
I0628 23:54:24.437441 84111 net.cpp:157] Top shape: 10 16 28 28 (125440)
I0628 23:54:24.437443 84111 net.cpp:165] Memory required for data: 217763840
I0628 23:54:24.437448 84111 layer_factory.hpp:77] Creating layer inception_3a/5x5
I0628 23:54:24.437456 84111 net.cpp:106] Creating Layer inception_3a/5x5
I0628 23:54:24.437460 84111 net.cpp:454] inception_3a/5x5 <- inception_3a/5x5_reduce
I0628 23:54:24.437465 84111 net.cpp:411] inception_3a/5x5 -> inception_3a/5x5
I0628 23:54:24.438745 84111 net.cpp:150] Setting up inception_3a/5x5
I0628 23:54:24.438756 84111 net.cpp:157] Top shape: 10 32 28 28 (250880)
I0628 23:54:24.438760 84111 net.cpp:165] Memory required for data: 218767360
I0628 23:54:24.438766 84111 layer_factory.hpp:77] Creating layer inception_3a/relu_5x5
I0628 23:54:24.438772 84111 net.cpp:106] Creating Layer inception_3a/relu_5x5
I0628 23:54:24.438776 84111 net.cpp:454] inception_3a/relu_5x5 <- inception_3a/5x5
I0628 23:54:24.438782 84111 net.cpp:397] inception_3a/relu_5x5 -> inception_3a/5x5 (in-place)
I0628 23:54:24.439077 84111 net.cpp:150] Setting up inception_3a/relu_5x5
I0628 23:54:24.439087 84111 net.cpp:157] Top shape: 10 32 28 28 (250880)
I0628 23:54:24.439090 84111 net.cpp:165] Memory required for data: 219770880
I0628 23:54:24.439093 84111 layer_factory.hpp:77] Creating layer inception_3a/pool
I0628 23:54:24.439100 84111 net.cpp:106] Creating Layer inception_3a/pool
I0628 23:54:24.439103 84111 net.cpp:454] inception_3a/pool <- pool2/3x3_s2_pool2/3x3_s2_0_split_3
I0628 23:54:24.439110 84111 net.cpp:411] inception_3a/pool -> inception_3a/pool
I0628 23:54:24.439147 84111 net.cpp:150] Setting up inception_3a/pool
I0628 23:54:24.439153 84111 net.cpp:157] Top shape: 10 192 28 28 (1505280)
I0628 23:54:24.439157 84111 net.cpp:165] Memory required for data: 225792000
I0628 23:54:24.439159 84111 layer_factory.hpp:77] Creating layer inception_3a/pool_proj
I0628 23:54:24.439169 84111 net.cpp:106] Creating Layer inception_3a/pool_proj
I0628 23:54:24.439174 84111 net.cpp:454] inception_3a/pool_proj <- inception_3a/pool
I0628 23:54:24.439179 84111 net.cpp:411] inception_3a/pool_proj -> inception_3a/pool_proj
I0628 23:54:24.440129 84111 net.cpp:150] Setting up inception_3a/pool_proj
I0628 23:54:24.440140 84111 net.cpp:157] Top shape: 10 32 28 28 (250880)
I0628 23:54:24.440143 84111 net.cpp:165] Memory required for data: 226795520
I0628 23:54:24.440153 84111 layer_factory.hpp:77] Creating layer inception_3a/relu_pool_proj
I0628 23:54:24.440160 84111 net.cpp:106] Creating Layer inception_3a/relu_pool_proj
I0628 23:54:24.440165 84111 net.cpp:454] inception_3a/relu_pool_proj <- inception_3a/pool_proj
I0628 23:54:24.440168 84111 net.cpp:397] inception_3a/relu_pool_proj -> inception_3a/pool_proj (in-place)
I0628 23:54:24.440312 84111 net.cpp:150] Setting up inception_3a/relu_pool_proj
I0628 23:54:24.440320 84111 net.cpp:157] Top shape: 10 32 28 28 (250880)
I0628 23:54:24.440323 84111 net.cpp:165] Memory required for data: 227799040
I0628 23:54:24.440326 84111 layer_factory.hpp:77] Creating layer inception_3a/output
I0628 23:54:24.440333 84111 net.cpp:106] Creating Layer inception_3a/output
I0628 23:54:24.440336 84111 net.cpp:454] inception_3a/output <- inception_3a/1x1
I0628 23:54:24.440342 84111 net.cpp:454] inception_3a/output <- inception_3a/3x3
I0628 23:54:24.440346 84111 net.cpp:454] inception_3a/output <- inception_3a/5x5
I0628 23:54:24.440351 84111 net.cpp:454] inception_3a/output <- inception_3a/pool_proj
I0628 23:54:24.440356 84111 net.cpp:411] inception_3a/output -> inception_3a/output
I0628 23:54:24.440384 84111 net.cpp:150] Setting up inception_3a/output
I0628 23:54:24.440390 84111 net.cpp:157] Top shape: 10 256 28 28 (2007040)
I0628 23:54:24.440393 84111 net.cpp:165] Memory required for data: 235827200
I0628 23:54:24.440397 84111 layer_factory.hpp:77] Creating layer inception_3a/output_inception_3a/output_0_split
I0628 23:54:24.440402 84111 net.cpp:106] Creating Layer inception_3a/output_inception_3a/output_0_split
I0628 23:54:24.440404 84111 net.cpp:454] inception_3a/output_inception_3a/output_0_split <- inception_3a/output
I0628 23:54:24.440410 84111 net.cpp:411] inception_3a/output_inception_3a/output_0_split -> inception_3a/output_inception_3a/output_0_split_0
I0628 23:54:24.440415 84111 net.cpp:411] inception_3a/output_inception_3a/output_0_split -> inception_3a/output_inception_3a/output_0_split_1
I0628 23:54:24.440421 84111 net.cpp:411] inception_3a/output_inception_3a/output_0_split -> inception_3a/output_inception_3a/output_0_split_2
I0628 23:54:24.440426 84111 net.cpp:411] inception_3a/output_inception_3a/output_0_split -> inception_3a/output_inception_3a/output_0_split_3
I0628 23:54:24.440476 84111 net.cpp:150] Setting up inception_3a/output_inception_3a/output_0_split
I0628 23:54:24.440482 84111 net.cpp:157] Top shape: 10 256 28 28 (2007040)
I0628 23:54:24.440485 84111 net.cpp:157] Top shape: 10 256 28 28 (2007040)
I0628 23:54:24.440488 84111 net.cpp:157] Top shape: 10 256 28 28 (2007040)
I0628 23:54:24.440491 84111 net.cpp:157] Top shape: 10 256 28 28 (2007040)
I0628 23:54:24.440495 84111 net.cpp:165] Memory required for data: 267939840
I0628 23:54:24.440497 84111 layer_factory.hpp:77] Creating layer inception_3b/1x1
I0628 23:54:24.440508 84111 net.cpp:106] Creating Layer inception_3b/1x1
I0628 23:54:24.440512 84111 net.cpp:454] inception_3b/1x1 <- inception_3a/output_inception_3a/output_0_split_0
I0628 23:54:24.440517 84111 net.cpp:411] inception_3b/1x1 -> inception_3b/1x1
I0628 23:54:24.441635 84111 net.cpp:150] Setting up inception_3b/1x1
I0628 23:54:24.441647 84111 net.cpp:157] Top shape: 10 128 28 28 (1003520)
I0628 23:54:24.441649 84111 net.cpp:165] Memory required for data: 271953920
I0628 23:54:24.441655 84111 layer_factory.hpp:77] Creating layer inception_3b/relu_1x1
I0628 23:54:24.441663 84111 net.cpp:106] Creating Layer inception_3b/relu_1x1
I0628 23:54:24.441666 84111 net.cpp:454] inception_3b/relu_1x1 <- inception_3b/1x1
I0628 23:54:24.441671 84111 net.cpp:397] inception_3b/relu_1x1 -> inception_3b/1x1 (in-place)
I0628 23:54:24.441813 84111 net.cpp:150] Setting up inception_3b/relu_1x1
I0628 23:54:24.441822 84111 net.cpp:157] Top shape: 10 128 28 28 (1003520)
I0628 23:54:24.441824 84111 net.cpp:165] Memory required for data: 275968000
I0628 23:54:24.441828 84111 layer_factory.hpp:77] Creating layer inception_3b/3x3_reduce
I0628 23:54:24.441839 84111 net.cpp:106] Creating Layer inception_3b/3x3_reduce
I0628 23:54:24.441843 84111 net.cpp:454] inception_3b/3x3_reduce <- inception_3a/output_inception_3a/output_0_split_1
I0628 23:54:24.441848 84111 net.cpp:411] inception_3b/3x3_reduce -> inception_3b/3x3_reduce
I0628 23:54:24.442950 84111 net.cpp:150] Setting up inception_3b/3x3_reduce
I0628 23:54:24.442961 84111 net.cpp:157] Top shape: 10 128 28 28 (1003520)
I0628 23:54:24.442965 84111 net.cpp:165] Memory required for data: 279982080
I0628 23:54:24.442970 84111 layer_factory.hpp:77] Creating layer inception_3b/relu_3x3_reduce
I0628 23:54:24.442977 84111 net.cpp:106] Creating Layer inception_3b/relu_3x3_reduce
I0628 23:54:24.442981 84111 net.cpp:454] inception_3b/relu_3x3_reduce <- inception_3b/3x3_reduce
I0628 23:54:24.442986 84111 net.cpp:397] inception_3b/relu_3x3_reduce -> inception_3b/3x3_reduce (in-place)
I0628 23:54:24.443276 84111 net.cpp:150] Setting up inception_3b/relu_3x3_reduce
I0628 23:54:24.443286 84111 net.cpp:157] Top shape: 10 128 28 28 (1003520)
I0628 23:54:24.443289 84111 net.cpp:165] Memory required for data: 283996160
I0628 23:54:24.443292 84111 layer_factory.hpp:77] Creating layer inception_3b/3x3
I0628 23:54:24.443302 84111 net.cpp:106] Creating Layer inception_3b/3x3
I0628 23:54:24.443306 84111 net.cpp:454] inception_3b/3x3 <- inception_3b/3x3_reduce
I0628 23:54:24.443313 84111 net.cpp:411] inception_3b/3x3 -> inception_3b/3x3
I0628 23:54:24.446043 84111 net.cpp:150] Setting up inception_3b/3x3
I0628 23:54:24.446054 84111 net.cpp:157] Top shape: 10 192 28 28 (1505280)
I0628 23:54:24.446058 84111 net.cpp:165] Memory required for data: 290017280
I0628 23:54:24.446064 84111 layer_factory.hpp:77] Creating layer inception_3b/relu_3x3
I0628 23:54:24.446071 84111 net.cpp:106] Creating Layer inception_3b/relu_3x3
I0628 23:54:24.446075 84111 net.cpp:454] inception_3b/relu_3x3 <- inception_3b/3x3
I0628 23:54:24.446081 84111 net.cpp:397] inception_3b/relu_3x3 -> inception_3b/3x3 (in-place)
I0628 23:54:24.446225 84111 net.cpp:150] Setting up inception_3b/relu_3x3
I0628 23:54:24.446233 84111 net.cpp:157] Top shape: 10 192 28 28 (1505280)
I0628 23:54:24.446236 84111 net.cpp:165] Memory required for data: 296038400
I0628 23:54:24.446239 84111 layer_factory.hpp:77] Creating layer inception_3b/5x5_reduce
I0628 23:54:24.446252 84111 net.cpp:106] Creating Layer inception_3b/5x5_reduce
I0628 23:54:24.446256 84111 net.cpp:454] inception_3b/5x5_reduce <- inception_3a/output_inception_3a/output_0_split_2
I0628 23:54:24.446262 84111 net.cpp:411] inception_3b/5x5_reduce -> inception_3b/5x5_reduce
I0628 23:54:24.447252 84111 net.cpp:150] Setting up inception_3b/5x5_reduce
I0628 23:54:24.447263 84111 net.cpp:157] Top shape: 10 32 28 28 (250880)
I0628 23:54:24.447266 84111 net.cpp:165] Memory required for data: 297041920
I0628 23:54:24.447273 84111 layer_factory.hpp:77] Creating layer inception_3b/relu_5x5_reduce
I0628 23:54:24.447280 84111 net.cpp:106] Creating Layer inception_3b/relu_5x5_reduce
I0628 23:54:24.447284 84111 net.cpp:454] inception_3b/relu_5x5_reduce <- inception_3b/5x5_reduce
I0628 23:54:24.447288 84111 net.cpp:397] inception_3b/relu_5x5_reduce -> inception_3b/5x5_reduce (in-place)
I0628 23:54:24.447432 84111 net.cpp:150] Setting up inception_3b/relu_5x5_reduce
I0628 23:54:24.447438 84111 net.cpp:157] Top shape: 10 32 28 28 (250880)
I0628 23:54:24.447441 84111 net.cpp:165] Memory required for data: 298045440
I0628 23:54:24.447444 84111 layer_factory.hpp:77] Creating layer inception_3b/5x5
I0628 23:54:24.447455 84111 net.cpp:106] Creating Layer inception_3b/5x5
I0628 23:54:24.447459 84111 net.cpp:454] inception_3b/5x5 <- inception_3b/5x5_reduce
I0628 23:54:24.447464 84111 net.cpp:411] inception_3b/5x5 -> inception_3b/5x5
I0628 23:54:24.449337 84111 net.cpp:150] Setting up inception_3b/5x5
I0628 23:54:24.449348 84111 net.cpp:157] Top shape: 10 96 28 28 (752640)
I0628 23:54:24.449352 84111 net.cpp:165] Memory required for data: 301056000
I0628 23:54:24.449357 84111 layer_factory.hpp:77] Creating layer inception_3b/relu_5x5
I0628 23:54:24.449364 84111 net.cpp:106] Creating Layer inception_3b/relu_5x5
I0628 23:54:24.449368 84111 net.cpp:454] inception_3b/relu_5x5 <- inception_3b/5x5
I0628 23:54:24.449373 84111 net.cpp:397] inception_3b/relu_5x5 -> inception_3b/5x5 (in-place)
I0628 23:54:24.449666 84111 net.cpp:150] Setting up inception_3b/relu_5x5
I0628 23:54:24.449676 84111 net.cpp:157] Top shape: 10 96 28 28 (752640)
I0628 23:54:24.449679 84111 net.cpp:165] Memory required for data: 304066560
I0628 23:54:24.449683 84111 layer_factory.hpp:77] Creating layer inception_3b/pool
I0628 23:54:24.449690 84111 net.cpp:106] Creating Layer inception_3b/pool
I0628 23:54:24.449694 84111 net.cpp:454] inception_3b/pool <- inception_3a/output_inception_3a/output_0_split_3
I0628 23:54:24.449700 84111 net.cpp:411] inception_3b/pool -> inception_3b/pool
I0628 23:54:24.449740 84111 net.cpp:150] Setting up inception_3b/pool
I0628 23:54:24.449746 84111 net.cpp:157] Top shape: 10 256 28 28 (2007040)
I0628 23:54:24.449749 84111 net.cpp:165] Memory required for data: 312094720
I0628 23:54:24.449753 84111 layer_factory.hpp:77] Creating layer inception_3b/pool_proj
I0628 23:54:24.449761 84111 net.cpp:106] Creating Layer inception_3b/pool_proj
I0628 23:54:24.449764 84111 net.cpp:454] inception_3b/pool_proj <- inception_3b/pool
I0628 23:54:24.449771 84111 net.cpp:411] inception_3b/pool_proj -> inception_3b/pool_proj
I0628 23:54:24.450809 84111 net.cpp:150] Setting up inception_3b/pool_proj
I0628 23:54:24.450820 84111 net.cpp:157] Top shape: 10 64 28 28 (501760)
I0628 23:54:24.450824 84111 net.cpp:165] Memory required for data: 314101760
I0628 23:54:24.450830 84111 layer_factory.hpp:77] Creating layer inception_3b/relu_pool_proj
I0628 23:54:24.450836 84111 net.cpp:106] Creating Layer inception_3b/relu_pool_proj
I0628 23:54:24.450840 84111 net.cpp:454] inception_3b/relu_pool_proj <- inception_3b/pool_proj
I0628 23:54:24.450845 84111 net.cpp:397] inception_3b/relu_pool_proj -> inception_3b/pool_proj (in-place)
I0628 23:54:24.450992 84111 net.cpp:150] Setting up inception_3b/relu_pool_proj
I0628 23:54:24.451000 84111 net.cpp:157] Top shape: 10 64 28 28 (501760)
I0628 23:54:24.451002 84111 net.cpp:165] Memory required for data: 316108800
I0628 23:54:24.451005 84111 layer_factory.hpp:77] Creating layer inception_3b/output
I0628 23:54:24.451011 84111 net.cpp:106] Creating Layer inception_3b/output
I0628 23:54:24.451015 84111 net.cpp:454] inception_3b/output <- inception_3b/1x1
I0628 23:54:24.451020 84111 net.cpp:454] inception_3b/output <- inception_3b/3x3
I0628 23:54:24.451022 84111 net.cpp:454] inception_3b/output <- inception_3b/5x5
I0628 23:54:24.451026 84111 net.cpp:454] inception_3b/output <- inception_3b/pool_proj
I0628 23:54:24.451032 84111 net.cpp:411] inception_3b/output -> inception_3b/output
I0628 23:54:24.451057 84111 net.cpp:150] Setting up inception_3b/output
I0628 23:54:24.451062 84111 net.cpp:157] Top shape: 10 480 28 28 (3763200)
I0628 23:54:24.451066 84111 net.cpp:165] Memory required for data: 331161600
I0628 23:54:24.451068 84111 layer_factory.hpp:77] Creating layer pool3/3x3_s2
I0628 23:54:24.451074 84111 net.cpp:106] Creating Layer pool3/3x3_s2
I0628 23:54:24.451078 84111 net.cpp:454] pool3/3x3_s2 <- inception_3b/output
I0628 23:54:24.451082 84111 net.cpp:411] pool3/3x3_s2 -> pool3/3x3_s2
I0628 23:54:24.451118 84111 net.cpp:150] Setting up pool3/3x3_s2
I0628 23:54:24.451125 84111 net.cpp:157] Top shape: 10 480 14 14 (940800)
I0628 23:54:24.451128 84111 net.cpp:165] Memory required for data: 334924800
I0628 23:54:24.451131 84111 layer_factory.hpp:77] Creating layer pool3/3x3_s2_pool3/3x3_s2_0_split
I0628 23:54:24.451136 84111 net.cpp:106] Creating Layer pool3/3x3_s2_pool3/3x3_s2_0_split
I0628 23:54:24.451139 84111 net.cpp:454] pool3/3x3_s2_pool3/3x3_s2_0_split <- pool3/3x3_s2
I0628 23:54:24.451143 84111 net.cpp:411] pool3/3x3_s2_pool3/3x3_s2_0_split -> pool3/3x3_s2_pool3/3x3_s2_0_split_0
I0628 23:54:24.451148 84111 net.cpp:411] pool3/3x3_s2_pool3/3x3_s2_0_split -> pool3/3x3_s2_pool3/3x3_s2_0_split_1
I0628 23:54:24.451154 84111 net.cpp:411] pool3/3x3_s2_pool3/3x3_s2_0_split -> pool3/3x3_s2_pool3/3x3_s2_0_split_2
I0628 23:54:24.451160 84111 net.cpp:411] pool3/3x3_s2_pool3/3x3_s2_0_split -> pool3/3x3_s2_pool3/3x3_s2_0_split_3
I0628 23:54:24.451210 84111 net.cpp:150] Setting up pool3/3x3_s2_pool3/3x3_s2_0_split
I0628 23:54:24.451215 84111 net.cpp:157] Top shape: 10 480 14 14 (940800)
I0628 23:54:24.451217 84111 net.cpp:157] Top shape: 10 480 14 14 (940800)
I0628 23:54:24.451221 84111 net.cpp:157] Top shape: 10 480 14 14 (940800)
I0628 23:54:24.451225 84111 net.cpp:157] Top shape: 10 480 14 14 (940800)
I0628 23:54:24.451226 84111 net.cpp:165] Memory required for data: 349977600
I0628 23:54:24.451230 84111 layer_factory.hpp:77] Creating layer inception_4a/1x1
I0628 23:54:24.451238 84111 net.cpp:106] Creating Layer inception_4a/1x1
I0628 23:54:24.451241 84111 net.cpp:454] inception_4a/1x1 <- pool3/3x3_s2_pool3/3x3_s2_0_split_0
I0628 23:54:24.451248 84111 net.cpp:411] inception_4a/1x1 -> inception_4a/1x1
I0628 23:54:24.452925 84111 net.cpp:150] Setting up inception_4a/1x1
I0628 23:54:24.452937 84111 net.cpp:157] Top shape: 10 192 14 14 (376320)
I0628 23:54:24.452940 84111 net.cpp:165] Memory required for data: 351482880
I0628 23:54:24.452946 84111 layer_factory.hpp:77] Creating layer inception_4a/relu_1x1
I0628 23:54:24.452952 84111 net.cpp:106] Creating Layer inception_4a/relu_1x1
I0628 23:54:24.452956 84111 net.cpp:454] inception_4a/relu_1x1 <- inception_4a/1x1
I0628 23:54:24.452960 84111 net.cpp:397] inception_4a/relu_1x1 -> inception_4a/1x1 (in-place)
I0628 23:54:24.453105 84111 net.cpp:150] Setting up inception_4a/relu_1x1
I0628 23:54:24.453114 84111 net.cpp:157] Top shape: 10 192 14 14 (376320)
I0628 23:54:24.453116 84111 net.cpp:165] Memory required for data: 352988160
I0628 23:54:24.453119 84111 layer_factory.hpp:77] Creating layer inception_4a/3x3_reduce
I0628 23:54:24.453130 84111 net.cpp:106] Creating Layer inception_4a/3x3_reduce
I0628 23:54:24.453133 84111 net.cpp:454] inception_4a/3x3_reduce <- pool3/3x3_s2_pool3/3x3_s2_0_split_1
I0628 23:54:24.453140 84111 net.cpp:411] inception_4a/3x3_reduce -> inception_4a/3x3_reduce
I0628 23:54:24.454339 84111 net.cpp:150] Setting up inception_4a/3x3_reduce
I0628 23:54:24.454349 84111 net.cpp:157] Top shape: 10 96 14 14 (188160)
I0628 23:54:24.454352 84111 net.cpp:165] Memory required for data: 353740800
I0628 23:54:24.454365 84111 layer_factory.hpp:77] Creating layer inception_4a/relu_3x3_reduce
I0628 23:54:24.454370 84111 net.cpp:106] Creating Layer inception_4a/relu_3x3_reduce
I0628 23:54:24.454375 84111 net.cpp:454] inception_4a/relu_3x3_reduce <- inception_4a/3x3_reduce
I0628 23:54:24.454380 84111 net.cpp:397] inception_4a/relu_3x3_reduce -> inception_4a/3x3_reduce (in-place)
I0628 23:54:24.454669 84111 net.cpp:150] Setting up inception_4a/relu_3x3_reduce
I0628 23:54:24.454680 84111 net.cpp:157] Top shape: 10 96 14 14 (188160)
I0628 23:54:24.454684 84111 net.cpp:165] Memory required for data: 354493440
I0628 23:54:24.454686 84111 layer_factory.hpp:77] Creating layer inception_4a/3x3
I0628 23:54:24.454696 84111 net.cpp:106] Creating Layer inception_4a/3x3
I0628 23:54:24.454700 84111 net.cpp:454] inception_4a/3x3 <- inception_4a/3x3_reduce
I0628 23:54:24.454707 84111 net.cpp:411] inception_4a/3x3 -> inception_4a/3x3
I0628 23:54:24.457216 84111 net.cpp:150] Setting up inception_4a/3x3
I0628 23:54:24.457227 84111 net.cpp:157] Top shape: 10 208 14 14 (407680)
I0628 23:54:24.457231 84111 net.cpp:165] Memory required for data: 356124160
I0628 23:54:24.457237 84111 layer_factory.hpp:77] Creating layer inception_4a/relu_3x3
I0628 23:54:24.457242 84111 net.cpp:106] Creating Layer inception_4a/relu_3x3
I0628 23:54:24.457247 84111 net.cpp:454] inception_4a/relu_3x3 <- inception_4a/3x3
I0628 23:54:24.457253 84111 net.cpp:397] inception_4a/relu_3x3 -> inception_4a/3x3 (in-place)
I0628 23:54:24.457398 84111 net.cpp:150] Setting up inception_4a/relu_3x3
I0628 23:54:24.457406 84111 net.cpp:157] Top shape: 10 208 14 14 (407680)
I0628 23:54:24.457409 84111 net.cpp:165] Memory required for data: 357754880
I0628 23:54:24.457412 84111 layer_factory.hpp:77] Creating layer inception_4a/5x5_reduce
I0628 23:54:24.457422 84111 net.cpp:106] Creating Layer inception_4a/5x5_reduce
I0628 23:54:24.457425 84111 net.cpp:454] inception_4a/5x5_reduce <- pool3/3x3_s2_pool3/3x3_s2_0_split_2
I0628 23:54:24.457433 84111 net.cpp:411] inception_4a/5x5_reduce -> inception_4a/5x5_reduce
I0628 23:54:24.458425 84111 net.cpp:150] Setting up inception_4a/5x5_reduce
I0628 23:54:24.458436 84111 net.cpp:157] Top shape: 10 16 14 14 (31360)
I0628 23:54:24.458438 84111 net.cpp:165] Memory required for data: 357880320
I0628 23:54:24.458446 84111 layer_factory.hpp:77] Creating layer inception_4a/relu_5x5_reduce
I0628 23:54:24.458452 84111 net.cpp:106] Creating Layer inception_4a/relu_5x5_reduce
I0628 23:54:24.458456 84111 net.cpp:454] inception_4a/relu_5x5_reduce <- inception_4a/5x5_reduce
I0628 23:54:24.458461 84111 net.cpp:397] inception_4a/relu_5x5_reduce -> inception_4a/5x5_reduce (in-place)
I0628 23:54:24.458606 84111 net.cpp:150] Setting up inception_4a/relu_5x5_reduce
I0628 23:54:24.458613 84111 net.cpp:157] Top shape: 10 16 14 14 (31360)
I0628 23:54:24.458616 84111 net.cpp:165] Memory required for data: 358005760
I0628 23:54:24.458619 84111 layer_factory.hpp:77] Creating layer inception_4a/5x5
I0628 23:54:24.458628 84111 net.cpp:106] Creating Layer inception_4a/5x5
I0628 23:54:24.458632 84111 net.cpp:454] inception_4a/5x5 <- inception_4a/5x5_reduce
I0628 23:54:24.458639 84111 net.cpp:411] inception_4a/5x5 -> inception_4a/5x5
I0628 23:54:24.459679 84111 net.cpp:150] Setting up inception_4a/5x5
I0628 23:54:24.459692 84111 net.cpp:157] Top shape: 10 48 14 14 (94080)
I0628 23:54:24.459694 84111 net.cpp:165] Memory required for data: 358382080
I0628 23:54:24.459700 84111 layer_factory.hpp:77] Creating layer inception_4a/relu_5x5
I0628 23:54:24.459707 84111 net.cpp:106] Creating Layer inception_4a/relu_5x5
I0628 23:54:24.459710 84111 net.cpp:454] inception_4a/relu_5x5 <- inception_4a/5x5
I0628 23:54:24.459714 84111 net.cpp:397] inception_4a/relu_5x5 -> inception_4a/5x5 (in-place)
I0628 23:54:24.460012 84111 net.cpp:150] Setting up inception_4a/relu_5x5
I0628 23:54:24.460023 84111 net.cpp:157] Top shape: 10 48 14 14 (94080)
I0628 23:54:24.460026 84111 net.cpp:165] Memory required for data: 358758400
I0628 23:54:24.460029 84111 layer_factory.hpp:77] Creating layer inception_4a/pool
I0628 23:54:24.460036 84111 net.cpp:106] Creating Layer inception_4a/pool
I0628 23:54:24.460039 84111 net.cpp:454] inception_4a/pool <- pool3/3x3_s2_pool3/3x3_s2_0_split_3
I0628 23:54:24.460044 84111 net.cpp:411] inception_4a/pool -> inception_4a/pool
I0628 23:54:24.460085 84111 net.cpp:150] Setting up inception_4a/pool
I0628 23:54:24.460091 84111 net.cpp:157] Top shape: 10 480 14 14 (940800)
I0628 23:54:24.460094 84111 net.cpp:165] Memory required for data: 362521600
I0628 23:54:24.460098 84111 layer_factory.hpp:77] Creating layer inception_4a/pool_proj
I0628 23:54:24.460108 84111 net.cpp:106] Creating Layer inception_4a/pool_proj
I0628 23:54:24.460110 84111 net.cpp:454] inception_4a/pool_proj <- inception_4a/pool
I0628 23:54:24.460115 84111 net.cpp:411] inception_4a/pool_proj -> inception_4a/pool_proj
I0628 23:54:24.461244 84111 net.cpp:150] Setting up inception_4a/pool_proj
I0628 23:54:24.461256 84111 net.cpp:157] Top shape: 10 64 14 14 (125440)
I0628 23:54:24.461259 84111 net.cpp:165] Memory required for data: 363023360
I0628 23:54:24.461266 84111 layer_factory.hpp:77] Creating layer inception_4a/relu_pool_proj
I0628 23:54:24.461272 84111 net.cpp:106] Creating Layer inception_4a/relu_pool_proj
I0628 23:54:24.461277 84111 net.cpp:454] inception_4a/relu_pool_proj <- inception_4a/pool_proj
I0628 23:54:24.461282 84111 net.cpp:397] inception_4a/relu_pool_proj -> inception_4a/pool_proj (in-place)
I0628 23:54:24.461424 84111 net.cpp:150] Setting up inception_4a/relu_pool_proj
I0628 23:54:24.461432 84111 net.cpp:157] Top shape: 10 64 14 14 (125440)
I0628 23:54:24.461436 84111 net.cpp:165] Memory required for data: 363525120
I0628 23:54:24.461438 84111 layer_factory.hpp:77] Creating layer inception_4a/output
I0628 23:54:24.461446 84111 net.cpp:106] Creating Layer inception_4a/output
I0628 23:54:24.461449 84111 net.cpp:454] inception_4a/output <- inception_4a/1x1
I0628 23:54:24.461454 84111 net.cpp:454] inception_4a/output <- inception_4a/3x3
I0628 23:54:24.461458 84111 net.cpp:454] inception_4a/output <- inception_4a/5x5
I0628 23:54:24.461462 84111 net.cpp:454] inception_4a/output <- inception_4a/pool_proj
I0628 23:54:24.461468 84111 net.cpp:411] inception_4a/output -> inception_4a/output
I0628 23:54:24.461494 84111 net.cpp:150] Setting up inception_4a/output
I0628 23:54:24.461499 84111 net.cpp:157] Top shape: 10 512 14 14 (1003520)
I0628 23:54:24.461503 84111 net.cpp:165] Memory required for data: 367539200
I0628 23:54:24.461505 84111 layer_factory.hpp:77] Creating layer inception_4a/output_inception_4a/output_0_split
I0628 23:54:24.461513 84111 net.cpp:106] Creating Layer inception_4a/output_inception_4a/output_0_split
I0628 23:54:24.461515 84111 net.cpp:454] inception_4a/output_inception_4a/output_0_split <- inception_4a/output
I0628 23:54:24.461519 84111 net.cpp:411] inception_4a/output_inception_4a/output_0_split -> inception_4a/output_inception_4a/output_0_split_0
I0628 23:54:24.461525 84111 net.cpp:411] inception_4a/output_inception_4a/output_0_split -> inception_4a/output_inception_4a/output_0_split_1
I0628 23:54:24.461531 84111 net.cpp:411] inception_4a/output_inception_4a/output_0_split -> inception_4a/output_inception_4a/output_0_split_2
I0628 23:54:24.461539 84111 net.cpp:411] inception_4a/output_inception_4a/output_0_split -> inception_4a/output_inception_4a/output_0_split_3
I0628 23:54:24.461542 84111 net.cpp:411] inception_4a/output_inception_4a/output_0_split -> inception_4a/output_inception_4a/output_0_split_4
I0628 23:54:24.461603 84111 net.cpp:150] Setting up inception_4a/output_inception_4a/output_0_split
I0628 23:54:24.461609 84111 net.cpp:157] Top shape: 10 512 14 14 (1003520)
I0628 23:54:24.461612 84111 net.cpp:157] Top shape: 10 512 14 14 (1003520)
I0628 23:54:24.461616 84111 net.cpp:157] Top shape: 10 512 14 14 (1003520)
I0628 23:54:24.461619 84111 net.cpp:157] Top shape: 10 512 14 14 (1003520)
I0628 23:54:24.461622 84111 net.cpp:157] Top shape: 10 512 14 14 (1003520)
I0628 23:54:24.461624 84111 net.cpp:165] Memory required for data: 387609600
I0628 23:54:24.461627 84111 layer_factory.hpp:77] Creating layer loss1/ave_pool
I0628 23:54:24.461632 84111 net.cpp:106] Creating Layer loss1/ave_pool
I0628 23:54:24.461635 84111 net.cpp:454] loss1/ave_pool <- inception_4a/output_inception_4a/output_0_split_0
I0628 23:54:24.461642 84111 net.cpp:411] loss1/ave_pool -> loss1/ave_pool
I0628 23:54:24.461952 84111 net.cpp:150] Setting up loss1/ave_pool
I0628 23:54:24.461962 84111 net.cpp:157] Top shape: 10 512 4 4 (81920)
I0628 23:54:24.461967 84111 net.cpp:165] Memory required for data: 387937280
I0628 23:54:24.461971 84111 layer_factory.hpp:77] Creating layer loss1/conv
I0628 23:54:24.461978 84111 net.cpp:106] Creating Layer loss1/conv
I0628 23:54:24.461982 84111 net.cpp:454] loss1/conv <- loss1/ave_pool
I0628 23:54:24.461988 84111 net.cpp:411] loss1/conv -> loss1/conv
I0628 23:54:24.463181 84111 net.cpp:150] Setting up loss1/conv
I0628 23:54:24.463192 84111 net.cpp:157] Top shape: 10 128 4 4 (20480)
I0628 23:54:24.463196 84111 net.cpp:165] Memory required for data: 388019200
I0628 23:54:24.463201 84111 layer_factory.hpp:77] Creating layer loss1/relu_conv
I0628 23:54:24.463208 84111 net.cpp:106] Creating Layer loss1/relu_conv
I0628 23:54:24.463212 84111 net.cpp:454] loss1/relu_conv <- loss1/conv
I0628 23:54:24.463217 84111 net.cpp:397] loss1/relu_conv -> loss1/conv (in-place)
I0628 23:54:24.463513 84111 net.cpp:150] Setting up loss1/relu_conv
I0628 23:54:24.463526 84111 net.cpp:157] Top shape: 10 128 4 4 (20480)
I0628 23:54:24.463528 84111 net.cpp:165] Memory required for data: 388101120
I0628 23:54:24.463531 84111 layer_factory.hpp:77] Creating layer loss1/fc
I0628 23:54:24.463539 84111 net.cpp:106] Creating Layer loss1/fc
I0628 23:54:24.463542 84111 net.cpp:454] loss1/fc <- loss1/conv
I0628 23:54:24.463549 84111 net.cpp:411] loss1/fc -> loss1/fc
I0628 23:54:24.478950 84111 net.cpp:150] Setting up loss1/fc
I0628 23:54:24.478965 84111 net.cpp:157] Top shape: 10 1024 (10240)
I0628 23:54:24.478968 84111 net.cpp:165] Memory required for data: 388142080
I0628 23:54:24.478976 84111 layer_factory.hpp:77] Creating layer loss1/relu_fc
I0628 23:54:24.478983 84111 net.cpp:106] Creating Layer loss1/relu_fc
I0628 23:54:24.478986 84111 net.cpp:454] loss1/relu_fc <- loss1/fc
I0628 23:54:24.478991 84111 net.cpp:397] loss1/relu_fc -> loss1/fc (in-place)
I0628 23:54:24.479315 84111 net.cpp:150] Setting up loss1/relu_fc
I0628 23:54:24.479326 84111 net.cpp:157] Top shape: 10 1024 (10240)
I0628 23:54:24.479328 84111 net.cpp:165] Memory required for data: 388183040
I0628 23:54:24.479332 84111 layer_factory.hpp:77] Creating layer loss1/drop_fc
I0628 23:54:24.479341 84111 net.cpp:106] Creating Layer loss1/drop_fc
I0628 23:54:24.479344 84111 net.cpp:454] loss1/drop_fc <- loss1/fc
I0628 23:54:24.479349 84111 net.cpp:397] loss1/drop_fc -> loss1/fc (in-place)
I0628 23:54:24.479377 84111 net.cpp:150] Setting up loss1/drop_fc
I0628 23:54:24.479383 84111 net.cpp:157] Top shape: 10 1024 (10240)
I0628 23:54:24.479385 84111 net.cpp:165] Memory required for data: 388224000
I0628 23:54:24.479388 84111 layer_factory.hpp:77] Creating layer 102flowers1/classifier
I0628 23:54:24.479395 84111 net.cpp:106] Creating Layer 102flowers1/classifier
I0628 23:54:24.479398 84111 net.cpp:454] 102flowers1/classifier <- loss1/fc
I0628 23:54:24.479404 84111 net.cpp:411] 102flowers1/classifier -> 102flowers1/classifier
I0628 23:54:24.480607 84111 net.cpp:150] Setting up 102flowers1/classifier
I0628 23:54:24.480618 84111 net.cpp:157] Top shape: 10 102 (1020)
I0628 23:54:24.480621 84111 net.cpp:165] Memory required for data: 388228080
I0628 23:54:24.480628 84111 layer_factory.hpp:77] Creating layer inception_4b/1x1
I0628 23:54:24.480644 84111 net.cpp:106] Creating Layer inception_4b/1x1
I0628 23:54:24.480648 84111 net.cpp:454] inception_4b/1x1 <- inception_4a/output_inception_4a/output_0_split_1
I0628 23:54:24.480655 84111 net.cpp:411] inception_4b/1x1 -> inception_4b/1x1
I0628 23:54:24.481961 84111 net.cpp:150] Setting up inception_4b/1x1
I0628 23:54:24.481973 84111 net.cpp:157] Top shape: 10 160 14 14 (313600)
I0628 23:54:24.481976 84111 net.cpp:165] Memory required for data: 389482480
I0628 23:54:24.481983 84111 layer_factory.hpp:77] Creating layer inception_4b/relu_1x1
I0628 23:54:24.481991 84111 net.cpp:106] Creating Layer inception_4b/relu_1x1
I0628 23:54:24.481994 84111 net.cpp:454] inception_4b/relu_1x1 <- inception_4b/1x1
I0628 23:54:24.481998 84111 net.cpp:397] inception_4b/relu_1x1 -> inception_4b/1x1 (in-place)
I0628 23:54:24.482430 84111 net.cpp:150] Setting up inception_4b/relu_1x1
I0628 23:54:24.482440 84111 net.cpp:157] Top shape: 10 160 14 14 (313600)
I0628 23:54:24.482446 84111 net.cpp:165] Memory required for data: 390736880
I0628 23:54:24.482450 84111 layer_factory.hpp:77] Creating layer inception_4b/3x3_reduce
I0628 23:54:24.482458 84111 net.cpp:106] Creating Layer inception_4b/3x3_reduce
I0628 23:54:24.482462 84111 net.cpp:454] inception_4b/3x3_reduce <- inception_4a/output_inception_4a/output_0_split_2
I0628 23:54:24.482470 84111 net.cpp:411] inception_4b/3x3_reduce -> inception_4b/3x3_reduce
I0628 23:54:24.484279 84111 net.cpp:150] Setting up inception_4b/3x3_reduce
I0628 23:54:24.484292 84111 net.cpp:157] Top shape: 10 112 14 14 (219520)
I0628 23:54:24.484294 84111 net.cpp:165] Memory required for data: 391614960
I0628 23:54:24.484300 84111 layer_factory.hpp:77] Creating layer inception_4b/relu_3x3_reduce
I0628 23:54:24.484307 84111 net.cpp:106] Creating Layer inception_4b/relu_3x3_reduce
I0628 23:54:24.484311 84111 net.cpp:454] inception_4b/relu_3x3_reduce <- inception_4b/3x3_reduce
I0628 23:54:24.484316 84111 net.cpp:397] inception_4b/relu_3x3_reduce -> inception_4b/3x3_reduce (in-place)
I0628 23:54:24.484465 84111 net.cpp:150] Setting up inception_4b/relu_3x3_reduce
I0628 23:54:24.484473 84111 net.cpp:157] Top shape: 10 112 14 14 (219520)
I0628 23:54:24.484477 84111 net.cpp:165] Memory required for data: 392493040
I0628 23:54:24.484479 84111 layer_factory.hpp:77] Creating layer inception_4b/3x3
I0628 23:54:24.484490 84111 net.cpp:106] Creating Layer inception_4b/3x3
I0628 23:54:24.484494 84111 net.cpp:454] inception_4b/3x3 <- inception_4b/3x3_reduce
I0628 23:54:24.484499 84111 net.cpp:411] inception_4b/3x3 -> inception_4b/3x3
I0628 23:54:24.487303 84111 net.cpp:150] Setting up inception_4b/3x3
I0628 23:54:24.487314 84111 net.cpp:157] Top shape: 10 224 14 14 (439040)
I0628 23:54:24.487318 84111 net.cpp:165] Memory required for data: 394249200
I0628 23:54:24.487323 84111 layer_factory.hpp:77] Creating layer inception_4b/relu_3x3
I0628 23:54:24.487329 84111 net.cpp:106] Creating Layer inception_4b/relu_3x3
I0628 23:54:24.487332 84111 net.cpp:454] inception_4b/relu_3x3 <- inception_4b/3x3
I0628 23:54:24.487337 84111 net.cpp:397] inception_4b/relu_3x3 -> inception_4b/3x3 (in-place)
I0628 23:54:24.487637 84111 net.cpp:150] Setting up inception_4b/relu_3x3
I0628 23:54:24.487646 84111 net.cpp:157] Top shape: 10 224 14 14 (439040)
I0628 23:54:24.487649 84111 net.cpp:165] Memory required for data: 396005360
I0628 23:54:24.487653 84111 layer_factory.hpp:77] Creating layer inception_4b/5x5_reduce
I0628 23:54:24.487663 84111 net.cpp:106] Creating Layer inception_4b/5x5_reduce
I0628 23:54:24.487666 84111 net.cpp:454] inception_4b/5x5_reduce <- inception_4a/output_inception_4a/output_0_split_3
I0628 23:54:24.487674 84111 net.cpp:411] inception_4b/5x5_reduce -> inception_4b/5x5_reduce
I0628 23:54:24.488592 84111 net.cpp:150] Setting up inception_4b/5x5_reduce
I0628 23:54:24.488603 84111 net.cpp:157] Top shape: 10 24 14 14 (47040)
I0628 23:54:24.488606 84111 net.cpp:165] Memory required for data: 396193520
I0628 23:54:24.488612 84111 layer_factory.hpp:77] Creating layer inception_4b/relu_5x5_reduce
I0628 23:54:24.488618 84111 net.cpp:106] Creating Layer inception_4b/relu_5x5_reduce
I0628 23:54:24.488622 84111 net.cpp:454] inception_4b/relu_5x5_reduce <- inception_4b/5x5_reduce
I0628 23:54:24.488628 84111 net.cpp:397] inception_4b/relu_5x5_reduce -> inception_4b/5x5_reduce (in-place)
I0628 23:54:24.488937 84111 net.cpp:150] Setting up inception_4b/relu_5x5_reduce
I0628 23:54:24.488948 84111 net.cpp:157] Top shape: 10 24 14 14 (47040)
I0628 23:54:24.488951 84111 net.cpp:165] Memory required for data: 396381680
I0628 23:54:24.488955 84111 layer_factory.hpp:77] Creating layer inception_4b/5x5
I0628 23:54:24.488965 84111 net.cpp:106] Creating Layer inception_4b/5x5
I0628 23:54:24.488970 84111 net.cpp:454] inception_4b/5x5 <- inception_4b/5x5_reduce
I0628 23:54:24.488978 84111 net.cpp:411] inception_4b/5x5 -> inception_4b/5x5
I0628 23:54:24.490175 84111 net.cpp:150] Setting up inception_4b/5x5
I0628 23:54:24.490185 84111 net.cpp:157] Top shape: 10 64 14 14 (125440)
I0628 23:54:24.490188 84111 net.cpp:165] Memory required for data: 396883440
I0628 23:54:24.490195 84111 layer_factory.hpp:77] Creating layer inception_4b/relu_5x5
I0628 23:54:24.490202 84111 net.cpp:106] Creating Layer inception_4b/relu_5x5
I0628 23:54:24.490206 84111 net.cpp:454] inception_4b/relu_5x5 <- inception_4b/5x5
I0628 23:54:24.490211 84111 net.cpp:397] inception_4b/relu_5x5 -> inception_4b/5x5 (in-place)
I0628 23:54:24.490360 84111 net.cpp:150] Setting up inception_4b/relu_5x5
I0628 23:54:24.490368 84111 net.cpp:157] Top shape: 10 64 14 14 (125440)
I0628 23:54:24.490370 84111 net.cpp:165] Memory required for data: 397385200
I0628 23:54:24.490373 84111 layer_factory.hpp:77] Creating layer inception_4b/pool
I0628 23:54:24.490381 84111 net.cpp:106] Creating Layer inception_4b/pool
I0628 23:54:24.490383 84111 net.cpp:454] inception_4b/pool <- inception_4a/output_inception_4a/output_0_split_4
I0628 23:54:24.490391 84111 net.cpp:411] inception_4b/pool -> inception_4b/pool
I0628 23:54:24.490430 84111 net.cpp:150] Setting up inception_4b/pool
I0628 23:54:24.490437 84111 net.cpp:157] Top shape: 10 512 14 14 (1003520)
I0628 23:54:24.490439 84111 net.cpp:165] Memory required for data: 401399280
I0628 23:54:24.490442 84111 layer_factory.hpp:77] Creating layer inception_4b/pool_proj
I0628 23:54:24.490453 84111 net.cpp:106] Creating Layer inception_4b/pool_proj
I0628 23:54:24.490455 84111 net.cpp:454] inception_4b/pool_proj <- inception_4b/pool
I0628 23:54:24.490461 84111 net.cpp:411] inception_4b/pool_proj -> inception_4b/pool_proj
I0628 23:54:24.491626 84111 net.cpp:150] Setting up inception_4b/pool_proj
I0628 23:54:24.491637 84111 net.cpp:157] Top shape: 10 64 14 14 (125440)
I0628 23:54:24.491641 84111 net.cpp:165] Memory required for data: 401901040
I0628 23:54:24.491647 84111 layer_factory.hpp:77] Creating layer inception_4b/relu_pool_proj
I0628 23:54:24.491652 84111 net.cpp:106] Creating Layer inception_4b/relu_pool_proj
I0628 23:54:24.491657 84111 net.cpp:454] inception_4b/relu_pool_proj <- inception_4b/pool_proj
I0628 23:54:24.491662 84111 net.cpp:397] inception_4b/relu_pool_proj -> inception_4b/pool_proj (in-place)
I0628 23:54:24.491958 84111 net.cpp:150] Setting up inception_4b/relu_pool_proj
I0628 23:54:24.491968 84111 net.cpp:157] Top shape: 10 64 14 14 (125440)
I0628 23:54:24.491971 84111 net.cpp:165] Memory required for data: 402402800
I0628 23:54:24.491974 84111 layer_factory.hpp:77] Creating layer inception_4b/output
I0628 23:54:24.491981 84111 net.cpp:106] Creating Layer inception_4b/output
I0628 23:54:24.491984 84111 net.cpp:454] inception_4b/output <- inception_4b/1x1
I0628 23:54:24.491988 84111 net.cpp:454] inception_4b/output <- inception_4b/3x3
I0628 23:54:24.491992 84111 net.cpp:454] inception_4b/output <- inception_4b/5x5
I0628 23:54:24.491996 84111 net.cpp:454] inception_4b/output <- inception_4b/pool_proj
I0628 23:54:24.492002 84111 net.cpp:411] inception_4b/output -> inception_4b/output
I0628 23:54:24.492030 84111 net.cpp:150] Setting up inception_4b/output
I0628 23:54:24.492036 84111 net.cpp:157] Top shape: 10 512 14 14 (1003520)
I0628 23:54:24.492038 84111 net.cpp:165] Memory required for data: 406416880
I0628 23:54:24.492041 84111 layer_factory.hpp:77] Creating layer inception_4b/output_inception_4b/output_0_split
I0628 23:54:24.492048 84111 net.cpp:106] Creating Layer inception_4b/output_inception_4b/output_0_split
I0628 23:54:24.492053 84111 net.cpp:454] inception_4b/output_inception_4b/output_0_split <- inception_4b/output
I0628 23:54:24.492056 84111 net.cpp:411] inception_4b/output_inception_4b/output_0_split -> inception_4b/output_inception_4b/output_0_split_0
I0628 23:54:24.492066 84111 net.cpp:411] inception_4b/output_inception_4b/output_0_split -> inception_4b/output_inception_4b/output_0_split_1
I0628 23:54:24.492072 84111 net.cpp:411] inception_4b/output_inception_4b/output_0_split -> inception_4b/output_inception_4b/output_0_split_2
I0628 23:54:24.492084 84111 net.cpp:411] inception_4b/output_inception_4b/output_0_split -> inception_4b/output_inception_4b/output_0_split_3
I0628 23:54:24.492261 84111 net.cpp:150] Setting up inception_4b/output_inception_4b/output_0_split
I0628 23:54:24.492270 84111 net.cpp:157] Top shape: 10 512 14 14 (1003520)
I0628 23:54:24.492274 84111 net.cpp:157] Top shape: 10 512 14 14 (1003520)
I0628 23:54:24.492277 84111 net.cpp:157] Top shape: 10 512 14 14 (1003520)
I0628 23:54:24.492281 84111 net.cpp:157] Top shape: 10 512 14 14 (1003520)
I0628 23:54:24.492283 84111 net.cpp:165] Memory required for data: 422473200
I0628 23:54:24.492286 84111 layer_factory.hpp:77] Creating layer inception_4c/1x1
I0628 23:54:24.492296 84111 net.cpp:106] Creating Layer inception_4c/1x1
I0628 23:54:24.492300 84111 net.cpp:454] inception_4c/1x1 <- inception_4b/output_inception_4b/output_0_split_0
I0628 23:54:24.492307 84111 net.cpp:411] inception_4c/1x1 -> inception_4c/1x1
I0628 23:54:24.493556 84111 net.cpp:150] Setting up inception_4c/1x1
I0628 23:54:24.493568 84111 net.cpp:157] Top shape: 10 128 14 14 (250880)
I0628 23:54:24.493571 84111 net.cpp:165] Memory required for data: 423476720
I0628 23:54:24.493578 84111 layer_factory.hpp:77] Creating layer inception_4c/relu_1x1
I0628 23:54:24.493583 84111 net.cpp:106] Creating Layer inception_4c/relu_1x1
I0628 23:54:24.493587 84111 net.cpp:454] inception_4c/relu_1x1 <- inception_4c/1x1
I0628 23:54:24.493593 84111 net.cpp:397] inception_4c/relu_1x1 -> inception_4c/1x1 (in-place)
I0628 23:54:24.493899 84111 net.cpp:150] Setting up inception_4c/relu_1x1
I0628 23:54:24.493909 84111 net.cpp:157] Top shape: 10 128 14 14 (250880)
I0628 23:54:24.493912 84111 net.cpp:165] Memory required for data: 424480240
I0628 23:54:24.493916 84111 layer_factory.hpp:77] Creating layer inception_4c/3x3_reduce
I0628 23:54:24.493926 84111 net.cpp:106] Creating Layer inception_4c/3x3_reduce
I0628 23:54:24.493929 84111 net.cpp:454] inception_4c/3x3_reduce <- inception_4b/output_inception_4b/output_0_split_1
I0628 23:54:24.493937 84111 net.cpp:411] inception_4c/3x3_reduce -> inception_4c/3x3_reduce
I0628 23:54:24.495303 84111 net.cpp:150] Setting up inception_4c/3x3_reduce
I0628 23:54:24.495314 84111 net.cpp:157] Top shape: 10 128 14 14 (250880)
I0628 23:54:24.495317 84111 net.cpp:165] Memory required for data: 425483760
I0628 23:54:24.495323 84111 layer_factory.hpp:77] Creating layer inception_4c/relu_3x3_reduce
I0628 23:54:24.495331 84111 net.cpp:106] Creating Layer inception_4c/relu_3x3_reduce
I0628 23:54:24.495334 84111 net.cpp:454] inception_4c/relu_3x3_reduce <- inception_4c/3x3_reduce
I0628 23:54:24.495339 84111 net.cpp:397] inception_4c/relu_3x3_reduce -> inception_4c/3x3_reduce (in-place)
I0628 23:54:24.495493 84111 net.cpp:150] Setting up inception_4c/relu_3x3_reduce
I0628 23:54:24.495501 84111 net.cpp:157] Top shape: 10 128 14 14 (250880)
I0628 23:54:24.495503 84111 net.cpp:165] Memory required for data: 426487280
I0628 23:54:24.495507 84111 layer_factory.hpp:77] Creating layer inception_4c/3x3
I0628 23:54:24.495517 84111 net.cpp:106] Creating Layer inception_4c/3x3
I0628 23:54:24.495520 84111 net.cpp:454] inception_4c/3x3 <- inception_4c/3x3_reduce
I0628 23:54:24.495527 84111 net.cpp:411] inception_4c/3x3 -> inception_4c/3x3
I0628 23:54:24.498790 84111 net.cpp:150] Setting up inception_4c/3x3
I0628 23:54:24.498802 84111 net.cpp:157] Top shape: 10 256 14 14 (501760)
I0628 23:54:24.498806 84111 net.cpp:165] Memory required for data: 428494320
I0628 23:54:24.498824 84111 layer_factory.hpp:77] Creating layer inception_4c/relu_3x3
I0628 23:54:24.498831 84111 net.cpp:106] Creating Layer inception_4c/relu_3x3
I0628 23:54:24.498836 84111 net.cpp:454] inception_4c/relu_3x3 <- inception_4c/3x3
I0628 23:54:24.498841 84111 net.cpp:397] inception_4c/relu_3x3 -> inception_4c/3x3 (in-place)
I0628 23:54:24.499277 84111 net.cpp:150] Setting up inception_4c/relu_3x3
I0628 23:54:24.499289 84111 net.cpp:157] Top shape: 10 256 14 14 (501760)
I0628 23:54:24.499291 84111 net.cpp:165] Memory required for data: 430501360
I0628 23:54:24.499294 84111 layer_factory.hpp:77] Creating layer inception_4c/5x5_reduce
I0628 23:54:24.499305 84111 net.cpp:106] Creating Layer inception_4c/5x5_reduce
I0628 23:54:24.499308 84111 net.cpp:454] inception_4c/5x5_reduce <- inception_4b/output_inception_4b/output_0_split_2
I0628 23:54:24.499315 84111 net.cpp:411] inception_4c/5x5_reduce -> inception_4c/5x5_reduce
I0628 23:54:24.500257 84111 net.cpp:150] Setting up inception_4c/5x5_reduce
I0628 23:54:24.500268 84111 net.cpp:157] Top shape: 10 24 14 14 (47040)
I0628 23:54:24.500272 84111 net.cpp:165] Memory required for data: 430689520
I0628 23:54:24.500277 84111 layer_factory.hpp:77] Creating layer inception_4c/relu_5x5_reduce
I0628 23:54:24.500284 84111 net.cpp:106] Creating Layer inception_4c/relu_5x5_reduce
I0628 23:54:24.500288 84111 net.cpp:454] inception_4c/relu_5x5_reduce <- inception_4c/5x5_reduce
I0628 23:54:24.500293 84111 net.cpp:397] inception_4c/relu_5x5_reduce -> inception_4c/5x5_reduce (in-place)
I0628 23:54:24.500599 84111 net.cpp:150] Setting up inception_4c/relu_5x5_reduce
I0628 23:54:24.500610 84111 net.cpp:157] Top shape: 10 24 14 14 (47040)
I0628 23:54:24.500614 84111 net.cpp:165] Memory required for data: 430877680
I0628 23:54:24.500617 84111 layer_factory.hpp:77] Creating layer inception_4c/5x5
I0628 23:54:24.500627 84111 net.cpp:106] Creating Layer inception_4c/5x5
I0628 23:54:24.500630 84111 net.cpp:454] inception_4c/5x5 <- inception_4c/5x5_reduce
I0628 23:54:24.500638 84111 net.cpp:411] inception_4c/5x5 -> inception_4c/5x5
I0628 23:54:24.502344 84111 net.cpp:150] Setting up inception_4c/5x5
I0628 23:54:24.502357 84111 net.cpp:157] Top shape: 10 64 14 14 (125440)
I0628 23:54:24.502359 84111 net.cpp:165] Memory required for data: 431379440
I0628 23:54:24.502365 84111 layer_factory.hpp:77] Creating layer inception_4c/relu_5x5
I0628 23:54:24.502372 84111 net.cpp:106] Creating Layer inception_4c/relu_5x5
I0628 23:54:24.502375 84111 net.cpp:454] inception_4c/relu_5x5 <- inception_4c/5x5
I0628 23:54:24.502382 84111 net.cpp:397] inception_4c/relu_5x5 -> inception_4c/5x5 (in-place)
I0628 23:54:24.502533 84111 net.cpp:150] Setting up inception_4c/relu_5x5
I0628 23:54:24.502542 84111 net.cpp:157] Top shape: 10 64 14 14 (125440)
I0628 23:54:24.502545 84111 net.cpp:165] Memory required for data: 431881200
I0628 23:54:24.502548 84111 layer_factory.hpp:77] Creating layer inception_4c/pool
I0628 23:54:24.502555 84111 net.cpp:106] Creating Layer inception_4c/pool
I0628 23:54:24.502559 84111 net.cpp:454] inception_4c/pool <- inception_4b/output_inception_4b/output_0_split_3
I0628 23:54:24.502564 84111 net.cpp:411] inception_4c/pool -> inception_4c/pool
I0628 23:54:24.502609 84111 net.cpp:150] Setting up inception_4c/pool
I0628 23:54:24.502614 84111 net.cpp:157] Top shape: 10 512 14 14 (1003520)
I0628 23:54:24.502617 84111 net.cpp:165] Memory required for data: 435895280
I0628 23:54:24.502619 84111 layer_factory.hpp:77] Creating layer inception_4c/pool_proj
I0628 23:54:24.502629 84111 net.cpp:106] Creating Layer inception_4c/pool_proj
I0628 23:54:24.502632 84111 net.cpp:454] inception_4c/pool_proj <- inception_4c/pool
I0628 23:54:24.502640 84111 net.cpp:411] inception_4c/pool_proj -> inception_4c/pool_proj
I0628 23:54:24.503825 84111 net.cpp:150] Setting up inception_4c/pool_proj
I0628 23:54:24.503836 84111 net.cpp:157] Top shape: 10 64 14 14 (125440)
I0628 23:54:24.503839 84111 net.cpp:165] Memory required for data: 436397040
I0628 23:54:24.503845 84111 layer_factory.hpp:77] Creating layer inception_4c/relu_pool_proj
I0628 23:54:24.503854 84111 net.cpp:106] Creating Layer inception_4c/relu_pool_proj
I0628 23:54:24.503856 84111 net.cpp:454] inception_4c/relu_pool_proj <- inception_4c/pool_proj
I0628 23:54:24.503862 84111 net.cpp:397] inception_4c/relu_pool_proj -> inception_4c/pool_proj (in-place)
I0628 23:54:24.504166 84111 net.cpp:150] Setting up inception_4c/relu_pool_proj
I0628 23:54:24.504176 84111 net.cpp:157] Top shape: 10 64 14 14 (125440)
I0628 23:54:24.504179 84111 net.cpp:165] Memory required for data: 436898800
I0628 23:54:24.504184 84111 layer_factory.hpp:77] Creating layer inception_4c/output
I0628 23:54:24.504189 84111 net.cpp:106] Creating Layer inception_4c/output
I0628 23:54:24.504192 84111 net.cpp:454] inception_4c/output <- inception_4c/1x1
I0628 23:54:24.504196 84111 net.cpp:454] inception_4c/output <- inception_4c/3x3
I0628 23:54:24.504200 84111 net.cpp:454] inception_4c/output <- inception_4c/5x5
I0628 23:54:24.504204 84111 net.cpp:454] inception_4c/output <- inception_4c/pool_proj
I0628 23:54:24.504209 84111 net.cpp:411] inception_4c/output -> inception_4c/output
I0628 23:54:24.504240 84111 net.cpp:150] Setting up inception_4c/output
I0628 23:54:24.504245 84111 net.cpp:157] Top shape: 10 512 14 14 (1003520)
I0628 23:54:24.504247 84111 net.cpp:165] Memory required for data: 440912880
I0628 23:54:24.504251 84111 layer_factory.hpp:77] Creating layer inception_4c/output_inception_4c/output_0_split
I0628 23:54:24.504257 84111 net.cpp:106] Creating Layer inception_4c/output_inception_4c/output_0_split
I0628 23:54:24.504261 84111 net.cpp:454] inception_4c/output_inception_4c/output_0_split <- inception_4c/output
I0628 23:54:24.504266 84111 net.cpp:411] inception_4c/output_inception_4c/output_0_split -> inception_4c/output_inception_4c/output_0_split_0
I0628 23:54:24.504271 84111 net.cpp:411] inception_4c/output_inception_4c/output_0_split -> inception_4c/output_inception_4c/output_0_split_1
I0628 23:54:24.504277 84111 net.cpp:411] inception_4c/output_inception_4c/output_0_split -> inception_4c/output_inception_4c/output_0_split_2
I0628 23:54:24.504283 84111 net.cpp:411] inception_4c/output_inception_4c/output_0_split -> inception_4c/output_inception_4c/output_0_split_3
I0628 23:54:24.504339 84111 net.cpp:150] Setting up inception_4c/output_inception_4c/output_0_split
I0628 23:54:24.504345 84111 net.cpp:157] Top shape: 10 512 14 14 (1003520)
I0628 23:54:24.504348 84111 net.cpp:157] Top shape: 10 512 14 14 (1003520)
I0628 23:54:24.504351 84111 net.cpp:157] Top shape: 10 512 14 14 (1003520)
I0628 23:54:24.504354 84111 net.cpp:157] Top shape: 10 512 14 14 (1003520)
I0628 23:54:24.504357 84111 net.cpp:165] Memory required for data: 456969200
I0628 23:54:24.504360 84111 layer_factory.hpp:77] Creating layer inception_4d/1x1
I0628 23:54:24.504369 84111 net.cpp:106] Creating Layer inception_4d/1x1
I0628 23:54:24.504372 84111 net.cpp:454] inception_4d/1x1 <- inception_4c/output_inception_4c/output_0_split_0
I0628 23:54:24.504380 84111 net.cpp:411] inception_4d/1x1 -> inception_4d/1x1
I0628 23:54:24.505566 84111 net.cpp:150] Setting up inception_4d/1x1
I0628 23:54:24.505578 84111 net.cpp:157] Top shape: 10 112 14 14 (219520)
I0628 23:54:24.505581 84111 net.cpp:165] Memory required for data: 457847280
I0628 23:54:24.505587 84111 layer_factory.hpp:77] Creating layer inception_4d/relu_1x1
I0628 23:54:24.505597 84111 net.cpp:106] Creating Layer inception_4d/relu_1x1
I0628 23:54:24.505601 84111 net.cpp:454] inception_4d/relu_1x1 <- inception_4d/1x1
I0628 23:54:24.505605 84111 net.cpp:397] inception_4d/relu_1x1 -> inception_4d/1x1 (in-place)
I0628 23:54:24.505911 84111 net.cpp:150] Setting up inception_4d/relu_1x1
I0628 23:54:24.505923 84111 net.cpp:157] Top shape: 10 112 14 14 (219520)
I0628 23:54:24.505925 84111 net.cpp:165] Memory required for data: 458725360
I0628 23:54:24.505928 84111 layer_factory.hpp:77] Creating layer inception_4d/3x3_reduce
I0628 23:54:24.505939 84111 net.cpp:106] Creating Layer inception_4d/3x3_reduce
I0628 23:54:24.505942 84111 net.cpp:454] inception_4d/3x3_reduce <- inception_4c/output_inception_4c/output_0_split_1
I0628 23:54:24.505950 84111 net.cpp:411] inception_4d/3x3_reduce -> inception_4d/3x3_reduce
I0628 23:54:24.507398 84111 net.cpp:150] Setting up inception_4d/3x3_reduce
I0628 23:54:24.507411 84111 net.cpp:157] Top shape: 10 144 14 14 (282240)
I0628 23:54:24.507414 84111 net.cpp:165] Memory required for data: 459854320
I0628 23:54:24.507421 84111 layer_factory.hpp:77] Creating layer inception_4d/relu_3x3_reduce
I0628 23:54:24.507426 84111 net.cpp:106] Creating Layer inception_4d/relu_3x3_reduce
I0628 23:54:24.507431 84111 net.cpp:454] inception_4d/relu_3x3_reduce <- inception_4d/3x3_reduce
I0628 23:54:24.507436 84111 net.cpp:397] inception_4d/relu_3x3_reduce -> inception_4d/3x3_reduce (in-place)
I0628 23:54:24.507589 84111 net.cpp:150] Setting up inception_4d/relu_3x3_reduce
I0628 23:54:24.507597 84111 net.cpp:157] Top shape: 10 144 14 14 (282240)
I0628 23:54:24.507601 84111 net.cpp:165] Memory required for data: 460983280
I0628 23:54:24.507603 84111 layer_factory.hpp:77] Creating layer inception_4d/3x3
I0628 23:54:24.507613 84111 net.cpp:106] Creating Layer inception_4d/3x3
I0628 23:54:24.507616 84111 net.cpp:454] inception_4d/3x3 <- inception_4d/3x3_reduce
I0628 23:54:24.507623 84111 net.cpp:411] inception_4d/3x3 -> inception_4d/3x3
I0628 23:54:24.511467 84111 net.cpp:150] Setting up inception_4d/3x3
I0628 23:54:24.511479 84111 net.cpp:157] Top shape: 10 288 14 14 (564480)
I0628 23:54:24.511482 84111 net.cpp:165] Memory required for data: 463241200
I0628 23:54:24.511488 84111 layer_factory.hpp:77] Creating layer inception_4d/relu_3x3
I0628 23:54:24.511497 84111 net.cpp:106] Creating Layer inception_4d/relu_3x3
I0628 23:54:24.511499 84111 net.cpp:454] inception_4d/relu_3x3 <- inception_4d/3x3
I0628 23:54:24.511504 84111 net.cpp:397] inception_4d/relu_3x3 -> inception_4d/3x3 (in-place)
I0628 23:54:24.511811 84111 net.cpp:150] Setting up inception_4d/relu_3x3
I0628 23:54:24.511821 84111 net.cpp:157] Top shape: 10 288 14 14 (564480)
I0628 23:54:24.511823 84111 net.cpp:165] Memory required for data: 465499120
I0628 23:54:24.511827 84111 layer_factory.hpp:77] Creating layer inception_4d/5x5_reduce
I0628 23:54:24.511839 84111 net.cpp:106] Creating Layer inception_4d/5x5_reduce
I0628 23:54:24.511843 84111 net.cpp:454] inception_4d/5x5_reduce <- inception_4c/output_inception_4c/output_0_split_2
I0628 23:54:24.511849 84111 net.cpp:411] inception_4d/5x5_reduce -> inception_4d/5x5_reduce
I0628 23:54:24.512825 84111 net.cpp:150] Setting up inception_4d/5x5_reduce
I0628 23:54:24.512836 84111 net.cpp:157] Top shape: 10 32 14 14 (62720)
I0628 23:54:24.512840 84111 net.cpp:165] Memory required for data: 465750000
I0628 23:54:24.512845 84111 layer_factory.hpp:77] Creating layer inception_4d/relu_5x5_reduce
I0628 23:54:24.512852 84111 net.cpp:106] Creating Layer inception_4d/relu_5x5_reduce
I0628 23:54:24.512856 84111 net.cpp:454] inception_4d/relu_5x5_reduce <- inception_4d/5x5_reduce
I0628 23:54:24.512862 84111 net.cpp:397] inception_4d/relu_5x5_reduce -> inception_4d/5x5_reduce (in-place)
I0628 23:54:24.513172 84111 net.cpp:150] Setting up inception_4d/relu_5x5_reduce
I0628 23:54:24.513182 84111 net.cpp:157] Top shape: 10 32 14 14 (62720)
I0628 23:54:24.513185 84111 net.cpp:165] Memory required for data: 466000880
I0628 23:54:24.513190 84111 layer_factory.hpp:77] Creating layer inception_4d/5x5
I0628 23:54:24.513200 84111 net.cpp:106] Creating Layer inception_4d/5x5
I0628 23:54:24.513203 84111 net.cpp:454] inception_4d/5x5 <- inception_4d/5x5_reduce
I0628 23:54:24.513211 84111 net.cpp:411] inception_4d/5x5 -> inception_4d/5x5
I0628 23:54:24.514511 84111 net.cpp:150] Setting up inception_4d/5x5
I0628 23:54:24.514523 84111 net.cpp:157] Top shape: 10 64 14 14 (125440)
I0628 23:54:24.514526 84111 net.cpp:165] Memory required for data: 466502640
I0628 23:54:24.514533 84111 layer_factory.hpp:77] Creating layer inception_4d/relu_5x5
I0628 23:54:24.514539 84111 net.cpp:106] Creating Layer inception_4d/relu_5x5
I0628 23:54:24.514544 84111 net.cpp:454] inception_4d/relu_5x5 <- inception_4d/5x5
I0628 23:54:24.514549 84111 net.cpp:397] inception_4d/relu_5x5 -> inception_4d/5x5 (in-place)
I0628 23:54:24.514847 84111 net.cpp:150] Setting up inception_4d/relu_5x5
I0628 23:54:24.514858 84111 net.cpp:157] Top shape: 10 64 14 14 (125440)
I0628 23:54:24.514861 84111 net.cpp:165] Memory required for data: 467004400
I0628 23:54:24.514864 84111 layer_factory.hpp:77] Creating layer inception_4d/pool
I0628 23:54:24.514870 84111 net.cpp:106] Creating Layer inception_4d/pool
I0628 23:54:24.514874 84111 net.cpp:454] inception_4d/pool <- inception_4c/output_inception_4c/output_0_split_3
I0628 23:54:24.514883 84111 net.cpp:411] inception_4d/pool -> inception_4d/pool
I0628 23:54:24.514930 84111 net.cpp:150] Setting up inception_4d/pool
I0628 23:54:24.514937 84111 net.cpp:157] Top shape: 10 512 14 14 (1003520)
I0628 23:54:24.514940 84111 net.cpp:165] Memory required for data: 471018480
I0628 23:54:24.514943 84111 layer_factory.hpp:77] Creating layer inception_4d/pool_proj
I0628 23:54:24.514951 84111 net.cpp:106] Creating Layer inception_4d/pool_proj
I0628 23:54:24.514955 84111 net.cpp:454] inception_4d/pool_proj <- inception_4d/pool
I0628 23:54:24.514961 84111 net.cpp:411] inception_4d/pool_proj -> inception_4d/pool_proj
I0628 23:54:24.516166 84111 net.cpp:150] Setting up inception_4d/pool_proj
I0628 23:54:24.516177 84111 net.cpp:157] Top shape: 10 64 14 14 (125440)
I0628 23:54:24.516181 84111 net.cpp:165] Memory required for data: 471520240
I0628 23:54:24.516187 84111 layer_factory.hpp:77] Creating layer inception_4d/relu_pool_proj
I0628 23:54:24.516193 84111 net.cpp:106] Creating Layer inception_4d/relu_pool_proj
I0628 23:54:24.516197 84111 net.cpp:454] inception_4d/relu_pool_proj <- inception_4d/pool_proj
I0628 23:54:24.516203 84111 net.cpp:397] inception_4d/relu_pool_proj -> inception_4d/pool_proj (in-place)
I0628 23:54:24.516510 84111 net.cpp:150] Setting up inception_4d/relu_pool_proj
I0628 23:54:24.516520 84111 net.cpp:157] Top shape: 10 64 14 14 (125440)
I0628 23:54:24.516522 84111 net.cpp:165] Memory required for data: 472022000
I0628 23:54:24.516525 84111 layer_factory.hpp:77] Creating layer inception_4d/output
I0628 23:54:24.516531 84111 net.cpp:106] Creating Layer inception_4d/output
I0628 23:54:24.516535 84111 net.cpp:454] inception_4d/output <- inception_4d/1x1
I0628 23:54:24.516541 84111 net.cpp:454] inception_4d/output <- inception_4d/3x3
I0628 23:54:24.516544 84111 net.cpp:454] inception_4d/output <- inception_4d/5x5
I0628 23:54:24.516547 84111 net.cpp:454] inception_4d/output <- inception_4d/pool_proj
I0628 23:54:24.516552 84111 net.cpp:411] inception_4d/output -> inception_4d/output
I0628 23:54:24.516583 84111 net.cpp:150] Setting up inception_4d/output
I0628 23:54:24.516589 84111 net.cpp:157] Top shape: 10 528 14 14 (1034880)
I0628 23:54:24.516592 84111 net.cpp:165] Memory required for data: 476161520
I0628 23:54:24.516594 84111 layer_factory.hpp:77] Creating layer inception_4d/output_inception_4d/output_0_split
I0628 23:54:24.516600 84111 net.cpp:106] Creating Layer inception_4d/output_inception_4d/output_0_split
I0628 23:54:24.516603 84111 net.cpp:454] inception_4d/output_inception_4d/output_0_split <- inception_4d/output
I0628 23:54:24.516609 84111 net.cpp:411] inception_4d/output_inception_4d/output_0_split -> inception_4d/output_inception_4d/output_0_split_0
I0628 23:54:24.516615 84111 net.cpp:411] inception_4d/output_inception_4d/output_0_split -> inception_4d/output_inception_4d/output_0_split_1
I0628 23:54:24.516621 84111 net.cpp:411] inception_4d/output_inception_4d/output_0_split -> inception_4d/output_inception_4d/output_0_split_2
I0628 23:54:24.516626 84111 net.cpp:411] inception_4d/output_inception_4d/output_0_split -> inception_4d/output_inception_4d/output_0_split_3
I0628 23:54:24.516630 84111 net.cpp:411] inception_4d/output_inception_4d/output_0_split -> inception_4d/output_inception_4d/output_0_split_4
I0628 23:54:24.516702 84111 net.cpp:150] Setting up inception_4d/output_inception_4d/output_0_split
I0628 23:54:24.516710 84111 net.cpp:157] Top shape: 10 528 14 14 (1034880)
I0628 23:54:24.516713 84111 net.cpp:157] Top shape: 10 528 14 14 (1034880)
I0628 23:54:24.516716 84111 net.cpp:157] Top shape: 10 528 14 14 (1034880)
I0628 23:54:24.516719 84111 net.cpp:157] Top shape: 10 528 14 14 (1034880)
I0628 23:54:24.516723 84111 net.cpp:157] Top shape: 10 528 14 14 (1034880)
I0628 23:54:24.516726 84111 net.cpp:165] Memory required for data: 496859120
I0628 23:54:24.516728 84111 layer_factory.hpp:77] Creating layer loss2/ave_pool
I0628 23:54:24.516733 84111 net.cpp:106] Creating Layer loss2/ave_pool
I0628 23:54:24.516737 84111 net.cpp:454] loss2/ave_pool <- inception_4d/output_inception_4d/output_0_split_0
I0628 23:54:24.516741 84111 net.cpp:411] loss2/ave_pool -> loss2/ave_pool
I0628 23:54:24.516921 84111 net.cpp:150] Setting up loss2/ave_pool
I0628 23:54:24.516930 84111 net.cpp:157] Top shape: 10 528 4 4 (84480)
I0628 23:54:24.516932 84111 net.cpp:165] Memory required for data: 497197040
I0628 23:54:24.516935 84111 layer_factory.hpp:77] Creating layer loss2/conv
I0628 23:54:24.516945 84111 net.cpp:106] Creating Layer loss2/conv
I0628 23:54:24.516948 84111 net.cpp:454] loss2/conv <- loss2/ave_pool
I0628 23:54:24.516955 84111 net.cpp:411] loss2/conv -> loss2/conv
I0628 23:54:24.518383 84111 net.cpp:150] Setting up loss2/conv
I0628 23:54:24.518396 84111 net.cpp:157] Top shape: 10 128 4 4 (20480)
I0628 23:54:24.518399 84111 net.cpp:165] Memory required for data: 497278960
I0628 23:54:24.518405 84111 layer_factory.hpp:77] Creating layer loss2/relu_conv
I0628 23:54:24.518411 84111 net.cpp:106] Creating Layer loss2/relu_conv
I0628 23:54:24.518415 84111 net.cpp:454] loss2/relu_conv <- loss2/conv
I0628 23:54:24.518421 84111 net.cpp:397] loss2/relu_conv -> loss2/conv (in-place)
I0628 23:54:24.518575 84111 net.cpp:150] Setting up loss2/relu_conv
I0628 23:54:24.518584 84111 net.cpp:157] Top shape: 10 128 4 4 (20480)
I0628 23:54:24.518586 84111 net.cpp:165] Memory required for data: 497360880
I0628 23:54:24.518589 84111 layer_factory.hpp:77] Creating layer loss2/fc
I0628 23:54:24.518596 84111 net.cpp:106] Creating Layer loss2/fc
I0628 23:54:24.518599 84111 net.cpp:454] loss2/fc <- loss2/conv
I0628 23:54:24.518606 84111 net.cpp:411] loss2/fc -> loss2/fc
I0628 23:54:24.534018 84111 net.cpp:150] Setting up loss2/fc
I0628 23:54:24.534036 84111 net.cpp:157] Top shape: 10 1024 (10240)
I0628 23:54:24.534039 84111 net.cpp:165] Memory required for data: 497401840
I0628 23:54:24.534045 84111 layer_factory.hpp:77] Creating layer loss2/relu_fc
I0628 23:54:24.534052 84111 net.cpp:106] Creating Layer loss2/relu_fc
I0628 23:54:24.534056 84111 net.cpp:454] loss2/relu_fc <- loss2/fc
I0628 23:54:24.534061 84111 net.cpp:397] loss2/relu_fc -> loss2/fc (in-place)
I0628 23:54:24.534389 84111 net.cpp:150] Setting up loss2/relu_fc
I0628 23:54:24.534402 84111 net.cpp:157] Top shape: 10 1024 (10240)
I0628 23:54:24.534405 84111 net.cpp:165] Memory required for data: 497442800
I0628 23:54:24.534409 84111 layer_factory.hpp:77] Creating layer loss2/drop_fc
I0628 23:54:24.534415 84111 net.cpp:106] Creating Layer loss2/drop_fc
I0628 23:54:24.534418 84111 net.cpp:454] loss2/drop_fc <- loss2/fc
I0628 23:54:24.534422 84111 net.cpp:397] loss2/drop_fc -> loss2/fc (in-place)
I0628 23:54:24.534454 84111 net.cpp:150] Setting up loss2/drop_fc
I0628 23:54:24.534461 84111 net.cpp:157] Top shape: 10 1024 (10240)
I0628 23:54:24.534463 84111 net.cpp:165] Memory required for data: 497483760
I0628 23:54:24.534466 84111 layer_factory.hpp:77] Creating layer 102flowers2/classifier
I0628 23:54:24.534474 84111 net.cpp:106] Creating Layer 102flowers2/classifier
I0628 23:54:24.534477 84111 net.cpp:454] 102flowers2/classifier <- loss2/fc
I0628 23:54:24.534482 84111 net.cpp:411] 102flowers2/classifier -> 102flowers2/classifier
I0628 23:54:24.535702 84111 net.cpp:150] Setting up 102flowers2/classifier
I0628 23:54:24.535713 84111 net.cpp:157] Top shape: 10 102 (1020)
I0628 23:54:24.535717 84111 net.cpp:165] Memory required for data: 497487840
I0628 23:54:24.535722 84111 layer_factory.hpp:77] Creating layer inception_4e/1x1
I0628 23:54:24.535733 84111 net.cpp:106] Creating Layer inception_4e/1x1
I0628 23:54:24.535737 84111 net.cpp:454] inception_4e/1x1 <- inception_4d/output_inception_4d/output_0_split_1
I0628 23:54:24.535743 84111 net.cpp:411] inception_4e/1x1 -> inception_4e/1x1
I0628 23:54:24.537561 84111 net.cpp:150] Setting up inception_4e/1x1
I0628 23:54:24.537574 84111 net.cpp:157] Top shape: 10 256 14 14 (501760)
I0628 23:54:24.537576 84111 net.cpp:165] Memory required for data: 499494880
I0628 23:54:24.537582 84111 layer_factory.hpp:77] Creating layer inception_4e/relu_1x1
I0628 23:54:24.537590 84111 net.cpp:106] Creating Layer inception_4e/relu_1x1
I0628 23:54:24.537595 84111 net.cpp:454] inception_4e/relu_1x1 <- inception_4e/1x1
I0628 23:54:24.537598 84111 net.cpp:397] inception_4e/relu_1x1 -> inception_4e/1x1 (in-place)
I0628 23:54:24.537756 84111 net.cpp:150] Setting up inception_4e/relu_1x1
I0628 23:54:24.537765 84111 net.cpp:157] Top shape: 10 256 14 14 (501760)
I0628 23:54:24.537767 84111 net.cpp:165] Memory required for data: 501501920
I0628 23:54:24.537770 84111 layer_factory.hpp:77] Creating layer inception_4e/3x3_reduce
I0628 23:54:24.537781 84111 net.cpp:106] Creating Layer inception_4e/3x3_reduce
I0628 23:54:24.537786 84111 net.cpp:454] inception_4e/3x3_reduce <- inception_4d/output_inception_4d/output_0_split_2
I0628 23:54:24.537791 84111 net.cpp:411] inception_4e/3x3_reduce -> inception_4e/3x3_reduce
I0628 23:54:24.539352 84111 net.cpp:150] Setting up inception_4e/3x3_reduce
I0628 23:54:24.539366 84111 net.cpp:157] Top shape: 10 160 14 14 (313600)
I0628 23:54:24.539368 84111 net.cpp:165] Memory required for data: 502756320
I0628 23:54:24.539374 84111 layer_factory.hpp:77] Creating layer inception_4e/relu_3x3_reduce
I0628 23:54:24.539381 84111 net.cpp:106] Creating Layer inception_4e/relu_3x3_reduce
I0628 23:54:24.539384 84111 net.cpp:454] inception_4e/relu_3x3_reduce <- inception_4e/3x3_reduce
I0628 23:54:24.539389 84111 net.cpp:397] inception_4e/relu_3x3_reduce -> inception_4e/3x3_reduce (in-place)
I0628 23:54:24.539710 84111 net.cpp:150] Setting up inception_4e/relu_3x3_reduce
I0628 23:54:24.539721 84111 net.cpp:157] Top shape: 10 160 14 14 (313600)
I0628 23:54:24.539723 84111 net.cpp:165] Memory required for data: 504010720
I0628 23:54:24.539726 84111 layer_factory.hpp:77] Creating layer inception_4e/3x3
I0628 23:54:24.539736 84111 net.cpp:106] Creating Layer inception_4e/3x3
I0628 23:54:24.539741 84111 net.cpp:454] inception_4e/3x3 <- inception_4e/3x3_reduce
I0628 23:54:24.539746 84111 net.cpp:411] inception_4e/3x3 -> inception_4e/3x3
I0628 23:54:24.544214 84111 net.cpp:150] Setting up inception_4e/3x3
I0628 23:54:24.544226 84111 net.cpp:157] Top shape: 10 320 14 14 (627200)
I0628 23:54:24.544229 84111 net.cpp:165] Memory required for data: 506519520
I0628 23:54:24.544235 84111 layer_factory.hpp:77] Creating layer inception_4e/relu_3x3
I0628 23:54:24.544241 84111 net.cpp:106] Creating Layer inception_4e/relu_3x3
I0628 23:54:24.544245 84111 net.cpp:454] inception_4e/relu_3x3 <- inception_4e/3x3
I0628 23:54:24.544251 84111 net.cpp:397] inception_4e/relu_3x3 -> inception_4e/3x3 (in-place)
I0628 23:54:24.544574 84111 net.cpp:150] Setting up inception_4e/relu_3x3
I0628 23:54:24.544585 84111 net.cpp:157] Top shape: 10 320 14 14 (627200)
I0628 23:54:24.544589 84111 net.cpp:165] Memory required for data: 509028320
I0628 23:54:24.544591 84111 layer_factory.hpp:77] Creating layer inception_4e/5x5_reduce
I0628 23:54:24.544601 84111 net.cpp:106] Creating Layer inception_4e/5x5_reduce
I0628 23:54:24.544605 84111 net.cpp:454] inception_4e/5x5_reduce <- inception_4d/output_inception_4d/output_0_split_3
I0628 23:54:24.544612 84111 net.cpp:411] inception_4e/5x5_reduce -> inception_4e/5x5_reduce
I0628 23:54:24.545758 84111 net.cpp:150] Setting up inception_4e/5x5_reduce
I0628 23:54:24.545770 84111 net.cpp:157] Top shape: 10 32 14 14 (62720)
I0628 23:54:24.545773 84111 net.cpp:165] Memory required for data: 509279200
I0628 23:54:24.545780 84111 layer_factory.hpp:77] Creating layer inception_4e/relu_5x5_reduce
I0628 23:54:24.545788 84111 net.cpp:106] Creating Layer inception_4e/relu_5x5_reduce
I0628 23:54:24.545791 84111 net.cpp:454] inception_4e/relu_5x5_reduce <- inception_4e/5x5_reduce
I0628 23:54:24.545796 84111 net.cpp:397] inception_4e/relu_5x5_reduce -> inception_4e/5x5_reduce (in-place)
I0628 23:54:24.545956 84111 net.cpp:150] Setting up inception_4e/relu_5x5_reduce
I0628 23:54:24.545964 84111 net.cpp:157] Top shape: 10 32 14 14 (62720)
I0628 23:54:24.545967 84111 net.cpp:165] Memory required for data: 509530080
I0628 23:54:24.545970 84111 layer_factory.hpp:77] Creating layer inception_4e/5x5
I0628 23:54:24.545981 84111 net.cpp:106] Creating Layer inception_4e/5x5
I0628 23:54:24.545985 84111 net.cpp:454] inception_4e/5x5 <- inception_4e/5x5_reduce
I0628 23:54:24.545991 84111 net.cpp:411] inception_4e/5x5 -> inception_4e/5x5
I0628 23:54:24.548107 84111 net.cpp:150] Setting up inception_4e/5x5
I0628 23:54:24.548120 84111 net.cpp:157] Top shape: 10 128 14 14 (250880)
I0628 23:54:24.548125 84111 net.cpp:165] Memory required for data: 510533600
I0628 23:54:24.548130 84111 layer_factory.hpp:77] Creating layer inception_4e/relu_5x5
I0628 23:54:24.548136 84111 net.cpp:106] Creating Layer inception_4e/relu_5x5
I0628 23:54:24.548141 84111 net.cpp:454] inception_4e/relu_5x5 <- inception_4e/5x5
I0628 23:54:24.548144 84111 net.cpp:397] inception_4e/relu_5x5 -> inception_4e/5x5 (in-place)
I0628 23:54:24.548458 84111 net.cpp:150] Setting up inception_4e/relu_5x5
I0628 23:54:24.548470 84111 net.cpp:157] Top shape: 10 128 14 14 (250880)
I0628 23:54:24.548471 84111 net.cpp:165] Memory required for data: 511537120
I0628 23:54:24.548475 84111 layer_factory.hpp:77] Creating layer inception_4e/pool
I0628 23:54:24.548482 84111 net.cpp:106] Creating Layer inception_4e/pool
I0628 23:54:24.548485 84111 net.cpp:454] inception_4e/pool <- inception_4d/output_inception_4d/output_0_split_4
I0628 23:54:24.548491 84111 net.cpp:411] inception_4e/pool -> inception_4e/pool
I0628 23:54:24.548540 84111 net.cpp:150] Setting up inception_4e/pool
I0628 23:54:24.548547 84111 net.cpp:157] Top shape: 10 528 14 14 (1034880)
I0628 23:54:24.548549 84111 net.cpp:165] Memory required for data: 515676640
I0628 23:54:24.548552 84111 layer_factory.hpp:77] Creating layer inception_4e/pool_proj
I0628 23:54:24.548562 84111 net.cpp:106] Creating Layer inception_4e/pool_proj
I0628 23:54:24.548566 84111 net.cpp:454] inception_4e/pool_proj <- inception_4e/pool
I0628 23:54:24.548571 84111 net.cpp:411] inception_4e/pool_proj -> inception_4e/pool_proj
I0628 23:54:24.550000 84111 net.cpp:150] Setting up inception_4e/pool_proj
I0628 23:54:24.550011 84111 net.cpp:157] Top shape: 10 128 14 14 (250880)
I0628 23:54:24.550015 84111 net.cpp:165] Memory required for data: 516680160
I0628 23:54:24.550021 84111 layer_factory.hpp:77] Creating layer inception_4e/relu_pool_proj
I0628 23:54:24.550043 84111 net.cpp:106] Creating Layer inception_4e/relu_pool_proj
I0628 23:54:24.550047 84111 net.cpp:454] inception_4e/relu_pool_proj <- inception_4e/pool_proj
I0628 23:54:24.550052 84111 net.cpp:397] inception_4e/relu_pool_proj -> inception_4e/pool_proj (in-place)
I0628 23:54:24.550364 84111 net.cpp:150] Setting up inception_4e/relu_pool_proj
I0628 23:54:24.550374 84111 net.cpp:157] Top shape: 10 128 14 14 (250880)
I0628 23:54:24.550376 84111 net.cpp:165] Memory required for data: 517683680
I0628 23:54:24.550380 84111 layer_factory.hpp:77] Creating layer inception_4e/output
I0628 23:54:24.550387 84111 net.cpp:106] Creating Layer inception_4e/output
I0628 23:54:24.550391 84111 net.cpp:454] inception_4e/output <- inception_4e/1x1
I0628 23:54:24.550395 84111 net.cpp:454] inception_4e/output <- inception_4e/3x3
I0628 23:54:24.550400 84111 net.cpp:454] inception_4e/output <- inception_4e/5x5
I0628 23:54:24.550403 84111 net.cpp:454] inception_4e/output <- inception_4e/pool_proj
I0628 23:54:24.550407 84111 net.cpp:411] inception_4e/output -> inception_4e/output
I0628 23:54:24.550441 84111 net.cpp:150] Setting up inception_4e/output
I0628 23:54:24.550447 84111 net.cpp:157] Top shape: 10 832 14 14 (1630720)
I0628 23:54:24.550451 84111 net.cpp:165] Memory required for data: 524206560
I0628 23:54:24.550453 84111 layer_factory.hpp:77] Creating layer pool4/3x3_s2
I0628 23:54:24.550458 84111 net.cpp:106] Creating Layer pool4/3x3_s2
I0628 23:54:24.550462 84111 net.cpp:454] pool4/3x3_s2 <- inception_4e/output
I0628 23:54:24.550469 84111 net.cpp:411] pool4/3x3_s2 -> pool4/3x3_s2
I0628 23:54:24.550510 84111 net.cpp:150] Setting up pool4/3x3_s2
I0628 23:54:24.550516 84111 net.cpp:157] Top shape: 10 832 7 7 (407680)
I0628 23:54:24.550518 84111 net.cpp:165] Memory required for data: 525837280
I0628 23:54:24.550521 84111 layer_factory.hpp:77] Creating layer pool4/3x3_s2_pool4/3x3_s2_0_split
I0628 23:54:24.550529 84111 net.cpp:106] Creating Layer pool4/3x3_s2_pool4/3x3_s2_0_split
I0628 23:54:24.550531 84111 net.cpp:454] pool4/3x3_s2_pool4/3x3_s2_0_split <- pool4/3x3_s2
I0628 23:54:24.550539 84111 net.cpp:411] pool4/3x3_s2_pool4/3x3_s2_0_split -> pool4/3x3_s2_pool4/3x3_s2_0_split_0
I0628 23:54:24.550545 84111 net.cpp:411] pool4/3x3_s2_pool4/3x3_s2_0_split -> pool4/3x3_s2_pool4/3x3_s2_0_split_1
I0628 23:54:24.550550 84111 net.cpp:411] pool4/3x3_s2_pool4/3x3_s2_0_split -> pool4/3x3_s2_pool4/3x3_s2_0_split_2
I0628 23:54:24.550555 84111 net.cpp:411] pool4/3x3_s2_pool4/3x3_s2_0_split -> pool4/3x3_s2_pool4/3x3_s2_0_split_3
I0628 23:54:24.550616 84111 net.cpp:150] Setting up pool4/3x3_s2_pool4/3x3_s2_0_split
I0628 23:54:24.550621 84111 net.cpp:157] Top shape: 10 832 7 7 (407680)
I0628 23:54:24.550624 84111 net.cpp:157] Top shape: 10 832 7 7 (407680)
I0628 23:54:24.550627 84111 net.cpp:157] Top shape: 10 832 7 7 (407680)
I0628 23:54:24.550631 84111 net.cpp:157] Top shape: 10 832 7 7 (407680)
I0628 23:54:24.550632 84111 net.cpp:165] Memory required for data: 532360160
I0628 23:54:24.550635 84111 layer_factory.hpp:77] Creating layer inception_5a/1x1
I0628 23:54:24.550644 84111 net.cpp:106] Creating Layer inception_5a/1x1
I0628 23:54:24.550647 84111 net.cpp:454] inception_5a/1x1 <- pool4/3x3_s2_pool4/3x3_s2_0_split_0
I0628 23:54:24.550654 84111 net.cpp:411] inception_5a/1x1 -> inception_5a/1x1
I0628 23:54:24.553439 84111 net.cpp:150] Setting up inception_5a/1x1
I0628 23:54:24.553452 84111 net.cpp:157] Top shape: 10 256 7 7 (125440)
I0628 23:54:24.553454 84111 net.cpp:165] Memory required for data: 532861920
I0628 23:54:24.553462 84111 layer_factory.hpp:77] Creating layer inception_5a/relu_1x1
I0628 23:54:24.553467 84111 net.cpp:106] Creating Layer inception_5a/relu_1x1
I0628 23:54:24.553470 84111 net.cpp:454] inception_5a/relu_1x1 <- inception_5a/1x1
I0628 23:54:24.553478 84111 net.cpp:397] inception_5a/relu_1x1 -> inception_5a/1x1 (in-place)
I0628 23:54:24.553632 84111 net.cpp:150] Setting up inception_5a/relu_1x1
I0628 23:54:24.553640 84111 net.cpp:157] Top shape: 10 256 7 7 (125440)
I0628 23:54:24.553643 84111 net.cpp:165] Memory required for data: 533363680
I0628 23:54:24.553647 84111 layer_factory.hpp:77] Creating layer inception_5a/3x3_reduce
I0628 23:54:24.553655 84111 net.cpp:106] Creating Layer inception_5a/3x3_reduce
I0628 23:54:24.553660 84111 net.cpp:454] inception_5a/3x3_reduce <- pool4/3x3_s2_pool4/3x3_s2_0_split_1
I0628 23:54:24.553668 84111 net.cpp:411] inception_5a/3x3_reduce -> inception_5a/3x3_reduce
I0628 23:54:24.555990 84111 net.cpp:150] Setting up inception_5a/3x3_reduce
I0628 23:54:24.556001 84111 net.cpp:157] Top shape: 10 160 7 7 (78400)
I0628 23:54:24.556005 84111 net.cpp:165] Memory required for data: 533677280
I0628 23:54:24.556011 84111 layer_factory.hpp:77] Creating layer inception_5a/relu_3x3_reduce
I0628 23:54:24.556017 84111 net.cpp:106] Creating Layer inception_5a/relu_3x3_reduce
I0628 23:54:24.556021 84111 net.cpp:454] inception_5a/relu_3x3_reduce <- inception_5a/3x3_reduce
I0628 23:54:24.556026 84111 net.cpp:397] inception_5a/relu_3x3_reduce -> inception_5a/3x3_reduce (in-place)
I0628 23:54:24.556339 84111 net.cpp:150] Setting up inception_5a/relu_3x3_reduce
I0628 23:54:24.556349 84111 net.cpp:157] Top shape: 10 160 7 7 (78400)
I0628 23:54:24.556351 84111 net.cpp:165] Memory required for data: 533990880
I0628 23:54:24.556355 84111 layer_factory.hpp:77] Creating layer inception_5a/3x3
I0628 23:54:24.556365 84111 net.cpp:106] Creating Layer inception_5a/3x3
I0628 23:54:24.556370 84111 net.cpp:454] inception_5a/3x3 <- inception_5a/3x3_reduce
I0628 23:54:24.556376 84111 net.cpp:411] inception_5a/3x3 -> inception_5a/3x3
I0628 23:54:24.560891 84111 net.cpp:150] Setting up inception_5a/3x3
I0628 23:54:24.560905 84111 net.cpp:157] Top shape: 10 320 7 7 (156800)
I0628 23:54:24.560909 84111 net.cpp:165] Memory required for data: 534618080
I0628 23:54:24.560915 84111 layer_factory.hpp:77] Creating layer inception_5a/relu_3x3
I0628 23:54:24.560921 84111 net.cpp:106] Creating Layer inception_5a/relu_3x3
I0628 23:54:24.560925 84111 net.cpp:454] inception_5a/relu_3x3 <- inception_5a/3x3
I0628 23:54:24.560930 84111 net.cpp:397] inception_5a/relu_3x3 -> inception_5a/3x3 (in-place)
I0628 23:54:24.561247 84111 net.cpp:150] Setting up inception_5a/relu_3x3
I0628 23:54:24.561259 84111 net.cpp:157] Top shape: 10 320 7 7 (156800)
I0628 23:54:24.561261 84111 net.cpp:165] Memory required for data: 535245280
I0628 23:54:24.561264 84111 layer_factory.hpp:77] Creating layer inception_5a/5x5_reduce
I0628 23:54:24.561275 84111 net.cpp:106] Creating Layer inception_5a/5x5_reduce
I0628 23:54:24.561278 84111 net.cpp:454] inception_5a/5x5_reduce <- pool4/3x3_s2_pool4/3x3_s2_0_split_2
I0628 23:54:24.561285 84111 net.cpp:411] inception_5a/5x5_reduce -> inception_5a/5x5_reduce
I0628 23:54:24.562500 84111 net.cpp:150] Setting up inception_5a/5x5_reduce
I0628 23:54:24.562511 84111 net.cpp:157] Top shape: 10 32 7 7 (15680)
I0628 23:54:24.562515 84111 net.cpp:165] Memory required for data: 535308000
I0628 23:54:24.562521 84111 layer_factory.hpp:77] Creating layer inception_5a/relu_5x5_reduce
I0628 23:54:24.562528 84111 net.cpp:106] Creating Layer inception_5a/relu_5x5_reduce
I0628 23:54:24.562532 84111 net.cpp:454] inception_5a/relu_5x5_reduce <- inception_5a/5x5_reduce
I0628 23:54:24.562537 84111 net.cpp:397] inception_5a/relu_5x5_reduce -> inception_5a/5x5_reduce (in-place)
I0628 23:54:24.562697 84111 net.cpp:150] Setting up inception_5a/relu_5x5_reduce
I0628 23:54:24.562706 84111 net.cpp:157] Top shape: 10 32 7 7 (15680)
I0628 23:54:24.562708 84111 net.cpp:165] Memory required for data: 535370720
I0628 23:54:24.562712 84111 layer_factory.hpp:77] Creating layer inception_5a/5x5
I0628 23:54:24.562721 84111 net.cpp:106] Creating Layer inception_5a/5x5
I0628 23:54:24.562726 84111 net.cpp:454] inception_5a/5x5 <- inception_5a/5x5_reduce
I0628 23:54:24.562732 84111 net.cpp:411] inception_5a/5x5 -> inception_5a/5x5
I0628 23:54:24.564368 84111 net.cpp:150] Setting up inception_5a/5x5
I0628 23:54:24.564379 84111 net.cpp:157] Top shape: 10 128 7 7 (62720)
I0628 23:54:24.564383 84111 net.cpp:165] Memory required for data: 535621600
I0628 23:54:24.564389 84111 layer_factory.hpp:77] Creating layer inception_5a/relu_5x5
I0628 23:54:24.564394 84111 net.cpp:106] Creating Layer inception_5a/relu_5x5
I0628 23:54:24.564399 84111 net.cpp:454] inception_5a/relu_5x5 <- inception_5a/5x5
I0628 23:54:24.564404 84111 net.cpp:397] inception_5a/relu_5x5 -> inception_5a/5x5 (in-place)
I0628 23:54:24.564716 84111 net.cpp:150] Setting up inception_5a/relu_5x5
I0628 23:54:24.564728 84111 net.cpp:157] Top shape: 10 128 7 7 (62720)
I0628 23:54:24.564729 84111 net.cpp:165] Memory required for data: 535872480
I0628 23:54:24.564733 84111 layer_factory.hpp:77] Creating layer inception_5a/pool
I0628 23:54:24.564739 84111 net.cpp:106] Creating Layer inception_5a/pool
I0628 23:54:24.564743 84111 net.cpp:454] inception_5a/pool <- pool4/3x3_s2_pool4/3x3_s2_0_split_3
I0628 23:54:24.564749 84111 net.cpp:411] inception_5a/pool -> inception_5a/pool
I0628 23:54:24.564812 84111 net.cpp:150] Setting up inception_5a/pool
I0628 23:54:24.564826 84111 net.cpp:157] Top shape: 10 832 7 7 (407680)
I0628 23:54:24.564828 84111 net.cpp:165] Memory required for data: 537503200
I0628 23:54:24.564831 84111 layer_factory.hpp:77] Creating layer inception_5a/pool_proj
I0628 23:54:24.564841 84111 net.cpp:106] Creating Layer inception_5a/pool_proj
I0628 23:54:24.564846 84111 net.cpp:454] inception_5a/pool_proj <- inception_5a/pool
I0628 23:54:24.564851 84111 net.cpp:411] inception_5a/pool_proj -> inception_5a/pool_proj
I0628 23:54:24.566865 84111 net.cpp:150] Setting up inception_5a/pool_proj
I0628 23:54:24.566877 84111 net.cpp:157] Top shape: 10 128 7 7 (62720)
I0628 23:54:24.566880 84111 net.cpp:165] Memory required for data: 537754080
I0628 23:54:24.566887 84111 layer_factory.hpp:77] Creating layer inception_5a/relu_pool_proj
I0628 23:54:24.566895 84111 net.cpp:106] Creating Layer inception_5a/relu_pool_proj
I0628 23:54:24.566898 84111 net.cpp:454] inception_5a/relu_pool_proj <- inception_5a/pool_proj
I0628 23:54:24.566903 84111 net.cpp:397] inception_5a/relu_pool_proj -> inception_5a/pool_proj (in-place)
I0628 23:54:24.567221 84111 net.cpp:150] Setting up inception_5a/relu_pool_proj
I0628 23:54:24.567231 84111 net.cpp:157] Top shape: 10 128 7 7 (62720)
I0628 23:54:24.567236 84111 net.cpp:165] Memory required for data: 538004960
I0628 23:54:24.567240 84111 layer_factory.hpp:77] Creating layer inception_5a/output
I0628 23:54:24.567246 84111 net.cpp:106] Creating Layer inception_5a/output
I0628 23:54:24.567250 84111 net.cpp:454] inception_5a/output <- inception_5a/1x1
I0628 23:54:24.567253 84111 net.cpp:454] inception_5a/output <- inception_5a/3x3
I0628 23:54:24.567257 84111 net.cpp:454] inception_5a/output <- inception_5a/5x5
I0628 23:54:24.567261 84111 net.cpp:454] inception_5a/output <- inception_5a/pool_proj
I0628 23:54:24.567265 84111 net.cpp:411] inception_5a/output -> inception_5a/output
I0628 23:54:24.567301 84111 net.cpp:150] Setting up inception_5a/output
I0628 23:54:24.567306 84111 net.cpp:157] Top shape: 10 832 7 7 (407680)
I0628 23:54:24.567309 84111 net.cpp:165] Memory required for data: 539635680
I0628 23:54:24.567312 84111 layer_factory.hpp:77] Creating layer inception_5a/output_inception_5a/output_0_split
I0628 23:54:24.567318 84111 net.cpp:106] Creating Layer inception_5a/output_inception_5a/output_0_split
I0628 23:54:24.567322 84111 net.cpp:454] inception_5a/output_inception_5a/output_0_split <- inception_5a/output
I0628 23:54:24.567327 84111 net.cpp:411] inception_5a/output_inception_5a/output_0_split -> inception_5a/output_inception_5a/output_0_split_0
I0628 23:54:24.567333 84111 net.cpp:411] inception_5a/output_inception_5a/output_0_split -> inception_5a/output_inception_5a/output_0_split_1
I0628 23:54:24.567338 84111 net.cpp:411] inception_5a/output_inception_5a/output_0_split -> inception_5a/output_inception_5a/output_0_split_2
I0628 23:54:24.567343 84111 net.cpp:411] inception_5a/output_inception_5a/output_0_split -> inception_5a/output_inception_5a/output_0_split_3
I0628 23:54:24.567410 84111 net.cpp:150] Setting up inception_5a/output_inception_5a/output_0_split
I0628 23:54:24.567416 84111 net.cpp:157] Top shape: 10 832 7 7 (407680)
I0628 23:54:24.567420 84111 net.cpp:157] Top shape: 10 832 7 7 (407680)
I0628 23:54:24.567423 84111 net.cpp:157] Top shape: 10 832 7 7 (407680)
I0628 23:54:24.567426 84111 net.cpp:157] Top shape: 10 832 7 7 (407680)
I0628 23:54:24.567430 84111 net.cpp:165] Memory required for data: 546158560
I0628 23:54:24.567431 84111 layer_factory.hpp:77] Creating layer inception_5b/1x1
I0628 23:54:24.567440 84111 net.cpp:106] Creating Layer inception_5b/1x1
I0628 23:54:24.567445 84111 net.cpp:454] inception_5b/1x1 <- inception_5a/output_inception_5a/output_0_split_0
I0628 23:54:24.567450 84111 net.cpp:411] inception_5b/1x1 -> inception_5b/1x1
I0628 23:54:24.571072 84111 net.cpp:150] Setting up inception_5b/1x1
I0628 23:54:24.571086 84111 net.cpp:157] Top shape: 10 384 7 7 (188160)
I0628 23:54:24.571089 84111 net.cpp:165] Memory required for data: 546911200
I0628 23:54:24.571096 84111 layer_factory.hpp:77] Creating layer inception_5b/relu_1x1
I0628 23:54:24.571101 84111 net.cpp:106] Creating Layer inception_5b/relu_1x1
I0628 23:54:24.571105 84111 net.cpp:454] inception_5b/relu_1x1 <- inception_5b/1x1
I0628 23:54:24.571110 84111 net.cpp:397] inception_5b/relu_1x1 -> inception_5b/1x1 (in-place)
I0628 23:54:24.571266 84111 net.cpp:150] Setting up inception_5b/relu_1x1
I0628 23:54:24.571275 84111 net.cpp:157] Top shape: 10 384 7 7 (188160)
I0628 23:54:24.571277 84111 net.cpp:165] Memory required for data: 547663840
I0628 23:54:24.571281 84111 layer_factory.hpp:77] Creating layer inception_5b/3x3_reduce
I0628 23:54:24.571291 84111 net.cpp:106] Creating Layer inception_5b/3x3_reduce
I0628 23:54:24.571295 84111 net.cpp:454] inception_5b/3x3_reduce <- inception_5a/output_inception_5a/output_0_split_1
I0628 23:54:24.571301 84111 net.cpp:411] inception_5b/3x3_reduce -> inception_5b/3x3_reduce
I0628 23:54:24.573974 84111 net.cpp:150] Setting up inception_5b/3x3_reduce
I0628 23:54:24.573987 84111 net.cpp:157] Top shape: 10 192 7 7 (94080)
I0628 23:54:24.573989 84111 net.cpp:165] Memory required for data: 548040160
I0628 23:54:24.573995 84111 layer_factory.hpp:77] Creating layer inception_5b/relu_3x3_reduce
I0628 23:54:24.574002 84111 net.cpp:106] Creating Layer inception_5b/relu_3x3_reduce
I0628 23:54:24.574005 84111 net.cpp:454] inception_5b/relu_3x3_reduce <- inception_5b/3x3_reduce
I0628 23:54:24.574012 84111 net.cpp:397] inception_5b/relu_3x3_reduce -> inception_5b/3x3_reduce (in-place)
I0628 23:54:24.574328 84111 net.cpp:150] Setting up inception_5b/relu_3x3_reduce
I0628 23:54:24.574338 84111 net.cpp:157] Top shape: 10 192 7 7 (94080)
I0628 23:54:24.574342 84111 net.cpp:165] Memory required for data: 548416480
I0628 23:54:24.574345 84111 layer_factory.hpp:77] Creating layer inception_5b/3x3
I0628 23:54:24.574354 84111 net.cpp:106] Creating Layer inception_5b/3x3
I0628 23:54:24.574358 84111 net.cpp:454] inception_5b/3x3 <- inception_5b/3x3_reduce
I0628 23:54:24.574365 84111 net.cpp:411] inception_5b/3x3 -> inception_5b/3x3
I0628 23:54:24.580217 84111 net.cpp:150] Setting up inception_5b/3x3
I0628 23:54:24.580229 84111 net.cpp:157] Top shape: 10 384 7 7 (188160)
I0628 23:54:24.580232 84111 net.cpp:165] Memory required for data: 549169120
I0628 23:54:24.580240 84111 layer_factory.hpp:77] Creating layer inception_5b/relu_3x3
I0628 23:54:24.580245 84111 net.cpp:106] Creating Layer inception_5b/relu_3x3
I0628 23:54:24.580248 84111 net.cpp:454] inception_5b/relu_3x3 <- inception_5b/3x3
I0628 23:54:24.580255 84111 net.cpp:397] inception_5b/relu_3x3 -> inception_5b/3x3 (in-place)
I0628 23:54:24.580580 84111 net.cpp:150] Setting up inception_5b/relu_3x3
I0628 23:54:24.580590 84111 net.cpp:157] Top shape: 10 384 7 7 (188160)
I0628 23:54:24.580593 84111 net.cpp:165] Memory required for data: 549921760
I0628 23:54:24.580596 84111 layer_factory.hpp:77] Creating layer inception_5b/5x5_reduce
I0628 23:54:24.580606 84111 net.cpp:106] Creating Layer inception_5b/5x5_reduce
I0628 23:54:24.580610 84111 net.cpp:454] inception_5b/5x5_reduce <- inception_5a/output_inception_5a/output_0_split_2
I0628 23:54:24.580618 84111 net.cpp:411] inception_5b/5x5_reduce -> inception_5b/5x5_reduce
I0628 23:54:24.582437 84111 net.cpp:150] Setting up inception_5b/5x5_reduce
I0628 23:54:24.582449 84111 net.cpp:157] Top shape: 10 48 7 7 (23520)
I0628 23:54:24.582453 84111 net.cpp:165] Memory required for data: 550015840
I0628 23:54:24.582459 84111 layer_factory.hpp:77] Creating layer inception_5b/relu_5x5_reduce
I0628 23:54:24.582465 84111 net.cpp:106] Creating Layer inception_5b/relu_5x5_reduce
I0628 23:54:24.582469 84111 net.cpp:454] inception_5b/relu_5x5_reduce <- inception_5b/5x5_reduce
I0628 23:54:24.582474 84111 net.cpp:397] inception_5b/relu_5x5_reduce -> inception_5b/5x5_reduce (in-place)
I0628 23:54:24.582702 84111 net.cpp:150] Setting up inception_5b/relu_5x5_reduce
I0628 23:54:24.582711 84111 net.cpp:157] Top shape: 10 48 7 7 (23520)
I0628 23:54:24.582715 84111 net.cpp:165] Memory required for data: 550109920
I0628 23:54:24.582717 84111 layer_factory.hpp:77] Creating layer inception_5b/5x5
I0628 23:54:24.582726 84111 net.cpp:106] Creating Layer inception_5b/5x5
I0628 23:54:24.582731 84111 net.cpp:454] inception_5b/5x5 <- inception_5b/5x5_reduce
I0628 23:54:24.582736 84111 net.cpp:411] inception_5b/5x5 -> inception_5b/5x5
I0628 23:54:24.584687 84111 net.cpp:150] Setting up inception_5b/5x5
I0628 23:54:24.584698 84111 net.cpp:157] Top shape: 10 128 7 7 (62720)
I0628 23:54:24.584702 84111 net.cpp:165] Memory required for data: 550360800
I0628 23:54:24.584708 84111 layer_factory.hpp:77] Creating layer inception_5b/relu_5x5
I0628 23:54:24.584714 84111 net.cpp:106] Creating Layer inception_5b/relu_5x5
I0628 23:54:24.584718 84111 net.cpp:454] inception_5b/relu_5x5 <- inception_5b/5x5
I0628 23:54:24.584724 84111 net.cpp:397] inception_5b/relu_5x5 -> inception_5b/5x5 (in-place)
I0628 23:54:24.585047 84111 net.cpp:150] Setting up inception_5b/relu_5x5
I0628 23:54:24.585057 84111 net.cpp:157] Top shape: 10 128 7 7 (62720)
I0628 23:54:24.585060 84111 net.cpp:165] Memory required for data: 550611680
I0628 23:54:24.585063 84111 layer_factory.hpp:77] Creating layer inception_5b/pool
I0628 23:54:24.585072 84111 net.cpp:106] Creating Layer inception_5b/pool
I0628 23:54:24.585075 84111 net.cpp:454] inception_5b/pool <- inception_5a/output_inception_5a/output_0_split_3
I0628 23:54:24.585081 84111 net.cpp:411] inception_5b/pool -> inception_5b/pool
I0628 23:54:24.585134 84111 net.cpp:150] Setting up inception_5b/pool
I0628 23:54:24.585140 84111 net.cpp:157] Top shape: 10 832 7 7 (407680)
I0628 23:54:24.585142 84111 net.cpp:165] Memory required for data: 552242400
I0628 23:54:24.585145 84111 layer_factory.hpp:77] Creating layer inception_5b/pool_proj
I0628 23:54:24.585155 84111 net.cpp:106] Creating Layer inception_5b/pool_proj
I0628 23:54:24.585158 84111 net.cpp:454] inception_5b/pool_proj <- inception_5b/pool
I0628 23:54:24.585165 84111 net.cpp:411] inception_5b/pool_proj -> inception_5b/pool_proj
I0628 23:54:24.587208 84111 net.cpp:150] Setting up inception_5b/pool_proj
I0628 23:54:24.587220 84111 net.cpp:157] Top shape: 10 128 7 7 (62720)
I0628 23:54:24.587224 84111 net.cpp:165] Memory required for data: 552493280
I0628 23:54:24.587229 84111 layer_factory.hpp:77] Creating layer inception_5b/relu_pool_proj
I0628 23:54:24.587236 84111 net.cpp:106] Creating Layer inception_5b/relu_pool_proj
I0628 23:54:24.587240 84111 net.cpp:454] inception_5b/relu_pool_proj <- inception_5b/pool_proj
I0628 23:54:24.587245 84111 net.cpp:397] inception_5b/relu_pool_proj -> inception_5b/pool_proj (in-place)
I0628 23:54:24.587564 84111 net.cpp:150] Setting up inception_5b/relu_pool_proj
I0628 23:54:24.587575 84111 net.cpp:157] Top shape: 10 128 7 7 (62720)
I0628 23:54:24.587579 84111 net.cpp:165] Memory required for data: 552744160
I0628 23:54:24.587582 84111 layer_factory.hpp:77] Creating layer inception_5b/output
I0628 23:54:24.587589 84111 net.cpp:106] Creating Layer inception_5b/output
I0628 23:54:24.587592 84111 net.cpp:454] inception_5b/output <- inception_5b/1x1
I0628 23:54:24.587597 84111 net.cpp:454] inception_5b/output <- inception_5b/3x3
I0628 23:54:24.587601 84111 net.cpp:454] inception_5b/output <- inception_5b/5x5
I0628 23:54:24.587604 84111 net.cpp:454] inception_5b/output <- inception_5b/pool_proj
I0628 23:54:24.587610 84111 net.cpp:411] inception_5b/output -> inception_5b/output
I0628 23:54:24.587643 84111 net.cpp:150] Setting up inception_5b/output
I0628 23:54:24.587651 84111 net.cpp:157] Top shape: 10 1024 7 7 (501760)
I0628 23:54:24.587652 84111 net.cpp:165] Memory required for data: 554751200
I0628 23:54:24.587656 84111 layer_factory.hpp:77] Creating layer pool5/7x7_s1
I0628 23:54:24.587662 84111 net.cpp:106] Creating Layer pool5/7x7_s1
I0628 23:54:24.587666 84111 net.cpp:454] pool5/7x7_s1 <- inception_5b/output
I0628 23:54:24.587671 84111 net.cpp:411] pool5/7x7_s1 -> pool5/7x7_s1
I0628 23:54:24.587863 84111 net.cpp:150] Setting up pool5/7x7_s1
I0628 23:54:24.587873 84111 net.cpp:157] Top shape: 10 1024 1 1 (10240)
I0628 23:54:24.587877 84111 net.cpp:165] Memory required for data: 554792160
I0628 23:54:24.587880 84111 layer_factory.hpp:77] Creating layer pool5/drop_7x7_s1
I0628 23:54:24.587887 84111 net.cpp:106] Creating Layer pool5/drop_7x7_s1
I0628 23:54:24.587889 84111 net.cpp:454] pool5/drop_7x7_s1 <- pool5/7x7_s1
I0628 23:54:24.587895 84111 net.cpp:397] pool5/drop_7x7_s1 -> pool5/7x7_s1 (in-place)
I0628 23:54:24.587925 84111 net.cpp:150] Setting up pool5/drop_7x7_s1
I0628 23:54:24.587931 84111 net.cpp:157] Top shape: 10 1024 1 1 (10240)
I0628 23:54:24.587934 84111 net.cpp:165] Memory required for data: 554833120
I0628 23:54:24.587937 84111 layer_factory.hpp:77] Creating layer 102flowers
I0628 23:54:24.587945 84111 net.cpp:106] Creating Layer 102flowers
I0628 23:54:24.587949 84111 net.cpp:454] 102flowers <- pool5/7x7_s1
I0628 23:54:24.587959 84111 net.cpp:411] 102flowers -> 102flowers
I0628 23:54:24.588696 84111 net.cpp:150] Setting up 102flowers
I0628 23:54:24.588702 84111 net.cpp:157] Top shape: 10 102 (1020)
I0628 23:54:24.588706 84111 net.cpp:165] Memory required for data: 554837200
I0628 23:54:24.588711 84111 layer_factory.hpp:77] Creating layer prob
I0628 23:54:24.588718 84111 net.cpp:106] Creating Layer prob
I0628 23:54:24.588721 84111 net.cpp:454] prob <- 102flowers
I0628 23:54:24.588726 84111 net.cpp:411] prob -> prob
I0628 23:54:24.589124 84111 net.cpp:150] Setting up prob
I0628 23:54:24.589134 84111 net.cpp:157] Top shape: 10 102 (1020)
I0628 23:54:24.589138 84111 net.cpp:165] Memory required for data: 554841280
I0628 23:54:24.589141 84111 net.cpp:228] prob does not need backward computation.
I0628 23:54:24.589145 84111 net.cpp:228] 102flowers does not need backward computation.
I0628 23:54:24.589148 84111 net.cpp:228] pool5/drop_7x7_s1 does not need backward computation.
I0628 23:54:24.589151 84111 net.cpp:228] pool5/7x7_s1 does not need backward computation.
…
