…
 'ROOT_DIR': '/home/zheda/workspace/cnn/flower-classify',
 'TEST': {'TARGET_SIZE': [227, 227]},
 'TRAIN': {'BATCH_SIZE': 255,
           'SNAPSHOT_INFIX': '',
           'SNAPSHOT_ITERS': 10000,
           'TARGET_SIZE': [227, 227],
           'USE_FLIPPED': True,
           'USE_PREFETCH': False}}
WARNING: Logging before InitGoogleLogging() is written to STDERR
I0622 10:53:41.865648 71172 net.cpp:49] Initializing net from parameters: 
name: "102FlowerCaffeNet"
input: "data"
state {
  phase: TEST
}
input_shape {
  dim: 10
  dim: 3
  dim: 227
  dim: 227
}
layer {
  name: "conv1"
  type: "Convolution"
  bottom: "data"
  top: "conv1"
  convolution_param {
    num_output: 96
    kernel_size: 11
    stride: 4
  }
}
layer {
  name: "relu1"
  type: "ReLU"
  bottom: "conv1"
  top: "conv1"
}
layer {
  name: "pool1"
  type: "Pooling"
  bottom: "conv1"
  top: "pool1"
  pooling_param {
    pool: MAX
    kernel_size: 3
    stride: 2
  }
}
layer {
  name: "norm1"
  type: "LRN"
  bottom: "pool1"
  top: "norm1"
  lrn_param {
    local_size: 5
    alpha: 0.0001
    beta: 0.75
  }
}
layer {
  name: "conv2"
  type: "Convolution"
  bottom: "norm1"
  top: "conv2"
  convolution_param {
    num_output: 256
    pad: 2
    kernel_size: 5
    group: 2
  }
}
layer {
  name: "relu2"
  type: "ReLU"
  bottom: "conv2"
  top: "conv2"
}
layer {
  name: "pool2"
  type: "Pooling"
  bottom: "conv2"
  top: "pool2"
  pooling_param {
    pool: MAX
    kernel_size: 3
    stride: 2
  }
}
layer {
  name: "norm2"
  type: "LRN"
  bottom: "pool2"
  top: "norm2"
  lrn_param {
    local_size: 5
    alpha: 0.0001
    beta: 0.75
  }
}
layer {
  name: "conv3"
  type: "Convolution"
  bottom: "norm2"
  top: "conv3"
  convolution_param {
    num_output: 384
    pad: 1
    kernel_size: 3
  }
}
layer {
  name: "relu3"
  type: "ReLU"
  bottom: "conv3"
  top: "conv3"
}
layer {
  name: "conv4"
  type: "Convolution"
  bottom: "conv3"
  top: "conv4"
  convolution_param {
    num_output: 384
    pad: 1
    kernel_size: 3
    group: 2
  }
}
layer {
  name: "relu4"
  type: "ReLU"
  bottom: "conv4"
  top: "conv4"
}
layer {
  name: "conv5"
  type: "Convolution"
  bottom: "conv4"
  top: "conv5"
  convolution_param {
    num_output: 256
    pad: 1
    kernel_size: 3
    group: 2
  }
}
layer {
  name: "relu5"
  type: "ReLU"
  bottom: "conv5"
  top: "conv5"
}
layer {
  name: "pool5"
  type: "Pooling"
  bottom: "conv5"
  top: "pool5"
  pooling_param {
    pool: MAX
    kernel_size: 3
    stride: 2
  }
}
layer {
  name: "fc6"
  type: "InnerProduct"
  bottom: "pool5"
  top: "fc6"
  inner_product_param {
    num_output: 4096
  }
}
layer {
  name: "relu6"
  type: "ReLU"
  bottom: "fc6"
  top: "fc6"
}
layer {
  name: "drop6"
  type: "Dropout"
  bottom: "fc6"
  top: "fc6"
  dropout_param {
    dropout_ratio: 0.5
  }
}
layer {
  name: "fc7"
  type: "InnerProduct"
  bottom: "fc6"
  top: "fc7"
  inner_product_param {
    num_output: 4096
  }
}
layer {
  name: "relu7"
  type: "ReLU"
  bottom: "fc7"
  top: "fc7"
}
layer {
  name: "drop7"
  type: "Dropout"
  bottom: "fc7"
  top: "fc7"
  dropout_param {
    dropout_ratio: 0.5
  }
}
layer {
  name: "102flower"
  type: "InnerProduct"
  bottom: "fc7"
  top: "102flower"
  inner_product_param {
    num_output: 102
  }
}
layer {
  name: "prob"
  type: "Softmax"
  bottom: "102flower"
  top: "prob"
}
I0622 10:53:41.865721 71172 net.cpp:413] Input 0 -> data
I0622 10:53:41.874119 71172 layer_factory.hpp:77] Creating layer conv1
I0622 10:53:41.874141 71172 net.cpp:106] Creating Layer conv1
I0622 10:53:41.874145 71172 net.cpp:454] conv1 <- data
I0622 10:53:41.874152 71172 net.cpp:411] conv1 -> conv1
I0622 10:53:41.998154 71172 net.cpp:150] Setting up conv1
I0622 10:53:41.998184 71172 net.cpp:157] Top shape: 10 96 55 55 (2904000)
I0622 10:53:41.998188 71172 net.cpp:165] Memory required for data: 11616000
I0622 10:53:41.998206 71172 layer_factory.hpp:77] Creating layer relu1
I0622 10:53:41.998219 71172 net.cpp:106] Creating Layer relu1
I0622 10:53:41.998222 71172 net.cpp:454] relu1 <- conv1
I0622 10:53:41.998227 71172 net.cpp:397] relu1 -> conv1 (in-place)
I0622 10:53:41.998441 71172 net.cpp:150] Setting up relu1
I0622 10:53:41.998450 71172 net.cpp:157] Top shape: 10 96 55 55 (2904000)
I0622 10:53:41.998452 71172 net.cpp:165] Memory required for data: 23232000
I0622 10:53:41.998456 71172 layer_factory.hpp:77] Creating layer pool1
I0622 10:53:41.998463 71172 net.cpp:106] Creating Layer pool1
I0622 10:53:41.998466 71172 net.cpp:454] pool1 <- conv1
I0622 10:53:41.998471 71172 net.cpp:411] pool1 -> pool1
I0622 10:53:41.998534 71172 net.cpp:150] Setting up pool1
I0622 10:53:41.998540 71172 net.cpp:157] Top shape: 10 96 27 27 (699840)
I0622 10:53:41.998543 71172 net.cpp:165] Memory required for data: 26031360
I0622 10:53:41.998545 71172 layer_factory.hpp:77] Creating layer norm1
I0622 10:53:41.998553 71172 net.cpp:106] Creating Layer norm1
I0622 10:53:41.998555 71172 net.cpp:454] norm1 <- pool1
I0622 10:53:41.998558 71172 net.cpp:411] norm1 -> norm1
I0622 10:53:41.998872 71172 net.cpp:150] Setting up norm1
I0622 10:53:41.998883 71172 net.cpp:157] Top shape: 10 96 27 27 (699840)
I0622 10:53:41.998885 71172 net.cpp:165] Memory required for data: 28830720
I0622 10:53:41.998888 71172 layer_factory.hpp:77] Creating layer conv2
I0622 10:53:41.998898 71172 net.cpp:106] Creating Layer conv2
I0622 10:53:41.998900 71172 net.cpp:454] conv2 <- norm1
I0622 10:53:41.998904 71172 net.cpp:411] conv2 -> conv2
I0622 10:53:42.002123 71172 net.cpp:150] Setting up conv2
I0622 10:53:42.002136 71172 net.cpp:157] Top shape: 10 256 27 27 (1866240)
I0622 10:53:42.002140 71172 net.cpp:165] Memory required for data: 36295680
I0622 10:53:42.002149 71172 layer_factory.hpp:77] Creating layer relu2
I0622 10:53:42.002167 71172 net.cpp:106] Creating Layer relu2
I0622 10:53:42.002171 71172 net.cpp:454] relu2 <- conv2
I0622 10:53:42.002176 71172 net.cpp:397] relu2 -> conv2 (in-place)
I0622 10:53:42.002367 71172 net.cpp:150] Setting up relu2
I0622 10:53:42.002373 71172 net.cpp:157] Top shape: 10 256 27 27 (1866240)
I0622 10:53:42.002377 71172 net.cpp:165] Memory required for data: 43760640
I0622 10:53:42.002380 71172 layer_factory.hpp:77] Creating layer pool2
I0622 10:53:42.002388 71172 net.cpp:106] Creating Layer pool2
I0622 10:53:42.002390 71172 net.cpp:454] pool2 <- conv2
I0622 10:53:42.002405 71172 net.cpp:411] pool2 -> pool2
I0622 10:53:42.002456 71172 net.cpp:150] Setting up pool2
I0622 10:53:42.002462 71172 net.cpp:157] Top shape: 10 256 13 13 (432640)
I0622 10:53:42.002465 71172 net.cpp:165] Memory required for data: 45491200
I0622 10:53:42.002467 71172 layer_factory.hpp:77] Creating layer norm2
I0622 10:53:42.002473 71172 net.cpp:106] Creating Layer norm2
I0622 10:53:42.002476 71172 net.cpp:454] norm2 <- pool2
I0622 10:53:42.002480 71172 net.cpp:411] norm2 -> norm2
I0622 10:53:42.002826 71172 net.cpp:150] Setting up norm2
I0622 10:53:42.002836 71172 net.cpp:157] Top shape: 10 256 13 13 (432640)
I0622 10:53:42.002840 71172 net.cpp:165] Memory required for data: 47221760
I0622 10:53:42.002842 71172 layer_factory.hpp:77] Creating layer conv3
I0622 10:53:42.002852 71172 net.cpp:106] Creating Layer conv3
I0622 10:53:42.002854 71172 net.cpp:454] conv3 <- norm2
I0622 10:53:42.002859 71172 net.cpp:411] conv3 -> conv3
I0622 10:53:42.005945 71172 net.cpp:150] Setting up conv3
I0622 10:53:42.005959 71172 net.cpp:157] Top shape: 10 384 13 13 (648960)
I0622 10:53:42.005962 71172 net.cpp:165] Memory required for data: 49817600
I0622 10:53:42.005971 71172 layer_factory.hpp:77] Creating layer relu3
I0622 10:53:42.005980 71172 net.cpp:106] Creating Layer relu3
I0622 10:53:42.005982 71172 net.cpp:454] relu3 <- conv3
I0622 10:53:42.005986 71172 net.cpp:397] relu3 -> conv3 (in-place)
I0622 10:53:42.006275 71172 net.cpp:150] Setting up relu3
I0622 10:53:42.006285 71172 net.cpp:157] Top shape: 10 384 13 13 (648960)
I0622 10:53:42.006289 71172 net.cpp:165] Memory required for data: 52413440
I0622 10:53:42.006291 71172 layer_factory.hpp:77] Creating layer conv4
I0622 10:53:42.006299 71172 net.cpp:106] Creating Layer conv4
I0622 10:53:42.006302 71172 net.cpp:454] conv4 <- conv3
I0622 10:53:42.006309 71172 net.cpp:411] conv4 -> conv4
I0622 10:53:42.009788 71172 net.cpp:150] Setting up conv4
I0622 10:53:42.009812 71172 net.cpp:157] Top shape: 10 384 13 13 (648960)
I0622 10:53:42.009815 71172 net.cpp:165] Memory required for data: 55009280
I0622 10:53:42.009826 71172 layer_factory.hpp:77] Creating layer relu4
I0622 10:53:42.009835 71172 net.cpp:106] Creating Layer relu4
I0622 10:53:42.009838 71172 net.cpp:454] relu4 <- conv4
I0622 10:53:42.009843 71172 net.cpp:397] relu4 -> conv4 (in-place)
I0622 10:53:42.010002 71172 net.cpp:150] Setting up relu4
I0622 10:53:42.010010 71172 net.cpp:157] Top shape: 10 384 13 13 (648960)
I0622 10:53:42.010013 71172 net.cpp:165] Memory required for data: 57605120
I0622 10:53:42.010016 71172 layer_factory.hpp:77] Creating layer conv5
I0622 10:53:42.010025 71172 net.cpp:106] Creating Layer conv5
I0622 10:53:42.010030 71172 net.cpp:454] conv5 <- conv4
I0622 10:53:42.010035 71172 net.cpp:411] conv5 -> conv5
I0622 10:53:42.013236 71172 net.cpp:150] Setting up conv5
I0622 10:53:42.013249 71172 net.cpp:157] Top shape: 10 256 13 13 (432640)
I0622 10:53:42.013252 71172 net.cpp:165] Memory required for data: 59335680
I0622 10:53:42.013263 71172 layer_factory.hpp:77] Creating layer relu5
I0622 10:53:42.013269 71172 net.cpp:106] Creating Layer relu5
I0622 10:53:42.013273 71172 net.cpp:454] relu5 <- conv5
I0622 10:53:42.013278 71172 net.cpp:397] relu5 -> conv5 (in-place)
I0622 10:53:42.013420 71172 net.cpp:150] Setting up relu5
I0622 10:53:42.013427 71172 net.cpp:157] Top shape: 10 256 13 13 (432640)
I0622 10:53:42.013429 71172 net.cpp:165] Memory required for data: 61066240
I0622 10:53:42.013432 71172 layer_factory.hpp:77] Creating layer pool5
I0622 10:53:42.013440 71172 net.cpp:106] Creating Layer pool5
I0622 10:53:42.013442 71172 net.cpp:454] pool5 <- conv5
I0622 10:53:42.013447 71172 net.cpp:411] pool5 -> pool5
I0622 10:53:42.013499 71172 net.cpp:150] Setting up pool5
I0622 10:53:42.013504 71172 net.cpp:157] Top shape: 10 256 6 6 (92160)
I0622 10:53:42.013505 71172 net.cpp:165] Memory required for data: 61434880
I0622 10:53:42.013509 71172 layer_factory.hpp:77] Creating layer fc6
I0622 10:53:42.013514 71172 net.cpp:106] Creating Layer fc6
I0622 10:53:42.013517 71172 net.cpp:454] fc6 <- pool5
I0622 10:53:42.013521 71172 net.cpp:411] fc6 -> fc6
I0622 10:53:42.102345 71172 net.cpp:150] Setting up fc6
I0622 10:53:42.102378 71172 net.cpp:157] Top shape: 10 4096 (40960)
I0622 10:53:42.102381 71172 net.cpp:165] Memory required for data: 61598720
I0622 10:53:42.102393 71172 layer_factory.hpp:77] Creating layer relu6
I0622 10:53:42.102407 71172 net.cpp:106] Creating Layer relu6
I0622 10:53:42.102411 71172 net.cpp:454] relu6 <- fc6
I0622 10:53:42.102418 71172 net.cpp:397] relu6 -> fc6 (in-place)
I0622 10:53:42.102963 71172 net.cpp:150] Setting up relu6
I0622 10:53:42.102973 71172 net.cpp:157] Top shape: 10 4096 (40960)
I0622 10:53:42.102977 71172 net.cpp:165] Memory required for data: 61762560
I0622 10:53:42.102979 71172 layer_factory.hpp:77] Creating layer drop6
I0622 10:53:42.102993 71172 net.cpp:106] Creating Layer drop6
I0622 10:53:42.102998 71172 net.cpp:454] drop6 <- fc6
I0622 10:53:42.103001 71172 net.cpp:397] drop6 -> fc6 (in-place)
I0622 10:53:42.103037 71172 net.cpp:150] Setting up drop6
I0622 10:53:42.103042 71172 net.cpp:157] Top shape: 10 4096 (40960)
I0622 10:53:42.103044 71172 net.cpp:165] Memory required for data: 61926400
I0622 10:53:42.103047 71172 layer_factory.hpp:77] Creating layer fc7
I0622 10:53:42.103055 71172 net.cpp:106] Creating Layer fc7
I0622 10:53:42.103056 71172 net.cpp:454] fc7 <- fc6
I0622 10:53:42.103060 71172 net.cpp:411] fc7 -> fc7
I0622 10:53:42.143268 71172 net.cpp:150] Setting up fc7
I0622 10:53:42.143306 71172 net.cpp:157] Top shape: 10 4096 (40960)
I0622 10:53:42.143311 71172 net.cpp:165] Memory required for data: 62090240
I0622 10:53:42.143323 71172 layer_factory.hpp:77] Creating layer relu7
I0622 10:53:42.143333 71172 net.cpp:106] Creating Layer relu7
I0622 10:53:42.143337 71172 net.cpp:454] relu7 <- fc7
I0622 10:53:42.143343 71172 net.cpp:397] relu7 -> fc7 (in-place)
I0622 10:53:42.143553 71172 net.cpp:150] Setting up relu7
I0622 10:53:42.143573 71172 net.cpp:157] Top shape: 10 4096 (40960)
I0622 10:53:42.143575 71172 net.cpp:165] Memory required for data: 62254080
I0622 10:53:42.143579 71172 layer_factory.hpp:77] Creating layer drop7
I0622 10:53:42.143586 71172 net.cpp:106] Creating Layer drop7
I0622 10:53:42.143601 71172 net.cpp:454] drop7 <- fc7
I0622 10:53:42.143605 71172 net.cpp:397] drop7 -> fc7 (in-place)
I0622 10:53:42.143663 71172 net.cpp:150] Setting up drop7
I0622 10:53:42.143668 71172 net.cpp:157] Top shape: 10 4096 (40960)
I0622 10:53:42.143671 71172 net.cpp:165] Memory required for data: 62417920
I0622 10:53:42.143674 71172 layer_factory.hpp:77] Creating layer 102flower
I0622 10:53:42.143682 71172 net.cpp:106] Creating Layer 102flower
I0622 10:53:42.143685 71172 net.cpp:454] 102flower <- fc7
I0622 10:53:42.143689 71172 net.cpp:411] 102flower -> 102flower
I0622 10:53:42.145244 71172 net.cpp:150] Setting up 102flower
I0622 10:53:42.145267 71172 net.cpp:157] Top shape: 10 102 (1020)
I0622 10:53:42.145270 71172 net.cpp:165] Memory required for data: 62422000
I0622 10:53:42.145277 71172 layer_factory.hpp:77] Creating layer prob
I0622 10:53:42.145285 71172 net.cpp:106] Creating Layer prob
I0622 10:53:42.145288 71172 net.cpp:454] prob <- 102flower
I0622 10:53:42.145293 71172 net.cpp:411] prob -> prob
I0622 10:53:42.145740 71172 net.cpp:150] Setting up prob
I0622 10:53:42.145751 71172 net.cpp:157] Top shape: 10 102 (1020)
I0622 10:53:42.145755 71172 net.cpp:165] Memory required for data: 62426080
I0622 10:53:42.145758 71172 net.cpp:228] prob does not need backward computation.
I0622 10:53:42.145762 71172 net.cpp:228] 102flower does not need backward computation.
I0622 10:53:42.145766 71172 net.cpp:228] drop7 does not need backward computation.
I0622 10:53:42.145767 71172 net.cpp:228] relu7 does not need backward computation.
…
