…
weight_decay: 0.0002
stepsize: 20000
snapshot: 0
snapshot_prefix: "googlenet_cropped_256"
solver_mode: GPU
net: "models/GoogleNet/cropped/train_val.prototxt"
average_loss: 40
I0626 12:38:09.501899 11581 solver.cpp:91] Creating training net from net file: models/GoogleNet/cropped/train_val.prototxt
I0626 12:38:09.505558 11581 net.cpp:49] Initializing net from parameters: 
name: "GoogleNet"
state {
  phase: TRAIN
}
layer {
  name: "data"
  type: "Python"
  top: "data"
  top: "labels"
  python_param {
    module: "datalayer.datalayer"
    layer: "DataLayer"
  }
}
layer {
  name: "conv1/7x7_s2"
  type: "Convolution"
  bottom: "data"
  top: "conv1/7x7_s2"
  param {
    lr_mult: 1
    decay_mult: 1
  }
  param {
    lr_mult: 2
    decay_mult: 0
  }
  convolution_param {
    num_output: 64
    pad: 3
    kernel_size: 7
    stride: 2
    weight_filler {
      type: "xavier"
    }
    bias_filler {
      type: "constant"
      value: 0.2
    }
  }
}
layer {
  name: "conv1/relu_7x7"
  type: "ReLU"
  bottom: "conv1/7x7_s2"
  top: "conv1/7x7_s2"
}
layer {
  name: "pool1/3x3_s2"
  type: "Pooling"
  bottom: "conv1/7x7_s2"
  top: "pool1/3x3_s2"
  pooling_param {
    pool: MAX
    kernel_size: 3
    stride: 2
  }
}
layer {
  name: "pool1/norm1"
  type: "LRN"
  bottom: "pool1/3x3_s2"
  top: "pool1/norm1"
  lrn_param {
    local_size: 5
    alpha: 0.0001
    beta: 0.75
  }
}
layer {
  name: "conv2/3x3_reduce"
  type: "Convolution"
  bottom: "pool1/norm1"
  top: "conv2/3x3_reduce"
  param {
    lr_mult: 1
    decay_mult: 1
  }
  param {
    lr_mult: 2
    decay_mult: 0
  }
  convolution_param {
    num_output: 64
    kernel_size: 1
    weight_filler {
      type: "xavier"
    }
    bias_filler {
      type: "constant"
      value: 0.2
    }
  }
}
layer {
  name: "conv2/relu_3x3_reduce"
  type: "ReLU"
  bottom: "conv2/3x3_reduce"
  top: "conv2/3x3_reduce"
}
layer {
  name: "conv2/3x3"
  type: "Convolution"
  bottom: "conv2/3x3_reduce"
  top: "conv2/3x3"
  param {
    lr_mult: 1
    decay_mult: 1
  }
  param {
    lr_mult: 2
    decay_mult: 0
  }
  convolution_param {
    num_output: 192
    pad: 1
    kernel_size: 3
    weight_filler {
      type: "xavier"
    }
    bias_filler {
      type: "constant"
      value: 0.2
    }
  }
}
layer {
  name: "conv2/relu_3x3"
  type: "ReLU"
  bottom: "conv2/3x3"
  top: "conv2/3x3"
}
layer {
  name: "conv2/norm2"
  type: "LRN"
  bottom: "conv2/3x3"
  top: "conv2/norm2"
  lrn_param {
    local_size: 5
    alpha: 0.0001
    beta: 0.75
  }
}
layer {
  name: "pool2/3x3_s2"
  type: "Pooling"
  bottom: "conv2/norm2"
  top: "pool2/3x3_s2"
  pooling_param {
    pool: MAX
    kernel_size: 3
    stride: 2
  }
}
layer {
  name: "inception_3a/1x1"
  type: "Convolution"
  bottom: "pool2/3x3_s2"
  top: "inception_3a/1x1"
  param {
    lr_mult: 1
    decay_mult: 1
  }
  param {
    lr_mult: 2
    decay_mult: 0
  }
  convolution_param {
    num_output: 64
    kernel_size: 1
    weight_filler {
      type: "xavier"
    }
    bias_filler {
      type: "constant"
      value: 0.2
    }
  }
}
layer {
  name: "inception_3a/relu_1x1"
  type: "ReLU"
  bottom: "inception_3a/1x1"
  top: "inception_3a/1x1"
}
layer {
  name: "inception_3a/3x3_reduce"
  type: "Convolution"
  bottom: "pool2/3x3_s2"
  top: "inception_3a/3x3_reduce"
  param {
    lr_mult: 1
    decay_mult: 1
  }
  param {
    lr_mult: 2
    decay_mult: 0
  }
  convolution_param {
    num_output: 96
    kernel_size: 1
    weight_filler {
      type: "xavier"
    }
    bias_filler {
      type: "constant"
      value: 0.2
    }
  }
}
layer {
  name: "inception_3a/relu_3x3_reduce"
  type: "ReLU"
  bottom: "inception_3a/3x3_reduce"
  top: "inception_3a/3x3_reduce"
}
layer {
  name: "inception_3a/3x3"
  type: "Convolution"
  bottom: "inception_3a/3x3_reduce"
  top: "inception_3a/3x3"
  param {
    lr_mult: 1
    decay_mult: 1
  }
  param {
    lr_mult: 2
    decay_mult: 0
  }
  convolution_param {
    num_output: 128
    pad: 1
    kernel_size: 3
    weight_filler {
      type: "xavier"
    }
    bias_filler {
      type: "constant"
      value: 0.2
    }
  }
}
layer {
  name: "inception_3a/relu_3x3"
  type: "ReLU"
  bottom: "inception_3a/3x3"
  top: "inception_3a/3x3"
}
layer {
  name: "inception_3a/5x5_reduce"
  type: "Convolution"
  bottom: "pool2/3x3_s2"
  top: "inception_3a/5x5_reduce"
  param {
    lr_mult: 1
    decay_mult: 1
  }
  param {
    lr_mult: 2
    decay_mult: 0
  }
  convolution_param {
    num_output: 16
    kernel_size: 1
    weight_filler {
      type: "xavier"
    }
    bias_filler {
      type: "constant"
      value: 0.2
    }
  }
}
layer {
  name: "inception_3a/relu_5x5_reduce"
  type: "ReLU"
  bottom: "inception_3a/5x5_reduce"
  top: "inception_3a/5x5_reduce"
}
layer {
  name: "inception_3a/5x5"
  type: "Convolution"
  bottom: "inception_3a/5x5_reduce"
  top: "inception_3a/5x5"
  param {
    lr_mult: 1
    decay_mult: 1
  }
  param {
    lr_mult: 2
    decay_mult: 0
  }
  convolution_param {
    num_output: 32
    pad: 2
    kernel_size: 5
    weight_filler {
      type: "xavier"
    }
    bias_filler {
      type: "constant"
      value: 0.2
    }
  }
}
layer {
  name: "inception_3a/relu_5x5"
  type: "ReLU"
  bottom: "inception_3a/5x5"
  top: "inception_3a/5x5"
}
layer {
  name: "inception_3a/pool"
  type: "Pooling"
  bottom: "pool2/3x3_s2"
  top: "inception_3a/pool"
  pooling_param {
    pool: MAX
    kernel_size: 3
    stride: 1
    pad: 1
  }
}
layer {
  name: "inception_3a/pool_proj"
  type: "Convolution"
  bottom: "inception_3a/pool"
  top: "inception_3a/pool_proj"
  param {
    lr_mult: 1
    decay_mult: 1
  }
  param {
    lr_mult: 2
    decay_mult: 0
  }
  convolution_param {
    num_output: 32
    kernel_size: 1
    weight_filler {
      type: "xavier"
    }
    bias_filler {
      type: "constant"
      value: 0.2
    }
  }
}
layer {
  name: "inception_3a/relu_pool_proj"
  type: "ReLU"
  bottom: "inception_3a/pool_proj"
  top: "inception_3a/pool_proj"
}
layer {
  name: "inception_3a/output"
  type: "Concat"
  bottom: "inception_3a/1x1"
  bottom: "inception_3a/3x3"
  bottom: "inception_3a/5x5"
  bottom: "inception_3a/pool_proj"
  top: "inception_3a/output"
}
layer {
  name: "inception_3b/1x1"
  type: "Convolution"
  bottom: "inception_3a/output"
  top: "inception_3b/1x1"
  param {
    lr_mult: 1
    decay_mult: 1
  }
  param {
    lr_mult: 2
    decay_mult: 0
  }
  convolution_param {
    num_output: 128
    kernel_size: 1
    weight_filler {
      type: "xavier"
    }
    bias_filler {
      type: "constant"
      value: 0.2
    }
  }
}
layer {
  name: "inception_3b/relu_1x1"
  type: "ReLU"
  bottom: "inception_3b/1x1"
  top: "inception_3b/1x1"
}
layer {
  name: "inception_3b/3x3_reduce"
  type: "Convolution"
  bottom: "inception_3a/output"
  top: "inception_3b/3x3_reduce"
  param {
    lr_mult: 1
    decay_mult: 1
  }
  param {
    lr_mult: 2
    decay_mult: 0
  }
  convolution_param {
    num_output: 128
    kernel_size: 1
    weight_filler {
      type: "xavier"
    }
    bias_filler {
      type: "constant"
      value: 0.2
    }
  }
}
layer {
  name: "inception_3b/relu_3x3_reduce"
  type: "ReLU"
  bottom: "inception_3b/3x3_reduce"
  top: "inception_3b/3x3_reduce"
}
layer {
  name: "inception_3b/3x3"
  type: "Convolution"
  bottom: "inception_3b/3x3_reduce"
  top: "inception_3b/3x3"
  param {
    lr_mult: 1
    decay_mult: 1
  }
  param {
    lr_mult: 2
    decay_mult: 0
  }
  convolution_param {
    num_output: 192
    pad: 1
    kernel_size: 3
    weight_filler {
      type: "xavier"
    }
    bias_filler {
      type: "constant"
      value: 0.2
    }
  }
}
layer {
  name: "inception_3b/relu_3x3"
  type: "ReLU"
  bottom: "inception_3b/3x3"
  top: "inception_3b/3x3"
}
layer {
  name: "inception_3b/5x5_reduce"
  type: "Convolution"
  bottom: "inception_3a/output"
  top: "inception_3b/5x5_reduce"
  param {
    lr_mult: 1
    decay_mult: 1
  }
  param {
    lr_mult: 2
    decay_mult: 0
  }
  convolution_param {
    num_output: 32
    kernel_size: 1
    weight_filler {
      type: "xavier"
    }
    bias_filler {
      type: "constant"
      value: 0.2
    }
  }
}
layer {
  name: "inception_3b/relu_5x5_reduce"
  type: "ReLU"
  bottom: "inception_3b/5x5_reduce"
  top: "inception_3b/5x5_reduce"
}
layer {
  name: "inception_3b/5x5"
  type: "Convolution"
  bottom: "inception_3b/5x5_reduce"
  top: "inception_3b/5x5"
  param {
    lr_mult: 1
    decay_mult: 1
  }
  param {
    lr_mult: 2
    decay_mult: 0
  }
  convolution_param {
    num_output: 96
    pad: 2
    kernel_size: 5
    weight_filler {
      type: "xavier"
    }
    bias_filler {
      type: "constant"
      value: 0.2
    }
  }
}
layer {
  name: "inception_3b/relu_5x5"
  type: "ReLU"
  bottom: "inception_3b/5x5"
  top: "inception_3b/5x5"
}
layer {
  name: "inception_3b/pool"
  type: "Pooling"
  bottom: "inception_3a/output"
  top: "inception_3b/pool"
  pooling_param {
    pool: MAX
    kernel_size: 3
    stride: 1
    pad: 1
  }
}
layer {
  name: "inception_3b/pool_proj"
  type: "Convolution"
  bottom: "inception_3b/pool"
  top: "inception_3b/pool_proj"
  param {
    lr_mult: 1
    decay_mult: 1
  }
  param {
    lr_mult: 2
    decay_mult: 0
  }
  convolution_param {
    num_output: 64
    kernel_size: 1
    weight_filler {
      type: "xavier"
    }
    bias_filler {
      type: "constant"
      value: 0.2
    }
  }
}
layer {
  name: "inception_3b/relu_pool_proj"
  type: "ReLU"
  bottom: "inception_3b/pool_proj"
  top: "inception_3b/pool_proj"
}
layer {
  name: "inception_3b/output"
  type: "Concat"
  bottom: "inception_3b/1x1"
  bottom: "inception_3b/3x3"
  bottom: "inception_3b/5x5"
  bottom: "inception_3b/pool_proj"
  top: "inception_3b/output"
}
layer {
  name: "pool3/3x3_s2"
  type: "Pooling"
  bottom: "inception_3b/output"
  top: "pool3/3x3_s2"
  pooling_param {
    pool: MAX
    kernel_size: 3
    stride: 2
  }
}
layer {
  name: "inception_4a/1x1"
  type: "Convolution"
  bottom: "pool3/3x3_s2"
  top: "inception_4a/1x1"
  param {
    lr_mult: 1
    decay_mult: 1
  }
  param {
    lr_mult: 2
    decay_mult: 0
  }
  convolution_param {
    num_output: 192
    kernel_size: 1
    weight_filler {
      type: "xavier"
    }
    bias_filler {
      type: "constant"
      value: 0.2
    }
  }
}
layer {
  name: "inception_4a/relu_1x1"
  type: "ReLU"
  bottom: "inception_4a/1x1"
  top: "inception_4a/1x1"
}
layer {
  name: "inception_4a/3x3_reduce"
  type: "Convolution"
  bottom: "pool3/3x3_s2"
  top: "inception_4a/3x3_reduce"
  param {
    lr_mult: 1
    decay_mult: 1
  }
  param {
    lr_mult: 2
    decay_mult: 0
  }
  convolution_param {
    num_output: 96
    kernel_size: 1
    weight_filler {
      type: "xavier"
    }
    bias_filler {
      type: "constant"
      value: 0.2
    }
  }
}
layer {
  name: "inception_4a/relu_3x3_reduce"
  type: "ReLU"
  bottom: "inception_4a/3x3_reduce"
  top: "inception_4a/3x3_reduce"
}
layer {
  name: "inception_4a/3x3"
  type: "Convolution"
  bottom: "inception_4a/3x3_reduce"
  top: "inception_4a/3x3"
  param {
    lr_mult: 1
    decay_mult: 1
  }
  param {
    lr_mult: 2
    decay_mult: 0
  }
  convolution_param {
    num_output: 208
    pad: 1
    kernel_size: 3
    weight_filler {
      type: "xavier"
    }
    bias_filler {
      type: "constant"
      value: 0.2
    }
  }
}
layer {
  name: "inception_4a/relu_3x3"
  type: "ReLU"
  bottom: "inception_4a/3x3"
  top: "inception_4a/3x3"
}
layer {
  name: "inception_4a/5x5_reduce"
  type: "Convolution"
  bottom: "pool3/3x3_s2"
  top: "inception_4a/5x5_reduce"
  param {
    lr_mult: 1
    decay_mult: 1
  }
  param {
    lr_mult: 2
    decay_mult: 0
  }
  convolution_param {
    num_output: 16
    kernel_size: 1
    weight_filler {
      type: "xavier"
    }
    bias_filler {
      type: "constant"
      value: 0.2
    }
  }
}
layer {
  name: "inception_4a/relu_5x5_reduce"
  type: "ReLU"
  bottom: "inception_4a/5x5_reduce"
  top: "inception_4a/5x5_reduce"
}
layer {
  name: "inception_4a/5x5"
  type: "Convolution"
  bottom: "inception_4a/5x5_reduce"
  top: "inception_4a/5x5"
  param {
    lr_mult: 1
    decay_mult: 1
  }
  param {
    lr_mult: 2
    decay_mult: 0
  }
  convolution_param {
    num_output: 48
    pad: 2
    kernel_size: 5
    weight_filler {
      type: "xavier"
    }
    bias_filler {
      type: "constant"
      value: 0.2
    }
  }
}
layer {
  name: "inception_4a/relu_5x5"
  type: "ReLU"
  bottom: "inception_4a/5x5"
  top: "inception_4a/5x5"
}
layer {
  name: "inception_4a/pool"
  type: "Pooling"
  bottom: "pool3/3x3_s2"
  top: "inception_4a/pool"
  pooling_param {
    pool: MAX
    kernel_size: 3
    stride: 1
    pad: 1
  }
}
layer {
  name: "inception_4a/pool_proj"
  type: "Convolution"
  bottom: "inception_4a/pool"
  top: "inception_4a/pool_proj"
  param {
    lr_mult: 1
    decay_mult: 1
  }
  param {
    lr_mult: 2
    decay_mult: 0
  }
  convolution_param {
    num_output: 64
    kernel_size: 1
    weight_filler {
      type: "xavier"
    }
    bias_filler {
      type: "constant"
      value: 0.2
    }
  }
}
layer {
  name: "inception_4a/relu_pool_proj"
  type: "ReLU"
  bottom: "inception_4a/pool_proj"
  top: "inception_4a/pool_proj"
}
layer {
  name: "inception_4a/output"
  type: "Concat"
  bottom: "inception_4a/1x1"
  bottom: "inception_4a/3x3"
  bottom: "inception_4a/5x5"
  bottom: "inception_4a/pool_proj"
  top: "inception_4a/output"
}
layer {
  name: "loss1/ave_pool"
  type: "Pooling"
  bottom: "inception_4a/output"
  top: "loss1/ave_pool"
  pooling_param {
    pool: AVE
    kernel_size: 5
    stride: 3
  }
}
layer {
  name: "loss1/conv"
  type: "Convolution"
  bottom: "loss1/ave_pool"
  top: "loss1/conv"
  param {
    lr_mult: 1
    decay_mult: 1
  }
  param {
    lr_mult: 2
    decay_mult: 0
  }
  convolution_param {
    num_output: 128
    kernel_size: 1
    weight_filler {
      type: "xavier"
    }
    bias_filler {
      type: "constant"
      value: 0.2
    }
  }
}
layer {
  name: "loss1/relu_conv"
  type: "ReLU"
  bottom: "loss1/conv"
  top: "loss1/conv"
}
layer {
  name: "loss1/fc"
  type: "InnerProduct"
  bottom: "loss1/conv"
  top: "loss1/fc"
  param {
    lr_mult: 1
    decay_mult: 1
  }
  param {
    lr_mult: 2
    decay_mult: 0
  }
  inner_product_param {
    num_output: 1024
    weight_filler {
      type: "xavier"
    }
    bias_filler {
      type: "constant"
      value: 0.2
    }
  }
}
layer {
  name: "loss1/relu_fc"
  type: "ReLU"
  bottom: "loss1/fc"
  top: "loss1/fc"
}
layer {
  name: "loss1/drop_fc"
  type: "Dropout"
  bottom: "loss1/fc"
  top: "loss1/fc"
  dropout_param {
    dropout_ratio: 0.7
  }
}
layer {
  name: "102flowers1/classifier"
  type: "InnerProduct"
  bottom: "loss1/fc"
  top: "102flowers1/classifier"
  param {
    lr_mult: 1
    decay_mult: 1
  }
  param {
    lr_mult: 2
    decay_mult: 0
  }
  inner_product_param {
    num_output: 102
    weight_filler {
      type: "xavier"
    }
    bias_filler {
      type: "constant"
      value: 0
    }
  }
}
layer {
  name: "loss1/loss"
  type: "SoftmaxWithLoss"
  bottom: "102flowers1/classifier"
  bottom: "labels"
  top: "loss1/loss1"
  loss_weight: 0.3
}
layer {
  name: "inception_4b/1x1"
  type: "Convolution"
  bottom: "inception_4a/output"
  top: "inception_4b/1x1"
  param {
    lr_mult: 1
    decay_mult: 1
  }
  param {
    lr_mult: 2
    decay_mult: 0
  }
  convolution_param {
    num_output: 160
    kernel_size: 1
    weight_filler {
      type: "xavier"
    }
    bias_filler {
      type: "constant"
      value: 0.2
    }
  }
}
layer {
  name: "inception_4b/relu_1x1"
  type: "ReLU"
  bottom: "inception_4b/1x1"
  top: "inception_4b/1x1"
}
layer {
  name: "inception_4b/3x3_reduce"
  type: "Convolution"
  bottom: "inception_4a/output"
  top: "inception_4b/3x3_reduce"
  param {
    lr_mult: 1
    decay_mult: 1
  }
  param {
    lr_mult: 2
    decay_mult: 0
  }
  convolution_param {
    num_output: 112
    kernel_size: 1
    weight_filler {
      type: "xavier"
    }
    bias_filler {
      type: "constant"
      value: 0.2
    }
  }
}
layer {
  name: "inception_4b/relu_3x3_reduce"
  type: "ReLU"
  bottom: "inception_4b/3x3_reduce"
  top: "inception_4b/3x3_reduce"
}
layer {
  name: "inception_4b/3x3"
  type: "Convolution"
  bottom: "inception_4b/3x3_reduce"
  top: "inception_4b/3x3"
  param {
    lr_mult: 1
    decay_mult: 1
  }
  param {
    lr_mult: 2
    decay_mult: 0
  }
  convolution_param {
    num_output: 224
    pad: 1
    kernel_size: 3
    weight_filler {
      type: "xavier"
    }
    bias_filler {
      type: "constant"
      value: 0.2
    }
  }
}
layer {
  name: "inception_4b/relu_3x3"
  type: "ReLU"
  bottom: "inception_4b/3x3"
  top: "inception_4b/3x3"
}
layer {
  name: "inception_4b/5x5_reduce"
  type: "Convolution"
  bottom: "inception_4a/output"
  top: "inception_4b/5x5_reduce"
  param {
    lr_mult: 1
    decay_mult: 1
  }
  param {
    lr_mult: 2
    decay_mult: 0
  }
  convolution_param {
    num_output: 24
    kernel_size: 1
    weight_filler {
      type: "xavier"
    }
    bias_filler {
      type: "constant"
      value: 0.2
    }
  }
}
layer {
  name: "inception_4b/relu_5x5_reduce"
  type: "ReLU"
  bottom: "inception_4b/5x5_reduce"
  top: "inception_4b/5x5_reduce"
}
layer {
  name: "inception_4b/5x5"
  type: "Convolution"
  bottom: "inception_4b/5x5_reduce"
  top: "inception_4b/5x5"
  param {
    lr_mult: 1
    decay_mult: 1
  }
  param {
    lr_mult: 2
    decay_mult: 0
  }
  convolution_param {
    num_output: 64
    pad: 2
    kernel_size: 5
    weight_filler {
      type: "xavier"
    }
    bias_filler {
      type: "constant"
      value: 0.2
    }
  }
}
layer {
  name: "inception_4b/relu_5x5"
  type: "ReLU"
  bottom: "inception_4b/5x5"
  top: "inception_4b/5x5"
}
layer {
  name: "inception_4b/pool"
  type: "Pooling"
  bottom: "inception_4a/output"
  top: "inception_4b/pool"
  pooling_param {
    pool: MAX
    kernel_size: 3
    stride: 1
    pad: 1
  }
}
layer {
  name: "inception_4b/pool_proj"
  type: "Convolution"
  bottom: "inception_4b/pool"
  top: "inception_4b/pool_proj"
  param {
    lr_mult: 1
    decay_mult: 1
  }
  param {
    lr_mult: 2
    decay_mult: 0
  }
  convolution_param {
    num_output: 64
    kernel_size: 1
    weight_filler {
      type: "xavier"
    }
    bias_filler {
      type: "constant"
      value: 0.2
    }
  }
}
layer {
  name: "inception_4b/relu_pool_proj"
  type: "ReLU"
  bottom: "inception_4b/pool_proj"
  top: "inception_4b/pool_proj"
}
layer {
  name: "inception_4b/output"
  type: "Concat"
  bottom: "inception_4b/1x1"
  bottom: "inception_4b/3x3"
  bottom: "inception_4b/5x5"
  bottom: "inception_4b/pool_proj"
  top: "inception_4b/output"
}
layer {
  name: "inception_4c/1x1"
  type: "Convolution"
  bottom: "inception_4b/output"
  top: "inception_4c/1x1"
  param {
    lr_mult: 1
    decay_mult: 1
  }
  param {
    lr_mult: 2
    decay_mult: 0
  }
  convolution_param {
    num_output: 128
    kernel_size: 1
    weight_filler {
      type: "xavier"
    }
    bias_filler {
      type: "constant"
      value: 0.2
    }
  }
}
layer {
  name: "inception_4c/relu_1x1"
  type: "ReLU"
  bottom: "inception_4c/1x1"
  top: "inception_4c/1x1"
}
layer {
  name: "inception_4c/3x3_reduce"
  type: "Convolution"
  bottom: "inception_4b/output"
  top: "inception_4c/3x3_reduce"
  param {
    lr_mult: 1
    decay_mult: 1
  }
  param {
    lr_mult: 2
    decay_mult: 0
  }
  convolution_param {
    num_output: 128
    kernel_size: 1
    weight_filler {
      type: "xavier"
    }
    bias_filler {
      type: "constant"
      value: 0.2
    }
  }
}
layer {
  name: "inception_4c/relu_3x3_reduce"
  type: "ReLU"
  bottom: "inception_4c/3x3_reduce"
  top: "inception_4c/3x3_reduce"
}
layer {
  name: "inception_4c/3x3"
  type: "Convolution"
  bottom: "inception_4c/3x3_reduce"
  top: "inception_4c/3x3"
  param {
    lr_mult: 1
    decay_mult: 1
  }
  param {
    lr_mult: 2
    decay_mult: 0
  }
  convolution_param {
    num_output: 256
    pad: 1
    kernel_size: 3
    weight_filler {
      type: "xavier"
    }
    bias_filler {
      type: "constant"
      value: 0.2
    }
  }
}
layer {
  name: "inception_4c/relu_3x3"
  type: "ReLU"
  bottom: "inception_4c/3x3"
  top: "inception_4c/3x3"
}
layer {
  name: "inception_4c/5x5_reduce"
  type: "Convolution"
  bottom: "inception_4b/output"
  top: "inception_4c/5x5_reduce"
  param {
    lr_mult: 1
    decay_mult: 1
  }
  param {
    lr_mult: 2
    decay_mult: 0
  }
  convolution_param {
    num_output: 24
    kernel_size: 1
    weight_filler {
      type: "xavier"
    }
    bias_filler {
      type: "constant"
      value: 0.2
    }
  }
}
layer {
  name: "inception_4c/relu_5x5_reduce"
  type: "ReLU"
  bottom: "inception_4c/5x5_reduce"
  top: "inception_4c/5x5_reduce"
}
layer {
  name: "inception_4c/5x5"
  type: "Convolution"
  bottom: "inception_4c/5x5_reduce"
  top: "inception_4c/5x5"
  param {
    lr_mult: 1
    decay_mult: 1
  }
  param {
    lr_mult: 2
    decay_mult: 0
  }
  convolution_param {
    num_output: 64
    pad: 2
    kernel_size: 5
    weight_filler {
      type: "xavier"
    }
    bias_filler {
      type: "constant"
      value: 0.2
    }
  }
}
layer {
  name: "inception_4c/relu_5x5"
  type: "ReLU"
  bottom: "inception_4c/5x5"
  top: "inception_4c/5x5"
}
layer {
  name: "inception_4c/pool"
  type: "Pooling"
  bottom: "inception_4b/output"
  top: "inception_4c/pool"
  pooling_param {
    pool: MAX
    kernel_size: 3
    stride: 1
    pad: 1
  }
}
layer {
  name: "inception_4c/pool_proj"
  type: "Convolution"
  bottom: "inception_4c/pool"
  top: "inception_4c/pool_proj"
  param {
    lr_mult: 1
    decay_mult: 1
  }
  param {
    lr_mult: 2
    decay_mult: 0
  }
  convolution_param {
    num_output: 64
    kernel_size: 1
    weight_filler {
      type: "xavier"
    }
    bias_filler {
      type: "constant"
      value: 0.2
    }
  }
}
layer {
  name: "inception_4c/relu_pool_proj"
  type: "ReLU"
  bottom: "inception_4c/pool_proj"
  top: "inception_4c/pool_proj"
}
layer {
  name: "inception_4c/output"
  type: "Concat"
  bottom: "inception_4c/1x1"
  bottom: "inception_4c/3x3"
  bottom: "inception_4c/5x5"
  bottom: "inception_4c/pool_proj"
  top: "inception_4c/output"
}
layer {
  name: "inception_4d/1x1"
  type: "Convolution"
  bottom: "inception_4c/output"
  top: "inception_4d/1x1"
  param {
    lr_mult: 1
    decay_mult: 1
  }
  param {
    lr_mult: 2
    decay_mult: 0
  }
  convolution_param {
    num_output: 112
    kernel_size: 1
    weight_filler {
      type: "xavier"
    }
    bias_filler {
      type: "constant"
      value: 0.2
    }
  }
}
layer {
  name: "inception_4d/relu_1x1"
  type: "ReLU"
  bottom: "inception_4d/1x1"
  top: "inception_4d/1x1"
}
layer {
  name: "inception_4d/3x3_reduce"
  type: "Convolution"
  bottom: "inception_4c/output"
  top: "inception_4d/3x3_reduce"
  param {
    lr_mult: 1
    decay_mult: 1
  }
  param {
    lr_mult: 2
    decay_mult: 0
  }
  convolution_param {
    num_output: 144
    kernel_size: 1
    weight_filler {
      type: "xavier"
    }
    bias_filler {
      type: "constant"
      value: 0.2
    }
  }
}
layer {
  name: "inception_4d/relu_3x3_reduce"
  type: "ReLU"
  bottom: "inception_4d/3x3_reduce"
  top: "inception_4d/3x3_reduce"
}
layer {
  name: "inception_4d/3x3"
  type: "Convolution"
  bottom: "inception_4d/3x3_reduce"
  top: "inception_4d/3x3"
  param {
    lr_mult: 1
    decay_mult: 1
  }
  param {
    lr_mult: 2
    decay_mult: 0
  }
  convolution_param {
    num_output: 288
    pad: 1
    kernel_size: 3
    weight_filler {
      type: "xavier"
    }
    bias_filler {
      type: "constant"
      value: 0.2
    }
  }
}
layer {
  name: "inception_4d/relu_3x3"
  type: "ReLU"
  bottom: "inception_4d/3x3"
  top: "inception_4d/3x3"
}
layer {
  name: "inception_4d/5x5_reduce"
  type: "Convolution"
  bottom: "inception_4c/output"
  top: "inception_4d/5x5_reduce"
  param {
    lr_mult: 1
    decay_mult: 1
  }
  param {
    lr_mult: 2
    decay_mult: 0
  }
  convolution_param {
    num_output: 32
    kernel_size: 1
    weight_filler {
      type: "xavier"
    }
    bias_filler {
      type: "constant"
      value: 0.2
    }
  }
}
layer {
  name: "inception_4d/relu_5x5_reduce"
  type: "ReLU"
  bottom: "inception_4d/5x5_reduce"
  top: "inception_4d/5x5_reduce"
}
layer {
  name: "inception_4d/5x5"
  type: "Convolution"
  bottom: "inception_4d/5x5_reduce"
  top: "inception_4d/5x5"
  param {
    lr_mult: 1
    decay_mult: 1
  }
  param {
    lr_mult: 2
    decay_mult: 0
  }
  convolution_param {
    num_output: 64
    pad: 2
    kernel_size: 5
    weight_filler {
      type: "xavier"
    }
    bias_filler {
      type: "constant"
      value: 0.2
    }
  }
}
layer {
  name: "inception_4d/relu_5x5"
  type: "ReLU"
  bottom: "inception_4d/5x5"
  top: "inception_4d/5x5"
}
layer {
  name: "inception_4d/pool"
  type: "Pooling"
  bottom: "inception_4c/output"
  top: "inception_4d/pool"
  pooling_param {
    pool: MAX
    kernel_size: 3
    stride: 1
    pad: 1
  }
}
layer {
  name: "inception_4d/pool_proj"
  type: "Convolution"
  bottom: "inception_4d/pool"
  top: "inception_4d/pool_proj"
  param {
    lr_mult: 1
    decay_mult: 1
  }
  param {
    lr_mult: 2
    decay_mult: 0
  }
  convolution_param {
    num_output: 64
    kernel_size: 1
    weight_filler {
      type: "xavier"
    }
    bias_filler {
      type: "constant"
      value: 0.2
    }
  }
}
layer {
  name: "inception_4d/relu_pool_proj"
  type: "ReLU"
  bottom: "inception_4d/pool_proj"
  top: "inception_4d/pool_proj"
}
layer {
  name: "inception_4d/output"
  type: "Concat"
  bottom: "inception_4d/1x1"
  bottom: "inception_4d/3x3"
  bottom: "inception_4d/5x5"
  bottom: "inception_4d/pool_proj"
  top: "inception_4d/output"
}
layer {
  name: "loss2/ave_pool"
  type: "Pooling"
  bottom: "inception_4d/output"
  top: "loss2/ave_pool"
  pooling_param {
    pool: AVE
    kernel_size: 5
    stride: 3
  }
}
layer {
  name: "loss2/conv"
  type: "Convolution"
  bottom: "loss2/ave_pool"
  top: "loss2/conv"
  param {
    lr_mult: 1
    decay_mult: 1
  }
  param {
    lr_mult: 2
    decay_mult: 0
  }
  convolution_param {
    num_output: 128
    kernel_size: 1
    weight_filler {
      type: "xavier"
    }
    bias_filler {
      type: "constant"
      value: 0.2
    }
  }
}
layer {
  name: "loss2/relu_conv"
  type: "ReLU"
  bottom: "loss2/conv"
  top: "loss2/conv"
}
layer {
  name: "loss2/fc"
  type: "InnerProduct"
  bottom: "loss2/conv"
  top: "loss2/fc"
  param {
    lr_mult: 1
    decay_mult: 1
  }
  param {
    lr_mult: 2
    decay_mult: 0
  }
  inner_product_param {
    num_output: 1024
    weight_filler {
      type: "xavier"
    }
    bias_filler {
      type: "constant"
      value: 0.2
    }
  }
}
layer {
  name: "loss2/relu_fc"
  type: "ReLU"
  bottom: "loss2/fc"
  top: "loss2/fc"
}
layer {
  name: "loss2/drop_fc"
  type: "Dropout"
  bottom: "loss2/fc"
  top: "loss2/fc"
  dropout_param {
    dropout_ratio: 0.7
  }
}
layer {
  name: "102flowers2/classifier"
  type: "InnerProduct"
  bottom: "loss2/fc"
  top: "102flowers2/classifier"
  param {
    lr_mult: 1
    decay_mult: 1
  }
  param {
    lr_mult: 2
    decay_mult: 0
  }
  inner_product_param {
    num_output: 102
    weight_filler {
      type: "xavier"
    }
    bias_filler {
      type: "constant"
      value: 0
    }
  }
}
layer {
  name: "loss2/loss"
  type: "SoftmaxWithLoss"
  bottom: "102flowers2/classifier"
  bottom: "labels"
  top: "loss2/loss1"
  loss_weight: 0.3
}
layer {
  name: "inception_4e/1x1"
  type: "Convolution"
  bottom: "inception_4d/output"
  top: "inception_4e/1x1"
  param {
    lr_mult: 1
    decay_mult: 1
  }
  param {
    lr_mult: 2
    decay_mult: 0
  }
  convolution_param {
    num_output: 256
    kernel_size: 1
    weight_filler {
      type: "xavier"
    }
    bias_filler {
      type: "constant"
      value: 0.2
    }
  }
}
layer {
  name: "inception_4e/relu_1x1"
  type: "ReLU"
  bottom: "inception_4e/1x1"
  top: "inception_4e/1x1"
}
layer {
  name: "inception_4e/3x3_reduce"
  type: "Convolution"
  bottom: "inception_4d/output"
  top: "inception_4e/3x3_reduce"
  param {
    lr_mult: 1
    decay_mult: 1
  }
  param {
    lr_mult: 2
    decay_mult: 0
  }
  convolution_param {
    num_output: 160
    kernel_size: 1
    weight_filler {
      type: "xavier"
    }
    bias_filler {
      type: "constant"
      value: 0.2
    }
  }
}
layer {
  name: "inception_4e/relu_3x3_reduce"
  type: "ReLU"
  bottom: "inception_4e/3x3_reduce"
  top: "inception_4e/3x3_reduce"
}
layer {
  name: "inception_4e/3x3"
  type: "Convolution"
  bottom: "inception_4e/3x3_reduce"
  top: "inception_4e/3x3"
  param {
    lr_mult: 1
    decay_mult: 1
  }
  param {
    lr_mult: 2
    decay_mult: 0
  }
  convolution_param {
    num_output: 320
    pad: 1
    kernel_size: 3
    weight_filler {
      type: "xavier"
    }
    bias_filler {
      type: "constant"
      value: 0.2
    }
  }
}
layer {
  name: "inception_4e/relu_3x3"
  type: "ReLU"
  bottom: "inception_4e/3x3"
  top: "inception_4e/3x3"
}
layer {
  name: "inception_4e/5x5_reduce"
  type: "Convolution"
  bottom: "inception_4d/output"
  top: "inception_4e/5x5_reduce"
  param {
    lr_mult: 1
    decay_mult: 1
  }
  param {
    lr_mult: 2
    decay_mult: 0
  }
  convolution_param {
    num_output: 32
    kernel_size: 1
    weight_filler {
      type: "xavier"
    }
    bias_filler {
      type: "constant"
      value: 0.2
    }
  }
}
layer {
  name: "inception_4e/relu_5x5_reduce"
  type: "ReLU"
  bottom: "inception_4e/5x5_reduce"
  top: "inception_4e/5x5_reduce"
}
layer {
  name: "inception_4e/5x5"
  type: "Convolution"
  bottom: "inception_4e/5x5_reduce"
  top: "inception_4e/5x5"
  param {
    lr_mult: 1
    decay_mult: 1
  }
  param {
    lr_mult: 2
    decay_mult: 0
  }
  convolution_param {
    num_output: 128
    pad: 2
    kernel_size: 5
    weight_filler {
      type: "xavier"
    }
    bias_filler {
      type: "constant"
      value: 0.2
    }
  }
}
layer {
  name: "inception_4e/relu_5x5"
  type: "ReLU"
  bottom: "inception_4e/5x5"
  top: "inception_4e/5x5"
}
layer {
  name: "inception_4e/pool"
  type: "Pooling"
  bottom: "inception_4d/output"
  top: "inception_4e/pool"
  pooling_param {
    pool: MAX
    kernel_size: 3
    stride: 1
    pad: 1
  }
}
layer {
  name: "inception_4e/pool_proj"
  type: "Convolution"
  bottom: "inception_4e/pool"
  top: "inception_4e/pool_proj"
  
I0626 12:38:09.506338 11581 layer_factory.hpp:77] Creating layer data
I0626 12:38:09.520725 11581 net.cpp:106] Creating Layer data
I0626 12:38:09.520741 11581 net.cpp:411] data -> data
I0626 12:38:09.520750 11581 net.cpp:411] data -> labels
I0626 12:38:09.529911 11581 net.cpp:150] Setting up data
I0626 12:38:09.529928 11581 net.cpp:157] Top shape: 64 3 227 227 (9893568)
I0626 12:38:09.529933 11581 net.cpp:157] Top shape: 64 (64)
I0626 12:38:09.529937 11581 net.cpp:165] Memory required for data: 39574528
I0626 12:38:09.529942 11581 layer_factory.hpp:77] Creating layer labels_data_1_split
I0626 12:38:09.529956 11581 net.cpp:106] Creating Layer labels_data_1_split
I0626 12:38:09.529960 11581 net.cpp:454] labels_data_1_split <- labels
I0626 12:38:09.529966 11581 net.cpp:411] labels_data_1_split -> labels_data_1_split_0
I0626 12:38:09.529974 11581 net.cpp:411] labels_data_1_split -> labels_data_1_split_1
I0626 12:38:09.529978 11581 net.cpp:411] labels_data_1_split -> labels_data_1_split_2
I0626 12:38:09.530014 11581 net.cpp:150] Setting up labels_data_1_split
I0626 12:38:09.530019 11581 net.cpp:157] Top shape: 64 (64)
I0626 12:38:09.530022 11581 net.cpp:157] Top shape: 64 (64)
I0626 12:38:09.530025 11581 net.cpp:157] Top shape: 64 (64)
I0626 12:38:09.530028 11581 net.cpp:165] Memory required for data: 39575296
I0626 12:38:09.530031 11581 layer_factory.hpp:77] Creating layer conv1/7x7_s2
I0626 12:38:09.530042 11581 net.cpp:106] Creating Layer conv1/7x7_s2
I0626 12:38:09.530045 11581 net.cpp:454] conv1/7x7_s2 <- data
I0626 12:38:09.530050 11581 net.cpp:411] conv1/7x7_s2 -> conv1/7x7_s2
I0626 12:38:09.649195 11581 net.cpp:150] Setting up conv1/7x7_s2
I0626 12:38:09.649226 11581 net.cpp:157] Top shape: 64 64 114 114 (53231616)
I0626 12:38:09.649230 11581 net.cpp:165] Memory required for data: 252501760
I0626 12:38:09.649246 11581 layer_factory.hpp:77] Creating layer conv1/relu_7x7
I0626 12:38:09.649258 11581 net.cpp:106] Creating Layer conv1/relu_7x7
I0626 12:38:09.649263 11581 net.cpp:454] conv1/relu_7x7 <- conv1/7x7_s2
I0626 12:38:09.649269 11581 net.cpp:397] conv1/relu_7x7 -> conv1/7x7_s2 (in-place)
I0626 12:38:09.649396 11581 net.cpp:150] Setting up conv1/relu_7x7
I0626 12:38:09.649404 11581 net.cpp:157] Top shape: 64 64 114 114 (53231616)
I0626 12:38:09.649406 11581 net.cpp:165] Memory required for data: 465428224
I0626 12:38:09.649410 11581 layer_factory.hpp:77] Creating layer pool1/3x3_s2
I0626 12:38:09.649430 11581 net.cpp:106] Creating Layer pool1/3x3_s2
I0626 12:38:09.649432 11581 net.cpp:454] pool1/3x3_s2 <- conv1/7x7_s2
I0626 12:38:09.649437 11581 net.cpp:411] pool1/3x3_s2 -> pool1/3x3_s2
I0626 12:38:09.649500 11581 net.cpp:150] Setting up pool1/3x3_s2
I0626 12:38:09.649518 11581 net.cpp:157] Top shape: 64 64 57 57 (13307904)
I0626 12:38:09.649520 11581 net.cpp:165] Memory required for data: 518659840
I0626 12:38:09.649523 11581 layer_factory.hpp:77] Creating layer pool1/norm1
I0626 12:38:09.649535 11581 net.cpp:106] Creating Layer pool1/norm1
I0626 12:38:09.649538 11581 net.cpp:454] pool1/norm1 <- pool1/3x3_s2
I0626 12:38:09.649544 11581 net.cpp:411] pool1/norm1 -> pool1/norm1
I0626 12:38:09.649963 11581 net.cpp:150] Setting up pool1/norm1
I0626 12:38:09.649974 11581 net.cpp:157] Top shape: 64 64 57 57 (13307904)
I0626 12:38:09.649977 11581 net.cpp:165] Memory required for data: 571891456
I0626 12:38:09.649992 11581 layer_factory.hpp:77] Creating layer conv2/3x3_reduce
I0626 12:38:09.650005 11581 net.cpp:106] Creating Layer conv2/3x3_reduce
I0626 12:38:09.650008 11581 net.cpp:454] conv2/3x3_reduce <- pool1/norm1
I0626 12:38:09.650014 11581 net.cpp:411] conv2/3x3_reduce -> conv2/3x3_reduce
I0626 12:38:09.651608 11581 net.cpp:150] Setting up conv2/3x3_reduce
I0626 12:38:09.651620 11581 net.cpp:157] Top shape: 64 64 57 57 (13307904)
I0626 12:38:09.651623 11581 net.cpp:165] Memory required for data: 625123072
I0626 12:38:09.651631 11581 layer_factory.hpp:77] Creating layer conv2/relu_3x3_reduce
I0626 12:38:09.651638 11581 net.cpp:106] Creating Layer conv2/relu_3x3_reduce
I0626 12:38:09.651640 11581 net.cpp:454] conv2/relu_3x3_reduce <- conv2/3x3_reduce
I0626 12:38:09.651648 11581 net.cpp:397] conv2/relu_3x3_reduce -> conv2/3x3_reduce (in-place)
I0626 12:38:09.651782 11581 net.cpp:150] Setting up conv2/relu_3x3_reduce
I0626 12:38:09.651789 11581 net.cpp:157] Top shape: 64 64 57 57 (13307904)
I0626 12:38:09.651792 11581 net.cpp:165] Memory required for data: 678354688
I0626 12:38:09.651794 11581 layer_factory.hpp:77] Creating layer conv2/3x3
I0626 12:38:09.651808 11581 net.cpp:106] Creating Layer conv2/3x3
I0626 12:38:09.651810 11581 net.cpp:454] conv2/3x3 <- conv2/3x3_reduce
I0626 12:38:09.651815 11581 net.cpp:411] conv2/3x3 -> conv2/3x3
I0626 12:38:09.654093 11581 net.cpp:150] Setting up conv2/3x3
I0626 12:38:09.654104 11581 net.cpp:157] Top shape: 64 192 57 57 (39923712)
I0626 12:38:09.654108 11581 net.cpp:165] Memory required for data: 838049536
I0626 12:38:09.654117 11581 layer_factory.hpp:77] Creating layer conv2/relu_3x3
I0626 12:38:09.654124 11581 net.cpp:106] Creating Layer conv2/relu_3x3
I0626 12:38:09.654126 11581 net.cpp:454] conv2/relu_3x3 <- conv2/3x3
I0626 12:38:09.654130 11581 net.cpp:397] conv2/relu_3x3 -> conv2/3x3 (in-place)
I0626 12:38:09.654417 11581 net.cpp:150] Setting up conv2/relu_3x3
I0626 12:38:09.654428 11581 net.cpp:157] Top shape: 64 192 57 57 (39923712)
I0626 12:38:09.654431 11581 net.cpp:165] Memory required for data: 997744384
I0626 12:38:09.654434 11581 layer_factory.hpp:77] Creating layer conv2/norm2
I0626 12:38:09.654440 11581 net.cpp:106] Creating Layer conv2/norm2
I0626 12:38:09.654443 11581 net.cpp:454] conv2/norm2 <- conv2/3x3
I0626 12:38:09.654449 11581 net.cpp:411] conv2/norm2 -> conv2/norm2
I0626 12:38:09.654603 11581 net.cpp:150] Setting up conv2/norm2
I0626 12:38:09.654610 11581 net.cpp:157] Top shape: 64 192 57 57 (39923712)
I0626 12:38:09.654613 11581 net.cpp:165] Memory required for data: 1157439232
I0626 12:38:09.654616 11581 layer_factory.hpp:77] Creating layer pool2/3x3_s2
I0626 12:38:09.654623 11581 net.cpp:106] Creating Layer pool2/3x3_s2
I0626 12:38:09.654626 11581 net.cpp:454] pool2/3x3_s2 <- conv2/norm2
I0626 12:38:09.654630 11581 net.cpp:411] pool2/3x3_s2 -> pool2/3x3_s2
I0626 12:38:09.654661 11581 net.cpp:150] Setting up pool2/3x3_s2
I0626 12:38:09.654666 11581 net.cpp:157] Top shape: 64 192 28 28 (9633792)
I0626 12:38:09.654669 11581 net.cpp:165] Memory required for data: 1195974400
I0626 12:38:09.654671 11581 layer_factory.hpp:77] Creating layer pool2/3x3_s2_pool2/3x3_s2_0_split
I0626 12:38:09.654677 11581 net.cpp:106] Creating Layer pool2/3x3_s2_pool2/3x3_s2_0_split
I0626 12:38:09.654680 11581 net.cpp:454] pool2/3x3_s2_pool2/3x3_s2_0_split <- pool2/3x3_s2
I0626 12:38:09.654685 11581 net.cpp:411] pool2/3x3_s2_pool2/3x3_s2_0_split -> pool2/3x3_s2_pool2/3x3_s2_0_split_0
I0626 12:38:09.654690 11581 net.cpp:411] pool2/3x3_s2_pool2/3x3_s2_0_split -> pool2/3x3_s2_pool2/3x3_s2_0_split_1
I0626 12:38:09.654695 11581 net.cpp:411] pool2/3x3_s2_pool2/3x3_s2_0_split -> pool2/3x3_s2_pool2/3x3_s2_0_split_2
I0626 12:38:09.654698 11581 net.cpp:411] pool2/3x3_s2_pool2/3x3_s2_0_split -> pool2/3x3_s2_pool2/3x3_s2_0_split_3
I0626 12:38:09.654741 11581 net.cpp:150] Setting up pool2/3x3_s2_pool2/3x3_s2_0_split
I0626 12:38:09.654744 11581 net.cpp:157] Top shape: 64 192 28 28 (9633792)
I0626 12:38:09.654748 11581 net.cpp:157] Top shape: 64 192 28 28 (9633792)
I0626 12:38:09.654752 11581 net.cpp:157] Top shape: 64 192 28 28 (9633792)
I0626 12:38:09.654754 11581 net.cpp:157] Top shape: 64 192 28 28 (9633792)
I0626 12:38:09.654757 11581 net.cpp:165] Memory required for data: 1350115072
I0626 12:38:09.654759 11581 layer_factory.hpp:77] Creating layer inception_3a/1x1
I0626 12:38:09.654772 11581 net.cpp:106] Creating Layer inception_3a/1x1
I0626 12:38:09.654774 11581 net.cpp:454] inception_3a/1x1 <- pool2/3x3_s2_pool2/3x3_s2_0_split_0
I0626 12:38:09.654779 11581 net.cpp:411] inception_3a/1x1 -> inception_3a/1x1
I0626 12:38:09.656414 11581 net.cpp:150] Setting up inception_3a/1x1
I0626 12:38:09.656424 11581 net.cpp:157] Top shape: 64 64 28 28 (3211264)
I0626 12:38:09.656427 11581 net.cpp:165] Memory required for data: 1362960128
I0626 12:38:09.656433 11581 layer_factory.hpp:77] Creating layer inception_3a/relu_1x1
I0626 12:38:09.656440 11581 net.cpp:106] Creating Layer inception_3a/relu_1x1
I0626 12:38:09.656443 11581 net.cpp:454] inception_3a/relu_1x1 <- inception_3a/1x1
I0626 12:38:09.656450 11581 net.cpp:397] inception_3a/relu_1x1 -> inception_3a/1x1 (in-place)
I0626 12:38:09.656596 11581 net.cpp:150] Setting up inception_3a/relu_1x1
I0626 12:38:09.656604 11581 net.cpp:157] Top shape: 64 64 28 28 (3211264)
I0626 12:38:09.656606 11581 net.cpp:165] Memory required for data: 1375805184
I0626 12:38:09.656610 11581 layer_factory.hpp:77] Creating layer inception_3a/3x3_reduce
I0626 12:38:09.656620 11581 net.cpp:106] Creating Layer inception_3a/3x3_reduce
I0626 12:38:09.656623 11581 net.cpp:454] inception_3a/3x3_reduce <- pool2/3x3_s2_pool2/3x3_s2_0_split_1
I0626 12:38:09.656628 11581 net.cpp:411] inception_3a/3x3_reduce -> inception_3a/3x3_reduce
I0626 12:38:09.658191 11581 net.cpp:150] Setting up inception_3a/3x3_reduce
I0626 12:38:09.658203 11581 net.cpp:157] Top shape: 64 96 28 28 (4816896)
I0626 12:38:09.658206 11581 net.cpp:165] Memory required for data: 1395072768
I0626 12:38:09.658215 11581 layer_factory.hpp:77] Creating layer inception_3a/relu_3x3_reduce
I0626 12:38:09.658222 11581 net.cpp:106] Creating Layer inception_3a/relu_3x3_reduce
I0626 12:38:09.658226 11581 net.cpp:454] inception_3a/relu_3x3_reduce <- inception_3a/3x3_reduce
I0626 12:38:09.658231 11581 net.cpp:397] inception_3a/relu_3x3_reduce -> inception_3a/3x3_reduce (in-place)
I0626 12:38:09.658517 11581 net.cpp:150] Setting up inception_3a/relu_3x3_reduce
I0626 12:38:09.658527 11581 net.cpp:157] Top shape: 64 96 28 28 (4816896)
I0626 12:38:09.658530 11581 net.cpp:165] Memory required for data: 1414340352
I0626 12:38:09.658534 11581 layer_factory.hpp:77] Creating layer inception_3a/3x3
I0626 12:38:09.658543 11581 net.cpp:106] Creating Layer inception_3a/3x3
I0626 12:38:09.658546 11581 net.cpp:454] inception_3a/3x3 <- inception_3a/3x3_reduce
I0626 12:38:09.658551 11581 net.cpp:411] inception_3a/3x3 -> inception_3a/3x3
I0626 12:38:09.660210 11581 net.cpp:150] Setting up inception_3a/3x3
I0626 12:38:09.660223 11581 net.cpp:157] Top shape: 64 128 28 28 (6422528)
I0626 12:38:09.660225 11581 net.cpp:165] Memory required for data: 1440030464
I0626 12:38:09.660231 11581 layer_factory.hpp:77] Creating layer inception_3a/relu_3x3
I0626 12:38:09.660238 11581 net.cpp:106] Creating Layer inception_3a/relu_3x3
I0626 12:38:09.660240 11581 net.cpp:454] inception_3a/relu_3x3 <- inception_3a/3x3
I0626 12:38:09.660244 11581 net.cpp:397] inception_3a/relu_3x3 -> inception_3a/3x3 (in-place)
I0626 12:38:09.660383 11581 net.cpp:150] Setting up inception_3a/relu_3x3
I0626 12:38:09.660390 11581 net.cpp:157] Top shape: 64 128 28 28 (6422528)
I0626 12:38:09.660393 11581 net.cpp:165] Memory required for data: 1465720576
I0626 12:38:09.660397 11581 layer_factory.hpp:77] Creating layer inception_3a/5x5_reduce
I0626 12:38:09.660405 11581 net.cpp:106] Creating Layer inception_3a/5x5_reduce
I0626 12:38:09.660409 11581 net.cpp:454] inception_3a/5x5_reduce <- pool2/3x3_s2_pool2/3x3_s2_0_split_2
I0626 12:38:09.660418 11581 net.cpp:411] inception_3a/5x5_reduce -> inception_3a/5x5_reduce
I0626 12:38:09.661459 11581 net.cpp:150] Setting up inception_3a/5x5_reduce
I0626 12:38:09.661471 11581 net.cpp:157] Top shape: 64 16 28 28 (802816)
I0626 12:38:09.661474 11581 net.cpp:165] Memory required for data: 1468931840
I0626 12:38:09.661480 11581 layer_factory.hpp:77] Creating layer inception_3a/relu_5x5_reduce
I0626 12:38:09.661486 11581 net.cpp:106] Creating Layer inception_3a/relu_5x5_reduce
I0626 12:38:09.661489 11581 net.cpp:454] inception_3a/relu_5x5_reduce <- inception_3a/5x5_reduce
I0626 12:38:09.661494 11581 net.cpp:397] inception_3a/relu_5x5_reduce -> inception_3a/5x5_reduce (in-place)
I0626 12:38:09.661633 11581 net.cpp:150] Setting up inception_3a/relu_5x5_reduce
I0626 12:38:09.661640 11581 net.cpp:157] Top shape: 64 16 28 28 (802816)
I0626 12:38:09.661643 11581 net.cpp:165] Memory required for data: 1472143104
I0626 12:38:09.661645 11581 layer_factory.hpp:77] Creating layer inception_3a/5x5
I0626 12:38:09.661655 11581 net.cpp:106] Creating Layer inception_3a/5x5
I0626 12:38:09.661659 11581 net.cpp:454] inception_3a/5x5 <- inception_3a/5x5_reduce
I0626 12:38:09.661664 11581 net.cpp:411] inception_3a/5x5 -> inception_3a/5x5
I0626 12:38:09.662891 11581 net.cpp:150] Setting up inception_3a/5x5
I0626 12:38:09.662904 11581 net.cpp:157] Top shape: 64 32 28 28 (1605632)
I0626 12:38:09.662907 11581 net.cpp:165] Memory required for data: 1478565632
I0626 12:38:09.662914 11581 layer_factory.hpp:77] Creating layer inception_3a/relu_5x5
I0626 12:38:09.662919 11581 net.cpp:106] Creating Layer inception_3a/relu_5x5
I0626 12:38:09.662924 11581 net.cpp:454] inception_3a/relu_5x5 <- inception_3a/5x5
I0626 12:38:09.662930 11581 net.cpp:397] inception_3a/relu_5x5 -> inception_3a/5x5 (in-place)
I0626 12:38:09.663231 11581 net.cpp:150] Setting up inception_3a/relu_5x5
I0626 12:38:09.663241 11581 net.cpp:157] Top shape: 64 32 28 28 (1605632)
I0626 12:38:09.663244 11581 net.cpp:165] Memory required for data: 1484988160
I0626 12:38:09.663247 11581 layer_factory.hpp:77] Creating layer inception_3a/pool
I0626 12:38:09.663254 11581 net.cpp:106] Creating Layer inception_3a/pool
I0626 12:38:09.663257 11581 net.cpp:454] inception_3a/pool <- pool2/3x3_s2_pool2/3x3_s2_0_split_3
I0626 12:38:09.663264 11581 net.cpp:411] inception_3a/pool -> inception_3a/pool
I0626 12:38:09.663302 11581 net.cpp:150] Setting up inception_3a/pool
I0626 12:38:09.663307 11581 net.cpp:157] Top shape: 64 192 28 28 (9633792)
I0626 12:38:09.663310 11581 net.cpp:165] Memory required for data: 1523523328
I0626 12:38:09.663312 11581 layer_factory.hpp:77] Creating layer inception_3a/pool_proj
I0626 12:38:09.663321 11581 net.cpp:106] Creating Layer inception_3a/pool_proj
I0626 12:38:09.663324 11581 net.cpp:454] inception_3a/pool_proj <- inception_3a/pool
I0626 12:38:09.663329 11581 net.cpp:411] inception_3a/pool_proj -> inception_3a/pool_proj
I0626 12:38:09.664284 11581 net.cpp:150] Setting up inception_3a/pool_proj
I0626 12:38:09.664295 11581 net.cpp:157] Top shape: 64 32 28 28 (1605632)
I0626 12:38:09.664299 11581 net.cpp:165] Memory required for data: 1529945856
I0626 12:38:09.664320 11581 layer_factory.hpp:77] Creating layer inception_3a/relu_pool_proj
I0626 12:38:09.664327 11581 net.cpp:106] Creating Layer inception_3a/relu_pool_proj
I0626 12:38:09.664330 11581 net.cpp:454] inception_3a/relu_pool_proj <- inception_3a/pool_proj
I0626 12:38:09.664335 11581 net.cpp:397] inception_3a/relu_pool_proj -> inception_3a/pool_proj (in-place)
I0626 12:38:09.664474 11581 net.cpp:150] Setting up inception_3a/relu_pool_proj
I0626 12:38:09.664480 11581 net.cpp:157] Top shape: 64 32 28 28 (1605632)
I0626 12:38:09.664484 11581 net.cpp:165] Memory required for data: 1536368384
I0626 12:38:09.664486 11581 layer_factory.hpp:77] Creating layer inception_3a/output
I0626 12:38:09.664494 11581 net.cpp:106] Creating Layer inception_3a/output
I0626 12:38:09.664496 11581 net.cpp:454] inception_3a/output <- inception_3a/1x1
I0626 12:38:09.664500 11581 net.cpp:454] inception_3a/output <- inception_3a/3x3
I0626 12:38:09.664504 11581 net.cpp:454] inception_3a/output <- inception_3a/5x5
I0626 12:38:09.664506 11581 net.cpp:454] inception_3a/output <- inception_3a/pool_proj
I0626 12:38:09.664510 11581 net.cpp:411] inception_3a/output -> inception_3a/output
I0626 12:38:09.664541 11581 net.cpp:150] Setting up inception_3a/output
I0626 12:38:09.664546 11581 net.cpp:157] Top shape: 64 256 28 28 (12845056)
I0626 12:38:09.664548 11581 net.cpp:165] Memory required for data: 1587748608
I0626 12:38:09.664551 11581 layer_factory.hpp:77] Creating layer inception_3a/output_inception_3a/output_0_split
I0626 12:38:09.664556 11581 net.cpp:106] Creating Layer inception_3a/output_inception_3a/output_0_split
I0626 12:38:09.664558 11581 net.cpp:454] inception_3a/output_inception_3a/output_0_split <- inception_3a/output
I0626 12:38:09.664564 11581 net.cpp:411] inception_3a/output_inception_3a/output_0_split -> inception_3a/output_inception_3a/output_0_split_0
I0626 12:38:09.664568 11581 net.cpp:411] inception_3a/output_inception_3a/output_0_split -> inception_3a/output_inception_3a/output_0_split_1
I0626 12:38:09.664573 11581 net.cpp:411] inception_3a/output_inception_3a/output_0_split -> inception_3a/output_inception_3a/output_0_split_2
I0626 12:38:09.664577 11581 net.cpp:411] inception_3a/output_inception_3a/output_0_split -> inception_3a/output_inception_3a/output_0_split_3
I0626 12:38:09.664624 11581 net.cpp:150] Setting up inception_3a/output_inception_3a/output_0_split
I0626 12:38:09.664629 11581 net.cpp:157] Top shape: 64 256 28 28 (12845056)
I0626 12:38:09.664633 11581 net.cpp:157] Top shape: 64 256 28 28 (12845056)
I0626 12:38:09.664635 11581 net.cpp:157] Top shape: 64 256 28 28 (12845056)
I0626 12:38:09.664638 11581 net.cpp:157] Top shape: 64 256 28 28 (12845056)
I0626 12:38:09.664640 11581 net.cpp:165] Memory required for data: 1793269504
I0626 12:38:09.664644 11581 layer_factory.hpp:77] Creating layer inception_3b/1x1
I0626 12:38:09.664652 11581 net.cpp:106] Creating Layer inception_3b/1x1
I0626 12:38:09.664655 11581 net.cpp:454] inception_3b/1x1 <- inception_3a/output_inception_3a/output_0_split_0
I0626 12:38:09.664660 11581 net.cpp:411] inception_3b/1x1 -> inception_3b/1x1
I0626 12:38:09.665859 11581 net.cpp:150] Setting up inception_3b/1x1
I0626 12:38:09.665871 11581 net.cpp:157] Top shape: 64 128 28 28 (6422528)
I0626 12:38:09.665875 11581 net.cpp:165] Memory required for data: 1818959616
I0626 12:38:09.665880 11581 layer_factory.hpp:77] Creating layer inception_3b/relu_1x1
I0626 12:38:09.665886 11581 net.cpp:106] Creating Layer inception_3b/relu_1x1
I0626 12:38:09.665890 11581 net.cpp:454] inception_3b/relu_1x1 <- inception_3b/1x1
I0626 12:38:09.665894 11581 net.cpp:397] inception_3b/relu_1x1 -> inception_3b/1x1 (in-place)
I0626 12:38:09.666038 11581 net.cpp:150] Setting up inception_3b/relu_1x1
I0626 12:38:09.666043 11581 net.cpp:157] Top shape: 64 128 28 28 (6422528)
I0626 12:38:09.666046 11581 net.cpp:165] Memory required for data: 1844649728
I0626 12:38:09.666049 11581 layer_factory.hpp:77] Creating layer inception_3b/3x3_reduce
I0626 12:38:09.666059 11581 net.cpp:106] Creating Layer inception_3b/3x3_reduce
I0626 12:38:09.666062 11581 net.cpp:454] inception_3b/3x3_reduce <- inception_3a/output_inception_3a/output_0_split_1
I0626 12:38:09.666069 11581 net.cpp:411] inception_3b/3x3_reduce -> inception_3b/3x3_reduce
I0626 12:38:09.667166 11581 net.cpp:150] Setting up inception_3b/3x3_reduce
I0626 12:38:09.667177 11581 net.cpp:157] Top shape: 64 128 28 28 (6422528)
I0626 12:38:09.667181 11581 net.cpp:165] Memory required for data: 1870339840
I0626 12:38:09.667186 11581 layer_factory.hpp:77] Creating layer inception_3b/relu_3x3_reduce
I0626 12:38:09.667192 11581 net.cpp:106] Creating Layer inception_3b/relu_3x3_reduce
I0626 12:38:09.667196 11581 net.cpp:454] inception_3b/relu_3x3_reduce <- inception_3b/3x3_reduce
I0626 12:38:09.667201 11581 net.cpp:397] inception_3b/relu_3x3_reduce -> inception_3b/3x3_reduce (in-place)
I0626 12:38:09.667492 11581 net.cpp:150] Setting up inception_3b/relu_3x3_reduce
I0626 12:38:09.667503 11581 net.cpp:157] Top shape: 64 128 28 28 (6422528)
I0626 12:38:09.667506 11581 net.cpp:165] Memory required for data: 1896029952
I0626 12:38:09.667510 11581 layer_factory.hpp:77] Creating layer inception_3b/3x3
I0626 12:38:09.667521 11581 net.cpp:106] Creating Layer inception_3b/3x3
I0626 12:38:09.667526 11581 net.cpp:454] inception_3b/3x3 <- inception_3b/3x3_reduce
I0626 12:38:09.667532 11581 net.cpp:411] inception_3b/3x3 -> inception_3b/3x3
I0626 12:38:09.670291 11581 net.cpp:150] Setting up inception_3b/3x3
I0626 12:38:09.670302 11581 net.cpp:157] Top shape: 64 192 28 28 (9633792)
I0626 12:38:09.670306 11581 net.cpp:165] Memory required for data: 1934565120
I0626 12:38:09.670311 11581 layer_factory.hpp:77] Creating layer inception_3b/relu_3x3
I0626 12:38:09.670318 11581 net.cpp:106] Creating Layer inception_3b/relu_3x3
I0626 12:38:09.670322 11581 net.cpp:454] inception_3b/relu_3x3 <- inception_3b/3x3
I0626 12:38:09.670326 11581 net.cpp:397] inception_3b/relu_3x3 -> inception_3b/3x3 (in-place)
I0626 12:38:09.670470 11581 net.cpp:150] Setting up inception_3b/relu_3x3
I0626 12:38:09.670477 11581 net.cpp:157] Top shape: 64 192 28 28 (9633792)
I0626 12:38:09.670480 11581 net.cpp:165] Memory required for data: 1973100288
I0626 12:38:09.670483 11581 layer_factory.hpp:77] Creating layer inception_3b/5x5_reduce
I0626 12:38:09.670493 11581 net.cpp:106] Creating Layer inception_3b/5x5_reduce
I0626 12:38:09.670497 11581 net.cpp:454] inception_3b/5x5_reduce <- inception_3a/output_inception_3a/output_0_split_2
I0626 12:38:09.670502 11581 net.cpp:411] inception_3b/5x5_reduce -> inception_3b/5x5_reduce
I0626 12:38:09.671468 11581 net.cpp:150] Setting up inception_3b/5x5_reduce
I0626 12:38:09.671479 11581 net.cpp:157] Top shape: 64 32 28 28 (1605632)
I0626 12:38:09.671483 11581 net.cpp:165] Memory required for data: 1979522816
I0626 12:38:09.671488 11581 layer_factory.hpp:77] Creating layer inception_3b/relu_5x5_reduce
I0626 12:38:09.671494 11581 net.cpp:106] Creating Layer inception_3b/relu_5x5_reduce
I0626 12:38:09.671499 11581 net.cpp:454] inception_3b/relu_5x5_reduce <- inception_3b/5x5_reduce
I0626 12:38:09.671502 11581 net.cpp:397] inception_3b/relu_5x5_reduce -> inception_3b/5x5_reduce (in-place)
I0626 12:38:09.671643 11581 net.cpp:150] Setting up inception_3b/relu_5x5_reduce
I0626 12:38:09.671649 11581 net.cpp:157] Top shape: 64 32 28 28 (1605632)
I0626 12:38:09.671653 11581 net.cpp:165] Memory required for data: 1985945344
I0626 12:38:09.671655 11581 layer_factory.hpp:77] Creating layer inception_3b/5x5
I0626 12:38:09.671666 11581 net.cpp:106] Creating Layer inception_3b/5x5
I0626 12:38:09.671669 11581 net.cpp:454] inception_3b/5x5 <- inception_3b/5x5_reduce
I0626 12:38:09.671674 11581 net.cpp:411] inception_3b/5x5 -> inception_3b/5x5
I0626 12:38:09.673550 11581 net.cpp:150] Setting up inception_3b/5x5
I0626 12:38:09.673563 11581 net.cpp:157] Top shape: 64 96 28 28 (4816896)
I0626 12:38:09.673565 11581 net.cpp:165] Memory required for data: 2005212928
I0626 12:38:09.673571 11581 layer_factory.hpp:77] Creating layer inception_3b/relu_5x5
I0626 12:38:09.673578 11581 net.cpp:106] Creating Layer inception_3b/relu_5x5
I0626 12:38:09.673583 11581 net.cpp:454] inception_3b/relu_5x5 <- inception_3b/5x5
I0626 12:38:09.673586 11581 net.cpp:397] inception_3b/relu_5x5 -> inception_3b/5x5 (in-place)
I0626 12:38:09.673882 11581 net.cpp:150] Setting up inception_3b/relu_5x5
I0626 12:38:09.673892 11581 net.cpp:157] Top shape: 64 96 28 28 (4816896)
I0626 12:38:09.673895 11581 net.cpp:165] Memory required for data: 2024480512
I0626 12:38:09.673899 11581 layer_factory.hpp:77] Creating layer inception_3b/pool
I0626 12:38:09.673907 11581 net.cpp:106] Creating Layer inception_3b/pool
I0626 12:38:09.673909 11581 net.cpp:454] inception_3b/pool <- inception_3a/output_inception_3a/output_0_split_3
I0626 12:38:09.673916 11581 net.cpp:411] inception_3b/pool -> inception_3b/pool
I0626 12:38:09.673954 11581 net.cpp:150] Setting up inception_3b/pool
I0626 12:38:09.673959 11581 net.cpp:157] Top shape: 64 256 28 28 (12845056)
I0626 12:38:09.673960 11581 net.cpp:165] Memory required for data: 2075860736
I0626 12:38:09.673964 11581 layer_factory.hpp:77] Creating layer inception_3b/pool_proj
I0626 12:38:09.673972 11581 net.cpp:106] Creating Layer inception_3b/pool_proj
I0626 12:38:09.673975 11581 net.cpp:454] inception_3b/pool_proj <- inception_3b/pool
I0626 12:38:09.673981 11581 net.cpp:411] inception_3b/pool_proj -> inception_3b/pool_proj
I0626 12:38:09.675070 11581 net.cpp:150] Setting up inception_3b/pool_proj
I0626 12:38:09.675079 11581 net.cpp:157] Top shape: 64 64 28 28 (3211264)
I0626 12:38:09.675082 11581 net.cpp:165] Memory required for data: 2088705792
I0626 12:38:09.675088 11581 layer_factory.hpp:77] Creating layer inception_3b/relu_pool_proj
I0626 12:38:09.675096 11581 net.cpp:106] Creating Layer inception_3b/relu_pool_proj
I0626 12:38:09.675098 11581 net.cpp:454] inception_3b/relu_pool_proj <- inception_3b/pool_proj
I0626 12:38:09.675103 11581 net.cpp:397] inception_3b/relu_pool_proj -> inception_3b/pool_proj (in-place)
I0626 12:38:09.675276 11581 net.cpp:150] Setting up inception_3b/relu_pool_proj
I0626 12:38:09.675282 11581 net.cpp:157] Top shape: 64 64 28 28 (3211264)
I0626 12:38:09.675285 11581 net.cpp:165] Memory required for data: 2101550848
I0626 12:38:09.675288 11581 layer_factory.hpp:77] Creating layer inception_3b/output
I0626 12:38:09.675295 11581 net.cpp:106] Creating Layer inception_3b/output
I0626 12:38:09.675298 11581 net.cpp:454] inception_3b/output <- inception_3b/1x1
I0626 12:38:09.675302 11581 net.cpp:454] inception_3b/output <- inception_3b/3x3
I0626 12:38:09.675305 11581 net.cpp:454] inception_3b/output <- inception_3b/5x5
I0626 12:38:09.675308 11581 net.cpp:454] inception_3b/output <- inception_3b/pool_proj
I0626 12:38:09.675312 11581 net.cpp:411] inception_3b/output -> inception_3b/output
I0626 12:38:09.675336 11581 net.cpp:150] Setting up inception_3b/output
I0626 12:38:09.675340 11581 net.cpp:157] Top shape: 64 480 28 28 (24084480)
I0626 12:38:09.675343 11581 net.cpp:165] Memory required for data: 2197888768
I0626 12:38:09.675345 11581 layer_factory.hpp:77] Creating layer pool3/3x3_s2
I0626 12:38:09.675353 11581 net.cpp:106] Creating Layer pool3/3x3_s2
I0626 12:38:09.675355 11581 net.cpp:454] pool3/3x3_s2 <- inception_3b/output
I0626 12:38:09.675359 11581 net.cpp:411] pool3/3x3_s2 -> pool3/3x3_s2
I0626 12:38:09.675390 11581 net.cpp:150] Setting up pool3/3x3_s2
I0626 12:38:09.675395 11581 net.cpp:157] Top shape: 64 480 14 14 (6021120)
I0626 12:38:09.675397 11581 net.cpp:165] Memory required for data: 2221973248
I0626 12:38:09.675400 11581 layer_factory.hpp:77] Creating layer pool3/3x3_s2_pool3/3x3_s2_0_split
I0626 12:38:09.675405 11581 net.cpp:106] Creating Layer pool3/3x3_s2_pool3/3x3_s2_0_split
I0626 12:38:09.675408 11581 net.cpp:454] pool3/3x3_s2_pool3/3x3_s2_0_split <- pool3/3x3_s2
I0626 12:38:09.675413 11581 net.cpp:411] pool3/3x3_s2_pool3/3x3_s2_0_split -> pool3/3x3_s2_pool3/3x3_s2_0_split_0
I0626 12:38:09.675418 11581 net.cpp:411] pool3/3x3_s2_pool3/3x3_s2_0_split -> pool3/3x3_s2_pool3/3x3_s2_0_split_1
I0626 12:38:09.675422 11581 net.cpp:411] pool3/3x3_s2_pool3/3x3_s2_0_split -> pool3/3x3_s2_pool3/3x3_s2_0_split_2
I0626 12:38:09.675426 11581 net.cpp:411] pool3/3x3_s2_pool3/3x3_s2_0_split -> pool3/3x3_s2_pool3/3x3_s2_0_split_3
I0626 12:38:09.675472 11581 net.cpp:150] Setting up pool3/3x3_s2_pool3/3x3_s2_0_split
I0626 12:38:09.675477 11581 net.cpp:157] Top shape: 64 480 14 14 (6021120)
I0626 12:38:09.675480 11581 net.cpp:157] Top shape: 64 480 14 14 (6021120)
I0626 12:38:09.675483 11581 net.cpp:157] Top shape: 64 480 14 14 (6021120)
I0626 12:38:09.675487 11581 net.cpp:157] Top shape: 64 480 14 14 (6021120)
I0626 12:38:09.675488 11581 net.cpp:165] Memory required for data: 2318311168
I0626 12:38:09.675492 11581 layer_factory.hpp:77] Creating layer inception_4a/1x1
I0626 12:38:09.675500 11581 net.cpp:106] Creating Layer inception_4a/1x1
I0626 12:38:09.675503 11581 net.cpp:454] inception_4a/1x1 <- pool3/3x3_s2_pool3/3x3_s2_0_split_0
I0626 12:38:09.675508 11581 net.cpp:411] inception_4a/1x1 -> inception_4a/1x1
I0626 12:38:09.677161 11581 net.cpp:150] Setting up inception_4a/1x1
I0626 12:38:09.677172 11581 net.cpp:157] Top shape: 64 192 14 14 (2408448)
I0626 12:38:09.677175 11581 net.cpp:165] Memory required for data: 2327944960
I0626 12:38:09.677181 11581 layer_factory.hpp:77] Creating layer inception_4a/relu_1x1
I0626 12:38:09.677187 11581 net.cpp:106] Creating Layer inception_4a/relu_1x1
I0626 12:38:09.677192 11581 net.cpp:454] inception_4a/relu_1x1 <- inception_4a/1x1
I0626 12:38:09.677196 11581 net.cpp:397] inception_4a/relu_1x1 -> inception_4a/1x1 (in-place)
I0626 12:38:09.677340 11581 net.cpp:150] Setting up inception_4a/relu_1x1
I0626 12:38:09.677346 11581 net.cpp:157] Top shape: 64 192 14 14 (2408448)
I0626 12:38:09.677350 11581 net.cpp:165] Memory required for data: 2337578752
I0626 12:38:09.677352 11581 layer_factory.hpp:77] Creating layer inception_4a/3x3_reduce
I0626 12:38:09.677363 11581 net.cpp:106] Creating Layer inception_4a/3x3_reduce
I0626 12:38:09.677366 11581 net.cpp:454] inception_4a/3x3_reduce <- pool3/3x3_s2_pool3/3x3_s2_0_split_1
I0626 12:38:09.677372 11581 net.cpp:411] inception_4a/3x3_reduce -> inception_4a/3x3_reduce
I0626 12:38:09.678580 11581 net.cpp:150] Setting up inception_4a/3x3_reduce
I0626 12:38:09.678591 11581 net.cpp:157] Top shape: 64 96 14 14 (1204224)
I0626 12:38:09.678593 11581 net.cpp:165] Memory required for data: 2342395648
I0626 12:38:09.678604 11581 layer_factory.hpp:77] Creating layer inception_4a/relu_3x3_reduce
I0626 12:38:09.678609 11581 net.cpp:106] Creating Layer inception_4a/relu_3x3_reduce
I0626 12:38:09.678613 11581 net.cpp:454] inception_4a/relu_3x3_reduce <- inception_4a/3x3_reduce
I0626 12:38:09.678619 11581 net.cpp:397] inception_4a/relu_3x3_reduce -> inception_4a/3x3_reduce (in-place)
I0626 12:38:09.678911 11581 net.cpp:150] Setting up inception_4a/relu_3x3_reduce
I0626 12:38:09.678921 11581 net.cpp:157] Top shape: 64 96 14 14 (1204224)
I0626 12:38:09.678925 11581 net.cpp:165] Memory required for data: 2347212544
I0626 12:38:09.678927 11581 layer_factory.hpp:77] Creating layer inception_4a/3x3
I0626 12:38:09.678937 11581 net.cpp:106] Creating Layer inception_4a/3x3
I0626 12:38:09.678941 11581 net.cpp:454] inception_4a/3x3 <- inception_4a/3x3_reduce
I0626 12:38:09.678947 11581 net.cpp:411] inception_4a/3x3 -> inception_4a/3x3
I0626 12:38:09.681681 11581 net.cpp:150] Setting up inception_4a/3x3
I0626 12:38:09.681692 11581 net.cpp:157] Top shape: 64 208 14 14 (2609152)
I0626 12:38:09.681696 11581 net.cpp:165] Memory required for data: 2357649152
I0626 12:38:09.681701 11581 layer_factory.hpp:77] Creating layer inception_4a/relu_3x3
I0626 12:38:09.681707 11581 net.cpp:106] Creating Layer inception_4a/relu_3x3
I0626 12:38:09.681710 11581 net.cpp:454] inception_4a/relu_3x3 <- inception_4a/3x3
I0626 12:38:09.681717 11581 net.cpp:397] inception_4a/relu_3x3 -> inception_4a/3x3 (in-place)
I0626 12:38:09.681859 11581 net.cpp:150] Setting up inception_4a/relu_3x3
I0626 12:38:09.681866 11581 net.cpp:157] Top shape: 64 208 14 14 (2609152)
I0626 12:38:09.681869 11581 net.cpp:165] Memory required for data: 2368085760
I0626 12:38:09.681872 11581 layer_factory.hpp:77] Creating layer inception_4a/5x5_reduce
I0626 12:38:09.681881 11581 net.cpp:106] Creating Layer inception_4a/5x5_reduce
I0626 12:38:09.681885 11581 net.cpp:454] inception_4a/5x5_reduce <- pool3/3x3_s2_pool3/3x3_s2_0_split_2
I0626 12:38:09.681891 11581 net.cpp:411] inception_4a/5x5_reduce -> inception_4a/5x5_reduce
I0626 12:38:09.682885 11581 net.cpp:150] Setting up inception_4a/5x5_reduce
I0626 12:38:09.682896 11581 net.cpp:157] Top shape: 64 16 14 14 (200704)
I0626 12:38:09.682899 11581 net.cpp:165] Memory required for data: 2368888576
I0626 12:38:09.682905 11581 layer_factory.hpp:77] Creating layer inception_4a/relu_5x5_reduce
I0626 12:38:09.682912 11581 net.cpp:106] Creating Layer inception_4a/relu_5x5_reduce
I0626 12:38:09.682916 11581 net.cpp:454] inception_4a/relu_5x5_reduce <- inception_4a/5x5_reduce
I0626 12:38:09.682920 11581 net.cpp:397] inception_4a/relu_5x5_reduce -> inception_4a/5x5_reduce (in-place)
I0626 12:38:09.683066 11581 net.cpp:150] Setting up inception_4a/relu_5x5_reduce
I0626 12:38:09.683073 11581 net.cpp:157] Top shape: 64 16 14 14 (200704)
I0626 12:38:09.683076 11581 net.cpp:165] Memory required for data: 2369691392
I0626 12:38:09.683079 11581 layer_factory.hpp:77] Creating layer inception_4a/5x5
I0626 12:38:09.683089 11581 net.cpp:106] Creating Layer inception_4a/5x5
I0626 12:38:09.683092 11581 net.cpp:454] inception_4a/5x5 <- inception_4a/5x5_reduce
I0626 12:38:09.683097 11581 net.cpp:411] inception_4a/5x5 -> inception_4a/5x5
I0626 12:38:09.684197 11581 net.cpp:150] Setting up inception_4a/5x5
I0626 12:38:09.684209 11581 net.cpp:157] Top shape: 64 48 14 14 (602112)
I0626 12:38:09.684212 11581 net.cpp:165] Memory required for data: 2372099840
I0626 12:38:09.684218 11581 layer_factory.hpp:77] Creating layer inception_4a/relu_5x5
I0626 12:38:09.684223 11581 net.cpp:106] Creating Layer inception_4a/relu_5x5
I0626 12:38:09.684227 11581 net.cpp:454] inception_4a/relu_5x5 <- inception_4a/5x5
I0626 12:38:09.684231 11581 net.cpp:397] inception_4a/relu_5x5 -> inception_4a/5x5 (in-place)
I0626 12:38:09.684528 11581 net.cpp:150] Setting up inception_4a/relu_5x5
I0626 12:38:09.684538 11581 net.cpp:157] Top shape: 64 48 14 14 (602112)
I0626 12:38:09.684541 11581 net.cpp:165] Memory required for data: 2374508288
I0626 12:38:09.684545 11581 layer_factory.hpp:77] Creating layer inception_4a/pool
I0626 12:38:09.684562 11581 net.cpp:106] Creating Layer inception_4a/pool
I0626 12:38:09.684566 11581 net.cpp:454] inception_4a/pool <- pool3/3x3_s2_pool3/3x3_s2_0_split_3
I0626 12:38:09.684571 11581 net.cpp:411] inception_4a/pool -> inception_4a/pool
I0626 12:38:09.684625 11581 net.cpp:150] Setting up inception_4a/pool
I0626 12:38:09.684630 11581 net.cpp:157] Top shape: 64 480 14 14 (6021120)
I0626 12:38:09.684633 11581 net.cpp:165] Memory required for data: 2398592768
I0626 12:38:09.684635 11581 layer_factory.hpp:77] Creating layer inception_4a/pool_proj
I0626 12:38:09.684644 11581 net.cpp:106] Creating Layer inception_4a/pool_proj
I0626 12:38:09.684650 11581 net.cpp:454] inception_4a/pool_proj <- inception_4a/pool
I0626 12:38:09.684655 11581 net.cpp:411] inception_4a/pool_proj -> inception_4a/pool_proj
I0626 12:38:09.685956 11581 net.cpp:150] Setting up inception_4a/pool_proj
I0626 12:38:09.685967 11581 net.cpp:157] Top shape: 64 64 14 14 (802816)
I0626 12:38:09.685971 11581 net.cpp:165] Memory required for data: 2401804032
I0626 12:38:09.685976 11581 layer_factory.hpp:77] Creating layer inception_4a/relu_pool_proj
I0626 12:38:09.685982 11581 net.cpp:106] Creating Layer inception_4a/relu_pool_proj
I0626 12:38:09.685986 11581 net.cpp:454] inception_4a/relu_pool_proj <- inception_4a/pool_proj
I0626 12:38:09.685992 11581 net.cpp:397] inception_4a/relu_pool_proj -> inception_4a/pool_proj (in-place)
I0626 12:38:09.686133 11581 net.cpp:150] Setting up inception_4a/relu_pool_proj
I0626 12:38:09.686139 11581 net.cpp:157] Top shape: 64 64 14 14 (802816)
I0626 12:38:09.686142 11581 net.cpp:165] Memory required for data: 2405015296
I0626 12:38:09.686146 11581 layer_factory.hpp:77] Creating layer inception_4a/output
I0626 12:38:09.686151 11581 net.cpp:106] Creating Layer inception_4a/output
I0626 12:38:09.686154 11581 net.cpp:454] inception_4a/output <- inception_4a/1x1
I0626 12:38:09.686158 11581 net.cpp:454] inception_4a/output <- inception_4a/3x3
I0626 12:38:09.686161 11581 net.cpp:454] inception_4a/output <- inception_4a/5x5
I0626 12:38:09.686164 11581 net.cpp:454] inception_4a/output <- inception_4a/pool_proj
I0626 12:38:09.686169 11581 net.cpp:411] inception_4a/output -> inception_4a/output
I0626 12:38:09.686192 11581 net.cpp:150] Setting up inception_4a/output
I0626 12:38:09.686199 11581 net.cpp:157] Top shape: 64 512 14 14 (6422528)
I0626 12:38:09.686202 11581 net.cpp:165] Memory required for data: 2430705408
I0626 12:38:09.686204 11581 layer_factory.hpp:77] Creating layer inception_4a/output_inception_4a/output_0_split
I0626 12:38:09.686209 11581 net.cpp:106] Creating Layer inception_4a/output_inception_4a/output_0_split
I0626 12:38:09.686213 11581 net.cpp:454] inception_4a/output_inception_4a/output_0_split <- inception_4a/output
I0626 12:38:09.686216 11581 net.cpp:411] inception_4a/output_inception_4a/output_0_split -> inception_4a/output_inception_4a/output_0_split_0
I0626 12:38:09.686221 11581 net.cpp:411] inception_4a/output_inception_4a/output_0_split -> inception_4a/output_inception_4a/output_0_split_1
I0626 12:38:09.686228 11581 net.cpp:411] inception_4a/output_inception_4a/output_0_split -> inception_4a/output_inception_4a/output_0_split_2
I0626 12:38:09.686231 11581 net.cpp:411] inception_4a/output_inception_4a/output_0_split -> inception_4a/output_inception_4a/output_0_split_3
I0626 12:38:09.686235 11581 net.cpp:411] inception_4a/output_inception_4a/output_0_split -> inception_4a/output_inception_4a/output_0_split_4
I0626 12:38:09.686295 11581 net.cpp:150] Setting up inception_4a/output_inception_4a/output_0_split
I0626 12:38:09.686300 11581 net.cpp:157] Top shape: 64 512 14 14 (6422528)
I0626 12:38:09.686316 11581 net.cpp:157] Top shape: 64 512 14 14 (6422528)
I0626 12:38:09.686318 11581 net.cpp:157] Top shape: 64 512 14 14 (6422528)
I0626 12:38:09.686322 11581 net.cpp:157] Top shape: 64 512 14 14 (6422528)
I0626 12:38:09.686336 11581 net.cpp:157] Top shape: 64 512 14 14 (6422528)
I0626 12:38:09.686338 11581 net.cpp:165] Memory required for data: 2559155968
I0626 12:38:09.686342 11581 layer_factory.hpp:77] Creating layer loss1/ave_pool
I0626 12:38:09.686348 11581 net.cpp:106] Creating Layer loss1/ave_pool
I0626 12:38:09.686352 11581 net.cpp:454] loss1/ave_pool <- inception_4a/output_inception_4a/output_0_split_0
I0626 12:38:09.686355 11581 net.cpp:411] loss1/ave_pool -> loss1/ave_pool
I0626 12:38:09.686692 11581 net.cpp:150] Setting up loss1/ave_pool
I0626 12:38:09.686702 11581 net.cpp:157] Top shape: 64 512 4 4 (524288)
I0626 12:38:09.686705 11581 net.cpp:165] Memory required for data: 2561253120
I0626 12:38:09.686708 11581 layer_factory.hpp:77] Creating layer loss1/conv
I0626 12:38:09.686719 11581 net.cpp:106] Creating Layer loss1/conv
I0626 12:38:09.686723 11581 net.cpp:454] loss1/conv <- loss1/ave_pool
I0626 12:38:09.686728 11581 net.cpp:411] loss1/conv -> loss1/conv
I0626 12:38:09.687953 11581 net.cpp:150] Setting up loss1/conv
I0626 12:38:09.687963 11581 net.cpp:157] Top shape: 64 128 4 4 (131072)
I0626 12:38:09.687966 11581 net.cpp:165] Memory required for data: 2561777408
I0626 12:38:09.687973 11581 layer_factory.hpp:77] Creating layer loss1/relu_conv
I0626 12:38:09.687979 11581 net.cpp:106] Creating Layer loss1/relu_conv
I0626 12:38:09.687983 11581 net.cpp:454] loss1/relu_conv <- loss1/conv
I0626 12:38:09.687988 11581 net.cpp:397] loss1/relu_conv -> loss1/conv (in-place)
I0626 12:38:09.688284 11581 net.cpp:150] Setting up loss1/relu_conv
I0626 12:38:09.688294 11581 net.cpp:157] Top shape: 64 128 4 4 (131072)
I0626 12:38:09.688297 11581 net.cpp:165] Memory required for data: 2562301696
I0626 12:38:09.688300 11581 layer_factory.hpp:77] Creating layer loss1/fc
I0626 12:38:09.688308 11581 net.cpp:106] Creating Layer loss1/fc
I0626 12:38:09.688311 11581 net.cpp:454] loss1/fc <- loss1/conv
I0626 12:38:09.688318 11581 net.cpp:411] loss1/fc -> loss1/fc
I0626 12:38:09.704202 11581 net.cpp:150] Setting up loss1/fc
I0626 12:38:09.704221 11581 net.cpp:157] Top shape: 64 1024 (65536)
I0626 12:38:09.704223 11581 net.cpp:165] Memory required for data: 2562563840
I0626 12:38:09.704231 11581 layer_factory.hpp:77] Creating layer loss1/relu_fc
I0626 12:38:09.704238 11581 net.cpp:106] Creating Layer loss1/relu_fc
I0626 12:38:09.704242 11581 net.cpp:454] loss1/relu_fc <- loss1/fc
I0626 12:38:09.704246 11581 net.cpp:397] loss1/relu_fc -> loss1/fc (in-place)
I0626 12:38:09.704574 11581 net.cpp:150] Setting up loss1/relu_fc
I0626 12:38:09.704584 11581 net.cpp:157] Top shape: 64 1024 (65536)
I0626 12:38:09.704587 11581 net.cpp:165] Memory required for data: 2562825984
I0626 12:38:09.704591 11581 layer_factory.hpp:77] Creating layer loss1/drop_fc
I0626 12:38:09.704607 11581 net.cpp:106] Creating Layer loss1/drop_fc
I0626 12:38:09.704612 11581 net.cpp:454] loss1/drop_fc <- loss1/fc
I0626 12:38:09.704615 11581 net.cpp:397] loss1/drop_fc -> loss1/fc (in-place)
I0626 12:38:09.704643 11581 net.cpp:150] Setting up loss1/drop_fc
I0626 12:38:09.704648 11581 net.cpp:157] Top shape: 64 1024 (65536)
I0626 12:38:09.704649 11581 net.cpp:165] Memory required for data: 2563088128
I0626 12:38:09.704653 11581 layer_factory.hpp:77] Creating layer 102flowers1/classifier
I0626 12:38:09.704660 11581 net.cpp:106] Creating Layer 102flowers1/classifier
I0626 12:38:09.704663 11581 net.cpp:454] 102flowers1/classifier <- loss1/fc
I0626 12:38:09.704668 11581 net.cpp:411] 102flowers1/classifier -> 102flowers1/classifier
I0626 12:38:09.705965 11581 net.cpp:150] Setting up 102flowers1/classifier
I0626 12:38:09.705976 11581 net.cpp:157] Top shape: 64 102 (6528)
I0626 12:38:09.705977 11581 net.cpp:165] Memory required for data: 2563114240
I0626 12:38:09.705983 11581 layer_factory.hpp:77] Creating layer loss1/loss
I0626 12:38:09.705991 11581 net.cpp:106] Creating Layer loss1/loss
I0626 12:38:09.705994 11581 net.cpp:454] loss1/loss <- 102flowers1/classifier
I0626 12:38:09.705999 11581 net.cpp:454] loss1/loss <- labels_data_1_split_0
I0626 12:38:09.706003 11581 net.cpp:411] loss1/loss -> loss1/loss1
I0626 12:38:09.706010 11581 layer_factory.hpp:77] Creating layer loss1/loss
I0626 12:38:09.706253 11581 net.cpp:150] Setting up loss1/loss
I0626 12:38:09.706260 11581 net.cpp:157] Top shape: (1)
I0626 12:38:09.706264 11581 net.cpp:160]     with loss weight 0.3
I0626 12:38:09.706275 11581 net.cpp:165] Memory required for data: 2563114244
I0626 12:38:09.706279 11581 layer_factory.hpp:77] Creating layer inception_4b/1x1
I0626 12:38:09.706288 11581 net.cpp:106] Creating Layer inception_4b/1x1
I0626 12:38:09.706292 11581 net.cpp:454] inception_4b/1x1 <- inception_4a/output_inception_4a/output_0_split_1
I0626 12:38:09.706297 11581 net.cpp:411] inception_4b/1x1 -> inception_4b/1x1
I0626 12:38:09.707880 11581 net.cpp:150] Setting up inception_4b/1x1
I0626 12:38:09.707890 11581 net.cpp:157] Top shape: 64 160 14 14 (2007040)
I0626 12:38:09.707893 11581 net.cpp:165] Memory required for data: 2571142404
I0626 12:38:09.707900 11581 layer_factory.hpp:77] Creating layer inception_4b/relu_1x1
I0626 12:38:09.707906 11581 net.cpp:106] Creating Layer inception_4b/relu_1x1
I0626 12:38:09.707911 11581 net.cpp:454] inception_4b/relu_1x1 <- inception_4b/1x1
I0626 12:38:09.707914 11581 net.cpp:397] inception_4b/relu_1x1 -> inception_4b/1x1 (in-place)
I0626 12:38:09.708071 11581 net.cpp:150] Setting up inception_4b/relu_1x1
I0626 12:38:09.708079 11581 net.cpp:157] Top shape: 64 160 14 14 (2007040)
I0626 12:38:09.708081 11581 net.cpp:165] Memory required for data: 2579170564
I0626 12:38:09.708084 11581 layer_factory.hpp:77] Creating layer inception_4b/3x3_reduce
I0626 12:38:09.708093 11581 net.cpp:106] Creating Layer inception_4b/3x3_reduce
I0626 12:38:09.708097 11581 net.cpp:454] inception_4b/3x3_reduce <- inception_4a/output_inception_4a/output_0_split_2
I0626 12:38:09.708103 11581 net.cpp:411] inception_4b/3x3_reduce -> inception_4b/3x3_reduce
I0626 12:38:09.709964 11581 net.cpp:150] Setting up inception_4b/3x3_reduce
I0626 12:38:09.709976 11581 net.cpp:157] Top shape: 64 112 14 14 (1404928)
I0626 12:38:09.709980 11581 net.cpp:165] Memory required for data: 2584790276
I0626 12:38:09.709985 11581 layer_factory.hpp:77] Creating layer inception_4b/relu_3x3_reduce
I0626 12:38:09.709991 11581 net.cpp:106] Creating Layer inception_4b/relu_3x3_reduce
I0626 12:38:09.709995 11581 net.cpp:454] inception_4b/relu_3x3_reduce <- inception_4b/3x3_reduce
I0626 12:38:09.710000 11581 net.cpp:397] inception_4b/relu_3x3_reduce -> inception_4b/3x3_reduce (in-place)
I0626 12:38:09.710299 11581 net.cpp:150] Setting up inception_4b/relu_3x3_reduce
I0626 12:38:09.710309 11581 net.cpp:157] Top shape: 64 112 14 14 (1404928)
I0626 12:38:09.710312 11581 net.cpp:165] Memory required for data: 2590409988
I0626 12:38:09.710315 11581 layer_factory.hpp:77] Creating layer inception_4b/3x3
I0626 12:38:09.710325 11581 net.cpp:106] Creating Layer inception_4b/3x3
I0626 12:38:09.710330 11581 net.cpp:454] inception_4b/3x3 <- inception_4b/3x3_reduce
I0626 12:38:09.710336 11581 net.cpp:411] inception_4b/3x3 -> inception_4b/3x3
I0626 12:38:09.713142 11581 net.cpp:150] Setting up inception_4b/3x3
I0626 12:38:09.713153 11581 net.cpp:157] Top shape: 64 224 14 14 (2809856)
I0626 12:38:09.713156 11581 net.cpp:165] Memory required for data: 2601649412
I0626 12:38:09.713162 11581 layer_factory.hpp:77] Creating layer inception_4b/relu_3x3
I0626 12:38:09.713168 11581 net.cpp:106] Creating Layer inception_4b/relu_3x3
I0626 12:38:09.713172 11581 net.cpp:454] inception_4b/relu_3x3 <- inception_4b/3x3
I0626 12:38:09.713178 11581 net.cpp:397] inception_4b/relu_3x3 -> inception_4b/3x3 (in-place)
I0626 12:38:09.713328 11581 net.cpp:150] Setting up inception_4b/relu_3x3
I0626 12:38:09.713335 11581 net.cpp:157] Top shape: 64 224 14 14 (2809856)
I0626 12:38:09.713337 11581 net.cpp:165] Memory required for data: 2612888836
I0626 12:38:09.713340 11581 layer_factory.hpp:77] Creating layer inception_4b/5x5_reduce
I0626 12:38:09.713351 11581 net.cpp:106] Creating Layer inception_4b/5x5_reduce
I0626 12:38:09.713356 11581 net.cpp:454] inception_4b/5x5_reduce <- inception_4a/output_inception_4a/output_0_split_3
I0626 12:38:09.713361 11581 net.cpp:411] inception_4b/5x5_reduce -> inception_4b/5x5_reduce
I0626 12:38:09.714409 11581 net.cpp:150] Setting up inception_4b/5x5_reduce
I0626 12:38:09.714421 11581 net.cpp:157] Top shape: 64 24 14 14 (301056)
I0626 12:38:09.714423 11581 net.cpp:165] Memory required for data: 2614093060
I0626 12:38:09.714429 11581 layer_factory.hpp:77] Creating layer inception_4b/relu_5x5_reduce
I0626 12:38:09.714437 11581 net.cpp:106] Creating Layer inception_4b/relu_5x5_reduce
I0626 12:38:09.714440 11581 net.cpp:454] inception_4b/relu_5x5_reduce <- inception_4b/5x5_reduce
I0626 12:38:09.714444 11581 net.cpp:397] inception_4b/relu_5x5_reduce -> inception_4b/5x5_reduce (in-place)
I0626 12:38:09.714596 11581 net.cpp:150] Setting up inception_4b/relu_5x5_reduce
I0626 12:38:09.714603 11581 net.cpp:157] Top shape: 64 24 14 14 (301056)
I0626 12:38:09.714607 11581 net.cpp:165] Memory required for data: 2615297284
I0626 12:38:09.714609 11581 layer_factory.hpp:77] Creating layer inception_4b/5x5
I0626 12:38:09.714619 11581 net.cpp:106] Creating Layer inception_4b/5x5
I0626 12:38:09.714622 11581 net.cpp:454] inception_4b/5x5 <- inception_4b/5x5_reduce
I0626 12:38:09.714627 11581 net.cpp:411] inception_4b/5x5 -> inception_4b/5x5
I0626 12:38:09.715870 11581 net.cpp:150] Setting up inception_4b/5x5
I0626 12:38:09.715881 11581 net.cpp:157] Top shape: 64 64 14 14 (802816)
I0626 12:38:09.715884 11581 net.cpp:165] Memory required for data: 2618508548
I0626 12:38:09.715890 11581 layer_factory.hpp:77] Creating layer inception_4b/relu_5x5
I0626 12:38:09.715898 11581 net.cpp:106] Creating Layer inception_4b/relu_5x5
I0626 12:38:09.715901 11581 net.cpp:454] inception_4b/relu_5x5 <- inception_4b/5x5
I0626 12:38:09.715905 11581 net.cpp:397] inception_4b/relu_5x5 -> inception_4b/5x5 (in-place)
I0626 12:38:09.716300 11581 net.cpp:150] Setting up inception_4b/relu_5x5
I0626 12:38:09.716310 11581 net.cpp:157] Top shape: 64 64 14 14 (802816)
I0626 12:38:09.716312 11581 net.cpp:165] Memory required for data: 2621719812
I0626 12:38:09.716315 11581 layer_factory.hpp:77] Creating layer inception_4b/pool
I0626 12:38:09.716322 11581 net.cpp:106] Creating Layer inception_4b/pool
I0626 12:38:09.716326 11581 net.cpp:454] inception_4b/pool <- inception_4a/output_inception_4a/output_0_split_4
I0626 12:38:09.716331 11581 net.cpp:411] inception_4b/pool -> inception_4b/pool
I0626 12:38:09.716382 11581 net.cpp:150] Setting up inception_4b/pool
I0626 12:38:09.716389 11581 net.cpp:157] Top shape: 64 512 14 14 (6422528)
I0626 12:38:09.716392 11581 net.cpp:165] Memory required for data: 2647409924
I0626 12:38:09.716394 11581 layer_factory.hpp:77] Creating layer inception_4b/pool_proj
I0626 12:38:09.716403 11581 net.cpp:106] Creating Layer inception_4b/pool_proj
I0626 12:38:09.716406 11581 net.cpp:454] inception_4b/pool_proj <- inception_4b/pool
I0626 12:38:09.716411 11581 net.cpp:411] inception_4b/pool_proj -> inception_4b/pool_proj
I0626 12:38:09.717633 11581 net.cpp:150] Setting up inception_4b/pool_proj
I0626 12:38:09.717643 11581 net.cpp:157] Top shape: 64 64 14 14 (802816)
I0626 12:38:09.717646 11581 net.cpp:165] Memory required for data: 2650621188
I0626 12:38:09.717653 11581 layer_factory.hpp:77] Creating layer inception_4b/relu_pool_proj
I0626 12:38:09.717659 11581 net.cpp:106] Creating Layer inception_4b/relu_pool_proj
I0626 12:38:09.717664 11581 net.cpp:454] inception_4b/relu_pool_proj <- inception_4b/pool_proj
I0626 12:38:09.717667 11581 net.cpp:397] inception_4b/relu_pool_proj -> inception_4b/pool_proj (in-place)
I0626 12:38:09.717852 11581 net.cpp:150] Setting up inception_4b/relu_pool_proj
I0626 12:38:09.717859 11581 net.cpp:157] Top shape: 64 64 14 14 (802816)
I0626 12:38:09.717862 11581 net.cpp:165] Memory required for data: 2653832452
I0626 12:38:09.717865 11581 layer_factory.hpp:77] Creating layer inception_4b/output
I0626 12:38:09.717872 11581 net.cpp:106] Creating Layer inception_4b/output
I0626 12:38:09.717875 11581 net.cpp:454] inception_4b/output <- inception_4b/1x1
I0626 12:38:09.717880 11581 net.cpp:454] inception_4b/output <- inception_4b/3x3
I0626 12:38:09.717882 11581 net.cpp:454] inception_4b/output <- inception_4b/5x5
I0626 12:38:09.717885 11581 net.cpp:454] inception_4b/output <- inception_4b/pool_proj
I0626 12:38:09.717890 11581 net.cpp:411] inception_4b/output -> inception_4b/output
I0626 12:38:09.717916 11581 net.cpp:150] Setting up inception_4b/output
I0626 12:38:09.717921 11581 net.cpp:157] Top shape: 64 512 14 14 (6422528)
I0626 12:38:09.717922 11581 net.cpp:165] Memory required for data: 2679522564
I0626 12:38:09.717926 11581 layer_factory.hpp:77] Creating layer inception_4b/output_inception_4b/output_0_split
I0626 12:38:09.717931 11581 net.cpp:106] Creating Layer inception_4b/output_inception_4b/output_0_split
I0626 12:38:09.717934 11581 net.cpp:454] inception_4b/output_inception_4b/output_0_split <- inception_4b/output
I0626 12:38:09.717938 11581 net.cpp:411] inception_4b/output_inception_4b/output_0_split -> inception_4b/output_inception_4b/output_0_split_0
I0626 12:38:09.717943 11581 net.cpp:411] inception_4b/output_inception_4b/output_0_split -> inception_4b/output_inception_4b/output_0_split_1
I0626 12:38:09.717948 11581 net.cpp:411] inception_4b/output_inception_4b/output_0_split -> inception_4b/output_inception_4b/output_0_split_2
I0626 12:38:09.717952 11581 net.cpp:411] inception_4b/output_inception_4b/output_0_split -> inception_4b/output_inception_4b/output_0_split_3
I0626 12:38:09.718001 11581 net.cpp:150] Setting up inception_4b/output_inception_4b/output_0_split
I0626 12:38:09.718006 11581 net.cpp:157] Top shape: 64 512 14 14 (6422528)
I0626 12:38:09.718009 11581 net.cpp:157] Top shape: 64 512 14 14 (6422528)
I0626 12:38:09.718013 11581 net.cpp:157] Top shape: 64 512 14 14 (6422528)
I0626 12:38:09.718015 11581 net.cpp:157] Top shape: 64 512 14 14 (6422528)
I0626 12:38:09.718019 11581 net.cpp:165] Memory required for data: 2782283012
I0626 12:38:09.718021 11581 layer_factory.hpp:77] Creating layer inception_4c/1x1
I0626 12:38:09.718029 11581 net.cpp:106] Creating Layer inception_4c/1x1
I0626 12:38:09.718031 11581 net.cpp:454] inception_4c/1x1 <- inception_4b/output_inception_4b/output_0_split_0
I0626 12:38:09.718036 11581 net.cpp:411] inception_4c/1x1 -> inception_4c/1x1
I0626 12:38:09.719398 11581 net.cpp:150] Setting up inception_4c/1x1
I0626 12:38:09.719409 11581 net.cpp:157] Top shape: 64 128 14 14 (1605632)
I0626 12:38:09.719413 11581 net.cpp:165] Memory required for data: 2788705540
I0626 12:38:09.719419 11581 layer_factory.hpp:77] Creating layer inception_4c/relu_1x1
I0626 12:38:09.719426 11581 net.cpp:106] Creating Layer inception_4c/relu_1x1
I0626 12:38:09.719429 11581 net.cpp:454] inception_4c/relu_1x1 <- inception_4c/1x1
I0626 12:38:09.719435 11581 net.cpp:397] inception_4c/relu_1x1 -> inception_4c/1x1 (in-place)
I0626 12:38:09.719583 11581 net.cpp:150] Setting up inception_4c/relu_1x1
I0626 12:38:09.719590 11581 net.cpp:157] Top shape: 64 128 14 14 (1605632)
I0626 12:38:09.719594 11581 net.cpp:165] Memory required for data: 2795128068
I0626 12:38:09.719596 11581 layer_factory.hpp:77] Creating layer inception_4c/3x3_reduce
I0626 12:38:09.719605 11581 net.cpp:106] Creating Layer inception_4c/3x3_reduce
I0626 12:38:09.719609 11581 net.cpp:454] inception_4c/3x3_reduce <- inception_4b/output_inception_4b/output_0_split_1
I0626 12:38:09.719615 11581 net.cpp:411] inception_4c/3x3_reduce -> inception_4c/3x3_reduce
I0626 12:38:09.721103 11581 net.cpp:150] Setting up inception_4c/3x3_reduce
I0626 12:38:09.721127 11581 net.cpp:157] Top shape: 64 128 14 14 (1605632)
I0626 12:38:09.721129 11581 net.cpp:165] Memory required for data: 2801550596
I0626 12:38:09.721135 11581 layer_factory.hpp:77] Creating layer inception_4c/relu_3x3_reduce
I0626 12:38:09.721143 11581 net.cpp:106] Creating Layer inception_4c/relu_3x3_reduce
I0626 12:38:09.721148 11581 net.cpp:454] inception_4c/relu_3x3_reduce <- inception_4c/3x3_reduce
I0626 12:38:09.721153 11581 net.cpp:397] inception_4c/relu_3x3_reduce -> inception_4c/3x3_reduce (in-place)
I0626 12:38:09.721456 11581 net.cpp:150] Setting up inception_4c/relu_3x3_reduce
I0626 12:38:09.721464 11581 net.cpp:157] Top shape: 64 128 14 14 (1605632)
I0626 12:38:09.721467 11581 net.cpp:165] Memory required for data: 2807973124
I0626 12:38:09.721472 11581 layer_factory.hpp:77] Creating layer inception_4c/3x3
I0626 12:38:09.721482 11581 net.cpp:106] Creating Layer inception_4c/3x3
I0626 12:38:09.721487 11581 net.cpp:454] inception_4c/3x3 <- inception_4c/3x3_reduce
I0626 12:38:09.721492 11581 net.cpp:411] inception_4c/3x3 -> inception_4c/3x3
I0626 12:38:09.724920 11581 net.cpp:150] Setting up inception_4c/3x3
I0626 12:38:09.724932 11581 net.cpp:157] Top shape: 64 256 14 14 (3211264)
I0626 12:38:09.724936 11581 net.cpp:165] Memory required for data: 2820818180
I0626 12:38:09.724952 11581 layer_factory.hpp:77] Creating layer inception_4c/relu_3x3
I0626 12:38:09.724958 11581 net.cpp:106] Creating Layer inception_4c/relu_3x3
I0626 12:38:09.724962 11581 net.cpp:454] inception_4c/relu_3x3 <- inception_4c/3x3
I0626 12:38:09.724968 11581 net.cpp:397] inception_4c/relu_3x3 -> inception_4c/3x3 (in-place)
I0626 12:38:09.725127 11581 net.cpp:150] Setting up inception_4c/relu_3x3
I0626 12:38:09.725136 11581 net.cpp:157] Top shape: 64 256 14 14 (3211264)
I0626 12:38:09.725139 11581 net.cpp:165] Memory required for data: 2833663236
I0626 12:38:09.725142 11581 layer_factory.hpp:77] Creating layer inception_4c/5x5_reduce
I0626 12:38:09.725150 11581 net.cpp:106] Creating Layer inception_4c/5x5_reduce
I0626 12:38:09.725153 11581 net.cpp:454] inception_4c/5x5_reduce <- inception_4b/output_inception_4b/output_0_split_2
I0626 12:38:09.725160 11581 net.cpp:411] inception_4c/5x5_reduce -> inception_4c/5x5_reduce
I0626 12:38:09.726261 11581 net.cpp:150] Setting up inception_4c/5x5_reduce
I0626 12:38:09.726272 11581 net.cpp:157] Top shape: 64 24 14 14 (301056)
I0626 12:38:09.726275 11581 net.cpp:165] Memory required for data: 2834867460
I0626 12:38:09.726281 11581 layer_factory.hpp:77] Creating layer inception_4c/relu_5x5_reduce
I0626 12:38:09.726286 11581 net.cpp:106] Creating Layer inception_4c/relu_5x5_reduce
I0626 12:38:09.726290 11581 net.cpp:454] inception_4c/relu_5x5_reduce <- inception_4c/5x5_reduce
I0626 12:38:09.726296 11581 net.cpp:397] inception_4c/relu_5x5_reduce -> inception_4c/5x5_reduce (in-place)
I0626 12:38:09.726444 11581 net.cpp:150] Setting up inception_4c/relu_5x5_reduce
I0626 12:38:09.726454 11581 net.cpp:157] Top shape: 64 24 14 14 (301056)
I0626 12:38:09.726456 11581 net.cpp:165] Memory required for data: 2836071684
I0626 12:38:09.726459 11581 layer_factory.hpp:77] Creating layer inception_4c/5x5
I0626 12:38:09.726469 11581 net.cpp:106] Creating Layer inception_4c/5x5
I0626 12:38:09.726472 11581 net.cpp:454] inception_4c/5x5 <- inception_4c/5x5_reduce
I0626 12:38:09.726477 11581 net.cpp:411] inception_4c/5x5 -> inception_4c/5x5
I0626 12:38:09.728198 11581 net.cpp:150] Setting up inception_4c/5x5
I0626 12:38:09.728209 11581 net.cpp:157] Top shape: 64 64 14 14 (802816)
I0626 12:38:09.728211 11581 net.cpp:165] Memory required for data: 2839282948
I0626 12:38:09.728217 11581 layer_factory.hpp:77] Creating layer inception_4c/relu_5x5
I0626 12:38:09.728222 11581 net.cpp:106] Creating Layer inception_4c/relu_5x5
I0626 12:38:09.728226 11581 net.cpp:454] inception_4c/relu_5x5 <- inception_4c/5x5
I0626 12:38:09.728231 11581 net.cpp:397] inception_4c/relu_5x5 -> inception_4c/5x5 (in-place)
I0626 12:38:09.728539 11581 net.cpp:150] Setting up inception_4c/relu_5x5
I0626 12:38:09.728549 11581 net.cpp:157] Top shape: 64 64 14 14 (802816)
I0626 12:38:09.728552 11581 net.cpp:165] Memory required for data: 2842494212
I0626 12:38:09.728555 11581 layer_factory.hpp:77] Creating layer inception_4c/pool
I0626 12:38:09.728564 11581 net.cpp:106] Creating Layer inception_4c/pool
I0626 12:38:09.728566 11581 net.cpp:454] inception_4c/pool <- inception_4b/output_inception_4b/output_0_split_3
I0626 12:38:09.728571 11581 net.cpp:411] inception_4c/pool -> inception_4c/pool
I0626 12:38:09.728615 11581 net.cpp:150] Setting up inception_4c/pool
I0626 12:38:09.728621 11581 net.cpp:157] Top shape: 64 512 14 14 (6422528)
I0626 12:38:09.728623 11581 net.cpp:165] Memory required for data: 2868184324
I0626 12:38:09.728626 11581 layer_factory.hpp:77] Creating layer inception_4c/pool_proj
I0626 12:38:09.728636 11581 net.cpp:106] Creating Layer inception_4c/pool_proj
I0626 12:38:09.728639 11581 net.cpp:454] inception_4c/pool_proj <- inception_4c/pool
I0626 12:38:09.728644 11581 net.cpp:411] inception_4c/pool_proj -> inception_4c/pool_proj
I0626 12:38:09.729861 11581 net.cpp:150] Setting up inception_4c/pool_proj
I0626 12:38:09.729872 11581 net.cpp:157] Top shape: 64 64 14 14 (802816)
I0626 12:38:09.729876 11581 net.cpp:165] Memory required for data: 2871395588
I0626 12:38:09.729882 11581 layer_factory.hpp:77] Creating layer inception_4c/relu_pool_proj
I0626 12:38:09.729888 11581 net.cpp:106] Creating Layer inception_4c/relu_pool_proj
I0626 12:38:09.729892 11581 net.cpp:454] inception_4c/relu_pool_proj <- inception_4c/pool_proj
I0626 12:38:09.729897 11581 net.cpp:397] inception_4c/relu_pool_proj -> inception_4c/pool_proj (in-place)
I0626 12:38:09.730048 11581 net.cpp:150] Setting up inception_4c/relu_pool_proj
I0626 12:38:09.730056 11581 net.cpp:157] Top shape: 64 64 14 14 (802816)
I0626 12:38:09.730058 11581 net.cpp:165] Memory required for data: 2874606852
I0626 12:38:09.730062 11581 layer_factory.hpp:77] Creating layer inception_4c/output
I0626 12:38:09.730068 11581 net.cpp:106] Creating Layer inception_4c/output
I0626 12:38:09.730072 11581 net.cpp:454] inception_4c/output <- inception_4c/1x1
I0626 12:38:09.730077 11581 net.cpp:454] inception_4c/output <- inception_4c/3x3
I0626 12:38:09.730079 11581 net.cpp:454] inception_4c/output <- inception_4c/5x5
I0626 12:38:09.730082 11581 net.cpp:454] inception_4c/output <- inception_4c/pool_proj
I0626 12:38:09.730087 11581 net.cpp:411] inception_4c/output -> inception_4c/output
I0626 12:38:09.730113 11581 net.cpp:150] Setting up inception_4c/output
I0626 12:38:09.730118 11581 net.cpp:157] Top shape: 64 512 14 14 (6422528)
I0626 12:38:09.730121 11581 net.cpp:165] Memory required for data: 2900296964
I0626 12:38:09.730124 11581 layer_factory.hpp:77] Creating layer inception_4c/output_inception_4c/output_0_split
I0626 12:38:09.730129 11581 net.cpp:106] Creating Layer inception_4c/output_inception_4c/output_0_split
I0626 12:38:09.730132 11581 net.cpp:454] inception_4c/output_inception_4c/output_0_split <- inception_4c/output
I0626 12:38:09.730137 11581 net.cpp:411] inception_4c/output_inception_4c/output_0_split -> inception_4c/output_inception_4c/output_0_split_0
I0626 12:38:09.730142 11581 net.cpp:411] inception_4c/output_inception_4c/output_0_split -> inception_4c/output_inception_4c/output_0_split_1
I0626 12:38:09.730147 11581 net.cpp:411] inception_4c/output_inception_4c/output_0_split -> inception_4c/output_inception_4c/output_0_split_2
I0626 12:38:09.730151 11581 net.cpp:411] inception_4c/output_inception_4c/output_0_split -> inception_4c/output_inception_4c/output_0_split_3
I0626 12:38:09.730211 11581 net.cpp:150] Setting up inception_4c/output_inception_4c/output_0_split
I0626 12:38:09.730214 11581 net.cpp:157] Top shape: 64 512 14 14 (6422528)
I0626 12:38:09.730218 11581 net.cpp:157] Top shape: 64 512 14 14 (6422528)
I0626 12:38:09.730221 11581 net.cpp:157] Top shape: 64 512 14 14 (6422528)
I0626 12:38:09.730224 11581 net.cpp:157] Top shape: 64 512 14 14 (6422528)
I0626 12:38:09.730226 11581 net.cpp:165] Memory required for data: 3003057412
I0626 12:38:09.730229 11581 layer_factory.hpp:77] Creating layer inception_4d/1x1
I0626 12:38:09.730238 11581 net.cpp:106] Creating Layer inception_4d/1x1
I0626 12:38:09.730242 11581 net.cpp:454] inception_4d/1x1 <- inception_4c/output_inception_4c/output_0_split_0
I0626 12:38:09.730247 11581 net.cpp:411] inception_4d/1x1 -> inception_4d/1x1
I0626 12:38:09.731633 11581 net.cpp:150] Setting up inception_4d/1x1
I0626 12:38:09.731645 11581 net.cpp:157] Top shape: 64 112 14 14 (1404928)
I0626 12:38:09.731648 11581 net.cpp:165] Memory required for data: 3008677124
I0626 12:38:09.731654 11581 layer_factory.hpp:77] Creating layer inception_4d/relu_1x1
I0626 12:38:09.731660 11581 net.cpp:106] Creating Layer inception_4d/relu_1x1
I0626 12:38:09.731663 11581 net.cpp:454] inception_4d/relu_1x1 <- inception_4d/1x1
I0626 12:38:09.731668 11581 net.cpp:397] inception_4d/relu_1x1 -> inception_4d/1x1 (in-place)
I0626 12:38:09.731832 11581 net.cpp:150] Setting up inception_4d/relu_1x1
I0626 12:38:09.731839 11581 net.cpp:157] Top shape: 64 112 14 14 (1404928)
I0626 12:38:09.731842 11581 net.cpp:165] Memory required for data: 3014296836
I0626 12:38:09.731845 11581 layer_factory.hpp:77] Creating layer inception_4d/3x3_reduce
I0626 12:38:09.731856 11581 net.cpp:106] Creating Layer inception_4d/3x3_reduce
I0626 12:38:09.731860 11581 net.cpp:454] inception_4d/3x3_reduce <- inception_4c/output_inception_4c/output_0_split_1
I0626 12:38:09.731868 11581 net.cpp:411] inception_4d/3x3_reduce -> inception_4d/3x3_reduce
I0626 12:38:09.733340 11581 net.cpp:150] Setting up inception_4d/3x3_reduce
I0626 12:38:09.733350 11581 net.cpp:157] Top shape: 64 144 14 14 (1806336)
I0626 12:38:09.733353 11581 net.cpp:165] Memory required for data: 3021522180
I0626 12:38:09.733360 11581 layer_factory.hpp:77] Creating layer inception_4d/relu_3x3_reduce
I0626 12:38:09.733366 11581 net.cpp:106] Creating Layer inception_4d/relu_3x3_reduce
I0626 12:38:09.733371 11581 net.cpp:454] inception_4d/relu_3x3_reduce <- inception_4d/3x3_reduce
I0626 12:38:09.733374 11581 net.cpp:397] inception_4d/relu_3x3_reduce -> inception_4d/3x3_reduce (in-place)
I0626 12:38:09.733685 11581 net.cpp:150] Setting up inception_4d/relu_3x3_reduce
I0626 12:38:09.733696 11581 net.cpp:157] Top shape: 64 144 14 14 (1806336)
I0626 12:38:09.733698 11581 net.cpp:165] Memory required for data: 3028747524
I0626 12:38:09.733702 11581 layer_factory.hpp:77] Creating layer inception_4d/3x3
I0626 12:38:09.733711 11581 net.cpp:106] Creating Layer inception_4d/3x3
I0626 12:38:09.733714 11581 net.cpp:454] inception_4d/3x3 <- inception_4d/3x3_reduce
I0626 12:38:09.733721 11581 net.cpp:411] inception_4d/3x3 -> inception_4d/3x3
I0626 12:38:09.737795 11581 net.cpp:150] Setting up inception_4d/3x3
I0626 12:38:09.737807 11581 net.cpp:157] Top shape: 64 288 14 14 (3612672)
I0626 12:38:09.737810 11581 net.cpp:165] Memory required for data: 3043198212
I0626 12:38:09.737817 11581 layer_factory.hpp:77] Creating layer inception_4d/relu_3x3
I0626 12:38:09.737821 11581 net.cpp:106] Creating Layer inception_4d/relu_3x3
I0626 12:38:09.737825 11581 net.cpp:454] inception_4d/relu_3x3 <- inception_4d/3x3
I0626 12:38:09.737831 11581 net.cpp:397] inception_4d/relu_3x3 -> inception_4d/3x3 (in-place)
I0626 12:38:09.737985 11581 net.cpp:150] Setting up inception_4d/relu_3x3
I0626 12:38:09.737993 11581 net.cpp:157] Top shape: 64 288 14 14 (3612672)
I0626 12:38:09.737995 11581 net.cpp:165] Memory required for data: 3057648900
I0626 12:38:09.737998 11581 layer_factory.hpp:77] Creating layer inception_4d/5x5_reduce
I0626 12:38:09.738008 11581 net.cpp:106] Creating Layer inception_4d/5x5_reduce
I0626 12:38:09.738011 11581 net.cpp:454] inception_4d/5x5_reduce <- inception_4c/output_inception_4c/output_0_split_2
I0626 12:38:09.738019 11581 net.cpp:411] inception_4d/5x5_reduce -> inception_4d/5x5_reduce
I0626 12:38:09.739220 11581 net.cpp:150] Setting up inception_4d/5x5_reduce
I0626 12:38:09.739233 11581 net.cpp:157] Top shape: 64 32 14 14 (401408)
I0626 12:38:09.739235 11581 net.cpp:165] Memory required for data: 3059254532
I0626 12:38:09.739241 11581 layer_factory.hpp:77] Creating layer inception_4d/relu_5x5_reduce
I0626 12:38:09.739248 11581 net.cpp:106] Creating Layer inception_4d/relu_5x5_reduce
I0626 12:38:09.739253 11581 net.cpp:454] inception_4d/relu_5x5_reduce <- inception_4d/5x5_reduce
I0626 12:38:09.739258 11581 net.cpp:397] inception_4d/relu_5x5_reduce -> inception_4d/5x5_reduce (in-place)
I0626 12:38:09.739434 11581 net.cpp:150] Setting up inception_4d/relu_5x5_reduce
I0626 12:38:09.739442 11581 net.cpp:157] Top shape: 64 32 14 14 (401408)
I0626 12:38:09.739445 11581 net.cpp:165] Memory required for data: 3060860164
I0626 12:38:09.739449 11581 layer_factory.hpp:77] Creating layer inception_4d/5x5
I0626 12:38:09.739459 11581 net.cpp:106] Creating Layer inception_4d/5x5
I0626 12:38:09.739464 11581 net.cpp:454] inception_4d/5x5 <- inception_4d/5x5_reduce
I0626 12:38:09.739470 11581 net.cpp:411] inception_4d/5x5 -> inception_4d/5x5
I0626 12:38:09.741094 11581 net.cpp:150] Setting up inception_4d/5x5
I0626 12:38:09.741106 11581 net.cpp:157] Top shape: 64 64 14 14 (802816)
I0626 12:38:09.741109 11581 net.cpp:165] Memory required for data: 3064071428
I0626 12:38:09.741116 11581 layer_factory.hpp:77] Creating layer inception_4d/relu_5x5
I0626 12:38:09.741122 11581 net.cpp:106] Creating Layer inception_4d/relu_5x5
I0626 12:38:09.741125 11581 net.cpp:454] inception_4d/relu_5x5 <- inception_4d/5x5
I0626 12:38:09.741130 11581 net.cpp:397] inception_4d/relu_5x5 -> inception_4d/5x5 (in-place)
I0626 12:38:09.741529 11581 net.cpp:150] Setting up inception_4d/relu_5x5
I0626 12:38:09.741539 11581 net.cpp:157] Top shape: 64 64 14 14 (802816)
I0626 12:38:09.741541 11581 net.cpp:165] Memory required for data: 3067282692
I0626 12:38:09.741544 11581 layer_factory.hpp:77] Creating layer inception_4d/pool
I0626 12:38:09.741552 11581 net.cpp:106] Creating Layer inception_4d/pool
I0626 12:38:09.741555 11581 net.cpp:454] inception_4d/pool <- inception_4c/output_inception_4c/output_0_split_3
I0626 12:38:09.741561 11581 net.cpp:411] inception_4d/pool -> inception_4d/pool
I0626 12:38:09.741606 11581 net.cpp:150] Setting up inception_4d/pool
I0626 12:38:09.741612 11581 net.cpp:157] Top shape: 64 512 14 14 (6422528)
I0626 12:38:09.741614 11581 net.cpp:165] Memory required for data: 3092972804
I0626 12:38:09.741617 11581 layer_factory.hpp:77] Creating layer inception_4d/pool_proj
I0626 12:38:09.741626 11581 net.cpp:106] Creating Layer inception_4d/pool_proj
I0626 12:38:09.741629 11581 net.cpp:454] inception_4d/pool_proj <- inception_4d/pool
I0626 12:38:09.741636 11581 net.cpp:411] inception_4d/pool_proj -> inception_4d/pool_proj
I0626 12:38:09.742857 11581 net.cpp:150] Setting up inception_4d/pool_proj
I0626 12:38:09.742868 11581 net.cpp:157] Top shape: 64 64 14 14 (802816)
I0626 12:38:09.742872 11581 net.cpp:165] Memory required for data: 3096184068
I0626 12:38:09.742877 11581 layer_factory.hpp:77] Creating layer inception_4d/relu_pool_proj
I0626 12:38:09.742883 11581 net.cpp:106] Creating Layer inception_4d/relu_pool_proj
I0626 12:38:09.742887 11581 net.cpp:454] inception_4d/relu_pool_proj <- inception_4d/pool_proj
I0626 12:38:09.742892 11581 net.cpp:397] inception_4d/relu_pool_proj -> inception_4d/pool_proj (in-place)
I0626 12:38:09.743043 11581 net.cpp:150] Setting up inception_4d/relu_pool_proj
I0626 12:38:09.743051 11581 net.cpp:157] Top shape: 64 64 14 14 (802816)
I0626 12:38:09.743053 11581 net.cpp:165] Memory required for data: 3099395332
I0626 12:38:09.743057 11581 layer_factory.hpp:77] Creating layer inception_4d/output
I0626 12:38:09.743062 11581 net.cpp:106] Creating Layer inception_4d/output
I0626 12:38:09.743065 11581 net.cpp:454] inception_4d/output <- inception_4d/1x1
I0626 12:38:09.743069 11581 net.cpp:454] inception_4d/output <- inception_4d/3x3
I0626 12:38:09.743072 11581 net.cpp:454] inception_4d/output <- inception_4d/5x5
I0626 12:38:09.743075 11581 net.cpp:454] inception_4d/output <- inception_4d/pool_proj
I0626 12:38:09.743080 11581 net.cpp:411] inception_4d/output -> inception_4d/output
I0626 12:38:09.743108 11581 net.cpp:150] Setting up inception_4d/output
I0626 12:38:09.743111 11581 net.cpp:157] Top shape: 64 528 14 14 (6623232)
I0626 12:38:09.743114 11581 net.cpp:165] Memory required for data: 3125888260
I0626 12:38:09.743118 11581 layer_factory.hpp:77] Creating layer inception_4d/output_inception_4d/output_0_split
I0626 12:38:09.743124 11581 net.cpp:106] Creating Layer inception_4d/output_inception_4d/output_0_split
I0626 12:38:09.743127 11581 net.cpp:454] inception_4d/output_inception_4d/output_0_split <- inception_4d/output
I0626 12:38:09.743131 11581 net.cpp:411] inception_4d/output_inception_4d/output_0_split -> inception_4d/output_inception_4d/output_0_split_0
I0626 12:38:09.743137 11581 net.cpp:411] inception_4d/output_inception_4d/output_0_split -> inception_4d/output_inception_4d/output_0_split_1
I0626 12:38:09.743142 11581 net.cpp:411] inception_4d/output_inception_4d/output_0_split -> inception_4d/output_inception_4d/output_0_split_2
I0626 12:38:09.743146 11581 net.cpp:411] inception_4d/output_inception_4d/output_0_split -> inception_4d/output_inception_4d/output_0_split_3
I0626 12:38:09.743151 11581 net.cpp:411] inception_4d/output_inception_4d/output_0_split -> inception_4d/output_inception_4d/output_0_split_4
I0626 12:38:09.743221 11581 net.cpp:150] Setting up inception_4d/output_inception_4d/output_0_split
I0626 12:38:09.743226 11581 net.cpp:157] Top shape: 64 528 14 14 (6623232)
I0626 12:38:09.743228 11581 net.cpp:157] Top shape: 64 528 14 14 (6623232)
I0626 12:38:09.743232 11581 net.cpp:157] Top shape: 64 528 14 14 (6623232)
I0626 12:38:09.743235 11581 net.cpp:157] Top shape: 64 528 14 14 (6623232)
I0626 12:38:09.743238 11581 net.cpp:157] Top shape: 64 528 14 14 (6623232)
I0626 12:38:09.743240 11581 net.cpp:165] Memory required for data: 3258352900
I0626 12:38:09.743243 11581 layer_factory.hpp:77] Creating layer loss2/ave_pool
I0626 12:38:09.743249 11581 net.cpp:106] Creating Layer loss2/ave_pool
I0626 12:38:09.743252 11581 net.cpp:454] loss2/ave_pool <- inception_4d/output_inception_4d/output_0_split_0
I0626 12:38:09.743257 11581 net.cpp:411] loss2/ave_pool -> loss2/ave_pool
I0626 12:38:09.743582 11581 net.cpp:150] Setting up loss2/ave_pool
I0626 12:38:09.743594 11581 net.cpp:157] Top shape: 64 528 4 4 (540672)
I0626 12:38:09.743597 11581 net.cpp:165] Memory required for data: 3260515588
I0626 12:38:09.743600 11581 layer_factory.hpp:77] Creating layer loss2/conv
I0626 12:38:09.743609 11581 net.cpp:106] Creating Layer loss2/conv
I0626 12:38:09.743613 11581 net.cpp:454] loss2/conv <- loss2/ave_pool
I0626 12:38:09.743618 11581 net.cpp:411] loss2/conv -> loss2/conv
I0626 12:38:09.745033 11581 net.cpp:150] Setting up loss2/conv
I0626 12:38:09.745044 11581 net.cpp:157] Top shape: 64 128 4 4 (131072)
I0626 12:38:09.745048 11581 net.cpp:165] Memory required for data: 3261039876
I0626 12:38:09.745054 11581 layer_factory.hpp:77] Creating layer loss2/relu_conv
I0626 12:38:09.745060 11581 net.cpp:106] Creating Layer loss2/relu_conv
I0626 12:38:09.745064 11581 net.cpp:454] loss2/relu_conv <- loss2/conv
I0626 12:38:09.745069 11581 net.cpp:397] loss2/relu_conv -> loss2/conv (in-place)
I0626 12:38:09.745381 11581 net.cpp:150] Setting up loss2/relu_conv
I0626 12:38:09.745391 11581 net.cpp:157] Top shape: 64 128 4 4 (131072)
I0626 12:38:09.745394 11581 net.cpp:165] Memory required for data: 3261564164
I0626 12:38:09.745398 11581 layer_factory.hpp:77] Creating layer loss2/fc
I0626 12:38:09.745406 11581 net.cpp:106] Creating Layer loss2/fc
I0626 12:38:09.745409 11581 net.cpp:454] loss2/fc <- loss2/conv
I0626 12:38:09.745414 11581 net.cpp:411] loss2/fc -> loss2/fc
I0626 12:38:09.762287 11581 net.cpp:150] Setting up loss2/fc
I0626 12:38:09.762315 11581 net.cpp:157] Top shape: 64 1024 (65536)
I0626 12:38:09.762318 11581 net.cpp:165] Memory required for data: 3261826308
I0626 12:38:09.762329 11581 layer_factory.hpp:77] Creating layer loss2/relu_fc
I0626 12:38:09.762339 11581 net.cpp:106] Creating Layer loss2/relu_fc
I0626 12:38:09.762344 11581 net.cpp:454] loss2/relu_fc <- loss2/fc
I0626 12:38:09.762352 11581 net.cpp:397] loss2/relu_fc -> loss2/fc (in-place)
I0626 12:38:09.762560 11581 net.cpp:150] Setting up loss2/relu_fc
I0626 12:38:09.762567 11581 net.cpp:157] Top shape: 64 1024 (65536)
I0626 12:38:09.762570 11581 net.cpp:165] Memory required for data: 3262088452
I0626 12:38:09.762573 11581 layer_factory.hpp:77] Creating layer loss2/drop_fc
I0626 12:38:09.762583 11581 net.cpp:106] Creating Layer loss2/drop_fc
I0626 12:38:09.762585 11581 net.cpp:454] loss2/drop_fc <- loss2/fc
I0626 12:38:09.762589 11581 net.cpp:397] loss2/drop_fc -> loss2/fc (in-place)
I0626 12:38:09.762619 11581 net.cpp:150] Setting up loss2/drop_fc
I0626 12:38:09.762624 11581 net.cpp:157] Top shape: 64 1024 (65536)
I0626 12:38:09.762626 11581 net.cpp:165] Memory required for data: 3262350596
I0626 12:38:09.762629 11581 layer_factory.hpp:77] Creating layer 102flowers2/classifier
I0626 12:38:09.762636 11581 net.cpp:106] Creating Layer 102flowers2/classifier
I0626 12:38:09.762639 11581 net.cpp:454] 102flowers2/classifier <- loss2/fc
I0626 12:38:09.762646 11581 net.cpp:411] 102flowers2/classifier -> 102flowers2/classifier
I0626 12:38:09.764040 11581 net.cpp:150] Setting up 102flowers2/classifier
I0626 12:38:09.764052 11581 net.cpp:157] Top shape: 64 102 (6528)
I0626 12:38:09.764055 11581 net.cpp:165] Memory required for data: 3262376708
I0626 12:38:09.764060 11581 layer_factory.hpp:77] Creating layer loss2/loss
I0626 12:38:09.764067 11581 net.cpp:106] Creating Layer loss2/loss
I0626 12:38:09.764070 11581 net.cpp:454] loss2/loss <- 102flowers2/classifier
I0626 12:38:09.764075 11581 net.cpp:454] loss2/loss <- labels_data_1_split_1
I0626 12:38:09.764081 11581 net.cpp:411] loss2/loss -> loss2/loss1
I0626 12:38:09.764087 11581 layer_factory.hpp:77] Creating layer loss2/loss
I0626 12:38:09.764546 11581 net.cpp:150] Setting up loss2/loss
I0626 12:38:09.764556 11581 net.cpp:157] Top shape: (1)
I0626 12:38:09.764559 11581 net.cpp:160]     with loss weight 0.3
I0626 12:38:09.764571 11581 net.cpp:165] Memory required for data: 3262376712
I0626 12:38:09.764575 11581 layer_factory.hpp:77] Creating layer inception_4e/1x1
I0626 12:38:09.764585 11581 net.cpp:106] Creating Layer inception_4e/1x1
I0626 12:38:09.764590 11581 net.cpp:454] inception_4e/1x1 <- inception_4d/output_inception_4d/output_0_split_1
I0626 12:38:09.764596 11581 net.cpp:411] inception_4e/1x1 -> inception_4e/1x1
I0626 12:38:09.766439 11581 net.cpp:150] Setting up inception_4e/1x1
I0626 12:38:09.766450 11581 net.cpp:157] Top shape: 64 256 14 14 (3211264)
I0626 12:38:09.766453 11581 net.cpp:165] Memory required for data: 3275221768
I0626 12:38:09.766459 11581 layer_factory.hpp:77] Creating layer inception_4e/relu_1x1
I0626 12:38:09.766465 11581 net.cpp:106] Creating Layer inception_4e/relu_1x1
I0626 12:38:09.766469 11581 net.cpp:454] inception_4e/relu_1x1 <- inception_4e/1x1
I0626 12:38:09.766477 11581 net.cpp:397] inception_4e/relu_1x1 -> inception_4e/1x1 (in-place)
I0626 12:38:09.766631 11581 net.cpp:150] Setting up inception_4e/relu_1x1
I0626 12:38:09.766639 11581 net.cpp:157] Top shape: 64 256 14 14 (3211264)
I0626 12:38:09.766643 11581 net.cpp:165] Memory required for data: 3288066824
I0626 12:38:09.766645 11581 layer_factory.hpp:77] Creating layer inception_4e/3x3_reduce
I0626 12:38:09.766654 11581 net.cpp:106] Creating Layer inception_4e/3x3_reduce
I0626 12:38:09.766656 11581 net.cpp:454] inception_4e/3x3_reduce <- inception_4d/output_inception_4d/output_0_split_2
I0626 12:38:09.766664 11581 net.cpp:411] inception_4e/3x3_reduce -> inception_4e/3x3_reduce
I0626 12:38:09.768276 11581 net.cpp:150] Setting up inception_4e/3x3_reduce
I0626 12:38:09.768286 11581 net.cpp:157] Top shape: 64 160 14 14 (2007040)
I0626 12:38:09.768290 11581 net.cpp:165] Memory required for data: 3296094984
I0626 12:38:09.768296 11581 layer_factory.hpp:77] Creating layer inception_4e/relu_3x3_reduce
I0626 12:38:09.768303 11581 net.cpp:106] Creating Layer inception_4e/relu_3x3_reduce
I0626 12:38:09.768307 11581 net.cpp:454] inception_4e/relu_3x3_reduce <- inception_4e/3x3_reduce
I0626 12:38:09.768311 11581 net.cpp:397] inception_4e/relu_3x3_reduce -> inception_4e/3x3_reduce (in-place)
I0626 12:38:09.768623 11581 net.cpp:150] Setting up inception_4e/relu_3x3_reduce
I0626 12:38:09.768633 11581 net.cpp:157] Top shape: 64 160 14 14 (2007040)
I0626 12:38:09.768636 11581 net.cpp:165] Memory required for data: 3304123144
I0626 12:38:09.768640 11581 layer_factory.hpp:77] Creating layer inception_4e/3x3
I0626 12:38:09.768651 11581 net.cpp:106] Creating Layer inception_4e/3x3
I0626 12:38:09.768654 11581 net.cpp:454] inception_4e/3x3 <- inception_4e/3x3_reduce
I0626 12:38:09.768659 11581 net.cpp:411] inception_4e/3x3 -> inception_4e/3x3
I0626 12:38:09.773149 11581 net.cpp:150] Setting up inception_4e/3x3
I0626 12:38:09.773161 11581 net.cpp:157] Top shape: 64 320 14 14 (4014080)
I0626 12:38:09.773164 11581 net.cpp:165] Memory required for data: 3320179464
I0626 12:38:09.773170 11581 layer_factory.hpp:77] Creating layer inception_4e/relu_3x3
I0626 12:38:09.773177 11581 net.cpp:106] Creating Layer inception_4e/relu_3x3
I0626 12:38:09.773181 11581 net.cpp:454] inception_4e/relu_3x3 <- inception_4e/3x3
I0626 12:38:09.773187 11581 net.cpp:397] inception_4e/relu_3x3 -> inception_4e/3x3 (in-place)
I0626 12:38:09.773506 11581 net.cpp:150] Setting up inception_4e/relu_3x3
I0626 12:38:09.773515 11581 net.cpp:157] Top shape: 64 320 14 14 (4014080)
I0626 12:38:09.773519 11581 net.cpp:165] Memory required for data: 3336235784
I0626 12:38:09.773522 11581 layer_factory.hpp:77] Creating layer inception_4e/5x5_reduce
I0626 12:38:09.773532 11581 net.cpp:106] Creating Layer inception_4e/5x5_reduce
I0626 12:38:09.773536 11581 net.cpp:454] inception_4e/5x5_reduce <- inception_4d/output_inception_4d/output_0_split_3
I0626 12:38:09.773543 11581 net.cpp:411] inception_4e/5x5_reduce -> inception_4e/5x5_reduce
I0626 12:38:09.774827 11581 net.cpp:150] Setting up inception_4e/5x5_reduce
I0626 12:38:09.774837 11581 net.cpp:157] Top shape: 64 32 14 14 (401408)
I0626 12:38:09.774842 11581 net.cpp:165] Memory required for data: 3337841416
I0626 12:38:09.774847 11581 layer_factory.hpp:77] Creating layer inception_4e/relu_5x5_reduce
I0626 12:38:09.774854 11581 net.cpp:106] Creating Layer inception_4e/relu_5x5_reduce
I0626 12:38:09.774859 11581 net.cpp:454] inception_4e/relu_5x5_reduce <- inception_4e/5x5_reduce
I0626 12:38:09.774863 11581 net.cpp:397] inception_4e/relu_5x5_reduce -> inception_4e/5x5_reduce (in-place)
I0626 12:38:09.775033 11581 net.cpp:150] Setting up inception_4e/relu_5x5_reduce
I0626 12:38:09.775043 11581 net.cpp:157] Top shape: 64 32 14 14 (401408)
I0626 12:38:09.775045 11581 net.cpp:165] Memory required for data: 3339447048
I0626 12:38:09.775048 11581 layer_factory.hpp:77] Creating layer inception_4e/5x5
I0626 12:38:09.775075 11581 net.cpp:106] Creating Layer inception_4e/5x5
I0626 12:38:09.775079 11581 net.cpp:454] inception_4e/5x5 <- inception_4e/5x5_reduce
I0626 12:38:09.775085 11581 net.cpp:411] inception_4e/5x5 -> inception_4e/5x5
I0626 12:38:09.777636 11581 net.cpp:150] Setting up inception_4e/5x5
I0626 12:38:09.777648 11581 net.cpp:157] Top shape: 64 128 14 14 (1605632)
I0626 12:38:09.777652 11581 net.cpp:165] Memory required for data: 3345869576
I0626 12:38:09.777658 11581 layer_factory.hpp:77] Creating layer inception_4e/relu_5x5
I0626 12:38:09.777665 11581 net.cpp:106] Creating Layer inception_4e/relu_5x5
I0626 12:38:09.777669 11581 net.cpp:454] inception_4e/relu_5x5 <- inception_4e/5x5
I0626 12:38:09.777675 11581 net.cpp:397] inception_4e/relu_5x5 -> inception_4e/5x5 (in-place)
I0626 12:38:09.778033 11581 net.cpp:150] Setting up inception_4e/relu_5x5
I0626 12:38:09.778043 11581 net.cpp:157] Top shape: 64 128 14 14 (1605632)
I0626 12:38:09.778045 11581 net.cpp:165] Memory required for data: 3352292104
I0626 12:38:09.778048 11581 layer_factory.hpp:77] Creating layer inception_4e/pool
I0626 12:38:09.778059 11581 net.cpp:106] Creating Layer inception_4e/pool
I0626 12:38:09.778062 11581 net.cpp:454] inception_4e/pool <- inception_4d/output_inception_4d/output_0_split_4
I0626 12:38:09.778067 11581 net.cpp:411] inception_4e/pool -> inception_4e/pool
I0626 12:38:09.778117 11581 net.cpp:150] Setting up inception_4e/pool
I0626 12:38:09.778122 11581 net.cpp:157] Top shape: 64 528 14 14 (6623232)
I0626 12:38:09.778126 11581 net.cpp:165] Memory required for data: 3378785032
I0626 12:38:09.778127 11581 layer_factory.hpp:77] Creating layer inception_4e/pool_proj
I0626 12:38:09.778137 11581 net.cpp:106] Creating Layer inception_4e/pool_proj
I0626 12:38:09.778141 11581 net.cpp:454] inception_4e/pool_proj <- inception_4e/pool
I0626 12:38:09.778146 11581 net.cpp:411] inception_4e/pool_proj -> inception_4e/pool_proj
I0626 12:38:09.779428 11581 net.cpp:150] Setting up inception_4e/pool_proj
I0626 12:38:09.779438 11581 net.cpp:157] Top shape: 64 128 14 14 (1605632)
I0626 12:38:09.779441 11581 net.cpp:165] Memory required for data: 3385207560
I0626 12:38:09.779448 11581 layer_factory.hpp:77] Creating layer inception_4e/relu_pool_proj
I0626 12:38:09.779454 11581 net.cpp:106] Creating Layer inception_4e/relu_pool_proj
I0626 12:38:09.779458 11581 net.cpp:454] inception_4e/relu_pool_proj <- inception_4e/pool_proj
I0626 12:38:09.779463 11581 net.cpp:397] inception_4e/relu_pool_proj -> inception_4e/pool_proj (in-place)
I0626 12:38:09.779775 11581 net.cpp:150] Setting up inception_4e/relu_pool_proj
I0626 12:38:09.779785 11581 net.cpp:157] Top shape: 64 128 14 14 (1605632)
I0626 12:38:09.779788 11581 net.cpp:165] Memory required for data: 3391630088
I0626 12:38:09.779791 11581 layer_factory.hpp:77] Creating layer inception_4e/output
I0626 12:38:09.779799 11581 net.cpp:106] Creating Layer inception_4e/output
I0626 12:38:09.779803 11581 net.cpp:454] inception_4e/output <- inception_4e/1x1
I0626 12:38:09.779808 11581 net.cpp:454] inception_4e/output <- inception_4e/3x3
I0626 12:38:09.779810 11581 net.cpp:454] inception_4e/output <- inception_4e/5x5
I0626 12:38:09.779814 11581 net.cpp:454] inception_4e/output <- inception_4e/pool_proj
I0626 12:38:09.779817 11581 net.cpp:411] inception_4e/output -> inception_4e/output
I0626 12:38:09.779850 11581 net.cpp:150] Setting up inception_4e/output
I0626 12:38:09.779855 11581 net.cpp:157] Top shape: 64 832 14 14 (10436608)
I0626 12:38:09.779857 11581 net.cpp:165] Memory required for data: 3433376520
I0626 12:38:09.779860 11581 layer_factory.hpp:77] Creating layer pool4/3x3_s2
I0626 12:38:09.779865 11581 net.cpp:106] Creating Layer pool4/3x3_s2
I0626 12:38:09.779870 11581 net.cpp:454] pool4/3x3_s2 <- inception_4e/output
I0626 12:38:09.779875 11581 net.cpp:411] pool4/3x3_s2 -> pool4/3x3_s2
I0626 12:38:09.779913 11581 net.cpp:150] Setting up pool4/3x3_s2
I0626 12:38:09.779919 11581 net.cpp:157] Top shape: 64 832 7 7 (2609152)
I0626 12:38:09.779922 11581 net.cpp:165] Memory required for data: 3443813128
I0626 12:38:09.779924 11581 layer_factory.hpp:77] Creating layer pool4/3x3_s2_pool4/3x3_s2_0_split
I0626 12:38:09.779932 11581 net.cpp:106] Creating Layer pool4/3x3_s2_pool4/3x3_s2_0_split
I0626 12:38:09.779935 11581 net.cpp:454] pool4/3x3_s2_pool4/3x3_s2_0_split <- pool4/3x3_s2
I0626 12:38:09.779942 11581 net.cpp:411] pool4/3x3_s2_pool4/3x3_s2_0_split -> pool4/3x3_s2_pool4/3x3_s2_0_split_0
I0626 12:38:09.779947 11581 net.cpp:411] pool4/3x3_s2_pool4/3x3_s2_0_split -> pool4/3x3_s2_pool4/3x3_s2_0_split_1
I0626 12:38:09.779950 11581 net.cpp:411] pool4/3x3_s2_pool4/3x3_s2_0_split -> pool4/3x3_s2_pool4/3x3_s2_0_split_2
I0626 12:38:09.779954 11581 net.cpp:411] pool4/3x3_s2_pool4/3x3_s2_0_split -> pool4/3x3_s2_pool4/3x3_s2_0_split_3
I0626 12:38:09.780012 11581 net.cpp:150] Setting up pool4/3x3_s2_pool4/3x3_s2_0_split
I0626 12:38:09.780017 11581 net.cpp:157] Top shape: 64 832 7 7 (2609152)
I0626 12:38:09.780022 11581 net.cpp:157] Top shape: 64 832 7 7 (2609152)
I0626 12:38:09.780025 11581 net.cpp:157] Top shape: 64 832 7 7 (2609152)
I0626 12:38:09.780028 11581 net.cpp:157] Top shape: 64 832 7 7 (2609152)
I0626 12:38:09.780031 11581 net.cpp:165] Memory required for data: 3485559560
I0626 12:38:09.780033 11581 layer_factory.hpp:77] Creating layer inception_5a/1x1
I0626 12:38:09.780041 11581 net.cpp:106] Creating Layer inception_5a/1x1
I0626 12:38:09.780045 11581 net.cpp:454] inception_5a/1x1 <- pool4/3x3_s2_pool4/3x3_s2_0_split_0
I0626 12:38:09.780051 11581 net.cpp:411] inception_5a/1x1 -> inception_5a/1x1
I0626 12:38:09.782948 11581 net.cpp:150] Setting up inception_5a/1x1
I0626 12:38:09.782959 11581 net.cpp:157] Top shape: 64 256 7 7 (802816)
I0626 12:38:09.782963 11581 net.cpp:165] Memory required for data: 3488770824
I0626 12:38:09.782968 11581 layer_factory.hpp:77] Creating layer inception_5a/relu_1x1
I0626 12:38:09.782974 11581 net.cpp:106] Creating Layer inception_5a/relu_1x1
I0626 12:38:09.782979 11581 net.cpp:454] inception_5a/relu_1x1 <- inception_5a/1x1
I0626 12:38:09.782984 11581 net.cpp:397] inception_5a/relu_1x1 -> inception_5a/1x1 (in-place)
I0626 12:38:09.783139 11581 net.cpp:150] Setting up inception_5a/relu_1x1
I0626 12:38:09.783148 11581 net.cpp:157] Top shape: 64 256 7 7 (802816)
I0626 12:38:09.783149 11581 net.cpp:165] Memory required for data: 3491982088
I0626 12:38:09.783152 11581 layer_factory.hpp:77] Creating layer inception_5a/3x3_reduce
I0626 12:38:09.783164 11581 net.cpp:106] Creating Layer inception_5a/3x3_reduce
I0626 12:38:09.783167 11581 net.cpp:454] inception_5a/3x3_reduce <- pool4/3x3_s2_pool4/3x3_s2_0_split_1
I0626 12:38:09.783172 11581 net.cpp:411] inception_5a/3x3_reduce -> inception_5a/3x3_reduce
I0626 12:38:09.785534 11581 net.cpp:150] Setting up inception_5a/3x3_reduce
I0626 12:38:09.785545 11581 net.cpp:157] Top shape: 64 160 7 7 (501760)
I0626 12:38:09.785548 11581 net.cpp:165] Memory required for data: 3493989128
I0626 12:38:09.785554 11581 layer_factory.hpp:77] Creating layer inception_5a/relu_3x3_reduce
I0626 12:38:09.785560 11581 net.cpp:106] Creating Layer inception_5a/relu_3x3_reduce
I0626 12:38:09.785563 11581 net.cpp:454] inception_5a/relu_3x3_reduce <- inception_5a/3x3_reduce
I0626 12:38:09.785569 11581 net.cpp:397] inception_5a/relu_3x3_reduce -> inception_5a/3x3_reduce (in-place)
I0626 12:38:09.785918 11581 net.cpp:150] Setting up inception_5a/relu_3x3_reduce
I0626 12:38:09.785928 11581 net.cpp:157] Top shape: 64 160 7 7 (501760)
I0626 12:38:09.785931 11581 net.cpp:165] Memory required for data: 3495996168
I0626 12:38:09.785934 11581 layer_factory.hpp:77] Creating layer inception_5a/3x3
I0626 12:38:09.785945 11581 net.cpp:106] Creating Layer inception_5a/3x3
I0626 12:38:09.785948 11581 net.cpp:454] inception_5a/3x3 <- inception_5a/3x3_reduce
I0626 12:38:09.785955 11581 net.cpp:411] inception_5a/3x3 -> inception_5a/3x3
I0626 12:38:09.790647 11581 net.cpp:150] Setting up inception_5a/3x3
I0626 12:38:09.790660 11581 net.cpp:157] Top shape: 64 320 7 7 (1003520)
I0626 12:38:09.790663 11581 net.cpp:165] Memory required for data: 3500010248
I0626 12:38:09.790670 11581 layer_factory.hpp:77] Creating layer inception_5a/relu_3x3
I0626 12:38:09.790675 11581 net.cpp:106] Creating Layer inception_5a/relu_3x3
I0626 12:38:09.790679 11581 net.cpp:454] inception_5a/relu_3x3 <- inception_5a/3x3
I0626 12:38:09.790685 11581 net.cpp:397] inception_5a/relu_3x3 -> inception_5a/3x3 (in-place)
I0626 12:38:09.791004 11581 net.cpp:150] Setting up inception_5a/relu_3x3
I0626 12:38:09.791014 11581 net.cpp:157] Top shape: 64 320 7 7 (1003520)
I0626 12:38:09.791018 11581 net.cpp:165] Memory required for data: 3504024328
I0626 12:38:09.791020 11581 layer_factory.hpp:77] Creating layer inception_5a/5x5_reduce
I0626 12:38:09.791030 11581 net.cpp:106] Creating Layer inception_5a/5x5_reduce
I0626 12:38:09.791034 11581 net.cpp:454] inception_5a/5x5_reduce <- pool4/3x3_s2_pool4/3x3_s2_0_split_2
I0626 12:38:09.791043 11581 net.cpp:411] inception_5a/5x5_reduce -> inception_5a/5x5_reduce
I0626 12:38:09.792327 11581 net.cpp:150] Setting up inception_5a/5x5_reduce
I0626 12:38:09.792338 11581 net.cpp:157] Top shape: 64 32 7 7 (100352)
I0626 12:38:09.792341 11581 net.cpp:165] Memory required for data: 3504425736
I0626 12:38:09.792347 11581 layer_factory.hpp:77] Creating layer inception_5a/relu_5x5_reduce
I0626 12:38:09.792364 11581 net.cpp:106] Creating Layer inception_5a/relu_5x5_reduce
I0626 12:38:09.792368 11581 net.cpp:454] inception_5a/relu_5x5_reduce <- inception_5a/5x5_reduce
I0626 12:38:09.792374 11581 net.cpp:397] inception_5a/relu_5x5_reduce -> inception_5a/5x5_reduce (in-place)
I0626 12:38:09.792547 11581 net.cpp:150] Setting up inception_5a/relu_5x5_reduce
I0626 12:38:09.792554 11581 net.cpp:157] Top shape: 64 32 7 7 (100352)
I0626 12:38:09.792557 11581 net.cpp:165] Memory required for data: 3504827144
I0626 12:38:09.792559 11581 layer_factory.hpp:77] Creating layer inception_5a/5x5
I0626 12:38:09.792569 11581 net.cpp:106] Creating Layer inception_5a/5x5
I0626 12:38:09.792572 11581 net.cpp:454] inception_5a/5x5 <- inception_5a/5x5_reduce
I0626 12:38:09.792577 11581 net.cpp:411] inception_5a/5x5 -> inception_5a/5x5
I0626 12:38:09.794234 11581 net.cpp:150] Setting up inception_5a/5x5
I0626 12:38:09.794245 11581 net.cpp:157] Top shape: 64 128 7 7 (401408)
I0626 12:38:09.794248 11581 net.cpp:165] Memory required for data: 3506432776
I0626 12:38:09.794255 11581 layer_factory.hpp:77] Creating layer inception_5a/relu_5x5
I0626 12:38:09.794260 11581 net.cpp:106] Creating Layer inception_5a/relu_5x5
I0626 12:38:09.794265 11581 net.cpp:454] inception_5a/relu_5x5 <- inception_5a/5x5
I0626 12:38:09.794270 11581 net.cpp:397] inception_5a/relu_5x5 -> inception_5a/5x5 (in-place)
I0626 12:38:09.794590 11581 net.cpp:150] Setting up inception_5a/relu_5x5
I0626 12:38:09.794600 11581 net.cpp:157] Top shape: 64 128 7 7 (401408)
I0626 12:38:09.794603 11581 net.cpp:165] Memory required for data: 3508038408
I0626 12:38:09.794606 11581 layer_factory.hpp:77] Creating layer inception_5a/pool
I0626 12:38:09.794613 11581 net.cpp:106] Creating Layer inception_5a/pool
I0626 12:38:09.794617 11581 net.cpp:454] inception_5a/pool <- pool4/3x3_s2_pool4/3x3_s2_0_split_3
I0626 12:38:09.794622 11581 net.cpp:411] inception_5a/pool -> inception_5a/pool
I0626 12:38:09.794672 11581 net.cpp:150] Setting up inception_5a/pool
I0626 12:38:09.794677 11581 net.cpp:157] Top shape: 64 832 7 7 (2609152)
I0626 12:38:09.794680 11581 net.cpp:165] Memory required for data: 3518475016
I0626 12:38:09.794683 11581 layer_factory.hpp:77] Creating layer inception_5a/pool_proj
I0626 12:38:09.794692 11581 net.cpp:106] Creating Layer inception_5a/pool_proj
I0626 12:38:09.794695 11581 net.cpp:454] inception_5a/pool_proj <- inception_5a/pool
I0626 12:38:09.794703 11581 net.cpp:411] inception_5a/pool_proj -> inception_5a/pool_proj
I0626 12:38:09.796896 11581 net.cpp:150] Setting up inception_5a/pool_proj
I0626 12:38:09.796911 11581 net.cpp:157] Top shape: 64 128 7 7 (401408)
I0626 12:38:09.796914 11581 net.cpp:165] Memory required for data: 3520080648
I0626 12:38:09.796931 11581 layer_factory.hpp:77] Creating layer inception_5a/relu_pool_proj
I0626 12:38:09.796948 11581 net.cpp:106] Creating Layer inception_5a/relu_pool_proj
I0626 12:38:09.796952 11581 net.cpp:454] inception_5a/relu_pool_proj <- inception_5a/pool_proj
I0626 12:38:09.796970 11581 net.cpp:397] inception_5a/relu_pool_proj -> inception_5a/pool_proj (in-place)
I0626 12:38:09.797317 11581 net.cpp:150] Setting up inception_5a/relu_pool_proj
I0626 12:38:09.797327 11581 net.cpp:157] Top shape: 64 128 7 7 (401408)
I0626 12:38:09.797330 11581 net.cpp:165] Memory required for data: 3521686280
I0626 12:38:09.797334 11581 layer_factory.hpp:77] Creating layer inception_5a/output
I0626 12:38:09.797341 11581 net.cpp:106] Creating Layer inception_5a/output
I0626 12:38:09.797345 11581 net.cpp:454] inception_5a/output <- inception_5a/1x1
I0626 12:38:09.797349 11581 net.cpp:454] inception_5a/output <- inception_5a/3x3
I0626 12:38:09.797353 11581 net.cpp:454] inception_5a/output <- inception_5a/5x5
I0626 12:38:09.797358 11581 net.cpp:454] inception_5a/output <- inception_5a/pool_proj
I0626 12:38:09.797363 11581 net.cpp:411] inception_5a/output -> inception_5a/output
I0626 12:38:09.797410 11581 net.cpp:150] Setting up inception_5a/output
I0626 12:38:09.797415 11581 net.cpp:157] Top shape: 64 832 7 7 (2609152)
I0626 12:38:09.797418 11581 net.cpp:165] Memory required for data: 3532122888
I0626 12:38:09.797421 11581 layer_factory.hpp:77] Creating layer inception_5a/output_inception_5a/output_0_split
I0626 12:38:09.797441 11581 net.cpp:106] Creating Layer inception_5a/output_inception_5a/output_0_split
I0626 12:38:09.797444 11581 net.cpp:454] inception_5a/output_inception_5a/output_0_split <- inception_5a/output
I0626 12:38:09.797449 11581 net.cpp:411] inception_5a/output_inception_5a/output_0_split -> inception_5a/output_inception_5a/output_0_split_0
I0626 12:38:09.797467 11581 net.cpp:411] inception_5a/output_inception_5a/output_0_split -> inception_5a/output_inception_5a/output_0_split_1
I0626 12:38:09.797473 11581 net.cpp:411] inception_5a/output_inception_5a/output_0_split -> inception_5a/output_inception_5a/output_0_split_2
I0626 12:38:09.797478 11581 net.cpp:411] inception_5a/output_inception_5a/output_0_split -> inception_5a/output_inception_5a/output_0_split_3
I0626 12:38:09.797574 11581 net.cpp:150] Setting up inception_5a/output_inception_5a/output_0_split
I0626 12:38:09.797580 11581 net.cpp:157] Top shape: 64 832 7 7 (2609152)
I0626 12:38:09.797583 11581 net.cpp:157] Top shape: 64 832 7 7 (2609152)
I0626 12:38:09.797587 11581 net.cpp:157] Top shape: 64 832 7 7 (2609152)
I0626 12:38:09.797590 11581 net.cpp:157] Top shape: 64 832 7 7 (2609152)
I0626 12:38:09.797593 11581 net.cpp:165] Memory required for data: 3573869320
I0626 12:38:09.797595 11581 layer_factory.hpp:77] Creating layer inception_5b/1x1
I0626 12:38:09.797605 11581 net.cpp:106] Creating Layer inception_5b/1x1
I0626 12:38:09.797610 11581 net.cpp:454] inception_5b/1x1 <- inception_5a/output_inception_5a/output_0_split_0
I0626 12:38:09.797616 11581 net.cpp:411] inception_5b/1x1 -> inception_5b/1x1
I0626 12:38:09.801821 11581 net.cpp:150] Setting up inception_5b/1x1
I0626 12:38:09.801834 11581 net.cpp:157] Top shape: 64 384 7 7 (1204224)
I0626 12:38:09.801837 11581 net.cpp:165] Memory required for data: 3578686216
I0626 12:38:09.801844 11581 layer_factory.hpp:77] Creating layer inception_5b/relu_1x1
I0626 12:38:09.801851 11581 net.cpp:106] Creating Layer inception_5b/relu_1x1
I0626 12:38:09.801856 11581 net.cpp:454] inception_5b/relu_1x1 <- inception_5b/1x1
I0626 12:38:09.801862 11581 net.cpp:397] inception_5b/relu_1x1 -> inception_5b/1x1 (in-place)
I0626 12:38:09.802070 11581 net.cpp:150] Setting up inception_5b/relu_1x1
I0626 12:38:09.802078 11581 net.cpp:157] Top shape: 64 384 7 7 (1204224)
I0626 12:38:09.802083 11581 net.cpp:165] Memory required for data: 3583503112
I0626 12:38:09.802086 11581 layer_factory.hpp:77] Creating layer inception_5b/3x3_reduce
I0626 12:38:09.802105 11581 net.cpp:106] Creating Layer inception_5b/3x3_reduce
I0626 12:38:09.802109 11581 net.cpp:454] inception_5b/3x3_reduce <- inception_5a/output_inception_5a/output_0_split_1
I0626 12:38:09.802117 11581 net.cpp:411] inception_5b/3x3_reduce -> inception_5b/3x3_reduce
I0626 12:38:09.805042 11581 net.cpp:150] Setting up inception_5b/3x3_reduce
I0626 12:38:09.805053 11581 net.cpp:157] Top shape: 64 192 7 7 (602112)
I0626 12:38:09.805057 11581 net.cpp:165] Memory required for data: 3585911560
I0626 12:38:09.805063 11581 layer_factory.hpp:77] Creating layer inception_5b/relu_3x3_reduce
I0626 12:38:09.805079 11581 net.cpp:106] Creating Layer inception_5b/relu_3x3_reduce
I0626 12:38:09.805083 11581 net.cpp:454] inception_5b/relu_3x3_reduce <- inception_5b/3x3_reduce
I0626 12:38:09.805090 11581 net.cpp:397] inception_5b/relu_3x3_reduce -> inception_5b/3x3_reduce (in-place)
I0626 12:38:09.805457 11581 net.cpp:150] Setting up inception_5b/relu_3x3_reduce
I0626 12:38:09.805467 11581 net.cpp:157] Top shape: 64 192 7 7 (602112)
I0626 12:38:09.805469 11581 net.cpp:165] Memory required for data: 3588320008
I0626 12:38:09.805474 11581 layer_factory.hpp:77] Creating layer inception_5b/3x3
I0626 12:38:09.805483 11581 net.cpp:106] Creating Layer inception_5b/3x3
I0626 12:38:09.805487 11581 net.cpp:454] inception_5b/3x3 <- inception_5b/3x3_reduce
I0626 12:38:09.805495 11581 net.cpp:411] inception_5b/3x3 -> inception_5b/3x3
I0626 12:38:09.811583 11581 net.cpp:150] Setting up inception_5b/3x3
I0626 12:38:09.811596 11581 net.cpp:157] Top shape: 64 384 7 7 (1204224)
I0626 12:38:09.811600 11581 net.cpp:165] Memory required for data: 3593136904
I0626 12:38:09.811606 11581 layer_factory.hpp:77] Creating layer inception_5b/relu_3x3
I0626 12:38:09.811612 11581 net.cpp:106] Creating Layer inception_5b/relu_3x3
I0626 12:38:09.811615 11581 net.cpp:454] inception_5b/relu_3x3 <- inception_5b/3x3
I0626 12:38:09.811620 11581 net.cpp:397] inception_5b/relu_3x3 -> inception_5b/3x3 (in-place)
I0626 12:38:09.812031 11581 net.cpp:150] Setting up inception_5b/relu_3x3
I0626 12:38:09.812041 11581 net.cpp:157] Top shape: 64 384 7 7 (1204224)
I0626 12:38:09.812044 11581 net.cpp:165] Memory required for data: 3597953800
I0626 12:38:09.812048 11581 layer_factory.hpp:77] Creating layer inception_5b/5x5_reduce
I0626 12:38:09.812059 11581 net.cpp:106] Creating Layer inception_5b/5x5_reduce
I0626 12:38:09.812063 11581 net.cpp:454] inception_5b/5x5_reduce <- inception_5a/output_inception_5a/output_0_split_2
I0626 12:38:09.812072 11581 net.cpp:411] inception_5b/5x5_reduce -> inception_5b/5x5_reduce
I0626 12:38:09.814127 11581 net.cpp:150] Setting up inception_5b/5x5_reduce
I0626 12:38:09.814139 11581 net.cpp:157] Top shape: 64 48 7 7 (150528)
I0626 12:38:09.814142 11581 net.cpp:165] Memory required for data: 3598555912
I0626 12:38:09.814148 11581 layer_factory.hpp:77] Creating layer inception_5b/relu_5x5_reduce
I0626 12:38:09.814154 11581 net.cpp:106] Creating Layer inception_5b/relu_5x5_reduce
I0626 12:38:09.814158 11581 net.cpp:454] inception_5b/relu_5x5_reduce <- inception_5b/5x5_reduce
I0626 12:38:09.814162 11581 net.cpp:397] inception_5b/relu_5x5_reduce -> inception_5b/5x5_reduce (in-place)
I0626 12:38:09.814347 11581 net.cpp:150] Setting up inception_5b/relu_5x5_reduce
I0626 12:38:09.814353 11581 net.cpp:157] Top shape: 64 48 7 7 (150528)
I0626 12:38:09.814357 11581 net.cpp:165] Memory required for data: 3599158024
I0626 12:38:09.814359 11581 layer_factory.hpp:77] Creating layer inception_5b/5x5
I0626 12:38:09.814369 11581 net.cpp:106] Creating Layer inception_5b/5x5
I0626 12:38:09.814373 11581 net.cpp:454] inception_5b/5x5 <- inception_5b/5x5_reduce
I0626 12:38:09.814380 11581 net.cpp:411] inception_5b/5x5 -> inception_5b/5x5
I0626 12:38:09.816773 11581 net.cpp:150] Setting up inception_5b/5x5
I0626 12:38:09.816784 11581 net.cpp:157] Top shape: 64 128 7 7 (401408)
I0626 12:38:09.816807 11581 net.cpp:165] Memory required for data: 3600763656
I0626 12:38:09.816813 11581 layer_factory.hpp:77] Creating layer inception_5b/relu_5x5
I0626 12:38:09.816819 11581 net.cpp:106] Creating Layer inception_5b/relu_5x5
I0626 12:38:09.816823 11581 net.cpp:454] inception_5b/relu_5x5 <- inception_5b/5x5
I0626 12:38:09.816830 11581 net.cpp:397] inception_5b/relu_5x5 -> inception_5b/5x5 (in-place)
I0626 12:38:09.817247 11581 net.cpp:150] Setting up inception_5b/relu_5x5
I0626 12:38:09.817258 11581 net.cpp:157] Top shape: 64 128 7 7 (401408)
I0626 12:38:09.817260 11581 net.cpp:165] Memory required for data: 3602369288
I0626 12:38:09.817265 11581 layer_factory.hpp:77] Creating layer inception_5b/pool
I0626 12:38:09.817271 11581 net.cpp:106] Creating Layer inception_5b/pool
I0626 12:38:09.817276 11581 net.cpp:454] inception_5b/pool <- inception_5a/output_inception_5a/output_0_split_3
I0626 12:38:09.817281 11581 net.cpp:411] inception_5b/pool -> inception_5b/pool
I0626 12:38:09.817332 11581 net.cpp:150] Setting up inception_5b/pool
I0626 12:38:09.817338 11581 net.cpp:157] Top shape: 64 832 7 7 (2609152)
I0626 12:38:09.817340 11581 net.cpp:165] Memory required for data: 3612805896
I0626 12:38:09.817343 11581 layer_factory.hpp:77] Creating layer inception_5b/pool_proj
I0626 12:38:09.817353 11581 net.cpp:106] Creating Layer inception_5b/pool_proj
I0626 12:38:09.817358 11581 net.cpp:454] inception_5b/pool_proj <- inception_5b/pool
I0626 12:38:09.817363 11581 net.cpp:411] inception_5b/pool_proj -> inception_5b/pool_proj
I0626 12:38:09.819655 11581 net.cpp:150] Setting up inception_5b/pool_proj
I0626 12:38:09.819667 11581 net.cpp:157] Top shape: 64 128 7 7 (401408)
I0626 12:38:09.819670 11581 net.cpp:165] Memory required for data: 3614411528
I0626 12:38:09.819676 11581 layer_factory.hpp:77] Creating layer inception_5b/relu_pool_proj
I0626 12:38:09.819682 11581 net.cpp:106] Creating Layer inception_5b/relu_pool_proj
I0626 12:38:09.819686 11581 net.cpp:454] inception_5b/relu_pool_proj <- inception_5b/pool_proj
I0626 12:38:09.819690 11581 net.cpp:397] inception_5b/relu_pool_proj -> inception_5b/pool_proj (in-place)
I0626 12:38:09.820014 11581 net.cpp:150] Setting up inception_5b/relu_pool_proj
I0626 12:38:09.820024 11581 net.cpp:157] Top shape: 64 128 7 7 (401408)
I0626 12:38:09.820027 11581 net.cpp:165] Memory required for data: 3616017160
I0626 12:38:09.820030 11581 layer_factory.hpp:77] Creating layer inception_5b/output
I0626 12:38:09.820037 11581 net.cpp:106] Creating Layer inception_5b/output
I0626 12:38:09.820041 11581 net.cpp:454] inception_5b/output <- inception_5b/1x1
I0626 12:38:09.820045 11581 net.cpp:454] inception_5b/output <- inception_5b/3x3
I0626 12:38:09.820049 11581 net.cpp:454] inception_5b/output <- inception_5b/5x5
I0626 12:38:09.820051 11581 net.cpp:454] inception_5b/output <- inception_5b/pool_proj
I0626 12:38:09.820055 11581 net.cpp:411] inception_5b/output -> inception_5b/output
I0626 12:38:09.820091 11581 net.cpp:150] Setting up inception_5b/output
I0626 12:38:09.820096 11581 net.cpp:157] Top shape: 64 1024 7 7 (3211264)
I0626 12:38:09.820098 11581 net.cpp:165] Memory required for data: 3628862216
I0626 12:38:09.820101 11581 layer_factory.hpp:77] Creating layer pool5/7x7_s1
I0626 12:38:09.820108 11581 net.cpp:106] Creating Layer pool5/7x7_s1
I0626 12:38:09.820112 11581 net.cpp:454] pool5/7x7_s1 <- inception_5b/output
I0626 12:38:09.820116 11581 net.cpp:411] pool5/7x7_s1 -> pool5/7x7_s1
I0626 12:38:09.820484 11581 net.cpp:150] Setting up pool5/7x7_s1
I0626 12:38:09.820494 11581 net.cpp:157] Top shape: 64 1024 1 1 (65536)
I0626 12:38:09.820497 11581 net.cpp:165] Memory required for data: 3629124360
I0626 12:38:09.820500 11581 layer_factory.hpp:77] Creating layer pool5/drop_7x7_s1
I0626 12:38:09.820509 11581 net.cpp:106] Creating Layer pool5/drop_7x7_s1
I0626 12:38:09.820513 11581 net.cpp:454] pool5/drop_7x7_s1 <- pool5/7x7_s1
I0626 12:38:09.820516 11581 net.cpp:397] pool5/drop_7x7_s1 -> pool5/7x7_s1 (in-place)
I0626 12:38:09.820546 11581 net.cpp:150] Setting up pool5/drop_7x7_s1
I0626 12:38:09.820552 11581 net.cpp:157] Top shape: 64 1024 1 1 (65536)
I0626 12:38:09.820554 11581 net.cpp:165] Memory required for data: 3629386504
I0626 12:38:09.820557 11581 layer_factory.hpp:77] Creating layer 102flowers
I0626 12:38:09.820565 11581 net.cpp:106] Creating Layer 102flowers
I0626 12:38:09.820569 11581 net.cpp:454] 102flowers <- pool5/7x7_s1
I0626 12:38:09.820574 11581 net.cpp:411] 102flowers -> 102flowers
I0626 12:38:09.821372 11581 net.cpp:150] Setting up 102flowers
I0626 12:38:09.821380 11581 net.cpp:157] Top shape: 64 102 (6528)
I0626 12:38:09.821383 11581 net.cpp:165] Memory required for data: 3629412616
I0626 12:38:09.821389 11581 layer_factory.hpp:77] Creating layer loss3/loss3
I0626 12:38:09.821396 11581 net.cpp:106] Creating Layer loss3/loss3
I0626 12:38:09.821399 11581 net.cpp:454] loss3/loss3 <- 102flowers
I0626 12:38:09.821406 11581 net.cpp:454] loss3/loss3 <- labels_data_1_split_2
I0626 12:38:09.821410 11581 net.cpp:411] loss3/loss3 -> loss3/loss3
…
