…
 'ROOT_DIR': '/home/zheda/workspace/cnn/flower-classify',
 'TEST': {'TARGET_SIZE': [227, 227]},
 'TRAIN': {'BATCH_SIZE': 64,
           'MAX_ITERATION': 100000,
           'SNAPSHOT_INFIX': '',
           'SNAPSHOT_ITERS': 10000,
           'TARGET_SIZE': [227, 227],
           'USE_FLIPPED': True,
           'USE_PREFETCH': False}}
WARNING: Logging before InitGoogleLogging() is written to STDERR
I0627 10:15:29.627859 30232 net.cpp:49] Initializing net from parameters: 
name: "GoogleNet"
input: "data"
state {
  phase: TEST
}
input_shape {
  dim: 10
  dim: 3
  dim: 224
  dim: 224
}
layer {
  name: "conv1/7x7_s2"
  type: "Convolution"
  bottom: "data"
  top: "conv1/7x7_s2"
  param {
    lr_mult: 1
    decay_mult: 1
  }
  param {
    lr_mult: 2
    decay_mult: 0
  }
  convolution_param {
    num_output: 64
    pad: 3
    kernel_size: 7
    stride: 2
    weight_filler {
      type: "xavier"
    }
    bias_filler {
      type: "constant"
      value: 0.2
    }
  }
}
layer {
  name: "conv1/relu_7x7"
  type: "ReLU"
  bottom: "conv1/7x7_s2"
  top: "conv1/7x7_s2"
}
layer {
  name: "pool1/3x3_s2"
  type: "Pooling"
  bottom: "conv1/7x7_s2"
  top: "pool1/3x3_s2"
  pooling_param {
    pool: MAX
    kernel_size: 3
    stride: 2
  }
}
layer {
  name: "pool1/norm1"
  type: "LRN"
  bottom: "pool1/3x3_s2"
  top: "pool1/norm1"
  lrn_param {
    local_size: 5
    alpha: 0.0001
    beta: 0.75
  }
}
layer {
  name: "conv2/3x3_reduce"
  type: "Convolution"
  bottom: "pool1/norm1"
  top: "conv2/3x3_reduce"
  param {
    lr_mult: 1
    decay_mult: 1
  }
  param {
    lr_mult: 2
    decay_mult: 0
  }
  convolution_param {
    num_output: 64
    kernel_size: 1
    weight_filler {
      type: "xavier"
    }
    bias_filler {
      type: "constant"
      value: 0.2
    }
  }
}
layer {
  name: "conv2/relu_3x3_reduce"
  type: "ReLU"
  bottom: "conv2/3x3_reduce"
  top: "conv2/3x3_reduce"
}
layer {
  name: "conv2/3x3"
  type: "Convolution"
  bottom: "conv2/3x3_reduce"
  top: "conv2/3x3"
  param {
    lr_mult: 1
    decay_mult: 1
  }
  param {
    lr_mult: 2
    decay_mult: 0
  }
  convolution_param {
    num_output: 192
    pad: 1
    kernel_size: 3
    weight_filler {
      type: "xavier"
    }
    bias_filler {
      type: "constant"
      value: 0.2
    }
  }
}
layer {
  name: "conv2/relu_3x3"
  type: "ReLU"
  bottom: "conv2/3x3"
  top: "conv2/3x3"
}
layer {
  name: "conv2/norm2"
  type: "LRN"
  bottom: "conv2/3x3"
  top: "conv2/norm2"
  lrn_param {
    local_size: 5
    alpha: 0.0001
    beta: 0.75
  }
}
layer {
  name: "pool2/3x3_s2"
  type: "Pooling"
  bottom: "conv2/norm2"
  top: "pool2/3x3_s2"
  pooling_param {
    pool: MAX
    kernel_size: 3
    stride: 2
  }
}
layer {
  name: "inception_3a/1x1"
  type: "Convolution"
  bottom: "pool2/3x3_s2"
  top: "inception_3a/1x1"
  param {
    lr_mult: 1
    decay_mult: 1
  }
  param {
    lr_mult: 2
    decay_mult: 0
  }
  convolution_param {
    num_output: 64
    kernel_size: 1
    weight_filler {
      type: "xavier"
    }
    bias_filler {
      type: "constant"
      value: 0.2
    }
  }
}
layer {
  name: "inception_3a/relu_1x1"
  type: "ReLU"
  bottom: "inception_3a/1x1"
  top: "inception_3a/1x1"
}
layer {
  name: "inception_3a/3x3_reduce"
  type: "Convolution"
  bottom: "pool2/3x3_s2"
  top: "inception_3a/3x3_reduce"
  param {
    lr_mult: 1
    decay_mult: 1
  }
  param {
    lr_mult: 2
    decay_mult: 0
  }
  convolution_param {
    num_output: 96
    kernel_size: 1
    weight_filler {
      type: "xavier"
    }
    bias_filler {
      type: "constant"
      value: 0.2
    }
  }
}
layer {
  name: "inception_3a/relu_3x3_reduce"
  type: "ReLU"
  bottom: "inception_3a/3x3_reduce"
  top: "inception_3a/3x3_reduce"
}
layer {
  name: "inception_3a/3x3"
  type: "Convolution"
  bottom: "inception_3a/3x3_reduce"
  top: "inception_3a/3x3"
  param {
    lr_mult: 1
    decay_mult: 1
  }
  param {
    lr_mult: 2
    decay_mult: 0
  }
  convolution_param {
    num_output: 128
    pad: 1
    kernel_size: 3
    weight_filler {
      type: "xavier"
    }
    bias_filler {
      type: "constant"
      value: 0.2
    }
  }
}
layer {
  name: "inception_3a/relu_3x3"
  type: "ReLU"
  bottom: "inception_3a/3x3"
  top: "inception_3a/3x3"
}
layer {
  name: "inception_3a/5x5_reduce"
  type: "Convolution"
  bottom: "pool2/3x3_s2"
  top: "inception_3a/5x5_reduce"
  param {
    lr_mult: 1
    decay_mult: 1
  }
  param {
    lr_mult: 2
    decay_mult: 0
  }
  convolution_param {
    num_output: 16
    kernel_size: 1
    weight_filler {
      type: "xavier"
    }
    bias_filler {
      type: "constant"
      value: 0.2
    }
  }
}
layer {
  name: "inception_3a/relu_5x5_reduce"
  type: "ReLU"
  bottom: "inception_3a/5x5_reduce"
  top: "inception_3a/5x5_reduce"
}
layer {
  name: "inception_3a/5x5"
  type: "Convolution"
  bottom: "inception_3a/5x5_reduce"
  top: "inception_3a/5x5"
  param {
    lr_mult: 1
    decay_mult: 1
  }
  param {
    lr_mult: 2
    decay_mult: 0
  }
  convolution_param {
    num_output: 32
    pad: 2
    kernel_size: 5
    weight_filler {
      type: "xavier"
    }
    bias_filler {
      type: "constant"
      value: 0.2
    }
  }
}
layer {
  name: "inception_3a/relu_5x5"
  type: "ReLU"
  bottom: "inception_3a/5x5"
  top: "inception_3a/5x5"
}
layer {
  name: "inception_3a/pool"
  type: "Pooling"
  bottom: "pool2/3x3_s2"
  top: "inception_3a/pool"
  pooling_param {
    pool: MAX
    kernel_size: 3
    stride: 1
    pad: 1
  }
}
layer {
  name: "inception_3a/pool_proj"
  type: "Convolution"
  bottom: "inception_3a/pool"
  top: "inception_3a/pool_proj"
  param {
    lr_mult: 1
    decay_mult: 1
  }
  param {
    lr_mult: 2
    decay_mult: 0
  }
  convolution_param {
    num_output: 32
    kernel_size: 1
    weight_filler {
      type: "xavier"
    }
    bias_filler {
      type: "constant"
      value: 0.2
    }
  }
}
layer {
  name: "inception_3a/relu_pool_proj"
  type: "ReLU"
  bottom: "inception_3a/pool_proj"
  top: "inception_3a/pool_proj"
}
layer {
  name: "inception_3a/output"
  type: "Concat"
  bottom: "inception_3a/1x1"
  bottom: "inception_3a/3x3"
  bottom: "inception_3a/5x5"
  bottom: "inception_3a/pool_proj"
  top: "inception_3a/output"
}
layer {
  name: "inception_3b/1x1"
  type: "Convolution"
  bottom: "inception_3a/output"
  top: "inception_3b/1x1"
  param {
    lr_mult: 1
    decay_mult: 1
  }
  param {
    lr_mult: 2
    decay_mult: 0
  }
  convolution_param {
    num_output: 128
    kernel_size: 1
    weight_filler {
      type: "xavier"
    }
    bias_filler {
      type: "constant"
      value: 0.2
    }
  }
}
layer {
  name: "inception_3b/relu_1x1"
  type: "ReLU"
  bottom: "inception_3b/1x1"
  top: "inception_3b/1x1"
}
layer {
  name: "inception_3b/3x3_reduce"
  type: "Convolution"
  bottom: "inception_3a/output"
  top: "inception_3b/3x3_reduce"
  param {
    lr_mult: 1
    decay_mult: 1
  }
  param {
    lr_mult: 2
    decay_mult: 0
  }
  convolution_param {
    num_output: 128
    kernel_size: 1
    weight_filler {
      type: "xavier"
    }
    bias_filler {
      type: "constant"
      value: 0.2
    }
  }
}
layer {
  name: "inception_3b/relu_3x3_reduce"
  type: "ReLU"
  bottom: "inception_3b/3x3_reduce"
  top: "inception_3b/3x3_reduce"
}
layer {
  name: "inception_3b/3x3"
  type: "Convolution"
  bottom: "inception_3b/3x3_reduce"
  top: "inception_3b/3x3"
  param {
    lr_mult: 1
    decay_mult: 1
  }
  param {
    lr_mult: 2
    decay_mult: 0
  }
  convolution_param {
    num_output: 192
    pad: 1
    kernel_size: 3
    weight_filler {
      type: "xavier"
    }
    bias_filler {
      type: "constant"
      value: 0.2
    }
  }
}
layer {
  name: "inception_3b/relu_3x3"
  type: "ReLU"
  bottom: "inception_3b/3x3"
  top: "inception_3b/3x3"
}
layer {
  name: "inception_3b/5x5_reduce"
  type: "Convolution"
  bottom: "inception_3a/output"
  top: "inception_3b/5x5_reduce"
  param {
    lr_mult: 1
    decay_mult: 1
  }
  param {
    lr_mult: 2
    decay_mult: 0
  }
  convolution_param {
    num_output: 32
    kernel_size: 1
    weight_filler {
      type: "xavier"
    }
    bias_filler {
      type: "constant"
      value: 0.2
    }
  }
}
layer {
  name: "inception_3b/relu_5x5_reduce"
  type: "ReLU"
  bottom: "inception_3b/5x5_reduce"
  top: "inception_3b/5x5_reduce"
}
layer {
  name: "inception_3b/5x5"
  type: "Convolution"
  bottom: "inception_3b/5x5_reduce"
  top: "inception_3b/5x5"
  param {
    lr_mult: 1
    decay_mult: 1
  }
  param {
    lr_mult: 2
    decay_mult: 0
  }
  convolution_param {
    num_output: 96
    pad: 2
    kernel_size: 5
    weight_filler {
      type: "xavier"
    }
    bias_filler {
      type: "constant"
      value: 0.2
    }
  }
}
layer {
  name: "inception_3b/relu_5x5"
  type: "ReLU"
  bottom: "inception_3b/5x5"
  top: "inception_3b/5x5"
}
layer {
  name: "inception_3b/pool"
  type: "Pooling"
  bottom: "inception_3a/output"
  top: "inception_3b/pool"
  pooling_param {
    pool: MAX
    kernel_size: 3
    stride: 1
    pad: 1
  }
}
layer {
  name: "inception_3b/pool_proj"
  type: "Convolution"
  bottom: "inception_3b/pool"
  top: "inception_3b/pool_proj"
  param {
    lr_mult: 1
    decay_mult: 1
  }
  param {
    lr_mult: 2
    decay_mult: 0
  }
  convolution_param {
    num_output: 64
    kernel_size: 1
    weight_filler {
      type: "xavier"
    }
    bias_filler {
      type: "constant"
      value: 0.2
    }
  }
}
layer {
  name: "inception_3b/relu_pool_proj"
  type: "ReLU"
  bottom: "inception_3b/pool_proj"
  top: "inception_3b/pool_proj"
}
layer {
  name: "inception_3b/output"
  type: "Concat"
  bottom: "inception_3b/1x1"
  bottom: "inception_3b/3x3"
  bottom: "inception_3b/5x5"
  bottom: "inception_3b/pool_proj"
  top: "inception_3b/output"
}
layer {
  name: "pool3/3x3_s2"
  type: "Pooling"
  bottom: "inception_3b/output"
  top: "pool3/3x3_s2"
  pooling_param {
    pool: MAX
    kernel_size: 3
    stride: 2
  }
}
layer {
  name: "inception_4a/1x1"
  type: "Convolution"
  bottom: "pool3/3x3_s2"
  top: "inception_4a/1x1"
  param {
    lr_mult: 1
    decay_mult: 1
  }
  param {
    lr_mult: 2
    decay_mult: 0
  }
  convolution_param {
    num_output: 192
    kernel_size: 1
    weight_filler {
      type: "xavier"
    }
    bias_filler {
      type: "constant"
      value: 0.2
    }
  }
}
layer {
  name: "inception_4a/relu_1x1"
  type: "ReLU"
  bottom: "inception_4a/1x1"
  top: "inception_4a/1x1"
}
layer {
  name: "inception_4a/3x3_reduce"
  type: "Convolution"
  bottom: "pool3/3x3_s2"
  top: "inception_4a/3x3_reduce"
  param {
    lr_mult: 1
    decay_mult: 1
  }
  param {
    lr_mult: 2
    decay_mult: 0
  }
  convolution_param {
    num_output: 96
    kernel_size: 1
    weight_filler {
      type: "xavier"
    }
    bias_filler {
      type: "constant"
      value: 0.2
    }
  }
}
layer {
  name: "inception_4a/relu_3x3_reduce"
  type: "ReLU"
  bottom: "inception_4a/3x3_reduce"
  top: "inception_4a/3x3_reduce"
}
layer {
  name: "inception_4a/3x3"
  type: "Convolution"
  bottom: "inception_4a/3x3_reduce"
  top: "inception_4a/3x3"
  param {
    lr_mult: 1
    decay_mult: 1
  }
  param {
    lr_mult: 2
    decay_mult: 0
  }
  convolution_param {
    num_output: 208
    pad: 1
    kernel_size: 3
    weight_filler {
      type: "xavier"
    }
    bias_filler {
      type: "constant"
      value: 0.2
    }
  }
}
layer {
  name: "inception_4a/relu_3x3"
  type: "ReLU"
  bottom: "inception_4a/3x3"
  top: "inception_4a/3x3"
}
layer {
  name: "inception_4a/5x5_reduce"
  type: "Convolution"
  bottom: "pool3/3x3_s2"
  top: "inception_4a/5x5_reduce"
  param {
    lr_mult: 1
    decay_mult: 1
  }
  param {
    lr_mult: 2
    decay_mult: 0
  }
  convolution_param {
    num_output: 16
    kernel_size: 1
    weight_filler {
      type: "xavier"
    }
    bias_filler {
      type: "constant"
      value: 0.2
    }
  }
}
layer {
  name: "inception_4a/relu_5x5_reduce"
  type: "ReLU"
  bottom: "inception_4a/5x5_reduce"
  top: "inception_4a/5x5_reduce"
}
layer {
  name: "inception_4a/5x5"
  type: "Convolution"
  bottom: "inception_4a/5x5_reduce"
  top: "inception_4a/5x5"
  param {
    lr_mult: 1
    decay_mult: 1
  }
  param {
    lr_mult: 2
    decay_mult: 0
  }
  convolution_param {
    num_output: 48
    pad: 2
    kernel_size: 5
    weight_filler {
      type: "xavier"
    }
    bias_filler {
      type: "constant"
      value: 0.2
    }
  }
}
layer {
  name: "inception_4a/relu_5x5"
  type: "ReLU"
  bottom: "inception_4a/5x5"
  top: "inception_4a/5x5"
}
layer {
  name: "inception_4a/pool"
  type: "Pooling"
  bottom: "pool3/3x3_s2"
  top: "inception_4a/pool"
  pooling_param {
    pool: MAX
    kernel_size: 3
    stride: 1
    pad: 1
  }
}
layer {
  name: "inception_4a/pool_proj"
  type: "Convolution"
  bottom: "inception_4a/pool"
  top: "inception_4a/pool_proj"
  param {
    lr_mult: 1
    decay_mult: 1
  }
  param {
    lr_mult: 2
    decay_mult: 0
  }
  convolution_param {
    num_output: 64
    kernel_size: 1
    weight_filler {
      type: "xavier"
    }
    bias_filler {
      type: "constant"
      value: 0.2
    }
  }
}
layer {
  name: "inception_4a/relu_pool_proj"
  type: "ReLU"
  bottom: "inception_4a/pool_proj"
  top: "inception_4a/pool_proj"
}
layer {
  name: "inception_4a/output"
  type: "Concat"
  bottom: "inception_4a/1x1"
  bottom: "inception_4a/3x3"
  bottom: "inception_4a/5x5"
  bottom: "inception_4a/pool_proj"
  top: "inception_4a/output"
}
layer {
  name: "loss1/ave_pool"
  type: "Pooling"
  bottom: "inception_4a/output"
  top: "loss1/ave_pool"
  pooling_param {
    pool: AVE
    kernel_size: 5
    stride: 3
  }
}
layer {
  name: "loss1/conv"
  type: "Convolution"
  bottom: "loss1/ave_pool"
  top: "loss1/conv"
  param {
    lr_mult: 1
    decay_mult: 1
  }
  param {
    lr_mult: 2
    decay_mult: 0
  }
  convolution_param {
    num_output: 128
    kernel_size: 1
    weight_filler {
      type: "xavier"
    }
    bias_filler {
      type: "constant"
      value: 0.2
    }
  }
}
layer {
  name: "loss1/relu_conv"
  type: "ReLU"
  bottom: "loss1/conv"
  top: "loss1/conv"
}
layer {
  name: "loss1/fc"
  type: "InnerProduct"
  bottom: "loss1/conv"
  top: "loss1/fc"
  param {
    lr_mult: 1
    decay_mult: 1
  }
  param {
    lr_mult: 2
    decay_mult: 0
  }
  inner_product_param {
    num_output: 1024
    weight_filler {
      type: "xavier"
    }
    bias_filler {
      type: "constant"
      value: 0.2
    }
  }
}
layer {
  name: "loss1/relu_fc"
  type: "ReLU"
  bottom: "loss1/fc"
  top: "loss1/fc"
}
layer {
  name: "loss1/drop_fc"
  type: "Dropout"
  bottom: "loss1/fc"
  top: "loss1/fc"
  dropout_param {
    dropout_ratio: 0.7
  }
}
layer {
  name: "102flowers1/classifier"
  type: "InnerProduct"
  bottom: "loss1/fc"
  top: "102flowers1/classifier"
  param {
    lr_mult: 1
    decay_mult: 1
  }
  param {
    lr_mult: 2
    decay_mult: 0
  }
  inner_product_param {
    num_output: 102
    weight_filler {
      type: "xavier"
    }
    bias_filler {
      type: "constant"
      value: 0
    }
  }
}
layer {
  name: "inception_4b/1x1"
  type: "Convolution"
  bottom: "inception_4a/output"
  top: "inception_4b/1x1"
  param {
    lr_mult: 1
    decay_mult: 1
  }
  param {
    lr_mult: 2
    decay_mult: 0
  }
  convolution_param {
    num_output: 160
    kernel_size: 1
    weight_filler {
      type: "xavier"
    }
    bias_filler {
      type: "constant"
      value: 0.2
    }
  }
}
layer {
  name: "inception_4b/relu_1x1"
  type: "ReLU"
  bottom: "inception_4b/1x1"
  top: "inception_4b/1x1"
}
layer {
  name: "inception_4b/3x3_reduce"
  type: "Convolution"
  bottom: "inception_4a/output"
  top: "inception_4b/3x3_reduce"
  param {
    lr_mult: 1
    decay_mult: 1
  }
  param {
    lr_mult: 2
    decay_mult: 0
  }
  convolution_param {
    num_output: 112
    kernel_size: 1
    weight_filler {
      type: "xavier"
    }
    bias_filler {
      type: "constant"
      value: 0.2
    }
  }
}
layer {
  name: "inception_4b/relu_3x3_reduce"
  type: "ReLU"
  bottom: "inception_4b/3x3_reduce"
  top: "inception_4b/3x3_reduce"
}
layer {
  name: "inception_4b/3x3"
  type: "Convolution"
  bottom: "inception_4b/3x3_reduce"
  top: "inception_4b/3x3"
  param {
    lr_mult: 1
    decay_mult: 1
  }
  param {
    lr_mult: 2
    decay_mult: 0
  }
  convolution_param {
    num_output: 224
    pad: 1
    kernel_size: 3
    weight_filler {
      type: "xavier"
    }
    bias_filler {
      type: "constant"
      value: 0.2
    }
  }
}
layer {
  name: "inception_4b/relu_3x3"
  type: "ReLU"
  bottom: "inception_4b/3x3"
  top: "inception_4b/3x3"
}
layer {
  name: "inception_4b/5x5_reduce"
  type: "Convolution"
  bottom: "inception_4a/output"
  top: "inception_4b/5x5_reduce"
  param {
    lr_mult: 1
    decay_mult: 1
  }
  param {
    lr_mult: 2
    decay_mult: 0
  }
  convolution_param {
    num_output: 24
    kernel_size: 1
    weight_filler {
      type: "xavier"
    }
    bias_filler {
      type: "constant"
      value: 0.2
    }
  }
}
layer {
  name: "inception_4b/relu_5x5_reduce"
  type: "ReLU"
  bottom: "inception_4b/5x5_reduce"
  top: "inception_4b/5x5_reduce"
}
layer {
  name: "inception_4b/5x5"
  type: "Convolution"
  bottom: "inception_4b/5x5_reduce"
  top: "inception_4b/5x5"
  param {
    lr_mult: 1
    decay_mult: 1
  }
  param {
    lr_mult: 2
    decay_mult: 0
  }
  convolution_param {
    num_output: 64
    pad: 2
    kernel_size: 5
    weight_filler {
      type: "xavier"
    }
    bias_filler {
      type: "constant"
      value: 0.2
    }
  }
}
layer {
  name: "inception_4b/relu_5x5"
  type: "ReLU"
  bottom: "inception_4b/5x5"
  top: "inception_4b/5x5"
}
layer {
  name: "inception_4b/pool"
  type: "Pooling"
  bottom: "inception_4a/output"
  top: "inception_4b/pool"
  pooling_param {
    pool: MAX
    kernel_size: 3
    stride: 1
    pad: 1
  }
}
layer {
  name: "inception_4b/pool_proj"
  type: "Convolution"
  bottom: "inception_4b/pool"
  top: "inception_4b/pool_proj"
  param {
    lr_mult: 1
    decay_mult: 1
  }
  param {
    lr_mult: 2
    decay_mult: 0
  }
  convolution_param {
    num_output: 64
    kernel_size: 1
    weight_filler {
      type: "xavier"
    }
    bias_filler {
      type: "constant"
      value: 0.2
    }
  }
}
layer {
  name: "inception_4b/relu_pool_proj"
  type: "ReLU"
  bottom: "inception_4b/pool_proj"
  top: "inception_4b/pool_proj"
}
layer {
  name: "inception_4b/output"
  type: "Concat"
  bottom: "inception_4b/1x1"
  bottom: "inception_4b/3x3"
  bottom: "inception_4b/5x5"
  bottom: "inception_4b/pool_proj"
  top: "inception_4b/output"
}
layer {
  name: "inception_4c/1x1"
  type: "Convolution"
  bottom: "inception_4b/output"
  top: "inception_4c/1x1"
  param {
    lr_mult: 1
    decay_mult: 1
  }
  param {
    lr_mult: 2
    decay_mult: 0
  }
  convolution_param {
    num_output: 128
    kernel_size: 1
    weight_filler {
      type: "xavier"
    }
    bias_filler {
      type: "constant"
      value: 0.2
    }
  }
}
layer {
  name: "inception_4c/relu_1x1"
  type: "ReLU"
  bottom: "inception_4c/1x1"
  top: "inception_4c/1x1"
}
layer {
  name: "inception_4c/3x3_reduce"
  type: "Convolution"
  bottom: "inception_4b/output"
  top: "inception_4c/3x3_reduce"
  param {
    lr_mult: 1
    decay_mult: 1
  }
  param {
    lr_mult: 2
    decay_mult: 0
  }
  convolution_param {
    num_output: 128
    kernel_size: 1
    weight_filler {
      type: "xavier"
    }
    bias_filler {
      type: "constant"
      value: 0.2
    }
  }
}
layer {
  name: "inception_4c/relu_3x3_reduce"
  type: "ReLU"
  bottom: "inception_4c/3x3_reduce"
  top: "inception_4c/3x3_reduce"
}
layer {
  name: "inception_4c/3x3"
  type: "Convolution"
  bottom: "inception_4c/3x3_reduce"
  top: "inception_4c/3x3"
  param {
    lr_mult: 1
    decay_mult: 1
  }
  param {
    lr_mult: 2
    decay_mult: 0
  }
  convolution_param {
    num_output: 256
    pad: 1
    kernel_size: 3
    weight_filler {
      type: "xavier"
    }
    bias_filler {
      type: "constant"
      value: 0.2
    }
  }
}
layer {
  name: "inception_4c/relu_3x3"
  type: "ReLU"
  bottom: "inception_4c/3x3"
  top: "inception_4c/3x3"
}
layer {
  name: "inception_4c/5x5_reduce"
  type: "Convolution"
  bottom: "inception_4b/output"
  top: "inception_4c/5x5_reduce"
  param {
    lr_mult: 1
    decay_mult: 1
  }
  param {
    lr_mult: 2
    decay_mult: 0
  }
  convolution_param {
    num_output: 24
    kernel_size: 1
    weight_filler {
      type: "xavier"
    }
    bias_filler {
      type: "constant"
      value: 0.2
    }
  }
}
layer {
  name: "inception_4c/relu_5x5_reduce"
  type: "ReLU"
  bottom: "inception_4c/5x5_reduce"
  top: "inception_4c/5x5_reduce"
}
layer {
  name: "inception_4c/5x5"
  type: "Convolution"
  bottom: "inception_4c/5x5_reduce"
  top: "inception_4c/5x5"
  param {
    lr_mult: 1
    decay_mult: 1
  }
  param {
    lr_mult: 2
    decay_mult: 0
  }
  convolution_param {
    num_output: 64
    pad: 2
    kernel_size: 5
    weight_filler {
      type: "xavier"
    }
    bias_filler {
      type: "constant"
      value: 0.2
    }
  }
}
layer {
  name: "inception_4c/relu_5x5"
  type: "ReLU"
  bottom: "inception_4c/5x5"
  top: "inception_4c/5x5"
}
layer {
  name: "inception_4c/pool"
  type: "Pooling"
  bottom: "inception_4b/output"
  top: "inception_4c/pool"
  pooling_param {
    pool: MAX
    kernel_size: 3
    stride: 1
    pad: 1
  }
}
layer {
  name: "inception_4c/pool_proj"
  type: "Convolution"
  bottom: "inception_4c/pool"
  top: "inception_4c/pool_proj"
  param {
    lr_mult: 1
    decay_mult: 1
  }
  param {
    lr_mult: 2
    decay_mult: 0
  }
  convolution_param {
    num_output: 64
    kernel_size: 1
    weight_filler {
      type: "xavier"
    }
    bias_filler {
      type: "constant"
      value: 0.2
    }
  }
}
layer {
  name: "inception_4c/relu_pool_proj"
  type: "ReLU"
  bottom: "inception_4c/pool_proj"
  top: "inception_4c/pool_proj"
}
layer {
  name: "inception_4c/output"
  type: "Concat"
  bottom: "inception_4c/1x1"
  bottom: "inception_4c/3x3"
  bottom: "inception_4c/5x5"
  bottom: "inception_4c/pool_proj"
  top: "inception_4c/output"
}
layer {
  name: "inception_4d/1x1"
  type: "Convolution"
  bottom: "inception_4c/output"
  top: "inception_4d/1x1"
  param {
    lr_mult: 1
    decay_mult: 1
  }
  param {
    lr_mult: 2
    decay_mult: 0
  }
  convolution_param {
    num_output: 112
    kernel_size: 1
    weight_filler {
      type: "xavier"
    }
    bias_filler {
      type: "constant"
      value: 0.2
    }
  }
}
layer {
  name: "inception_4d/relu_1x1"
  type: "ReLU"
  bottom: "inception_4d/1x1"
  top: "inception_4d/1x1"
}
layer {
  name: "inception_4d/3x3_reduce"
  type: "Convolution"
  bottom: "inception_4c/output"
  top: "inception_4d/3x3_reduce"
  param {
    lr_mult: 1
    decay_mult: 1
  }
  param {
    lr_mult: 2
    decay_mult: 0
  }
  convolution_param {
    num_output: 144
    kernel_size: 1
    weight_filler {
      type: "xavier"
    }
    bias_filler {
      type: "constant"
      value: 0.2
    }
  }
}
layer {
  name: "inception_4d/relu_3x3_reduce"
  type: "ReLU"
  bottom: "inception_4d/3x3_reduce"
  top: "inception_4d/3x3_reduce"
}
layer {
  name: "inception_4d/3x3"
  type: "Convolution"
  bottom: "inception_4d/3x3_reduce"
  top: "inception_4d/3x3"
  param {
    lr_mult: 1
    decay_mult: 1
  }
  param {
    lr_mult: 2
    decay_mult: 0
  }
  convolution_param {
    num_output: 288
    pad: 1
    kernel_size: 3
    weight_filler {
      type: "xavier"
    }
    bias_filler {
      type: "constant"
      value: 0.2
    }
  }
}
layer {
  name: "inception_4d/relu_3x3"
  type: "ReLU"
  bottom: "inception_4d/3x3"
  top: "inception_4d/3x3"
}
layer {
  name: "inception_4d/5x5_reduce"
  type: "Convolution"
  bottom: "inception_4c/output"
  top: "inception_4d/5x5_reduce"
  param {
    lr_mult: 1
    decay_mult: 1
  }
  param {
    lr_mult: 2
    decay_mult: 0
  }
  convolution_param {
    num_output: 32
    kernel_size: 1
    weight_filler {
      type: "xavier"
    }
    bias_filler {
      type: "constant"
      value: 0.2
    }
  }
}
layer {
  name: "inception_4d/relu_5x5_reduce"
  type: "ReLU"
  bottom: "inception_4d/5x5_reduce"
  top: "inception_4d/5x5_reduce"
}
layer {
  name: "inception_4d/5x5"
  type: "Convolution"
  bottom: "inception_4d/5x5_reduce"
  top: "inception_4d/5x5"
  param {
    lr_mult: 1
    decay_mult: 1
  }
  param {
    lr_mult: 2
    decay_mult: 0
  }
  convolution_param {
    num_output: 64
    pad: 2
    kernel_size: 5
    weight_filler {
      type: "xavier"
    }
    bias_filler {
      type: "constant"
      value: 0.2
    }
  }
}
layer {
  name: "inception_4d/relu_5x5"
  type: "ReLU"
  bottom: "inception_4d/5x5"
  top: "inception_4d/5x5"
}
layer {
  name: "inception_4d/pool"
  type: "Pooling"
  bottom: "inception_4c/output"
  top: "inception_4d/pool"
  pooling_param {
    pool: MAX
    kernel_size: 3
    stride: 1
    pad: 1
  }
}
layer {
  name: "inception_4d/pool_proj"
  type: "Convolution"
  bottom: "inception_4d/pool"
  top: "inception_4d/pool_proj"
  param {
    lr_mult: 1
    decay_mult: 1
  }
  param {
    lr_mult: 2
    decay_mult: 0
  }
  convolution_param {
    num_output: 64
    kernel_size: 1
    weight_filler {
      type: "xavier"
    }
    bias_filler {
      type: "constant"
      value: 0.2
    }
  }
}
layer {
  name: "inception_4d/relu_pool_proj"
  type: "ReLU"
  bottom: "inception_4d/pool_proj"
  top: "inception_4d/pool_proj"
}
layer {
  name: "inception_4d/output"
  type: "Concat"
  bottom: "inception_4d/1x1"
  bottom: "inception_4d/3x3"
  bottom: "inception_4d/5x5"
  bottom: "inception_4d/pool_proj"
  top: "inception_4d/output"
}
layer {
  name: "loss2/ave_pool"
  type: "Pooling"
  bottom: "inception_4d/output"
  top: "loss2/ave_pool"
  pooling_param {
    pool: AVE
    kernel_size: 5
    stride: 3
  }
}
layer {
  name: "loss2/conv"
  type: "Convolution"
  bottom: "loss2/ave_pool"
  top: "loss2/conv"
  param {
    lr_mult: 1
    decay_mult: 1
  }
  param {
    lr_mult: 2
    decay_mult: 0
  }
  convolution_param {
    num_output: 128
    kernel_size: 1
    weight_filler {
      type: "xavier"
    }
    bias_filler {
      type: "constant"
      value: 0.2
    }
  }
}
layer {
  name: "loss2/relu_conv"
  type: "ReLU"
  bottom: "loss2/conv"
  top: "loss2/conv"
}
layer {
  name: "loss2/fc"
  type: "InnerProduct"
  bottom: "loss2/conv"
  top: "loss2/fc"
  param {
    lr_mult: 1
    decay_mult: 1
  }
  param {
    lr_mult: 2
    decay_mult: 0
  }
  inner_product_param {
    num_output: 1024
    weight_filler {
      type: "xavier"
    }
    bias_filler {
      type: "constant"
      value: 0.2
    }
  }
}
layer {
  name: "loss2/relu_fc"
  type: "ReLU"
  bottom: "loss2/fc"
  top: "loss2/fc"
}
layer {
  name: "loss2/drop_fc"
  type: "Dropout"
  bottom: "loss2/fc"
  top: "loss2/fc"
  dropout_param {
    dropout_ratio: 0.7
  }
}
layer {
  name: "102flowers2/classifier"
  type: "InnerProduct"
  bottom: "loss2/fc"
  top: "102flowers2/classifier"
  param {
    lr_mult: 1
    decay_mult: 1
  }
  param {
    lr_mult: 2
    decay_mult: 0
  }
  inner_product_param {
    num_output: 102
    weight_filler {
      type: "xavier"
    }
    bias_filler {
      type: "constant"
      value: 0
    }
  }
}
layer {
  name: "inception_4e/1x1"
  type: "Convolution"
  bottom: "inception_4d/output"
  top: "inception_4e/1x1"
  param {
    lr_mult: 1
    decay_mult: 1
  }
  param {
    lr_mult: 2
    decay_mult: 0
  }
  convolution_param {
    num_output: 256
    kernel_size: 1
    weight_filler {
      type: "xavier"
    }
    bias_filler {
      type: "constant"
      value: 0.2
    }
  }
}
layer {
  name: "inception_4e/relu_1x1"
  type: "ReLU"
  bottom: "inception_4e/1x1"
  top: "inception_4e/1x1"
}
layer {
  name: "inception_4e/3x3_reduce"
  type: "Convolution"
  bottom: "inception_4d/output"
  top: "inception_4e/3x3_reduce"
  param {
    lr_mult: 1
    decay_mult: 1
  }
  param {
    lr_mult: 2
    decay_mult: 0
  }
  convolution_param {
    num_output: 160
    kernel_size: 1
    weight_filler {
      type: "xavier"
    }
    bias_filler {
      type: "constant"
      value: 0.2
    }
  }
}
layer {
  name: "inception_4e/relu_3x3_reduce"
  type: "ReLU"
  bottom: "inception_4e/3x3_reduce"
  top: "inception_4e/3x3_reduce"
}
layer {
  name: "inception_4e/3x3"
  type: "Convolution"
  bottom: "inception_4e/3x3_reduce"
  top: "inception_4e/3x3"
  param {
    lr_mult: 1
    decay_mult: 1
  }
  param {
    lr_mult: 2
    decay_mult: 0
  }
  convolution_param {
    num_output: 320
    pad: 1
    kernel_size: 3
    weight_filler {
      type: "xavier"
    }
    bias_filler {
      type: "constant"
      value: 0.2
    }
  }
}
layer {
  name: "inception_4e/relu_3x3"
  type: "ReLU"
  bottom: "inception_4e/3x3"
  top: "inception_4e/3x3"
}
layer {
  name: "inception_4e/5x5_reduce"
  type: "Convolution"
  bottom: "inception_4d/output"
  top: "inception_4e/5x5_reduce"
  param {
    lr_mult: 1
    decay_mult: 1
  }
  param {
    lr_mult: 2
    decay_mult: 0
  }
  convolution_param {
    num_output: 32
    kernel_size: 1
    weight_filler {
      type: "xavier"
    }
    bias_filler {
      type: "constant"
      value: 0.2
    }
  }
}
layer {
  name: "inception_4e/relu_5x5_reduce"
  type: "ReLU"
  bottom: "inception_4e/5x5_reduce"
  top: "inception_4e/5x5_reduce"
}
layer {
  name: "inception_4e/5x5"
  type: "Convolution"
  bottom: "inception_4e/5x5_reduce"
  top: "inception_4e/5x5"
  param {
    lr_mult: 1
    decay_mult: 1
  }
  param {
    lr_mult: 2
    decay_mult: 0
  }
  convolution_param {
    num_output: 128
    pad: 2
    kernel_size: 5
    weight_filler {
      type: "xavier"
    }
    bias_filler {
      type: "constant"
      value: 0.2
    }
  }
}
layer {
  name: "inception_4e/relu_5x5"
  type: "ReLU"
  bottom: "inception_4e/5x5"
  top: "inception_4e/5x5"
}
layer {
  name: "inception_4e/pool"
  type: "Pooling"
  bottom: "inception_4d/output"
  top: "inception_4e/pool"
  pooling_param {
    pool: MAX
    kernel_size: 3
    stride: 1
    pad: 1
  }
}
layer {
  name: "inception_4e/pool_proj"
  type: "Convolution"
  bottom: "inception_4e/pool"
  top: "inception_4e/pool_proj"
  param {
    lr_mult: 1
    decay_mult: 1
  }
  param {
    lr_mult: 2
    decay_mult: 0
  }
  convolution_param {
    num_output: 128
    kernel_size: 1
    weight_filler {
      type: "xavier"
    }
    bias_filler {
      type: "constant"
      value: 0.2
    }
  }
}
layer {
  name: "inception_4e/relu_pool_proj"
  type: "ReLU"
  bottom: "inception_4e/pool_proj"
  top: "inceptio
I0627 10:15:29.628384 30232 net.cpp:413] Input 0 -> data
I0627 10:15:29.636044 30232 layer_factory.hpp:77] Creating layer conv1/7x7_s2
I0627 10:15:29.636066 30232 net.cpp:106] Creating Layer conv1/7x7_s2
I0627 10:15:29.636070 30232 net.cpp:454] conv1/7x7_s2 <- data
I0627 10:15:29.636080 30232 net.cpp:411] conv1/7x7_s2 -> conv1/7x7_s2
I0627 10:15:29.751941 30232 net.cpp:150] Setting up conv1/7x7_s2
I0627 10:15:29.751976 30232 net.cpp:157] Top shape: 10 64 112 112 (8028160)
I0627 10:15:29.751981 30232 net.cpp:165] Memory required for data: 32112640
I0627 10:15:29.751998 30232 layer_factory.hpp:77] Creating layer conv1/relu_7x7
I0627 10:15:29.752012 30232 net.cpp:106] Creating Layer conv1/relu_7x7
I0627 10:15:29.752017 30232 net.cpp:454] conv1/relu_7x7 <- conv1/7x7_s2
I0627 10:15:29.752022 30232 net.cpp:397] conv1/relu_7x7 -> conv1/7x7_s2 (in-place)
I0627 10:15:29.752151 30232 net.cpp:150] Setting up conv1/relu_7x7
I0627 10:15:29.752157 30232 net.cpp:157] Top shape: 10 64 112 112 (8028160)
I0627 10:15:29.752161 30232 net.cpp:165] Memory required for data: 64225280
I0627 10:15:29.752163 30232 layer_factory.hpp:77] Creating layer pool1/3x3_s2
I0627 10:15:29.752171 30232 net.cpp:106] Creating Layer pool1/3x3_s2
I0627 10:15:29.752174 30232 net.cpp:454] pool1/3x3_s2 <- conv1/7x7_s2
I0627 10:15:29.752179 30232 net.cpp:411] pool1/3x3_s2 -> pool1/3x3_s2
I0627 10:15:29.752212 30232 net.cpp:150] Setting up pool1/3x3_s2
I0627 10:15:29.752216 30232 net.cpp:157] Top shape: 10 64 56 56 (2007040)
I0627 10:15:29.752219 30232 net.cpp:165] Memory required for data: 72253440
I0627 10:15:29.752223 30232 layer_factory.hpp:77] Creating layer pool1/norm1
I0627 10:15:29.752229 30232 net.cpp:106] Creating Layer pool1/norm1
I0627 10:15:29.752233 30232 net.cpp:454] pool1/norm1 <- pool1/3x3_s2
I0627 10:15:29.752236 30232 net.cpp:411] pool1/norm1 -> pool1/norm1
I0627 10:15:29.752526 30232 net.cpp:150] Setting up pool1/norm1
I0627 10:15:29.752535 30232 net.cpp:157] Top shape: 10 64 56 56 (2007040)
I0627 10:15:29.752538 30232 net.cpp:165] Memory required for data: 80281600
I0627 10:15:29.752542 30232 layer_factory.hpp:77] Creating layer conv2/3x3_reduce
I0627 10:15:29.752554 30232 net.cpp:106] Creating Layer conv2/3x3_reduce
I0627 10:15:29.752558 30232 net.cpp:454] conv2/3x3_reduce <- pool1/norm1
I0627 10:15:29.752563 30232 net.cpp:411] conv2/3x3_reduce -> conv2/3x3_reduce
I0627 10:15:29.753931 30232 net.cpp:150] Setting up conv2/3x3_reduce
I0627 10:15:29.753943 30232 net.cpp:157] Top shape: 10 64 56 56 (2007040)
I0627 10:15:29.753947 30232 net.cpp:165] Memory required for data: 88309760
I0627 10:15:29.753955 30232 layer_factory.hpp:77] Creating layer conv2/relu_3x3_reduce
I0627 10:15:29.753962 30232 net.cpp:106] Creating Layer conv2/relu_3x3_reduce
I0627 10:15:29.753964 30232 net.cpp:454] conv2/relu_3x3_reduce <- conv2/3x3_reduce
I0627 10:15:29.753968 30232 net.cpp:397] conv2/relu_3x3_reduce -> conv2/3x3_reduce (in-place)
I0627 10:15:29.754091 30232 net.cpp:150] Setting up conv2/relu_3x3_reduce
I0627 10:15:29.754099 30232 net.cpp:157] Top shape: 10 64 56 56 (2007040)
I0627 10:15:29.754102 30232 net.cpp:165] Memory required for data: 96337920
I0627 10:15:29.754106 30232 layer_factory.hpp:77] Creating layer conv2/3x3
I0627 10:15:29.754114 30232 net.cpp:106] Creating Layer conv2/3x3
I0627 10:15:29.754117 30232 net.cpp:454] conv2/3x3 <- conv2/3x3_reduce
I0627 10:15:29.754122 30232 net.cpp:411] conv2/3x3 -> conv2/3x3
I0627 10:15:29.756307 30232 net.cpp:150] Setting up conv2/3x3
I0627 10:15:29.756319 30232 net.cpp:157] Top shape: 10 192 56 56 (6021120)
I0627 10:15:29.756324 30232 net.cpp:165] Memory required for data: 120422400
I0627 10:15:29.756331 30232 layer_factory.hpp:77] Creating layer conv2/relu_3x3
I0627 10:15:29.756337 30232 net.cpp:106] Creating Layer conv2/relu_3x3
I0627 10:15:29.756340 30232 net.cpp:454] conv2/relu_3x3 <- conv2/3x3
I0627 10:15:29.756345 30232 net.cpp:397] conv2/relu_3x3 -> conv2/3x3 (in-place)
I0627 10:15:29.756618 30232 net.cpp:150] Setting up conv2/relu_3x3
I0627 10:15:29.756628 30232 net.cpp:157] Top shape: 10 192 56 56 (6021120)
I0627 10:15:29.756630 30232 net.cpp:165] Memory required for data: 144506880
I0627 10:15:29.756634 30232 layer_factory.hpp:77] Creating layer conv2/norm2
I0627 10:15:29.756641 30232 net.cpp:106] Creating Layer conv2/norm2
I0627 10:15:29.756645 30232 net.cpp:454] conv2/norm2 <- conv2/3x3
I0627 10:15:29.756649 30232 net.cpp:411] conv2/norm2 -> conv2/norm2
I0627 10:15:29.756804 30232 net.cpp:150] Setting up conv2/norm2
I0627 10:15:29.756814 30232 net.cpp:157] Top shape: 10 192 56 56 (6021120)
I0627 10:15:29.756816 30232 net.cpp:165] Memory required for data: 168591360
I0627 10:15:29.756819 30232 layer_factory.hpp:77] Creating layer pool2/3x3_s2
I0627 10:15:29.756825 30232 net.cpp:106] Creating Layer pool2/3x3_s2
I0627 10:15:29.756829 30232 net.cpp:454] pool2/3x3_s2 <- conv2/norm2
I0627 10:15:29.756832 30232 net.cpp:411] pool2/3x3_s2 -> pool2/3x3_s2
I0627 10:15:29.756860 30232 net.cpp:150] Setting up pool2/3x3_s2
I0627 10:15:29.756865 30232 net.cpp:157] Top shape: 10 192 28 28 (1505280)
I0627 10:15:29.756867 30232 net.cpp:165] Memory required for data: 174612480
I0627 10:15:29.756870 30232 layer_factory.hpp:77] Creating layer pool2/3x3_s2_pool2/3x3_s2_0_split
I0627 10:15:29.756876 30232 net.cpp:106] Creating Layer pool2/3x3_s2_pool2/3x3_s2_0_split
I0627 10:15:29.756880 30232 net.cpp:454] pool2/3x3_s2_pool2/3x3_s2_0_split <- pool2/3x3_s2
I0627 10:15:29.756883 30232 net.cpp:411] pool2/3x3_s2_pool2/3x3_s2_0_split -> pool2/3x3_s2_pool2/3x3_s2_0_split_0
I0627 10:15:29.756888 30232 net.cpp:411] pool2/3x3_s2_pool2/3x3_s2_0_split -> pool2/3x3_s2_pool2/3x3_s2_0_split_1
I0627 10:15:29.756893 30232 net.cpp:411] pool2/3x3_s2_pool2/3x3_s2_0_split -> pool2/3x3_s2_pool2/3x3_s2_0_split_2
I0627 10:15:29.756898 30232 net.cpp:411] pool2/3x3_s2_pool2/3x3_s2_0_split -> pool2/3x3_s2_pool2/3x3_s2_0_split_3
I0627 10:15:29.756937 30232 net.cpp:150] Setting up pool2/3x3_s2_pool2/3x3_s2_0_split
I0627 10:15:29.756942 30232 net.cpp:157] Top shape: 10 192 28 28 (1505280)
I0627 10:15:29.756945 30232 net.cpp:157] Top shape: 10 192 28 28 (1505280)
I0627 10:15:29.756949 30232 net.cpp:157] Top shape: 10 192 28 28 (1505280)
I0627 10:15:29.756953 30232 net.cpp:157] Top shape: 10 192 28 28 (1505280)
I0627 10:15:29.756954 30232 net.cpp:165] Memory required for data: 198696960
I0627 10:15:29.756958 30232 layer_factory.hpp:77] Creating layer inception_3a/1x1
I0627 10:15:29.756965 30232 net.cpp:106] Creating Layer inception_3a/1x1
I0627 10:15:29.756968 30232 net.cpp:454] inception_3a/1x1 <- pool2/3x3_s2_pool2/3x3_s2_0_split_0
I0627 10:15:29.756973 30232 net.cpp:411] inception_3a/1x1 -> inception_3a/1x1
I0627 10:15:29.758407 30232 net.cpp:150] Setting up inception_3a/1x1
I0627 10:15:29.758419 30232 net.cpp:157] Top shape: 10 64 28 28 (501760)
I0627 10:15:29.758422 30232 net.cpp:165] Memory required for data: 200704000
I0627 10:15:29.758430 30232 layer_factory.hpp:77] Creating layer inception_3a/relu_1x1
I0627 10:15:29.758435 30232 net.cpp:106] Creating Layer inception_3a/relu_1x1
I0627 10:15:29.758438 30232 net.cpp:454] inception_3a/relu_1x1 <- inception_3a/1x1
I0627 10:15:29.758445 30232 net.cpp:397] inception_3a/relu_1x1 -> inception_3a/1x1 (in-place)
I0627 10:15:29.758589 30232 net.cpp:150] Setting up inception_3a/relu_1x1
I0627 10:15:29.758597 30232 net.cpp:157] Top shape: 10 64 28 28 (501760)
I0627 10:15:29.758599 30232 net.cpp:165] Memory required for data: 202711040
I0627 10:15:29.758604 30232 layer_factory.hpp:77] Creating layer inception_3a/3x3_reduce
I0627 10:15:29.758613 30232 net.cpp:106] Creating Layer inception_3a/3x3_reduce
I0627 10:15:29.758618 30232 net.cpp:454] inception_3a/3x3_reduce <- pool2/3x3_s2_pool2/3x3_s2_0_split_1
I0627 10:15:29.758625 30232 net.cpp:411] inception_3a/3x3_reduce -> inception_3a/3x3_reduce
I0627 10:15:29.760263 30232 net.cpp:150] Setting up inception_3a/3x3_reduce
I0627 10:15:29.760275 30232 net.cpp:157] Top shape: 10 96 28 28 (752640)
I0627 10:15:29.760278 30232 net.cpp:165] Memory required for data: 205721600
I0627 10:15:29.760289 30232 layer_factory.hpp:77] Creating layer inception_3a/relu_3x3_reduce
I0627 10:15:29.760295 30232 net.cpp:106] Creating Layer inception_3a/relu_3x3_reduce
I0627 10:15:29.760298 30232 net.cpp:454] inception_3a/relu_3x3_reduce <- inception_3a/3x3_reduce
I0627 10:15:29.760304 30232 net.cpp:397] inception_3a/relu_3x3_reduce -> inception_3a/3x3_reduce (in-place)
I0627 10:15:29.760596 30232 net.cpp:150] Setting up inception_3a/relu_3x3_reduce
I0627 10:15:29.760607 30232 net.cpp:157] Top shape: 10 96 28 28 (752640)
I0627 10:15:29.760609 30232 net.cpp:165] Memory required for data: 208732160
I0627 10:15:29.760612 30232 layer_factory.hpp:77] Creating layer inception_3a/3x3
I0627 10:15:29.760623 30232 net.cpp:106] Creating Layer inception_3a/3x3
I0627 10:15:29.760627 30232 net.cpp:454] inception_3a/3x3 <- inception_3a/3x3_reduce
I0627 10:15:29.760633 30232 net.cpp:411] inception_3a/3x3 -> inception_3a/3x3
I0627 10:15:29.762193 30232 net.cpp:150] Setting up inception_3a/3x3
I0627 10:15:29.762204 30232 net.cpp:157] Top shape: 10 128 28 28 (1003520)
I0627 10:15:29.762207 30232 net.cpp:165] Memory required for data: 212746240
I0627 10:15:29.762214 30232 layer_factory.hpp:77] Creating layer inception_3a/relu_3x3
I0627 10:15:29.762222 30232 net.cpp:106] Creating Layer inception_3a/relu_3x3
I0627 10:15:29.762224 30232 net.cpp:454] inception_3a/relu_3x3 <- inception_3a/3x3
I0627 10:15:29.762230 30232 net.cpp:397] inception_3a/relu_3x3 -> inception_3a/3x3 (in-place)
I0627 10:15:29.762372 30232 net.cpp:150] Setting up inception_3a/relu_3x3
I0627 10:15:29.762380 30232 net.cpp:157] Top shape: 10 128 28 28 (1003520)
I0627 10:15:29.762383 30232 net.cpp:165] Memory required for data: 216760320
I0627 10:15:29.762387 30232 layer_factory.hpp:77] Creating layer inception_3a/5x5_reduce
I0627 10:15:29.762395 30232 net.cpp:106] Creating Layer inception_3a/5x5_reduce
I0627 10:15:29.762399 30232 net.cpp:454] inception_3a/5x5_reduce <- pool2/3x3_s2_pool2/3x3_s2_0_split_2
I0627 10:15:29.762406 30232 net.cpp:411] inception_3a/5x5_reduce -> inception_3a/5x5_reduce
I0627 10:15:29.763342 30232 net.cpp:150] Setting up inception_3a/5x5_reduce
I0627 10:15:29.763355 30232 net.cpp:157] Top shape: 10 16 28 28 (125440)
I0627 10:15:29.763357 30232 net.cpp:165] Memory required for data: 217262080
I0627 10:15:29.763363 30232 layer_factory.hpp:77] Creating layer inception_3a/relu_5x5_reduce
I0627 10:15:29.763370 30232 net.cpp:106] Creating Layer inception_3a/relu_5x5_reduce
I0627 10:15:29.763375 30232 net.cpp:454] inception_3a/relu_5x5_reduce <- inception_3a/5x5_reduce
I0627 10:15:29.763378 30232 net.cpp:397] inception_3a/relu_5x5_reduce -> inception_3a/5x5_reduce (in-place)
I0627 10:15:29.763519 30232 net.cpp:150] Setting up inception_3a/relu_5x5_reduce
I0627 10:15:29.763525 30232 net.cpp:157] Top shape: 10 16 28 28 (125440)
I0627 10:15:29.763528 30232 net.cpp:165] Memory required for data: 217763840
I0627 10:15:29.763531 30232 layer_factory.hpp:77] Creating layer inception_3a/5x5
I0627 10:15:29.763541 30232 net.cpp:106] Creating Layer inception_3a/5x5
I0627 10:15:29.763545 30232 net.cpp:454] inception_3a/5x5 <- inception_3a/5x5_reduce
I0627 10:15:29.763550 30232 net.cpp:411] inception_3a/5x5 -> inception_3a/5x5
I0627 10:15:29.764811 30232 net.cpp:150] Setting up inception_3a/5x5
I0627 10:15:29.764822 30232 net.cpp:157] Top shape: 10 32 28 28 (250880)
I0627 10:15:29.764825 30232 net.cpp:165] Memory required for data: 218767360
I0627 10:15:29.764832 30232 layer_factory.hpp:77] Creating layer inception_3a/relu_5x5
I0627 10:15:29.764838 30232 net.cpp:106] Creating Layer inception_3a/relu_5x5
I0627 10:15:29.764842 30232 net.cpp:454] inception_3a/relu_5x5 <- inception_3a/5x5
I0627 10:15:29.764847 30232 net.cpp:397] inception_3a/relu_5x5 -> inception_3a/5x5 (in-place)
I0627 10:15:29.765171 30232 net.cpp:150] Setting up inception_3a/relu_5x5
I0627 10:15:29.765180 30232 net.cpp:157] Top shape: 10 32 28 28 (250880)
I0627 10:15:29.765183 30232 net.cpp:165] Memory required for data: 219770880
I0627 10:15:29.765187 30232 layer_factory.hpp:77] Creating layer inception_3a/pool
I0627 10:15:29.765193 30232 net.cpp:106] Creating Layer inception_3a/pool
I0627 10:15:29.765197 30232 net.cpp:454] inception_3a/pool <- pool2/3x3_s2_pool2/3x3_s2_0_split_3
I0627 10:15:29.765202 30232 net.cpp:411] inception_3a/pool -> inception_3a/pool
I0627 10:15:29.765241 30232 net.cpp:150] Setting up inception_3a/pool
I0627 10:15:29.765246 30232 net.cpp:157] Top shape: 10 192 28 28 (1505280)
I0627 10:15:29.765249 30232 net.cpp:165] Memory required for data: 225792000
I0627 10:15:29.765252 30232 layer_factory.hpp:77] Creating layer inception_3a/pool_proj
I0627 10:15:29.765261 30232 net.cpp:106] Creating Layer inception_3a/pool_proj
I0627 10:15:29.765264 30232 net.cpp:454] inception_3a/pool_proj <- inception_3a/pool
I0627 10:15:29.765269 30232 net.cpp:411] inception_3a/pool_proj -> inception_3a/pool_proj
I0627 10:15:29.766197 30232 net.cpp:150] Setting up inception_3a/pool_proj
I0627 10:15:29.766209 30232 net.cpp:157] Top shape: 10 32 28 28 (250880)
I0627 10:15:29.766212 30232 net.cpp:165] Memory required for data: 226795520
I0627 10:15:29.766222 30232 layer_factory.hpp:77] Creating layer inception_3a/relu_pool_proj
I0627 10:15:29.766229 30232 net.cpp:106] Creating Layer inception_3a/relu_pool_proj
I0627 10:15:29.766233 30232 net.cpp:454] inception_3a/relu_pool_proj <- inception_3a/pool_proj
I0627 10:15:29.766237 30232 net.cpp:397] inception_3a/relu_pool_proj -> inception_3a/pool_proj (in-place)
I0627 10:15:29.766376 30232 net.cpp:150] Setting up inception_3a/relu_pool_proj
I0627 10:15:29.766383 30232 net.cpp:157] Top shape: 10 32 28 28 (250880)
I0627 10:15:29.766386 30232 net.cpp:165] Memory required for data: 227799040
I0627 10:15:29.766389 30232 layer_factory.hpp:77] Creating layer inception_3a/output
I0627 10:15:29.766396 30232 net.cpp:106] Creating Layer inception_3a/output
I0627 10:15:29.766399 30232 net.cpp:454] inception_3a/output <- inception_3a/1x1
I0627 10:15:29.766403 30232 net.cpp:454] inception_3a/output <- inception_3a/3x3
I0627 10:15:29.766407 30232 net.cpp:454] inception_3a/output <- inception_3a/5x5
I0627 10:15:29.766410 30232 net.cpp:454] inception_3a/output <- inception_3a/pool_proj
I0627 10:15:29.766414 30232 net.cpp:411] inception_3a/output -> inception_3a/output
I0627 10:15:29.766439 30232 net.cpp:150] Setting up inception_3a/output
I0627 10:15:29.766445 30232 net.cpp:157] Top shape: 10 256 28 28 (2007040)
I0627 10:15:29.766448 30232 net.cpp:165] Memory required for data: 235827200
I0627 10:15:29.766450 30232 layer_factory.hpp:77] Creating layer inception_3a/output_inception_3a/output_0_split
I0627 10:15:29.766455 30232 net.cpp:106] Creating Layer inception_3a/output_inception_3a/output_0_split
I0627 10:15:29.766458 30232 net.cpp:454] inception_3a/output_inception_3a/output_0_split <- inception_3a/output
I0627 10:15:29.766463 30232 net.cpp:411] inception_3a/output_inception_3a/output_0_split -> inception_3a/output_inception_3a/output_0_split_0
I0627 10:15:29.766469 30232 net.cpp:411] inception_3a/output_inception_3a/output_0_split -> inception_3a/output_inception_3a/output_0_split_1
I0627 10:15:29.766474 30232 net.cpp:411] inception_3a/output_inception_3a/output_0_split -> inception_3a/output_inception_3a/output_0_split_2
I0627 10:15:29.766479 30232 net.cpp:411] inception_3a/output_inception_3a/output_0_split -> inception_3a/output_inception_3a/output_0_split_3
I0627 10:15:29.766526 30232 net.cpp:150] Setting up inception_3a/output_inception_3a/output_0_split
I0627 10:15:29.766532 30232 net.cpp:157] Top shape: 10 256 28 28 (2007040)
I0627 10:15:29.766535 30232 net.cpp:157] Top shape: 10 256 28 28 (2007040)
I0627 10:15:29.766540 30232 net.cpp:157] Top shape: 10 256 28 28 (2007040)
I0627 10:15:29.766542 30232 net.cpp:157] Top shape: 10 256 28 28 (2007040)
I0627 10:15:29.766544 30232 net.cpp:165] Memory required for data: 267939840
I0627 10:15:29.766547 30232 layer_factory.hpp:77] Creating layer inception_3b/1x1
I0627 10:15:29.766557 30232 net.cpp:106] Creating Layer inception_3b/1x1
I0627 10:15:29.766561 30232 net.cpp:454] inception_3b/1x1 <- inception_3a/output_inception_3a/output_0_split_0
I0627 10:15:29.766566 30232 net.cpp:411] inception_3b/1x1 -> inception_3b/1x1
I0627 10:15:29.767652 30232 net.cpp:150] Setting up inception_3b/1x1
I0627 10:15:29.767665 30232 net.cpp:157] Top shape: 10 128 28 28 (1003520)
I0627 10:15:29.767668 30232 net.cpp:165] Memory required for data: 271953920
I0627 10:15:29.767675 30232 layer_factory.hpp:77] Creating layer inception_3b/relu_1x1
I0627 10:15:29.767680 30232 net.cpp:106] Creating Layer inception_3b/relu_1x1
I0627 10:15:29.767684 30232 net.cpp:454] inception_3b/relu_1x1 <- inception_3b/1x1
I0627 10:15:29.767688 30232 net.cpp:397] inception_3b/relu_1x1 -> inception_3b/1x1 (in-place)
I0627 10:15:29.767832 30232 net.cpp:150] Setting up inception_3b/relu_1x1
I0627 10:15:29.767839 30232 net.cpp:157] Top shape: 10 128 28 28 (1003520)
I0627 10:15:29.767841 30232 net.cpp:165] Memory required for data: 275968000
I0627 10:15:29.767844 30232 layer_factory.hpp:77] Creating layer inception_3b/3x3_reduce
I0627 10:15:29.767854 30232 net.cpp:106] Creating Layer inception_3b/3x3_reduce
I0627 10:15:29.767858 30232 net.cpp:454] inception_3b/3x3_reduce <- inception_3a/output_inception_3a/output_0_split_1
I0627 10:15:29.767864 30232 net.cpp:411] inception_3b/3x3_reduce -> inception_3b/3x3_reduce
I0627 10:15:29.768965 30232 net.cpp:150] Setting up inception_3b/3x3_reduce
I0627 10:15:29.768978 30232 net.cpp:157] Top shape: 10 128 28 28 (1003520)
I0627 10:15:29.768981 30232 net.cpp:165] Memory required for data: 279982080
I0627 10:15:29.768987 30232 layer_factory.hpp:77] Creating layer inception_3b/relu_3x3_reduce
I0627 10:15:29.768995 30232 net.cpp:106] Creating Layer inception_3b/relu_3x3_reduce
I0627 10:15:29.768998 30232 net.cpp:454] inception_3b/relu_3x3_reduce <- inception_3b/3x3_reduce
I0627 10:15:29.769002 30232 net.cpp:397] inception_3b/relu_3x3_reduce -> inception_3b/3x3_reduce (in-place)
I0627 10:15:29.769291 30232 net.cpp:150] Setting up inception_3b/relu_3x3_reduce
I0627 10:15:29.769304 30232 net.cpp:157] Top shape: 10 128 28 28 (1003520)
I0627 10:15:29.769306 30232 net.cpp:165] Memory required for data: 283996160
I0627 10:15:29.769309 30232 layer_factory.hpp:77] Creating layer inception_3b/3x3
I0627 10:15:29.769320 30232 net.cpp:106] Creating Layer inception_3b/3x3
I0627 10:15:29.769323 30232 net.cpp:454] inception_3b/3x3 <- inception_3b/3x3_reduce
I0627 10:15:29.769328 30232 net.cpp:411] inception_3b/3x3 -> inception_3b/3x3
I0627 10:15:29.772043 30232 net.cpp:150] Setting up inception_3b/3x3
I0627 10:15:29.772054 30232 net.cpp:157] Top shape: 10 192 28 28 (1505280)
I0627 10:15:29.772058 30232 net.cpp:165] Memory required for data: 290017280
I0627 10:15:29.772064 30232 layer_factory.hpp:77] Creating layer inception_3b/relu_3x3
I0627 10:15:29.772070 30232 net.cpp:106] Creating Layer inception_3b/relu_3x3
I0627 10:15:29.772073 30232 net.cpp:454] inception_3b/relu_3x3 <- inception_3b/3x3
I0627 10:15:29.772079 30232 net.cpp:397] inception_3b/relu_3x3 -> inception_3b/3x3 (in-place)
I0627 10:15:29.772220 30232 net.cpp:150] Setting up inception_3b/relu_3x3
I0627 10:15:29.772228 30232 net.cpp:157] Top shape: 10 192 28 28 (1505280)
I0627 10:15:29.772230 30232 net.cpp:165] Memory required for data: 296038400
I0627 10:15:29.772233 30232 layer_factory.hpp:77] Creating layer inception_3b/5x5_reduce
I0627 10:15:29.772246 30232 net.cpp:106] Creating Layer inception_3b/5x5_reduce
I0627 10:15:29.772249 30232 net.cpp:454] inception_3b/5x5_reduce <- inception_3a/output_inception_3a/output_0_split_2
I0627 10:15:29.772255 30232 net.cpp:411] inception_3b/5x5_reduce -> inception_3b/5x5_reduce
I0627 10:15:29.773249 30232 net.cpp:150] Setting up inception_3b/5x5_reduce
I0627 10:15:29.773262 30232 net.cpp:157] Top shape: 10 32 28 28 (250880)
I0627 10:15:29.773267 30232 net.cpp:165] Memory required for data: 297041920
I0627 10:15:29.773272 30232 layer_factory.hpp:77] Creating layer inception_3b/relu_5x5_reduce
I0627 10:15:29.773278 30232 net.cpp:106] Creating Layer inception_3b/relu_5x5_reduce
I0627 10:15:29.773282 30232 net.cpp:454] inception_3b/relu_5x5_reduce <- inception_3b/5x5_reduce
I0627 10:15:29.773286 30232 net.cpp:397] inception_3b/relu_5x5_reduce -> inception_3b/5x5_reduce (in-place)
I0627 10:15:29.773427 30232 net.cpp:150] Setting up inception_3b/relu_5x5_reduce
I0627 10:15:29.773434 30232 net.cpp:157] Top shape: 10 32 28 28 (250880)
I0627 10:15:29.773437 30232 net.cpp:165] Memory required for data: 298045440
I0627 10:15:29.773440 30232 layer_factory.hpp:77] Creating layer inception_3b/5x5
I0627 10:15:29.773449 30232 net.cpp:106] Creating Layer inception_3b/5x5
I0627 10:15:29.773453 30232 net.cpp:454] inception_3b/5x5 <- inception_3b/5x5_reduce
I0627 10:15:29.773459 30232 net.cpp:411] inception_3b/5x5 -> inception_3b/5x5
I0627 10:15:29.775318 30232 net.cpp:150] Setting up inception_3b/5x5
I0627 10:15:29.775331 30232 net.cpp:157] Top shape: 10 96 28 28 (752640)
I0627 10:15:29.775333 30232 net.cpp:165] Memory required for data: 301056000
I0627 10:15:29.775341 30232 layer_factory.hpp:77] Creating layer inception_3b/relu_5x5
I0627 10:15:29.775347 30232 net.cpp:106] Creating Layer inception_3b/relu_5x5
I0627 10:15:29.775351 30232 net.cpp:454] inception_3b/relu_5x5 <- inception_3b/5x5
I0627 10:15:29.775355 30232 net.cpp:397] inception_3b/relu_5x5 -> inception_3b/5x5 (in-place)
I0627 10:15:29.775647 30232 net.cpp:150] Setting up inception_3b/relu_5x5
I0627 10:15:29.775658 30232 net.cpp:157] Top shape: 10 96 28 28 (752640)
I0627 10:15:29.775661 30232 net.cpp:165] Memory required for data: 304066560
I0627 10:15:29.775665 30232 layer_factory.hpp:77] Creating layer inception_3b/pool
I0627 10:15:29.775671 30232 net.cpp:106] Creating Layer inception_3b/pool
I0627 10:15:29.775676 30232 net.cpp:454] inception_3b/pool <- inception_3a/output_inception_3a/output_0_split_3
I0627 10:15:29.775682 30232 net.cpp:411] inception_3b/pool -> inception_3b/pool
I0627 10:15:29.775720 30232 net.cpp:150] Setting up inception_3b/pool
I0627 10:15:29.775727 30232 net.cpp:157] Top shape: 10 256 28 28 (2007040)
I0627 10:15:29.775728 30232 net.cpp:165] Memory required for data: 312094720
I0627 10:15:29.775732 30232 layer_factory.hpp:77] Creating layer inception_3b/pool_proj
I0627 10:15:29.775740 30232 net.cpp:106] Creating Layer inception_3b/pool_proj
I0627 10:15:29.775743 30232 net.cpp:454] inception_3b/pool_proj <- inception_3b/pool
I0627 10:15:29.775750 30232 net.cpp:411] inception_3b/pool_proj -> inception_3b/pool_proj
I0627 10:15:29.776818 30232 net.cpp:150] Setting up inception_3b/pool_proj
I0627 10:15:29.776831 30232 net.cpp:157] Top shape: 10 64 28 28 (501760)
I0627 10:15:29.776835 30232 net.cpp:165] Memory required for data: 314101760
I0627 10:15:29.776841 30232 layer_factory.hpp:77] Creating layer inception_3b/relu_pool_proj
I0627 10:15:29.776847 30232 net.cpp:106] Creating Layer inception_3b/relu_pool_proj
I0627 10:15:29.776850 30232 net.cpp:454] inception_3b/relu_pool_proj <- inception_3b/pool_proj
I0627 10:15:29.776855 30232 net.cpp:397] inception_3b/relu_pool_proj -> inception_3b/pool_proj (in-place)
I0627 10:15:29.777000 30232 net.cpp:150] Setting up inception_3b/relu_pool_proj
I0627 10:15:29.777009 30232 net.cpp:157] Top shape: 10 64 28 28 (501760)
I0627 10:15:29.777011 30232 net.cpp:165] Memory required for data: 316108800
I0627 10:15:29.777014 30232 layer_factory.hpp:77] Creating layer inception_3b/output
I0627 10:15:29.777019 30232 net.cpp:106] Creating Layer inception_3b/output
I0627 10:15:29.777022 30232 net.cpp:454] inception_3b/output <- inception_3b/1x1
I0627 10:15:29.777026 30232 net.cpp:454] inception_3b/output <- inception_3b/3x3
I0627 10:15:29.777031 30232 net.cpp:454] inception_3b/output <- inception_3b/5x5
I0627 10:15:29.777034 30232 net.cpp:454] inception_3b/output <- inception_3b/pool_proj
I0627 10:15:29.777039 30232 net.cpp:411] inception_3b/output -> inception_3b/output
I0627 10:15:29.777062 30232 net.cpp:150] Setting up inception_3b/output
I0627 10:15:29.777067 30232 net.cpp:157] Top shape: 10 480 28 28 (3763200)
I0627 10:15:29.777070 30232 net.cpp:165] Memory required for data: 331161600
I0627 10:15:29.777072 30232 layer_factory.hpp:77] Creating layer pool3/3x3_s2
I0627 10:15:29.777079 30232 net.cpp:106] Creating Layer pool3/3x3_s2
I0627 10:15:29.777082 30232 net.cpp:454] pool3/3x3_s2 <- inception_3b/output
I0627 10:15:29.777088 30232 net.cpp:411] pool3/3x3_s2 -> pool3/3x3_s2
I0627 10:15:29.777123 30232 net.cpp:150] Setting up pool3/3x3_s2
I0627 10:15:29.777129 30232 net.cpp:157] Top shape: 10 480 14 14 (940800)
I0627 10:15:29.777132 30232 net.cpp:165] Memory required for data: 334924800
I0627 10:15:29.777134 30232 layer_factory.hpp:77] Creating layer pool3/3x3_s2_pool3/3x3_s2_0_split
I0627 10:15:29.777139 30232 net.cpp:106] Creating Layer pool3/3x3_s2_pool3/3x3_s2_0_split
I0627 10:15:29.777143 30232 net.cpp:454] pool3/3x3_s2_pool3/3x3_s2_0_split <- pool3/3x3_s2
I0627 10:15:29.777146 30232 net.cpp:411] pool3/3x3_s2_pool3/3x3_s2_0_split -> pool3/3x3_s2_pool3/3x3_s2_0_split_0
I0627 10:15:29.777151 30232 net.cpp:411] pool3/3x3_s2_pool3/3x3_s2_0_split -> pool3/3x3_s2_pool3/3x3_s2_0_split_1
I0627 10:15:29.777158 30232 net.cpp:411] pool3/3x3_s2_pool3/3x3_s2_0_split -> pool3/3x3_s2_pool3/3x3_s2_0_split_2
I0627 10:15:29.777161 30232 net.cpp:411] pool3/3x3_s2_pool3/3x3_s2_0_split -> pool3/3x3_s2_pool3/3x3_s2_0_split_3
I0627 10:15:29.777209 30232 net.cpp:150] Setting up pool3/3x3_s2_pool3/3x3_s2_0_split
I0627 10:15:29.777215 30232 net.cpp:157] Top shape: 10 480 14 14 (940800)
I0627 10:15:29.777217 30232 net.cpp:157] Top shape: 10 480 14 14 (940800)
I0627 10:15:29.777220 30232 net.cpp:157] Top shape: 10 480 14 14 (940800)
I0627 10:15:29.777225 30232 net.cpp:157] Top shape: 10 480 14 14 (940800)
I0627 10:15:29.777226 30232 net.cpp:165] Memory required for data: 349977600
I0627 10:15:29.777230 30232 layer_factory.hpp:77] Creating layer inception_4a/1x1
I0627 10:15:29.777240 30232 net.cpp:106] Creating Layer inception_4a/1x1
I0627 10:15:29.777242 30232 net.cpp:454] inception_4a/1x1 <- pool3/3x3_s2_pool3/3x3_s2_0_split_0
I0627 10:15:29.777247 30232 net.cpp:411] inception_4a/1x1 -> inception_4a/1x1
I0627 10:15:29.778842 30232 net.cpp:150] Setting up inception_4a/1x1
I0627 10:15:29.778853 30232 net.cpp:157] Top shape: 10 192 14 14 (376320)
I0627 10:15:29.778856 30232 net.cpp:165] Memory required for data: 351482880
I0627 10:15:29.778863 30232 layer_factory.hpp:77] Creating layer inception_4a/relu_1x1
I0627 10:15:29.778868 30232 net.cpp:106] Creating Layer inception_4a/relu_1x1
I0627 10:15:29.778872 30232 net.cpp:454] inception_4a/relu_1x1 <- inception_4a/1x1
I0627 10:15:29.778878 30232 net.cpp:397] inception_4a/relu_1x1 -> inception_4a/1x1 (in-place)
I0627 10:15:29.779022 30232 net.cpp:150] Setting up inception_4a/relu_1x1
I0627 10:15:29.779031 30232 net.cpp:157] Top shape: 10 192 14 14 (376320)
I0627 10:15:29.779033 30232 net.cpp:165] Memory required for data: 352988160
I0627 10:15:29.779036 30232 layer_factory.hpp:77] Creating layer inception_4a/3x3_reduce
I0627 10:15:29.779045 30232 net.cpp:106] Creating Layer inception_4a/3x3_reduce
I0627 10:15:29.779049 30232 net.cpp:454] inception_4a/3x3_reduce <- pool3/3x3_s2_pool3/3x3_s2_0_split_1
I0627 10:15:29.779055 30232 net.cpp:411] inception_4a/3x3_reduce -> inception_4a/3x3_reduce
I0627 10:15:29.780249 30232 net.cpp:150] Setting up inception_4a/3x3_reduce
I0627 10:15:29.780261 30232 net.cpp:157] Top shape: 10 96 14 14 (188160)
I0627 10:15:29.780263 30232 net.cpp:165] Memory required for data: 353740800
I0627 10:15:29.780274 30232 layer_factory.hpp:77] Creating layer inception_4a/relu_3x3_reduce
I0627 10:15:29.780280 30232 net.cpp:106] Creating Layer inception_4a/relu_3x3_reduce
I0627 10:15:29.780283 30232 net.cpp:454] inception_4a/relu_3x3_reduce <- inception_4a/3x3_reduce
I0627 10:15:29.780290 30232 net.cpp:397] inception_4a/relu_3x3_reduce -> inception_4a/3x3_reduce (in-place)
I0627 10:15:29.780580 30232 net.cpp:150] Setting up inception_4a/relu_3x3_reduce
I0627 10:15:29.780591 30232 net.cpp:157] Top shape: 10 96 14 14 (188160)
I0627 10:15:29.780593 30232 net.cpp:165] Memory required for data: 354493440
I0627 10:15:29.780596 30232 layer_factory.hpp:77] Creating layer inception_4a/3x3
I0627 10:15:29.780606 30232 net.cpp:106] Creating Layer inception_4a/3x3
I0627 10:15:29.780611 30232 net.cpp:454] inception_4a/3x3 <- inception_4a/3x3_reduce
I0627 10:15:29.780616 30232 net.cpp:411] inception_4a/3x3 -> inception_4a/3x3
I0627 10:15:29.783119 30232 net.cpp:150] Setting up inception_4a/3x3
I0627 10:15:29.783131 30232 net.cpp:157] Top shape: 10 208 14 14 (407680)
I0627 10:15:29.783134 30232 net.cpp:165] Memory required for data: 356124160
I0627 10:15:29.783141 30232 layer_factory.hpp:77] Creating layer inception_4a/relu_3x3
I0627 10:15:29.783146 30232 net.cpp:106] Creating Layer inception_4a/relu_3x3
I0627 10:15:29.783150 30232 net.cpp:454] inception_4a/relu_3x3 <- inception_4a/3x3
I0627 10:15:29.783156 30232 net.cpp:397] inception_4a/relu_3x3 -> inception_4a/3x3 (in-place)
I0627 10:15:29.783299 30232 net.cpp:150] Setting up inception_4a/relu_3x3
I0627 10:15:29.783309 30232 net.cpp:157] Top shape: 10 208 14 14 (407680)
I0627 10:15:29.783311 30232 net.cpp:165] Memory required for data: 357754880
I0627 10:15:29.783315 30232 layer_factory.hpp:77] Creating layer inception_4a/5x5_reduce
I0627 10:15:29.783324 30232 net.cpp:106] Creating Layer inception_4a/5x5_reduce
I0627 10:15:29.783327 30232 net.cpp:454] inception_4a/5x5_reduce <- pool3/3x3_s2_pool3/3x3_s2_0_split_2
I0627 10:15:29.783334 30232 net.cpp:411] inception_4a/5x5_reduce -> inception_4a/5x5_reduce
I0627 10:15:29.784409 30232 net.cpp:150] Setting up inception_4a/5x5_reduce
I0627 10:15:29.784420 30232 net.cpp:157] Top shape: 10 16 14 14 (31360)
I0627 10:15:29.784425 30232 net.cpp:165] Memory required for data: 357880320
I0627 10:15:29.784430 30232 layer_factory.hpp:77] Creating layer inception_4a/relu_5x5_reduce
I0627 10:15:29.784437 30232 net.cpp:106] Creating Layer inception_4a/relu_5x5_reduce
I0627 10:15:29.784441 30232 net.cpp:454] inception_4a/relu_5x5_reduce <- inception_4a/5x5_reduce
I0627 10:15:29.784446 30232 net.cpp:397] inception_4a/relu_5x5_reduce -> inception_4a/5x5_reduce (in-place)
I0627 10:15:29.784591 30232 net.cpp:150] Setting up inception_4a/relu_5x5_reduce
I0627 10:15:29.784600 30232 net.cpp:157] Top shape: 10 16 14 14 (31360)
I0627 10:15:29.784601 30232 net.cpp:165] Memory required for data: 358005760
I0627 10:15:29.784605 30232 layer_factory.hpp:77] Creating layer inception_4a/5x5
I0627 10:15:29.784615 30232 net.cpp:106] Creating Layer inception_4a/5x5
I0627 10:15:29.784618 30232 net.cpp:454] inception_4a/5x5 <- inception_4a/5x5_reduce
I0627 10:15:29.784624 30232 net.cpp:411] inception_4a/5x5 -> inception_4a/5x5
I0627 10:15:29.785667 30232 net.cpp:150] Setting up inception_4a/5x5
I0627 10:15:29.785678 30232 net.cpp:157] Top shape: 10 48 14 14 (94080)
I0627 10:15:29.785681 30232 net.cpp:165] Memory required for data: 358382080
I0627 10:15:29.785687 30232 layer_factory.hpp:77] Creating layer inception_4a/relu_5x5
I0627 10:15:29.785693 30232 net.cpp:106] Creating Layer inception_4a/relu_5x5
I0627 10:15:29.785696 30232 net.cpp:454] inception_4a/relu_5x5 <- inception_4a/5x5
I0627 10:15:29.785701 30232 net.cpp:397] inception_4a/relu_5x5 -> inception_4a/5x5 (in-place)
I0627 10:15:29.785995 30232 net.cpp:150] Setting up inception_4a/relu_5x5
I0627 10:15:29.786006 30232 net.cpp:157] Top shape: 10 48 14 14 (94080)
I0627 10:15:29.786010 30232 net.cpp:165] Memory required for data: 358758400
I0627 10:15:29.786012 30232 layer_factory.hpp:77] Creating layer inception_4a/pool
I0627 10:15:29.786018 30232 net.cpp:106] Creating Layer inception_4a/pool
I0627 10:15:29.786021 30232 net.cpp:454] inception_4a/pool <- pool3/3x3_s2_pool3/3x3_s2_0_split_3
I0627 10:15:29.786028 30232 net.cpp:411] inception_4a/pool -> inception_4a/pool
I0627 10:15:29.786067 30232 net.cpp:150] Setting up inception_4a/pool
I0627 10:15:29.786073 30232 net.cpp:157] Top shape: 10 480 14 14 (940800)
I0627 10:15:29.786075 30232 net.cpp:165] Memory required for data: 362521600
I0627 10:15:29.786078 30232 layer_factory.hpp:77] Creating layer inception_4a/pool_proj
I0627 10:15:29.786088 30232 net.cpp:106] Creating Layer inception_4a/pool_proj
I0627 10:15:29.786092 30232 net.cpp:454] inception_4a/pool_proj <- inception_4a/pool
I0627 10:15:29.786098 30232 net.cpp:411] inception_4a/pool_proj -> inception_4a/pool_proj
I0627 10:15:29.787214 30232 net.cpp:150] Setting up inception_4a/pool_proj
I0627 10:15:29.787225 30232 net.cpp:157] Top shape: 10 64 14 14 (125440)
I0627 10:15:29.787230 30232 net.cpp:165] Memory required for data: 363023360
I0627 10:15:29.787236 30232 layer_factory.hpp:77] Creating layer inception_4a/relu_pool_proj
I0627 10:15:29.787242 30232 net.cpp:106] Creating Layer inception_4a/relu_pool_proj
I0627 10:15:29.787245 30232 net.cpp:454] inception_4a/relu_pool_proj <- inception_4a/pool_proj
I0627 10:15:29.787250 30232 net.cpp:397] inception_4a/relu_pool_proj -> inception_4a/pool_proj (in-place)
I0627 10:15:29.787395 30232 net.cpp:150] Setting up inception_4a/relu_pool_proj
I0627 10:15:29.787402 30232 net.cpp:157] Top shape: 10 64 14 14 (125440)
I0627 10:15:29.787405 30232 net.cpp:165] Memory required for data: 363525120
I0627 10:15:29.787408 30232 layer_factory.hpp:77] Creating layer inception_4a/output
I0627 10:15:29.787415 30232 net.cpp:106] Creating Layer inception_4a/output
I0627 10:15:29.787417 30232 net.cpp:454] inception_4a/output <- inception_4a/1x1
I0627 10:15:29.787421 30232 net.cpp:454] inception_4a/output <- inception_4a/3x3
I0627 10:15:29.787425 30232 net.cpp:454] inception_4a/output <- inception_4a/5x5
I0627 10:15:29.787428 30232 net.cpp:454] inception_4a/output <- inception_4a/pool_proj
I0627 10:15:29.787434 30232 net.cpp:411] inception_4a/output -> inception_4a/output
I0627 10:15:29.787459 30232 net.cpp:150] Setting up inception_4a/output
I0627 10:15:29.787464 30232 net.cpp:157] Top shape: 10 512 14 14 (1003520)
I0627 10:15:29.787467 30232 net.cpp:165] Memory required for data: 367539200
I0627 10:15:29.787470 30232 layer_factory.hpp:77] Creating layer inception_4a/output_inception_4a/output_0_split
I0627 10:15:29.787477 30232 net.cpp:106] Creating Layer inception_4a/output_inception_4a/output_0_split
I0627 10:15:29.787480 30232 net.cpp:454] inception_4a/output_inception_4a/output_0_split <- inception_4a/output
I0627 10:15:29.787484 30232 net.cpp:411] inception_4a/output_inception_4a/output_0_split -> inception_4a/output_inception_4a/output_0_split_0
I0627 10:15:29.787490 30232 net.cpp:411] inception_4a/output_inception_4a/output_0_split -> inception_4a/output_inception_4a/output_0_split_1
I0627 10:15:29.787497 30232 net.cpp:411] inception_4a/output_inception_4a/output_0_split -> inception_4a/output_inception_4a/output_0_split_2
I0627 10:15:29.787503 30232 net.cpp:411] inception_4a/output_inception_4a/output_0_split -> inception_4a/output_inception_4a/output_0_split_3
I0627 10:15:29.787506 30232 net.cpp:411] inception_4a/output_inception_4a/output_0_split -> inception_4a/output_inception_4a/output_0_split_4
I0627 10:15:29.787567 30232 net.cpp:150] Setting up inception_4a/output_inception_4a/output_0_split
I0627 10:15:29.787574 30232 net.cpp:157] Top shape: 10 512 14 14 (1003520)
I0627 10:15:29.787576 30232 net.cpp:157] Top shape: 10 512 14 14 (1003520)
I0627 10:15:29.787580 30232 net.cpp:157] Top shape: 10 512 14 14 (1003520)
I0627 10:15:29.787583 30232 net.cpp:157] Top shape: 10 512 14 14 (1003520)
I0627 10:15:29.787586 30232 net.cpp:157] Top shape: 10 512 14 14 (1003520)
I0627 10:15:29.787588 30232 net.cpp:165] Memory required for data: 387609600
I0627 10:15:29.787591 30232 layer_factory.hpp:77] Creating layer loss1/ave_pool
I0627 10:15:29.787597 30232 net.cpp:106] Creating Layer loss1/ave_pool
I0627 10:15:29.787601 30232 net.cpp:454] loss1/ave_pool <- inception_4a/output_inception_4a/output_0_split_0
I0627 10:15:29.787606 30232 net.cpp:411] loss1/ave_pool -> loss1/ave_pool
I0627 10:15:29.787919 30232 net.cpp:150] Setting up loss1/ave_pool
I0627 10:15:29.787930 30232 net.cpp:157] Top shape: 10 512 4 4 (81920)
I0627 10:15:29.787933 30232 net.cpp:165] Memory required for data: 387937280
I0627 10:15:29.787937 30232 layer_factory.hpp:77] Creating layer loss1/conv
I0627 10:15:29.787948 30232 net.cpp:106] Creating Layer loss1/conv
I0627 10:15:29.787966 30232 net.cpp:454] loss1/conv <- loss1/ave_pool
I0627 10:15:29.787971 30232 net.cpp:411] loss1/conv -> loss1/conv
I0627 10:15:29.789180 30232 net.cpp:150] Setting up loss1/conv
I0627 10:15:29.789193 30232 net.cpp:157] Top shape: 10 128 4 4 (20480)
I0627 10:15:29.789196 30232 net.cpp:165] Memory required for data: 388019200
I0627 10:15:29.789202 30232 layer_factory.hpp:77] Creating layer loss1/relu_conv
I0627 10:15:29.789208 30232 net.cpp:106] Creating Layer loss1/relu_conv
I0627 10:15:29.789211 30232 net.cpp:454] loss1/relu_conv <- loss1/conv
I0627 10:15:29.789216 30232 net.cpp:397] loss1/relu_conv -> loss1/conv (in-place)
I0627 10:15:29.789508 30232 net.cpp:150] Setting up loss1/relu_conv
I0627 10:15:29.789520 30232 net.cpp:157] Top shape: 10 128 4 4 (20480)
I0627 10:15:29.789523 30232 net.cpp:165] Memory required for data: 388101120
I0627 10:15:29.789526 30232 layer_factory.hpp:77] Creating layer loss1/fc
I0627 10:15:29.789533 30232 net.cpp:106] Creating Layer loss1/fc
I0627 10:15:29.789536 30232 net.cpp:454] loss1/fc <- loss1/conv
I0627 10:15:29.789543 30232 net.cpp:411] loss1/fc -> loss1/fc
I0627 10:15:29.804929 30232 net.cpp:150] Setting up loss1/fc
I0627 10:15:29.804945 30232 net.cpp:157] Top shape: 10 1024 (10240)
I0627 10:15:29.804949 30232 net.cpp:165] Memory required for data: 388142080
I0627 10:15:29.804956 30232 layer_factory.hpp:77] Creating layer loss1/relu_fc
I0627 10:15:29.804961 30232 net.cpp:106] Creating Layer loss1/relu_fc
I0627 10:15:29.804965 30232 net.cpp:454] loss1/relu_fc <- loss1/fc
I0627 10:15:29.804970 30232 net.cpp:397] loss1/relu_fc -> loss1/fc (in-place)
I0627 10:15:29.805299 30232 net.cpp:150] Setting up loss1/relu_fc
I0627 10:15:29.805312 30232 net.cpp:157] Top shape: 10 1024 (10240)
I0627 10:15:29.805315 30232 net.cpp:165] Memory required for data: 388183040
I0627 10:15:29.805318 30232 layer_factory.hpp:77] Creating layer loss1/drop_fc
I0627 10:15:29.805325 30232 net.cpp:106] Creating Layer loss1/drop_fc
I0627 10:15:29.805328 30232 net.cpp:454] loss1/drop_fc <- loss1/fc
I0627 10:15:29.805332 30232 net.cpp:397] loss1/drop_fc -> loss1/fc (in-place)
I0627 10:15:29.805359 30232 net.cpp:150] Setting up loss1/drop_fc
I0627 10:15:29.805366 30232 net.cpp:157] Top shape: 10 1024 (10240)
I0627 10:15:29.805367 30232 net.cpp:165] Memory required for data: 388224000
I0627 10:15:29.805371 30232 layer_factory.hpp:77] Creating layer 102flowers1/classifier
I0627 10:15:29.805378 30232 net.cpp:106] Creating Layer 102flowers1/classifier
I0627 10:15:29.805382 30232 net.cpp:454] 102flowers1/classifier <- loss1/fc
I0627 10:15:29.805387 30232 net.cpp:411] 102flowers1/classifier -> 102flowers1/classifier
I0627 10:15:29.806627 30232 net.cpp:150] Setting up 102flowers1/classifier
I0627 10:15:29.806638 30232 net.cpp:157] Top shape: 10 102 (1020)
I0627 10:15:29.806640 30232 net.cpp:165] Memory required for data: 388228080
I0627 10:15:29.806646 30232 layer_factory.hpp:77] Creating layer inception_4b/1x1
I0627 10:15:29.806663 30232 net.cpp:106] Creating Layer inception_4b/1x1
I0627 10:15:29.806668 30232 net.cpp:454] inception_4b/1x1 <- inception_4a/output_inception_4a/output_0_split_1
I0627 10:15:29.806674 30232 net.cpp:411] inception_4b/1x1 -> inception_4b/1x1
I0627 10:15:29.807972 30232 net.cpp:150] Setting up inception_4b/1x1
I0627 10:15:29.807984 30232 net.cpp:157] Top shape: 10 160 14 14 (313600)
I0627 10:15:29.807987 30232 net.cpp:165] Memory required for data: 389482480
I0627 10:15:29.807993 30232 layer_factory.hpp:77] Creating layer inception_4b/relu_1x1
I0627 10:15:29.808001 30232 net.cpp:106] Creating Layer inception_4b/relu_1x1
I0627 10:15:29.808004 30232 net.cpp:454] inception_4b/relu_1x1 <- inception_4b/1x1
I0627 10:15:29.808009 30232 net.cpp:397] inception_4b/relu_1x1 -> inception_4b/1x1 (in-place)
I0627 10:15:29.808449 30232 net.cpp:150] Setting up inception_4b/relu_1x1
I0627 10:15:29.808460 30232 net.cpp:157] Top shape: 10 160 14 14 (313600)
I0627 10:15:29.808464 30232 net.cpp:165] Memory required for data: 390736880
I0627 10:15:29.808467 30232 layer_factory.hpp:77] Creating layer inception_4b/3x3_reduce
I0627 10:15:29.808476 30232 net.cpp:106] Creating Layer inception_4b/3x3_reduce
I0627 10:15:29.808480 30232 net.cpp:454] inception_4b/3x3_reduce <- inception_4a/output_inception_4a/output_0_split_2
I0627 10:15:29.808486 30232 net.cpp:411] inception_4b/3x3_reduce -> inception_4b/3x3_reduce
I0627 10:15:29.810442 30232 net.cpp:150] Setting up inception_4b/3x3_reduce
I0627 10:15:29.810454 30232 net.cpp:157] Top shape: 10 112 14 14 (219520)
I0627 10:15:29.810457 30232 net.cpp:165] Memory required for data: 391614960
I0627 10:15:29.810464 30232 layer_factory.hpp:77] Creating layer inception_4b/relu_3x3_reduce
I0627 10:15:29.810472 30232 net.cpp:106] Creating Layer inception_4b/relu_3x3_reduce
I0627 10:15:29.810475 30232 net.cpp:454] inception_4b/relu_3x3_reduce <- inception_4b/3x3_reduce
I0627 10:15:29.810480 30232 net.cpp:397] inception_4b/relu_3x3_reduce -> inception_4b/3x3_reduce (in-place)
I0627 10:15:29.810631 30232 net.cpp:150] Setting up inception_4b/relu_3x3_reduce
I0627 10:15:29.810638 30232 net.cpp:157] Top shape: 10 112 14 14 (219520)
I0627 10:15:29.810642 30232 net.cpp:165] Memory required for data: 392493040
I0627 10:15:29.810644 30232 layer_factory.hpp:77] Creating layer inception_4b/3x3
I0627 10:15:29.810655 30232 net.cpp:106] Creating Layer inception_4b/3x3
I0627 10:15:29.810658 30232 net.cpp:454] inception_4b/3x3 <- inception_4b/3x3_reduce
I0627 10:15:29.810664 30232 net.cpp:411] inception_4b/3x3 -> inception_4b/3x3
I0627 10:15:29.813470 30232 net.cpp:150] Setting up inception_4b/3x3
I0627 10:15:29.813482 30232 net.cpp:157] Top shape: 10 224 14 14 (439040)
I0627 10:15:29.813485 30232 net.cpp:165] Memory required for data: 394249200
I0627 10:15:29.813493 30232 layer_factory.hpp:77] Creating layer inception_4b/relu_3x3
I0627 10:15:29.813498 30232 net.cpp:106] Creating Layer inception_4b/relu_3x3
I0627 10:15:29.813501 30232 net.cpp:454] inception_4b/relu_3x3 <- inception_4b/3x3
I0627 10:15:29.813508 30232 net.cpp:397] inception_4b/relu_3x3 -> inception_4b/3x3 (in-place)
I0627 10:15:29.813807 30232 net.cpp:150] Setting up inception_4b/relu_3x3
I0627 10:15:29.813818 30232 net.cpp:157] Top shape: 10 224 14 14 (439040)
I0627 10:15:29.813822 30232 net.cpp:165] Memory required for data: 396005360
I0627 10:15:29.813824 30232 layer_factory.hpp:77] Creating layer inception_4b/5x5_reduce
I0627 10:15:29.813834 30232 net.cpp:106] Creating Layer inception_4b/5x5_reduce
I0627 10:15:29.813838 30232 net.cpp:454] inception_4b/5x5_reduce <- inception_4a/output_inception_4a/output_0_split_3
I0627 10:15:29.813845 30232 net.cpp:411] inception_4b/5x5_reduce -> inception_4b/5x5_reduce
I0627 10:15:29.814762 30232 net.cpp:150] Setting up inception_4b/5x5_reduce
I0627 10:15:29.814774 30232 net.cpp:157] Top shape: 10 24 14 14 (47040)
I0627 10:15:29.814777 30232 net.cpp:165] Memory required for data: 396193520
I0627 10:15:29.814784 30232 layer_factory.hpp:77] Creating layer inception_4b/relu_5x5_reduce
I0627 10:15:29.814790 30232 net.cpp:106] Creating Layer inception_4b/relu_5x5_reduce
I0627 10:15:29.814795 30232 net.cpp:454] inception_4b/relu_5x5_reduce <- inception_4b/5x5_reduce
I0627 10:15:29.814800 30232 net.cpp:397] inception_4b/relu_5x5_reduce -> inception_4b/5x5_reduce (in-place)
I0627 10:15:29.815104 30232 net.cpp:150] Setting up inception_4b/relu_5x5_reduce
I0627 10:15:29.815115 30232 net.cpp:157] Top shape: 10 24 14 14 (47040)
I0627 10:15:29.815119 30232 net.cpp:165] Memory required for data: 396381680
I0627 10:15:29.815121 30232 layer_factory.hpp:77] Creating layer inception_4b/5x5
I0627 10:15:29.815134 30232 net.cpp:106] Creating Layer inception_4b/5x5
I0627 10:15:29.815137 30232 net.cpp:454] inception_4b/5x5 <- inception_4b/5x5_reduce
I0627 10:15:29.815142 30232 net.cpp:411] inception_4b/5x5 -> inception_4b/5x5
I0627 10:15:29.816344 30232 net.cpp:150] Setting up inception_4b/5x5
I0627 10:15:29.816354 30232 net.cpp:157] Top shape: 10 64 14 14 (125440)
I0627 10:15:29.816357 30232 net.cpp:165] Memory required for data: 396883440
I0627 10:15:29.816364 30232 layer_factory.hpp:77] Creating layer inception_4b/relu_5x5
I0627 10:15:29.816371 30232 net.cpp:106] Creating Layer inception_4b/relu_5x5
I0627 10:15:29.816375 30232 net.cpp:454] inception_4b/relu_5x5 <- inception_4b/5x5
I0627 10:15:29.816381 30232 net.cpp:397] inception_4b/relu_5x5 -> inception_4b/5x5 (in-place)
I0627 10:15:29.816532 30232 net.cpp:150] Setting up inception_4b/relu_5x5
I0627 10:15:29.816565 30232 net.cpp:157] Top shape: 10 64 14 14 (125440)
I0627 10:15:29.816568 30232 net.cpp:165] Memory required for data: 397385200
I0627 10:15:29.816571 30232 layer_factory.hpp:77] Creating layer inception_4b/pool
I0627 10:15:29.816578 30232 net.cpp:106] Creating Layer inception_4b/pool
I0627 10:15:29.816582 30232 net.cpp:454] inception_4b/pool <- inception_4a/output_inception_4a/output_0_split_4
I0627 10:15:29.816589 30232 net.cpp:411] inception_4b/pool -> inception_4b/pool
I0627 10:15:29.816645 30232 net.cpp:150] Setting up inception_4b/pool
I0627 10:15:29.816653 30232 net.cpp:157] Top shape: 10 512 14 14 (1003520)
I0627 10:15:29.816655 30232 net.cpp:165] Memory required for data: 401399280
I0627 10:15:29.816658 30232 layer_factory.hpp:77] Creating layer inception_4b/pool_proj
I0627 10:15:29.816668 30232 net.cpp:106] Creating Layer inception_4b/pool_proj
I0627 10:15:29.816673 30232 net.cpp:454] inception_4b/pool_proj <- inception_4b/pool
I0627 10:15:29.816679 30232 net.cpp:411] inception_4b/pool_proj -> inception_4b/pool_proj
I0627 10:15:29.817869 30232 net.cpp:150] Setting up inception_4b/pool_proj
I0627 10:15:29.817881 30232 net.cpp:157] Top shape: 10 64 14 14 (125440)
I0627 10:15:29.817884 30232 net.cpp:165] Memory required for data: 401901040
I0627 10:15:29.817890 30232 layer_factory.hpp:77] Creating layer inception_4b/relu_pool_proj
I0627 10:15:29.817896 30232 net.cpp:106] Creating Layer inception_4b/relu_pool_proj
I0627 10:15:29.817903 30232 net.cpp:454] inception_4b/relu_pool_proj <- inception_4b/pool_proj
I0627 10:15:29.817906 30232 net.cpp:397] inception_4b/relu_pool_proj -> inception_4b/pool_proj (in-place)
I0627 10:15:29.818207 30232 net.cpp:150] Setting up inception_4b/relu_pool_proj
I0627 10:15:29.818217 30232 net.cpp:157] Top shape: 10 64 14 14 (125440)
I0627 10:15:29.818220 30232 net.cpp:165] Memory required for data: 402402800
I0627 10:15:29.818223 30232 layer_factory.hpp:77] Creating layer inception_4b/output
I0627 10:15:29.818231 30232 net.cpp:106] Creating Layer inception_4b/output
I0627 10:15:29.818235 30232 net.cpp:454] inception_4b/output <- inception_4b/1x1
I0627 10:15:29.818239 30232 net.cpp:454] inception_4b/output <- inception_4b/3x3
I0627 10:15:29.818243 30232 net.cpp:454] inception_4b/output <- inception_4b/5x5
I0627 10:15:29.818245 30232 net.cpp:454] inception_4b/output <- inception_4b/pool_proj
I0627 10:15:29.818249 30232 net.cpp:411] inception_4b/output -> inception_4b/output
I0627 10:15:29.818277 30232 net.cpp:150] Setting up inception_4b/output
I0627 10:15:29.818284 30232 net.cpp:157] Top shape: 10 512 14 14 (1003520)
I0627 10:15:29.818286 30232 net.cpp:165] Memory required for data: 406416880
I0627 10:15:29.818289 30232 layer_factory.hpp:77] Creating layer inception_4b/output_inception_4b/output_0_split
I0627 10:15:29.818295 30232 net.cpp:106] Creating Layer inception_4b/output_inception_4b/output_0_split
I0627 10:15:29.818300 30232 net.cpp:454] inception_4b/output_inception_4b/output_0_split <- inception_4b/output
I0627 10:15:29.818305 30232 net.cpp:411] inception_4b/output_inception_4b/output_0_split -> inception_4b/output_inception_4b/output_0_split_0
I0627 10:15:29.818310 30232 net.cpp:411] inception_4b/output_inception_4b/output_0_split -> inception_4b/output_inception_4b/output_0_split_1
I0627 10:15:29.818315 30232 net.cpp:411] inception_4b/output_inception_4b/output_0_split -> inception_4b/output_inception_4b/output_0_split_2
I0627 10:15:29.818327 30232 net.cpp:411] inception_4b/output_inception_4b/output_0_split -> inception_4b/output_inception_4b/output_0_split_3
I0627 10:15:29.818384 30232 net.cpp:150] Setting up inception_4b/output_inception_4b/output_0_split
I0627 10:15:29.818390 30232 net.cpp:157] Top shape: 10 512 14 14 (1003520)
I0627 10:15:29.818394 30232 net.cpp:157] Top shape: 10 512 14 14 (1003520)
I0627 10:15:29.818397 30232 net.cpp:157] Top shape: 10 512 14 14 (1003520)
I0627 10:15:29.818400 30232 net.cpp:157] Top shape: 10 512 14 14 (1003520)
I0627 10:15:29.818403 30232 net.cpp:165] Memory required for data: 422473200
I0627 10:15:29.818406 30232 layer_factory.hpp:77] Creating layer inception_4c/1x1
I0627 10:15:29.818418 30232 net.cpp:106] Creating Layer inception_4c/1x1
I0627 10:15:29.818421 30232 net.cpp:454] inception_4c/1x1 <- inception_4b/output_inception_4b/output_0_split_0
I0627 10:15:29.818426 30232 net.cpp:411] inception_4c/1x1 -> inception_4c/1x1
I0627 10:15:29.819666 30232 net.cpp:150] Setting up inception_4c/1x1
I0627 10:15:29.819677 30232 net.cpp:157] Top shape: 10 128 14 14 (250880)
I0627 10:15:29.819680 30232 net.cpp:165] Memory required for data: 423476720
I0627 10:15:29.819687 30232 layer_factory.hpp:77] Creating layer inception_4c/relu_1x1
I0627 10:15:29.819692 30232 net.cpp:106] Creating Layer inception_4c/relu_1x1
I0627 10:15:29.819696 30232 net.cpp:454] inception_4c/relu_1x1 <- inception_4c/1x1
I0627 10:15:29.819702 30232 net.cpp:397] inception_4c/relu_1x1 -> inception_4c/1x1 (in-place)
I0627 10:15:29.820008 30232 net.cpp:150] Setting up inception_4c/relu_1x1
I0627 10:15:29.820017 30232 net.cpp:157] Top shape: 10 128 14 14 (250880)
I0627 10:15:29.820020 30232 net.cpp:165] Memory required for data: 424480240
I0627 10:15:29.820024 30232 layer_factory.hpp:77] Creating layer inception_4c/3x3_reduce
I0627 10:15:29.820034 30232 net.cpp:106] Creating Layer inception_4c/3x3_reduce
I0627 10:15:29.820037 30232 net.cpp:454] inception_4c/3x3_reduce <- inception_4b/output_inception_4b/output_0_split_1
I0627 10:15:29.820044 30232 net.cpp:411] inception_4c/3x3_reduce -> inception_4c/3x3_reduce
I0627 10:15:29.821422 30232 net.cpp:150] Setting up inception_4c/3x3_reduce
I0627 10:15:29.821434 30232 net.cpp:157] Top shape: 10 128 14 14 (250880)
I0627 10:15:29.821437 30232 net.cpp:165] Memory required for data: 425483760
I0627 10:15:29.821444 30232 layer_factory.hpp:77] Creating layer inception_4c/relu_3x3_reduce
I0627 10:15:29.821450 30232 net.cpp:106] Creating Layer inception_4c/relu_3x3_reduce
I0627 10:15:29.821455 30232 net.cpp:454] inception_4c/relu_3x3_reduce <- inception_4c/3x3_reduce
I0627 10:15:29.821458 30232 net.cpp:397] inception_4c/relu_3x3_reduce -> inception_4c/3x3_reduce (in-place)
I0627 10:15:29.821614 30232 net.cpp:150] Setting up inception_4c/relu_3x3_reduce
I0627 10:15:29.821621 30232 net.cpp:157] Top shape: 10 128 14 14 (250880)
I0627 10:15:29.821624 30232 net.cpp:165] Memory required for data: 426487280
I0627 10:15:29.821627 30232 layer_factory.hpp:77] Creating layer inception_4c/3x3
I0627 10:15:29.821636 30232 net.cpp:106] Creating Layer inception_4c/3x3
I0627 10:15:29.821640 30232 net.cpp:454] inception_4c/3x3 <- inception_4c/3x3_reduce
I0627 10:15:29.821647 30232 net.cpp:411] inception_4c/3x3 -> inception_4c/3x3
I0627 10:15:29.824923 30232 net.cpp:150] Setting up inception_4c/3x3
I0627 10:15:29.824934 30232 net.cpp:157] Top shape: 10 256 14 14 (501760)
I0627 10:15:29.824937 30232 net.cpp:165] Memory required for data: 428494320
I0627 10:15:29.824955 30232 layer_factory.hpp:77] Creating layer inception_4c/relu_3x3
I0627 10:15:29.824964 30232 net.cpp:106] Creating Layer inception_4c/relu_3x3
I0627 10:15:29.824967 30232 net.cpp:454] inception_4c/relu_3x3 <- inception_4c/3x3
I0627 10:15:29.824971 30232 net.cpp:397] inception_4c/relu_3x3 -> inception_4c/3x3 (in-place)
I0627 10:15:29.825407 30232 net.cpp:150] Setting up inception_4c/relu_3x3
I0627 10:15:29.825417 30232 net.cpp:157] Top shape: 10 256 14 14 (501760)
I0627 10:15:29.825423 30232 net.cpp:165] Memory required for data: 430501360
I0627 10:15:29.825425 30232 layer_factory.hpp:77] Creating layer inception_4c/5x5_reduce
I0627 10:15:29.825433 30232 net.cpp:106] Creating Layer inception_4c/5x5_reduce
I0627 10:15:29.825438 30232 net.cpp:454] inception_4c/5x5_reduce <- inception_4b/output_inception_4b/output_0_split_2
I0627 10:15:29.825444 30232 net.cpp:411] inception_4c/5x5_reduce -> inception_4c/5x5_reduce
I0627 10:15:29.826388 30232 net.cpp:150] Setting up inception_4c/5x5_reduce
I0627 10:15:29.826403 30232 net.cpp:157] Top shape: 10 24 14 14 (47040)
I0627 10:15:29.826406 30232 net.cpp:165] Memory required for data: 430689520
I0627 10:15:29.826413 30232 layer_factory.hpp:77] Creating layer inception_4c/relu_5x5_reduce
I0627 10:15:29.826418 30232 net.cpp:106] Creating Layer inception_4c/relu_5x5_reduce
I0627 10:15:29.826422 30232 net.cpp:454] inception_4c/relu_5x5_reduce <- inception_4c/5x5_reduce
I0627 10:15:29.826427 30232 net.cpp:397] inception_4c/relu_5x5_reduce -> inception_4c/5x5_reduce (in-place)
I0627 10:15:29.826735 30232 net.cpp:150] Setting up inception_4c/relu_5x5_reduce
I0627 10:15:29.826746 30232 net.cpp:157] Top shape: 10 24 14 14 (47040)
I0627 10:15:29.826750 30232 net.cpp:165] Memory required for data: 430877680
I0627 10:15:29.826752 30232 layer_factory.hpp:77] Creating layer inception_4c/5x5
I0627 10:15:29.826762 30232 net.cpp:106] Creating Layer inception_4c/5x5
I0627 10:15:29.826766 30232 net.cpp:454] inception_4c/5x5 <- inception_4c/5x5_reduce
I0627 10:15:29.826772 30232 net.cpp:411] inception_4c/5x5 -> inception_4c/5x5
I0627 10:15:29.828516 30232 net.cpp:150] Setting up inception_4c/5x5
I0627 10:15:29.828527 30232 net.cpp:157] Top shape: 10 64 14 14 (125440)
I0627 10:15:29.828531 30232 net.cpp:165] Memory required for data: 431379440
I0627 10:15:29.828536 30232 layer_factory.hpp:77] Creating layer inception_4c/relu_5x5
I0627 10:15:29.828542 30232 net.cpp:106] Creating Layer inception_4c/relu_5x5
I0627 10:15:29.828547 30232 net.cpp:454] inception_4c/relu_5x5 <- inception_4c/5x5
I0627 10:15:29.828552 30232 net.cpp:397] inception_4c/relu_5x5 -> inception_4c/5x5 (in-place)
I0627 10:15:29.828706 30232 net.cpp:150] Setting up inception_4c/relu_5x5
I0627 10:15:29.828716 30232 net.cpp:157] Top shape: 10 64 14 14 (125440)
I0627 10:15:29.828718 30232 net.cpp:165] Memory required for data: 431881200
I0627 10:15:29.828722 30232 layer_factory.hpp:77] Creating layer inception_4c/pool
I0627 10:15:29.828727 30232 net.cpp:106] Creating Layer inception_4c/pool
I0627 10:15:29.828730 30232 net.cpp:454] inception_4c/pool <- inception_4b/output_inception_4b/output_0_split_3
I0627 10:15:29.828735 30232 net.cpp:411] inception_4c/pool -> inception_4c/pool
I0627 10:15:29.828779 30232 net.cpp:150] Setting up inception_4c/pool
I0627 10:15:29.828791 30232 net.cpp:157] Top shape: 10 512 14 14 (1003520)
I0627 10:15:29.828794 30232 net.cpp:165] Memory required for data: 435895280
I0627 10:15:29.828797 30232 layer_factory.hpp:77] Creating layer inception_4c/pool_proj
I0627 10:15:29.828806 30232 net.cpp:106] Creating Layer inception_4c/pool_proj
I0627 10:15:29.828810 30232 net.cpp:454] inception_4c/pool_proj <- inception_4c/pool
I0627 10:15:29.828816 30232 net.cpp:411] inception_4c/pool_proj -> inception_4c/pool_proj
I0627 10:15:29.830006 30232 net.cpp:150] Setting up inception_4c/pool_proj
I0627 10:15:29.830018 30232 net.cpp:157] Top shape: 10 64 14 14 (125440)
I0627 10:15:29.830021 30232 net.cpp:165] Memory required for data: 436397040
I0627 10:15:29.830027 30232 layer_factory.hpp:77] Creating layer inception_4c/relu_pool_proj
I0627 10:15:29.830034 30232 net.cpp:106] Creating Layer inception_4c/relu_pool_proj
I0627 10:15:29.830037 30232 net.cpp:454] inception_4c/relu_pool_proj <- inception_4c/pool_proj
I0627 10:15:29.830044 30232 net.cpp:397] inception_4c/relu_pool_proj -> inception_4c/pool_proj (in-place)
I0627 10:15:29.830345 30232 net.cpp:150] Setting up inception_4c/relu_pool_proj
I0627 10:15:29.830356 30232 net.cpp:157] Top shape: 10 64 14 14 (125440)
I0627 10:15:29.830359 30232 net.cpp:165] Memory required for data: 436898800
I0627 10:15:29.830363 30232 layer_factory.hpp:77] Creating layer inception_4c/output
I0627 10:15:29.830368 30232 net.cpp:106] Creating Layer inception_4c/output
I0627 10:15:29.830371 30232 net.cpp:454] inception_4c/output <- inception_4c/1x1
I0627 10:15:29.830375 30232 net.cpp:454] inception_4c/output <- inception_4c/3x3
I0627 10:15:29.830382 30232 net.cpp:454] inception_4c/output <- inception_4c/5x5
I0627 10:15:29.830386 30232 net.cpp:454] inception_4c/output <- inception_4c/pool_proj
I0627 10:15:29.830390 30232 net.cpp:411] inception_4c/output -> inception_4c/output
I0627 10:15:29.830420 30232 net.cpp:150] Setting up inception_4c/output
I0627 10:15:29.830425 30232 net.cpp:157] Top shape: 10 512 14 14 (1003520)
I0627 10:15:29.830427 30232 net.cpp:165] Memory required for data: 440912880
I0627 10:15:29.830430 30232 layer_factory.hpp:77] Creating layer inception_4c/output_inception_4c/output_0_split
I0627 10:15:29.830437 30232 net.cpp:106] Creating Layer inception_4c/output_inception_4c/output_0_split
I0627 10:15:29.830440 30232 net.cpp:454] inception_4c/output_inception_4c/output_0_split <- inception_4c/output
I0627 10:15:29.830445 30232 net.cpp:411] inception_4c/output_inception_4c/output_0_split -> inception_4c/output_inception_4c/output_0_split_0
I0627 10:15:29.830451 30232 net.cpp:411] inception_4c/output_inception_4c/output_0_split -> inception_4c/output_inception_4c/output_0_split_1
I0627 10:15:29.830456 30232 net.cpp:411] inception_4c/output_inception_4c/output_0_split -> inception_4c/output_inception_4c/output_0_split_2
I0627 10:15:29.830461 30232 net.cpp:411] inception_4c/output_inception_4c/output_0_split -> inception_4c/output_inception_4c/output_0_split_3
I0627 10:15:29.830518 30232 net.cpp:150] Setting up inception_4c/output_inception_4c/output_0_split
I0627 10:15:29.830523 30232 net.cpp:157] Top shape: 10 512 14 14 (1003520)
I0627 10:15:29.830526 30232 net.cpp:157] Top shape: 10 512 14 14 (1003520)
I0627 10:15:29.830529 30232 net.cpp:157] Top shape: 10 512 14 14 (1003520)
I0627 10:15:29.830533 30232 net.cpp:157] Top shape: 10 512 14 14 (1003520)
I0627 10:15:29.830534 30232 net.cpp:165] Memory required for data: 456969200
I0627 10:15:29.830538 30232 layer_factory.hpp:77] Creating layer inception_4d/1x1
I0627 10:15:29.830546 30232 net.cpp:106] Creating Layer inception_4d/1x1
I0627 10:15:29.830549 30232 net.cpp:454] inception_4d/1x1 <- inception_4c/output_inception_4c/output_0_split_0
I0627 10:15:29.830555 30232 net.cpp:411] inception_4d/1x1 -> inception_4d/1x1
I0627 10:15:29.831742 30232 net.cpp:150] Setting up inception_4d/1x1
I0627 10:15:29.831753 30232 net.cpp:157] Top shape: 10 112 14 14 (219520)
I0627 10:15:29.831756 30232 net.cpp:165] Memory required for data: 457847280
I0627 10:15:29.831763 30232 layer_factory.hpp:77] Creating layer inception_4d/relu_1x1
I0627 10:15:29.831770 30232 net.cpp:106] Creating Layer inception_4d/relu_1x1
I0627 10:15:29.831773 30232 net.cpp:454] inception_4d/relu_1x1 <- inception_4d/1x1
I0627 10:15:29.831779 30232 net.cpp:397] inception_4d/relu_1x1 -> inception_4d/1x1 (in-place)
I0627 10:15:29.832087 30232 net.cpp:150] Setting up inception_4d/relu_1x1
I0627 10:15:29.832099 30232 net.cpp:157] Top shape: 10 112 14 14 (219520)
I0627 10:15:29.832103 30232 net.cpp:165] Memory required for data: 458725360
I0627 10:15:29.832105 30232 layer_factory.hpp:77] Creating layer inception_4d/3x3_reduce
I0627 10:15:29.832113 30232 net.cpp:106] Creating Layer inception_4d/3x3_reduce
I0627 10:15:29.832118 30232 net.cpp:454] inception_4d/3x3_reduce <- inception_4c/output_inception_4c/output_0_split_1
I0627 10:15:29.832125 30232 net.cpp:411] inception_4d/3x3_reduce -> inception_4d/3x3_reduce
I0627 10:15:29.833586 30232 net.cpp:150] Setting up inception_4d/3x3_reduce
I0627 10:15:29.833598 30232 net.cpp:157] Top shape: 10 144 14 14 (282240)
I0627 10:15:29.833601 30232 net.cpp:165] Memory required for data: 459854320
I0627 10:15:29.833607 30232 layer_factory.hpp:77] Creating layer inception_4d/relu_3x3_reduce
I0627 10:15:29.833612 30232 net.cpp:106] Creating Layer inception_4d/relu_3x3_reduce
I0627 10:15:29.833616 30232 net.cpp:454] inception_4d/relu_3x3_reduce <- inception_4d/3x3_reduce
I0627 10:15:29.833621 30232 net.cpp:397] inception_4d/relu_3x3_reduce -> inception_4d/3x3_reduce (in-place)
I0627 10:15:29.833776 30232 net.cpp:150] Setting up inception_4d/relu_3x3_reduce
I0627 10:15:29.833784 30232 net.cpp:157] Top shape: 10 144 14 14 (282240)
I0627 10:15:29.833786 30232 net.cpp:165] Memory required for data: 460983280
I0627 10:15:29.833789 30232 layer_factory.hpp:77] Creating layer inception_4d/3x3
I0627 10:15:29.833799 30232 net.cpp:106] Creating Layer inception_4d/3x3
I0627 10:15:29.833802 30232 net.cpp:454] inception_4d/3x3 <- inception_4d/3x3_reduce
I0627 10:15:29.833809 30232 net.cpp:411] inception_4d/3x3 -> inception_4d/3x3
I0627 10:15:29.837658 30232 net.cpp:150] Setting up inception_4d/3x3
I0627 10:15:29.837671 30232 net.cpp:157] Top shape: 10 288 14 14 (564480)
I0627 10:15:29.837673 30232 net.cpp:165] Memory required for data: 463241200
I0627 10:15:29.837679 30232 layer_factory.hpp:77] Creating layer inception_4d/relu_3x3
I0627 10:15:29.837687 30232 net.cpp:106] Creating Layer inception_4d/relu_3x3
I0627 10:15:29.837692 30232 net.cpp:454] inception_4d/relu_3x3 <- inception_4d/3x3
I0627 10:15:29.837695 30232 net.cpp:397] inception_4d/relu_3x3 -> inception_4d/3x3 (in-place)
I0627 10:15:29.838001 30232 net.cpp:150] Setting up inception_4d/relu_3x3
I0627 10:15:29.838012 30232 net.cpp:157] Top shape: 10 288 14 14 (564480)
I0627 10:15:29.838016 30232 net.cpp:165] Memory required for data: 465499120
I0627 10:15:29.838018 30232 layer_factory.hpp:77] Creating layer inception_4d/5x5_reduce
I0627 10:15:29.838030 30232 net.cpp:106] Creating Layer inception_4d/5x5_reduce
I0627 10:15:29.838034 30232 net.cpp:454] inception_4d/5x5_reduce <- inception_4c/output_inception_4c/output_0_split_2
I0627 10:15:29.838040 30232 net.cpp:411] inception_4d/5x5_reduce -> inception_4d/5x5_reduce
I0627 10:15:29.839043 30232 net.cpp:150] Setting up inception_4d/5x5_reduce
I0627 10:15:29.839056 30232 net.cpp:157] Top shape: 10 32 14 14 (62720)
I0627 10:15:29.839058 30232 net.cpp:165] Memory required for data: 465750000
I0627 10:15:29.839064 30232 layer_factory.hpp:77] Creating layer inception_4d/relu_5x5_reduce
I0627 10:15:29.839071 30232 net.cpp:106] Creating Layer inception_4d/relu_5x5_reduce
I0627 10:15:29.839073 30232 net.cpp:454] inception_4d/relu_5x5_reduce <- inception_4d/5x5_reduce
I0627 10:15:29.839079 30232 net.cpp:397] inception_4d/relu_5x5_reduce -> inception_4d/5x5_reduce (in-place)
I0627 10:15:29.839390 30232 net.cpp:150] Setting up inception_4d/relu_5x5_reduce
I0627 10:15:29.839401 30232 net.cpp:157] Top shape: 10 32 14 14 (62720)
I0627 10:15:29.839403 30232 net.cpp:165] Memory required for data: 466000880
I0627 10:15:29.839406 30232 layer_factory.hpp:77] Creating layer inception_4d/5x5
I0627 10:15:29.839416 30232 net.cpp:106] Creating Layer inception_4d/5x5
I0627 10:15:29.839421 30232 net.cpp:454] inception_4d/5x5 <- inception_4d/5x5_reduce
I0627 10:15:29.839427 30232 net.cpp:411] inception_4d/5x5 -> inception_4d/5x5
I0627 10:15:29.840739 30232 net.cpp:150] Setting up inception_4d/5x5
I0627 10:15:29.840750 30232 net.cpp:157] Top shape: 10 64 14 14 (125440)
I0627 10:15:29.840754 30232 net.cpp:165] Memory required for data: 466502640
I0627 10:15:29.840759 30232 layer_factory.hpp:77] Creating layer inception_4d/relu_5x5
I0627 10:15:29.840766 30232 net.cpp:106] Creating Layer inception_4d/relu_5x5
I0627 10:15:29.840770 30232 net.cpp:454] inception_4d/relu_5x5 <- inception_4d/5x5
I0627 10:15:29.840775 30232 net.cpp:397] inception_4d/relu_5x5 -> inception_4d/5x5 (in-place)
I0627 10:15:29.841084 30232 net.cpp:150] Setting up inception_4d/relu_5x5
I0627 10:15:29.841095 30232 net.cpp:157] Top shape: 10 64 14 14 (125440)
I0627 10:15:29.841099 30232 net.cpp:165] Memory required for data: 467004400
I0627 10:15:29.841102 30232 layer_factory.hpp:77] Creating layer inception_4d/pool
I0627 10:15:29.841109 30232 net.cpp:106] Creating Layer inception_4d/pool
I0627 10:15:29.841112 30232 net.cpp:454] inception_4d/pool <- inception_4c/output_inception_4c/output_0_split_3
I0627 10:15:29.841119 30232 net.cpp:411] inception_4d/pool -> inception_4d/pool
I0627 10:15:29.841166 30232 net.cpp:150] Setting up inception_4d/pool
I0627 10:15:29.841172 30232 net.cpp:157] Top shape: 10 512 14 14 (1003520)
I0627 10:15:29.841176 30232 net.cpp:165] Memory required for data: 471018480
I0627 10:15:29.841178 30232 layer_factory.hpp:77] Creating layer inception_4d/pool_proj
I0627 10:15:29.841187 30232 net.cpp:106] Creating Layer inception_4d/pool_proj
I0627 10:15:29.841190 30232 net.cpp:454] inception_4d/pool_proj <- inception_4d/pool
I0627 10:15:29.841195 30232 net.cpp:411] inception_4d/pool_proj -> inception_4d/pool_proj
I0627 10:15:29.842403 30232 net.cpp:150] Setting up inception_4d/pool_proj
I0627 10:15:29.842414 30232 net.cpp:157] Top shape: 10 64 14 14 (125440)
I0627 10:15:29.842417 30232 net.cpp:165] Memory required for data: 471520240
I0627 10:15:29.842424 30232 layer_factory.hpp:77] Creating layer inception_4d/relu_pool_proj
I0627 10:15:29.842433 30232 net.cpp:106] Creating Layer inception_4d/relu_pool_proj
I0627 10:15:29.842437 30232 net.cpp:454] inception_4d/relu_pool_proj <- inception_4d/pool_proj
I0627 10:15:29.842442 30232 net.cpp:397] inception_4d/relu_pool_proj -> inception_4d/pool_proj (in-place)
I0627 10:15:29.842748 30232 net.cpp:150] Setting up inception_4d/relu_pool_proj
I0627 10:15:29.842759 30232 net.cpp:157] Top shape: 10 64 14 14 (125440)
I0627 10:15:29.842762 30232 net.cpp:165] Memory required for data: 472022000
I0627 10:15:29.842766 30232 layer_factory.hpp:77] Creating layer inception_4d/output
I0627 10:15:29.842772 30232 net.cpp:106] Creating Layer inception_4d/output
I0627 10:15:29.842777 30232 net.cpp:454] inception_4d/output <- inception_4d/1x1
I0627 10:15:29.842780 30232 net.cpp:454] inception_4d/output <- inception_4d/3x3
I0627 10:15:29.842783 30232 net.cpp:454] inception_4d/output <- inception_4d/5x5
I0627 10:15:29.842787 30232 net.cpp:454] inception_4d/output <- inception_4d/pool_proj
I0627 10:15:29.842792 30232 net.cpp:411] inception_4d/output -> inception_4d/output
I0627 10:15:29.842823 30232 net.cpp:150] Setting up inception_4d/output
I0627 10:15:29.842900 30232 net.cpp:157] Top shape: 10 528 14 14 (1034880)
I0627 10:15:29.842905 30232 net.cpp:165] Memory required for data: 476161520
I0627 10:15:29.842907 30232 layer_factory.hpp:77] Creating layer inception_4d/output_inception_4d/output_0_split
I0627 10:15:29.842912 30232 net.cpp:106] Creating Layer inception_4d/output_inception_4d/output_0_split
I0627 10:15:29.842916 30232 net.cpp:454] inception_4d/output_inception_4d/output_0_split <- inception_4d/output
I0627 10:15:29.842922 30232 net.cpp:411] inception_4d/output_inception_4d/output_0_split -> inception_4d/output_inception_4d/output_0_split_0
I0627 10:15:29.842928 30232 net.cpp:411] inception_4d/output_inception_4d/output_0_split -> inception_4d/output_inception_4d/output_0_split_1
I0627 10:15:29.842934 30232 net.cpp:411] inception_4d/output_inception_4d/output_0_split -> inception_4d/output_inception_4d/output_0_split_2
I0627 10:15:29.842938 30232 net.cpp:411] inception_4d/output_inception_4d/output_0_split -> inception_4d/output_inception_4d/output_0_split_3
I0627 10:15:29.842943 30232 net.cpp:411] inception_4d/output_inception_4d/output_0_split -> inception_4d/output_inception_4d/output_0_split_4
I0627 10:15:29.843022 30232 net.cpp:150] Setting up inception_4d/output_inception_4d/output_0_split
I0627 10:15:29.843029 30232 net.cpp:157] Top shape: 10 528 14 14 (1034880)
I0627 10:15:29.843031 30232 net.cpp:157] Top shape: 10 528 14 14 (1034880)
I0627 10:15:29.843034 30232 net.cpp:157] Top shape: 10 528 14 14 (1034880)
I0627 10:15:29.843037 30232 net.cpp:157] Top shape: 10 528 14 14 (1034880)
I0627 10:15:29.843040 30232 net.cpp:157] Top shape: 10 528 14 14 (1034880)
I0627 10:15:29.843044 30232 net.cpp:165] Memory required for data: 496859120
I0627 10:15:29.843045 30232 layer_factory.hpp:77] Creating layer loss2/ave_pool
I0627 10:15:29.843050 30232 net.cpp:106] Creating Layer loss2/ave_pool
I0627 10:15:29.843055 30232 net.cpp:454] loss2/ave_pool <- inception_4d/output_inception_4d/output_0_split_0
I0627 10:15:29.843060 30232 net.cpp:411] loss2/ave_pool -> loss2/ave_pool
I0627 10:15:29.843231 30232 net.cpp:150] Setting up loss2/ave_pool
I0627 10:15:29.843240 30232 net.cpp:157] Top shape: 10 528 4 4 (84480)
I0627 10:15:29.843242 30232 net.cpp:165] Memory required for data: 497197040
I0627 10:15:29.843245 30232 layer_factory.hpp:77] Creating layer loss2/conv
I0627 10:15:29.843255 30232 net.cpp:106] Creating Layer loss2/conv
I0627 10:15:29.843260 30232 net.cpp:454] loss2/conv <- loss2/ave_pool
I0627 10:15:29.843264 30232 net.cpp:411] loss2/conv -> loss2/conv
I0627 10:15:29.844696 30232 net.cpp:150] Setting up loss2/conv
I0627 10:15:29.844707 30232 net.cpp:157] Top shape: 10 128 4 4 (20480)
I0627 10:15:29.844712 30232 net.cpp:165] Memory required for data: 497278960
I0627 10:15:29.844717 30232 layer_factory.hpp:77] Creating layer loss2/relu_conv
I0627 10:15:29.844724 30232 net.cpp:106] Creating Layer loss2/relu_conv
I0627 10:15:29.844728 30232 net.cpp:454] loss2/relu_conv <- loss2/conv
I0627 10:15:29.844732 30232 net.cpp:397] loss2/relu_conv -> loss2/conv (in-place)
I0627 10:15:29.844894 30232 net.cpp:150] Setting up loss2/relu_conv
I0627 10:15:29.844904 30232 net.cpp:157] Top shape: 10 128 4 4 (20480)
I0627 10:15:29.844907 30232 net.cpp:165] Memory required for data: 497360880
I0627 10:15:29.844910 30232 layer_factory.hpp:77] Creating layer loss2/fc
I0627 10:15:29.844916 30232 net.cpp:106] Creating Layer loss2/fc
I0627 10:15:29.844919 30232 net.cpp:454] loss2/fc <- loss2/conv
I0627 10:15:29.844928 30232 net.cpp:411] loss2/fc -> loss2/fc
I0627 10:15:29.860306 30232 net.cpp:150] Setting up loss2/fc
I0627 10:15:29.860322 30232 net.cpp:157] Top shape: 10 1024 (10240)
I0627 10:15:29.860326 30232 net.cpp:165] Memory required for data: 497401840
I0627 10:15:29.860332 30232 layer_factory.hpp:77] Creating layer loss2/relu_fc
I0627 10:15:29.860338 30232 net.cpp:106] Creating Layer loss2/relu_fc
I0627 10:15:29.860342 30232 net.cpp:454] loss2/relu_fc <- loss2/fc
I0627 10:15:29.860347 30232 net.cpp:397] loss2/relu_fc -> loss2/fc (in-place)
I0627 10:15:29.860683 30232 net.cpp:150] Setting up loss2/relu_fc
I0627 10:15:29.860694 30232 net.cpp:157] Top shape: 10 1024 (10240)
I0627 10:15:29.860697 30232 net.cpp:165] Memory required for data: 497442800
I0627 10:15:29.860700 30232 layer_factory.hpp:77] Creating layer loss2/drop_fc
I0627 10:15:29.860707 30232 net.cpp:106] Creating Layer loss2/drop_fc
I0627 10:15:29.860710 30232 net.cpp:454] loss2/drop_fc <- loss2/fc
I0627 10:15:29.860714 30232 net.cpp:397] loss2/drop_fc -> loss2/fc (in-place)
I0627 10:15:29.860749 30232 net.cpp:150] Setting up loss2/drop_fc
I0627 10:15:29.860754 30232 net.cpp:157] Top shape: 10 1024 (10240)
I0627 10:15:29.860756 30232 net.cpp:165] Memory required for data: 497483760
I0627 10:15:29.860759 30232 layer_factory.hpp:77] Creating layer 102flowers2/classifier
I0627 10:15:29.860767 30232 net.cpp:106] Creating Layer 102flowers2/classifier
I0627 10:15:29.860770 30232 net.cpp:454] 102flowers2/classifier <- loss2/fc
I0627 10:15:29.860775 30232 net.cpp:411] 102flowers2/classifier -> 102flowers2/classifier
I0627 10:15:29.862107 30232 net.cpp:150] Setting up 102flowers2/classifier
I0627 10:15:29.862118 30232 net.cpp:157] Top shape: 10 102 (1020)
I0627 10:15:29.862121 30232 net.cpp:165] Memory required for data: 497487840
I0627 10:15:29.862128 30232 layer_factory.hpp:77] Creating layer inception_4e/1x1
I0627 10:15:29.862138 30232 net.cpp:106] Creating Layer inception_4e/1x1
I0627 10:15:29.862143 30232 net.cpp:454] inception_4e/1x1 <- inception_4d/output_inception_4d/output_0_split_1
I0627 10:15:29.862148 30232 net.cpp:411] inception_4e/1x1 -> inception_4e/1x1
I0627 10:15:29.863967 30232 net.cpp:150] Setting up inception_4e/1x1
I0627 10:15:29.863978 30232 net.cpp:157] Top shape: 10 256 14 14 (501760)
I0627 10:15:29.863982 30232 net.cpp:165] Memory required for data: 499494880
I0627 10:15:29.863988 30232 layer_factory.hpp:77] Creating layer inception_4e/relu_1x1
I0627 10:15:29.863996 30232 net.cpp:106] Creating Layer inception_4e/relu_1x1
I0627 10:15:29.863999 30232 net.cpp:454] inception_4e/relu_1x1 <- inception_4e/1x1
I0627 10:15:29.864003 30232 net.cpp:397] inception_4e/relu_1x1 -> inception_4e/1x1 (in-place)
I0627 10:15:29.864163 30232 net.cpp:150] Setting up inception_4e/relu_1x1
I0627 10:15:29.864171 30232 net.cpp:157] Top shape: 10 256 14 14 (501760)
I0627 10:15:29.864173 30232 net.cpp:165] Memory required for data: 501501920
I0627 10:15:29.864177 30232 layer_factory.hpp:77] Creating layer inception_4e/3x3_reduce
I0627 10:15:29.864187 30232 net.cpp:106] Creating Layer inception_4e/3x3_reduce
I0627 10:15:29.864190 30232 net.cpp:454] inception_4e/3x3_reduce <- inception_4d/output_inception_4d/output_0_split_2
I0627 10:15:29.864195 30232 net.cpp:411] inception_4e/3x3_reduce -> inception_4e/3x3_reduce
I0627 10:15:29.865800 30232 net.cpp:150] Setting up inception_4e/3x3_reduce
I0627 10:15:29.865811 30232 net.cpp:157] Top shape: 10 160 14 14 (313600)
I0627 10:15:29.865814 30232 net.cpp:165] Memory required for data: 502756320
I0627 10:15:29.865821 30232 layer_factory.hpp:77] Creating layer inception_4e/relu_3x3_reduce
I0627 10:15:29.865828 30232 net.cpp:106] Creating Layer inception_4e/relu_3x3_reduce
I0627 10:15:29.865830 30232 net.cpp:454] inception_4e/relu_3x3_reduce <- inception_4e/3x3_reduce
I0627 10:15:29.865835 30232 net.cpp:397] inception_4e/relu_3x3_reduce -> inception_4e/3x3_reduce (in-place)
I0627 10:15:29.866145 30232 net.cpp:150] Setting up inception_4e/relu_3x3_reduce
I0627 10:15:29.866155 30232 net.cpp:157] Top shape: 10 160 14 14 (313600)
I0627 10:15:29.866158 30232 net.cpp:165] Memory required for data: 504010720
I0627 10:15:29.866163 30232 layer_factory.hpp:77] Creating layer inception_4e/3x3
I0627 10:15:29.866174 30232 net.cpp:106] Creating Layer inception_4e/3x3
I0627 10:15:29.866178 30232 net.cpp:454] inception_4e/3x3 <- inception_4e/3x3_reduce
I0627 10:15:29.866184 30232 net.cpp:411] inception_4e/3x3 -> inception_4e/3x3
I0627 10:15:29.870512 30232 net.cpp:150] Setting up inception_4e/3x3
I0627 10:15:29.870524 30232 net.cpp:157] Top shape: 10 320 14 14 (627200)
I0627 10:15:29.870527 30232 net.cpp:165] Memory required for data: 506519520
I0627 10:15:29.870533 30232 layer_factory.hpp:77] Creating layer inception_4e/relu_3x3
I0627 10:15:29.870539 30232 net.cpp:106] Creating Layer inception_4e/relu_3x3
I0627 10:15:29.870543 30232 net.cpp:454] inception_4e/relu_3x3 <- inception_4e/3x3
I0627 10:15:29.870549 30232 net.cpp:397] inception_4e/relu_3x3 -> inception_4e/3x3 (in-place)
I0627 10:15:29.870872 30232 net.cpp:150] Setting up inception_4e/relu_3x3
I0627 10:15:29.870882 30232 net.cpp:157] Top shape: 10 320 14 14 (627200)
I0627 10:15:29.870884 30232 net.cpp:165] Memory required for data: 509028320
I0627 10:15:29.870888 30232 layer_factory.hpp:77] Creating layer inception_4e/5x5_reduce
I0627 10:15:29.870901 30232 net.cpp:106] Creating Layer inception_4e/5x5_reduce
I0627 10:15:29.870905 30232 net.cpp:454] inception_4e/5x5_reduce <- inception_4d/output_inception_4d/output_0_split_3
I0627 10:15:29.870911 30232 net.cpp:411] inception_4e/5x5_reduce -> inception_4e/5x5_reduce
I0627 10:15:29.872051 30232 net.cpp:150] Setting up inception_4e/5x5_reduce
I0627 10:15:29.872063 30232 net.cpp:157] Top shape: 10 32 14 14 (62720)
I0627 10:15:29.872066 30232 net.cpp:165] Memory required for data: 509279200
I0627 10:15:29.872072 30232 layer_factory.hpp:77] Creating layer inception_4e/relu_5x5_reduce
I0627 10:15:29.872079 30232 net.cpp:106] Creating Layer inception_4e/relu_5x5_reduce
I0627 10:15:29.872083 30232 net.cpp:454] inception_4e/relu_5x5_reduce <- inception_4e/5x5_reduce
I0627 10:15:29.872088 30232 net.cpp:397] inception_4e/relu_5x5_reduce -> inception_4e/5x5_reduce (in-place)
I0627 10:15:29.872247 30232 net.cpp:150] Setting up inception_4e/relu_5x5_reduce
I0627 10:15:29.872256 30232 net.cpp:157] Top shape: 10 32 14 14 (62720)
I0627 10:15:29.872259 30232 net.cpp:165] Memory required for data: 509530080
I0627 10:15:29.872262 30232 layer_factory.hpp:77] Creating layer inception_4e/5x5
I0627 10:15:29.872272 30232 net.cpp:106] Creating Layer inception_4e/5x5
I0627 10:15:29.872275 30232 net.cpp:454] inception_4e/5x5 <- inception_4e/5x5_reduce
I0627 10:15:29.872282 30232 net.cpp:411] inception_4e/5x5 -> inception_4e/5x5
I0627 10:15:29.874394 30232 net.cpp:150] Setting up inception_4e/5x5
I0627 10:15:29.874406 30232 net.cpp:157] Top shape: 10 128 14 14 (250880)
I0627 10:15:29.874409 30232 net.cpp:165] Memory required for data: 510533600
I0627 10:15:29.874415 30232 layer_factory.hpp:77] Creating layer inception_4e/relu_5x5
I0627 10:15:29.874421 30232 net.cpp:106] Creating Layer inception_4e/relu_5x5
I0627 10:15:29.874424 30232 net.cpp:454] inception_4e/relu_5x5 <- inception_4e/5x5
I0627 10:15:29.874429 30232 net.cpp:397] inception_4e/relu_5x5 -> inception_4e/5x5 (in-place)
I0627 10:15:29.874745 30232 net.cpp:150] Setting up inception_4e/relu_5x5
I0627 10:15:29.874757 30232 net.cpp:157] Top shape: 10 128 14 14 (250880)
I0627 10:15:29.874759 30232 net.cpp:165] Memory required for data: 511537120
I0627 10:15:29.874763 30232 layer_factory.hpp:77] Creating layer inception_4e/pool
I0627 10:15:29.874769 30232 net.cpp:106] Creating Layer inception_4e/pool
I0627 10:15:29.874773 30232 net.cpp:454] inception_4e/pool <- inception_4d/output_inception_4d/output_0_split_4
I0627 10:15:29.874779 30232 net.cpp:411] inception_4e/pool -> inception_4e/pool
I0627 10:15:29.874828 30232 net.cpp:150] Setting up inception_4e/pool
I0627 10:15:29.874835 30232 net.cpp:157] Top shape: 10 528 14 14 (1034880)
I0627 10:15:29.874837 30232 net.cpp:165] Memory required for data: 515676640
I0627 10:15:29.874840 30232 layer_factory.hpp:77] Creating layer inception_4e/pool_proj
I0627 10:15:29.874851 30232 net.cpp:106] Creating Layer inception_4e/pool_proj
I0627 10:15:29.874855 30232 net.cpp:454] inception_4e/pool_proj <- inception_4e/pool
I0627 10:15:29.874860 30232 net.cpp:411] inception_4e/pool_proj -> inception_4e/pool_proj
I0627 10:15:29.876313 30232 net.cpp:150] Setting up inception_4e/pool_proj
I0627 10:15:29.876325 30232 net.cpp:157] Top shape: 10 128 14 14 (250880)
I0627 10:15:29.876328 30232 net.cpp:165] Memory required for data: 516680160
I0627 10:15:29.876335 30232 layer_factory.hpp:77] Creating layer inception_4e/relu_pool_proj
I0627 10:15:29.876358 30232 net.cpp:106] Creating Layer inception_4e/relu_pool_proj
I0627 10:15:29.876363 30232 net.cpp:454] inception_4e/relu_pool_proj <- inception_4e/pool_proj
I0627 10:15:29.876368 30232 net.cpp:397] inception_4e/relu_pool_proj -> inception_4e/pool_proj (in-place)
I0627 10:15:29.876679 30232 net.cpp:150] Setting up inception_4e/relu_pool_proj
I0627 10:15:29.876690 30232 net.cpp:157] Top shape: 10 128 14 14 (250880)
I0627 10:15:29.876693 30232 net.cpp:165] Memory required for data: 517683680
I0627 10:15:29.876698 30232 layer_factory.hpp:77] Creating layer inception_4e/output
I0627 10:15:29.876704 30232 net.cpp:106] Creating Layer inception_4e/output
I0627 10:15:29.876708 30232 net.cpp:454] inception_4e/output <- inception_4e/1x1
I0627 10:15:29.876713 30232 net.cpp:454] inception_4e/output <- inception_4e/3x3
I0627 10:15:29.876716 30232 net.cpp:454] inception_4e/output <- inception_4e/5x5
I0627 10:15:29.876719 30232 net.cpp:454] inception_4e/output <- inception_4e/pool_proj
I0627 10:15:29.876724 30232 net.cpp:411] inception_4e/output -> inception_4e/output
I0627 10:15:29.876756 30232 net.cpp:150] Setting up inception_4e/output
I0627 10:15:29.876763 30232 net.cpp:157] Top shape: 10 832 14 14 (1630720)
I0627 10:15:29.876765 30232 net.cpp:165] Memory required for data: 524206560
I0627 10:15:29.876768 30232 layer_factory.hpp:77] Creating layer pool4/3x3_s2
I0627 10:15:29.876773 30232 net.cpp:106] Creating Layer pool4/3x3_s2
I0627 10:15:29.876777 30232 net.cpp:454] pool4/3x3_s2 <- inception_4e/output
I0627 10:15:29.876796 30232 net.cpp:411] pool4/3x3_s2 -> pool4/3x3_s2
I0627 10:15:29.876840 30232 net.cpp:150] Setting up pool4/3x3_s2
I0627 10:15:29.876847 30232 net.cpp:157] Top shape: 10 832 7 7 (407680)
I0627 10:15:29.876849 30232 net.cpp:165] Memory required for data: 525837280
I0627 10:15:29.876852 30232 layer_factory.hpp:77] Creating layer pool4/3x3_s2_pool4/3x3_s2_0_split
I0627 10:15:29.876859 30232 net.cpp:106] Creating Layer pool4/3x3_s2_pool4/3x3_s2_0_split
I0627 10:15:29.876863 30232 net.cpp:454] pool4/3x3_s2_pool4/3x3_s2_0_split <- pool4/3x3_s2
I0627 10:15:29.876868 30232 net.cpp:411] pool4/3x3_s2_pool4/3x3_s2_0_split -> pool4/3x3_s2_pool4/3x3_s2_0_split_0
I0627 10:15:29.876873 30232 net.cpp:411] pool4/3x3_s2_pool4/3x3_s2_0_split -> pool4/3x3_s2_pool4/3x3_s2_0_split_1
I0627 10:15:29.876878 30232 net.cpp:411] pool4/3x3_s2_pool4/3x3_s2_0_split -> pool4/3x3_s2_pool4/3x3_s2_0_split_2
I0627 10:15:29.876883 30232 net.cpp:411] pool4/3x3_s2_pool4/3x3_s2_0_split -> pool4/3x3_s2_pool4/3x3_s2_0_split_3
I0627 10:15:29.876943 30232 net.cpp:150] Setting up pool4/3x3_s2_pool4/3x3_s2_0_split
I0627 10:15:29.876950 30232 net.cpp:157] Top shape: 10 832 7 7 (407680)
I0627 10:15:29.876956 30232 net.cpp:157] Top shape: 10 832 7 7 (407680)
I0627 10:15:29.876960 30232 net.cpp:157] Top shape: 10 832 7 7 (407680)
I0627 10:15:29.876962 30232 net.cpp:157] Top shape: 10 832 7 7 (407680)
I0627 10:15:29.876965 30232 net.cpp:165] Memory required for data: 532360160
I0627 10:15:29.876967 30232 layer_factory.hpp:77] Creating layer inception_5a/1x1
I0627 10:15:29.876976 30232 net.cpp:106] Creating Layer inception_5a/1x1
I0627 10:15:29.876978 30232 net.cpp:454] inception_5a/1x1 <- pool4/3x3_s2_pool4/3x3_s2_0_split_0
I0627 10:15:29.876986 30232 net.cpp:411] inception_5a/1x1 -> inception_5a/1x1
I0627 10:15:29.879763 30232 net.cpp:150] Setting up inception_5a/1x1
I0627 10:15:29.879776 30232 net.cpp:157] Top shape: 10 256 7 7 (125440)
I0627 10:15:29.879778 30232 net.cpp:165] Memory required for data: 532861920
I0627 10:15:29.879786 30232 layer_factory.hpp:77] Creating layer inception_5a/relu_1x1
I0627 10:15:29.879791 30232 net.cpp:106] Creating Layer inception_5a/relu_1x1
I0627 10:15:29.879794 30232 net.cpp:454] inception_5a/relu_1x1 <- inception_5a/1x1
I0627 10:15:29.879801 30232 net.cpp:397] inception_5a/relu_1x1 -> inception_5a/1x1 (in-place)
I0627 10:15:29.879958 30232 net.cpp:150] Setting up inception_5a/relu_1x1
I0627 10:15:29.879966 30232 net.cpp:157] Top shape: 10 256 7 7 (125440)
I0627 10:15:29.879969 30232 net.cpp:165] Memory required for data: 533363680
I0627 10:15:29.879972 30232 layer_factory.hpp:77] Creating layer inception_5a/3x3_reduce
I0627 10:15:29.879983 30232 net.cpp:106] Creating Layer inception_5a/3x3_reduce
I0627 10:15:29.879987 30232 net.cpp:454] inception_5a/3x3_reduce <- pool4/3x3_s2_pool4/3x3_s2_0_split_1
I0627 10:15:29.879992 30232 net.cpp:411] inception_5a/3x3_reduce -> inception_5a/3x3_reduce
I0627 10:15:29.882330 30232 net.cpp:150] Setting up inception_5a/3x3_reduce
I0627 10:15:29.882344 30232 net.cpp:157] Top shape: 10 160 7 7 (78400)
I0627 10:15:29.882346 30232 net.cpp:165] Memory required for data: 533677280
I0627 10:15:29.882352 30232 layer_factory.hpp:77] Creating layer inception_5a/relu_3x3_reduce
I0627 10:15:29.882359 30232 net.cpp:106] Creating Layer inception_5a/relu_3x3_reduce
I0627 10:15:29.882362 30232 net.cpp:454] inception_5a/relu_3x3_reduce <- inception_5a/3x3_reduce
I0627 10:15:29.882369 30232 net.cpp:397] inception_5a/relu_3x3_reduce -> inception_5a/3x3_reduce (in-place)
I0627 10:15:29.882683 30232 net.cpp:150] Setting up inception_5a/relu_3x3_reduce
I0627 10:15:29.882694 30232 net.cpp:157] Top shape: 10 160 7 7 (78400)
I0627 10:15:29.882697 30232 net.cpp:165] Memory required for data: 533990880
I0627 10:15:29.882700 30232 layer_factory.hpp:77] Creating layer inception_5a/3x3
I0627 10:15:29.882710 30232 net.cpp:106] Creating Layer inception_5a/3x3
I0627 10:15:29.882714 30232 net.cpp:454] inception_5a/3x3 <- inception_5a/3x3_reduce
I0627 10:15:29.882721 30232 net.cpp:411] inception_5a/3x3 -> inception_5a/3x3
I0627 10:15:29.887286 30232 net.cpp:150] Setting up inception_5a/3x3
I0627 10:15:29.887298 30232 net.cpp:157] Top shape: 10 320 7 7 (156800)
I0627 10:15:29.887302 30232 net.cpp:165] Memory required for data: 534618080
I0627 10:15:29.887310 30232 layer_factory.hpp:77] Creating layer inception_5a/relu_3x3
I0627 10:15:29.887315 30232 net.cpp:106] Creating Layer inception_5a/relu_3x3
I0627 10:15:29.887318 30232 net.cpp:454] inception_5a/relu_3x3 <- inception_5a/3x3
I0627 10:15:29.887323 30232 net.cpp:397] inception_5a/relu_3x3 -> inception_5a/3x3 (in-place)
I0627 10:15:29.887641 30232 net.cpp:150] Setting up inception_5a/relu_3x3
I0627 10:15:29.887651 30232 net.cpp:157] Top shape: 10 320 7 7 (156800)
I0627 10:15:29.887655 30232 net.cpp:165] Memory required for data: 535245280
I0627 10:15:29.887658 30232 layer_factory.hpp:77] Creating layer inception_5a/5x5_reduce
I0627 10:15:29.887668 30232 net.cpp:106] Creating Layer inception_5a/5x5_reduce
I0627 10:15:29.887672 30232 net.cpp:454] inception_5a/5x5_reduce <- pool4/3x3_s2_pool4/3x3_s2_0_split_2
I0627 10:15:29.887681 30232 net.cpp:411] inception_5a/5x5_reduce -> inception_5a/5x5_reduce
I0627 10:15:29.888906 30232 net.cpp:150] Setting up inception_5a/5x5_reduce
I0627 10:15:29.888918 30232 net.cpp:157] Top shape: 10 32 7 7 (15680)
I0627 10:15:29.888921 30232 net.cpp:165] Memory required for data: 535308000
I0627 10:15:29.888928 30232 layer_factory.hpp:77] Creating layer inception_5a/relu_5x5_reduce
I0627 10:15:29.888933 30232 net.cpp:106] Creating Layer inception_5a/relu_5x5_reduce
I0627 10:15:29.888937 30232 net.cpp:454] inception_5a/relu_5x5_reduce <- inception_5a/5x5_reduce
I0627 10:15:29.888944 30232 net.cpp:397] inception_5a/relu_5x5_reduce -> inception_5a/5x5_reduce (in-place)
I0627 10:15:29.889103 30232 net.cpp:150] Setting up inception_5a/relu_5x5_reduce
I0627 10:15:29.889111 30232 net.cpp:157] Top shape: 10 32 7 7 (15680)
I0627 10:15:29.889114 30232 net.cpp:165] Memory required for data: 535370720
I0627 10:15:29.889117 30232 layer_factory.hpp:77] Creating layer inception_5a/5x5
I0627 10:15:29.889127 30232 net.cpp:106] Creating Layer inception_5a/5x5
I0627 10:15:29.889130 30232 net.cpp:454] inception_5a/5x5 <- inception_5a/5x5_reduce
I0627 10:15:29.889137 30232 net.cpp:411] inception_5a/5x5 -> inception_5a/5x5
I0627 10:15:29.890810 30232 net.cpp:150] Setting up inception_5a/5x5
I0627 10:15:29.890820 30232 net.cpp:157] Top shape: 10 128 7 7 (62720)
I0627 10:15:29.890823 30232 net.cpp:165] Memory required for data: 535621600
I0627 10:15:29.890830 30232 layer_factory.hpp:77] Creating layer inception_5a/relu_5x5
I0627 10:15:29.890836 30232 net.cpp:106] Creating Layer inception_5a/relu_5x5
I0627 10:15:29.890839 30232 net.cpp:454] inception_5a/relu_5x5 <- inception_5a/5x5
I0627 10:15:29.890843 30232 net.cpp:397] inception_5a/relu_5x5 -> inception_5a/5x5 (in-place)
I0627 10:15:29.891158 30232 net.cpp:150] Setting up inception_5a/relu_5x5
I0627 10:15:29.891168 30232 net.cpp:157] Top shape: 10 128 7 7 (62720)
I0627 10:15:29.891171 30232 net.cpp:165] Memory required for data: 535872480
I0627 10:15:29.891175 30232 layer_factory.hpp:77] Creating layer inception_5a/pool
I0627 10:15:29.891181 30232 net.cpp:106] Creating Layer inception_5a/pool
I0627 10:15:29.891185 30232 net.cpp:454] inception_5a/pool <- pool4/3x3_s2_pool4/3x3_s2_0_split_3
I0627 10:15:29.891191 30232 net.cpp:411] inception_5a/pool -> inception_5a/pool
I0627 10:15:29.891253 30232 net.cpp:150] Setting up inception_5a/pool
I0627 10:15:29.891260 30232 net.cpp:157] Top shape: 10 832 7 7 (407680)
I0627 10:15:29.891263 30232 net.cpp:165] Memory required for data: 537503200
I0627 10:15:29.891266 30232 layer_factory.hpp:77] Creating layer inception_5a/pool_proj
I0627 10:15:29.891278 30232 net.cpp:106] Creating Layer inception_5a/pool_proj
I0627 10:15:29.891294 30232 net.cpp:454] inception_5a/pool_proj <- inception_5a/pool
I0627 10:15:29.891299 30232 net.cpp:411] inception_5a/pool_proj -> inception_5a/pool_proj
I0627 10:15:29.893322 30232 net.cpp:150] Setting up inception_5a/pool_proj
I0627 10:15:29.893337 30232 net.cpp:157] Top shape: 10 128 7 7 (62720)
I0627 10:15:29.893339 30232 net.cpp:165] Memory required for data: 537754080
I0627 10:15:29.893345 30232 layer_factory.hpp:77] Creating layer inception_5a/relu_pool_proj
I0627 10:15:29.893352 30232 net.cpp:106] Creating Layer inception_5a/relu_pool_proj
I0627 10:15:29.893355 30232 net.cpp:454] inception_5a/relu_pool_proj <- inception_5a/pool_proj
I0627 10:15:29.893359 30232 net.cpp:397] inception_5a/relu_pool_proj -> inception_5a/pool_proj (in-place)
I0627 10:15:29.893682 30232 net.cpp:150] Setting up inception_5a/relu_pool_proj
I0627 10:15:29.893693 30232 net.cpp:157] Top shape: 10 128 7 7 (62720)
I0627 10:15:29.893697 30232 net.cpp:165] Memory required for data: 538004960
I0627 10:15:29.893700 30232 layer_factory.hpp:77] Creating layer inception_5a/output
I0627 10:15:29.893707 30232 net.cpp:106] Creating Layer inception_5a/output
I0627 10:15:29.893709 30232 net.cpp:454] inception_5a/output <- inception_5a/1x1
I0627 10:15:29.893713 30232 net.cpp:454] inception_5a/output <- inception_5a/3x3
I0627 10:15:29.893718 30232 net.cpp:454] inception_5a/output <- inception_5a/5x5
I0627 10:15:29.893720 30232 net.cpp:454] inception_5a/output <- inception_5a/pool_proj
I0627 10:15:29.893724 30232 net.cpp:411] inception_5a/output -> inception_5a/output
I0627 10:15:29.893759 30232 net.cpp:150] Setting up inception_5a/output
I0627 10:15:29.893765 30232 net.cpp:157] Top shape: 10 832 7 7 (407680)
I0627 10:15:29.893769 30232 net.cpp:165] Memory required for data: 539635680
I0627 10:15:29.893770 30232 layer_factory.hpp:77] Creating layer inception_5a/output_inception_5a/output_0_split
I0627 10:15:29.893777 30232 net.cpp:106] Creating Layer inception_5a/output_inception_5a/output_0_split
I0627 10:15:29.893780 30232 net.cpp:454] inception_5a/output_inception_5a/output_0_split <- inception_5a/output
I0627 10:15:29.893785 30232 net.cpp:411] inception_5a/output_inception_5a/output_0_split -> inception_5a/output_inception_5a/output_0_split_0
I0627 10:15:29.893790 30232 net.cpp:411] inception_5a/output_inception_5a/output_0_split -> inception_5a/output_inception_5a/output_0_split_1
I0627 10:15:29.893795 30232 net.cpp:411] inception_5a/output_inception_5a/output_0_split -> inception_5a/output_inception_5a/output_0_split_2
I0627 10:15:29.893800 30232 net.cpp:411] inception_5a/output_inception_5a/output_0_split -> inception_5a/output_inception_5a/output_0_split_3
I0627 10:15:29.893867 30232 net.cpp:150] Setting up inception_5a/output_inception_5a/output_0_split
I0627 10:15:29.893872 30232 net.cpp:157] Top shape: 10 832 7 7 (407680)
I0627 10:15:29.893875 30232 net.cpp:157] Top shape: 10 832 7 7 (407680)
I0627 10:15:29.893879 30232 net.cpp:157] Top shape: 10 832 7 7 (407680)
I0627 10:15:29.893882 30232 net.cpp:157] Top shape: 10 832 7 7 (407680)
I0627 10:15:29.893884 30232 net.cpp:165] Memory required for data: 546158560
I0627 10:15:29.893887 30232 layer_factory.hpp:77] Creating layer inception_5b/1x1
I0627 10:15:29.893896 30232 net.cpp:106] Creating Layer inception_5b/1x1
I0627 10:15:29.893899 30232 net.cpp:454] inception_5b/1x1 <- inception_5a/output_inception_5a/output_0_split_0
I0627 10:15:29.893906 30232 net.cpp:411] inception_5b/1x1 -> inception_5b/1x1
I0627 10:15:29.897408 30232 net.cpp:150] Setting up inception_5b/1x1
I0627 10:15:29.897420 30232 net.cpp:157] Top shape: 10 384 7 7 (188160)
I0627 10:15:29.897423 30232 net.cpp:165] Memory required for data: 546911200
I0627 10:15:29.897430 30232 layer_factory.hpp:77] Creating layer inception_5b/relu_1x1
I0627 10:15:29.897436 30232 net.cpp:106] Creating Layer inception_5b/relu_1x1
I0627 10:15:29.897439 30232 net.cpp:454] inception_5b/relu_1x1 <- inception_5b/1x1
I0627 10:15:29.897444 30232 net.cpp:397] inception_5b/relu_1x1 -> inception_5b/1x1 (in-place)
I0627 10:15:29.897604 30232 net.cpp:150] Setting up inception_5b/relu_1x1
I0627 10:15:29.897613 30232 net.cpp:157] Top shape: 10 384 7 7 (188160)
I0627 10:15:29.897615 30232 net.cpp:165] Memory required for data: 547663840
I0627 10:15:29.897619 30232 layer_factory.hpp:77] Creating layer inception_5b/3x3_reduce
I0627 10:15:29.897627 30232 net.cpp:106] Creating Layer inception_5b/3x3_reduce
I0627 10:15:29.897631 30232 net.cpp:454] inception_5b/3x3_reduce <- inception_5a/output_inception_5a/output_0_split_1
I0627 10:15:29.897637 30232 net.cpp:411] inception_5b/3x3_reduce -> inception_5b/3x3_reduce
I0627 10:15:29.900305 30232 net.cpp:150] Setting up inception_5b/3x3_reduce
I0627 10:15:29.900317 30232 net.cpp:157] Top shape: 10 192 7 7 (94080)
I0627 10:15:29.900321 30232 net.cpp:165] Memory required for data: 548040160
I0627 10:15:29.900327 30232 layer_factory.hpp:77] Creating layer inception_5b/relu_3x3_reduce
I0627 10:15:29.900334 30232 net.cpp:106] Creating Layer inception_5b/relu_3x3_reduce
I0627 10:15:29.900338 30232 net.cpp:454] inception_5b/relu_3x3_reduce <- inception_5b/3x3_reduce
I0627 10:15:29.900343 30232 net.cpp:397] inception_5b/relu_3x3_reduce -> inception_5b/3x3_reduce (in-place)
I0627 10:15:29.900662 30232 net.cpp:150] Setting up inception_5b/relu_3x3_reduce
I0627 10:15:29.900673 30232 net.cpp:157] Top shape: 10 192 7 7 (94080)
I0627 10:15:29.900676 30232 net.cpp:165] Memory required for data: 548416480
I0627 10:15:29.900679 30232 layer_factory.hpp:77] Creating layer inception_5b/3x3
I0627 10:15:29.900689 30232 net.cpp:106] Creating Layer inception_5b/3x3
I0627 10:15:29.900693 30232 net.cpp:454] inception_5b/3x3 <- inception_5b/3x3_reduce
I0627 10:15:29.900701 30232 net.cpp:411] inception_5b/3x3 -> inception_5b/3x3
I0627 10:15:29.906623 30232 net.cpp:150] Setting up inception_5b/3x3
I0627 10:15:29.906635 30232 net.cpp:157] Top shape: 10 384 7 7 (188160)
I0627 10:15:29.906640 30232 net.cpp:165] Memory required for data: 549169120
I0627 10:15:29.906646 30232 layer_factory.hpp:77] Creating layer inception_5b/relu_3x3
I0627 10:15:29.906651 30232 net.cpp:106] Creating Layer inception_5b/relu_3x3
I0627 10:15:29.906656 30232 net.cpp:454] inception_5b/relu_3x3 <- inception_5b/3x3
I0627 10:15:29.906661 30232 net.cpp:397] inception_5b/relu_3x3 -> inception_5b/3x3 (in-place)
I0627 10:15:29.906987 30232 net.cpp:150] Setting up inception_5b/relu_3x3
I0627 10:15:29.906997 30232 net.cpp:157] Top shape: 10 384 7 7 (188160)
I0627 10:15:29.907001 30232 net.cpp:165] Memory required for data: 549921760
I0627 10:15:29.907004 30232 layer_factory.hpp:77] Creating layer inception_5b/5x5_reduce
I0627 10:15:29.907013 30232 net.cpp:106] Creating Layer inception_5b/5x5_reduce
I0627 10:15:29.907017 30232 net.cpp:454] inception_5b/5x5_reduce <- inception_5a/output_inception_5a/output_0_split_2
I0627 10:15:29.907024 30232 net.cpp:411] inception_5b/5x5_reduce -> inception_5b/5x5_reduce
I0627 10:15:29.908862 30232 net.cpp:150] Setting up inception_5b/5x5_reduce
I0627 10:15:29.908874 30232 net.cpp:157] Top shape: 10 48 7 7 (23520)
I0627 10:15:29.908877 30232 net.cpp:165] Memory required for data: 550015840
I0627 10:15:29.908885 30232 layer_factory.hpp:77] Creating layer inception_5b/relu_5x5_reduce
I0627 10:15:29.908890 30232 net.cpp:106] Creating Layer inception_5b/relu_5x5_reduce
I0627 10:15:29.908895 30232 net.cpp:454] inception_5b/relu_5x5_reduce <- inception_5b/5x5_reduce
I0627 10:15:29.908898 30232 net.cpp:397] inception_5b/relu_5x5_reduce -> inception_5b/5x5_reduce (in-place)
I0627 10:15:29.909128 30232 net.cpp:150] Setting up inception_5b/relu_5x5_reduce
I0627 10:15:29.909137 30232 net.cpp:157] Top shape: 10 48 7 7 (23520)
I0627 10:15:29.909139 30232 net.cpp:165] Memory required for data: 550109920
I0627 10:15:29.909143 30232 layer_factory.hpp:77] Creating layer inception_5b/5x5
I0627 10:15:29.909152 30232 net.cpp:106] Creating Layer inception_5b/5x5
I0627 10:15:29.909155 30232 net.cpp:454] inception_5b/5x5 <- inception_5b/5x5_reduce
I0627 10:15:29.909160 30232 net.cpp:411] inception_5b/5x5 -> inception_5b/5x5
I0627 10:15:29.911254 30232 net.cpp:150] Setting up inception_5b/5x5
I0627 10:15:29.911265 30232 net.cpp:157] Top shape: 10 128 7 7 (62720)
I0627 10:15:29.911268 30232 net.cpp:165] Memory required for data: 550360800
I0627 10:15:29.911275 30232 layer_factory.hpp:77] Creating layer inception_5b/relu_5x5
I0627 10:15:29.911283 30232 net.cpp:106] Creating Layer inception_5b/relu_5x5
I0627 10:15:29.911286 30232 net.cpp:454] inception_5b/relu_5x5 <- inception_5b/5x5
I0627 10:15:29.911291 30232 net.cpp:397] inception_5b/relu_5x5 -> inception_5b/5x5 (in-place)
I0627 10:15:29.911614 30232 net.cpp:150] Setting up inception_5b/relu_5x5
I0627 10:15:29.911624 30232 net.cpp:157] Top shape: 10 128 7 7 (62720)
I0627 10:15:29.911628 30232 net.cpp:165] Memory required for data: 550611680
I0627 10:15:29.911631 30232 layer_factory.hpp:77] Creating layer inception_5b/pool
I0627 10:15:29.911638 30232 net.cpp:106] Creating Layer inception_5b/pool
I0627 10:15:29.911643 30232 net.cpp:454] inception_5b/pool <- inception_5a/output_inception_5a/output_0_split_3
I0627 10:15:29.911648 30232 net.cpp:411] inception_5b/pool -> inception_5b/pool
I0627 10:15:29.911700 30232 net.cpp:150] Setting up inception_5b/pool
I0627 10:15:29.911706 30232 net.cpp:157] Top shape: 10 832 7 7 (407680)
I0627 10:15:29.911710 30232 net.cpp:165] Memory required for data: 552242400
I0627 10:15:29.911712 30232 layer_factory.hpp:77] Creating layer inception_5b/pool_proj
I0627 10:15:29.911721 30232 net.cpp:106] Creating Layer inception_5b/pool_proj
I0627 10:15:29.911725 30232 net.cpp:454] inception_5b/pool_proj <- inception_5b/pool
I0627 10:15:29.911731 30232 net.cpp:411] inception_5b/pool_proj -> inception_5b/pool_proj
I0627 10:15:29.913781 30232 net.cpp:150] Setting up inception_5b/pool_proj
I0627 10:15:29.913794 30232 net.cpp:157] Top shape: 10 128 7 7 (62720)
I0627 10:15:29.913796 30232 net.cpp:165] Memory required for data: 552493280
I0627 10:15:29.913803 30232 layer_factory.hpp:77] Creating layer inception_5b/relu_pool_proj
I0627 10:15:29.913808 30232 net.cpp:106] Creating Layer inception_5b/relu_pool_proj
I0627 10:15:29.913812 30232 net.cpp:454] inception_5b/relu_pool_proj <- inception_5b/pool_proj
I0627 10:15:29.913818 30232 net.cpp:397] inception_5b/relu_pool_proj -> inception_5b/pool_proj (in-place)
I0627 10:15:29.914139 30232 net.cpp:150] Setting up inception_5b/relu_pool_proj
I0627 10:15:29.914150 30232 net.cpp:157] Top shape: 10 128 7 7 (62720)
I0627 10:15:29.914152 30232 net.cpp:165] Memory required for data: 552744160
I0627 10:15:29.914156 30232 layer_factory.hpp:77] Creating layer inception_5b/output
I0627 10:15:29.914162 30232 net.cpp:106] Creating Layer inception_5b/output
I0627 10:15:29.914165 30232 net.cpp:454] inception_5b/output <- inception_5b/1x1
I0627 10:15:29.914170 30232 net.cpp:454] inception_5b/output <- inception_5b/3x3
I0627 10:15:29.914173 30232 net.cpp:454] inception_5b/output <- inception_5b/5x5
I0627 10:15:29.914176 30232 net.cpp:454] inception_5b/output <- inception_5b/pool_proj
I0627 10:15:29.914182 30232 net.cpp:411] inception_5b/output -> inception_5b/output
I0627 10:15:29.914216 30232 net.cpp:150] Setting up inception_5b/output
I0627 10:15:29.914222 30232 net.cpp:157] Top shape: 10 1024 7 7 (501760)
I0627 10:15:29.914224 30232 net.cpp:165] Memory required for data: 554751200
I0627 10:15:29.914227 30232 layer_factory.hpp:77] Creating layer pool5/7x7_s1
I0627 10:15:29.914234 30232 net.cpp:106] Creating Layer pool5/7x7_s1
I0627 10:15:29.914238 30232 net.cpp:454] pool5/7x7_s1 <- inception_5b/output
I0627 10:15:29.914242 30232 net.cpp:411] pool5/7x7_s1 -> pool5/7x7_s1
I0627 10:15:29.914438 30232 net.cpp:150] Setting up pool5/7x7_s1
I0627 10:15:29.914448 30232 net.cpp:157] Top shape: 10 1024 1 1 (10240)
I0627 10:15:29.914451 30232 net.cpp:165] Memory required for data: 554792160
I0627 10:15:29.914454 30232 layer_factory.hpp:77] Creating layer pool5/drop_7x7_s1
I0627 10:15:29.914460 30232 net.cpp:106] Creating Layer pool5/drop_7x7_s1
I0627 10:15:29.914463 30232 net.cpp:454] pool5/drop_7x7_s1 <- pool5/7x7_s1
I0627 10:15:29.914469 30232 net.cpp:397] pool5/drop_7x7_s1 -> pool5/7x7_s1 (in-place)
I0627 10:15:29.914499 30232 net.cpp:150] Setting up pool5/drop_7x7_s1
I0627 10:15:29.914504 30232 net.cpp:157] Top shape: 10 1024 1 1 (10240)
I0627 10:15:29.914506 30232 net.cpp:165] Memory required for data: 554833120
I0627 10:15:29.914510 30232 layer_factory.hpp:77] Creating layer 102flowers
I0627 10:15:29.914517 30232 net.cpp:106] Creating Layer 102flowers
I0627 10:15:29.914520 30232 net.cpp:454] 102flowers <- pool5/7x7_s1
I0627 10:15:29.914526 30232 net.cpp:411] 102flowers -> 102flowers
I0627 10:15:29.915261 30232 net.cpp:150] Setting up 102flowers
I0627 10:15:29.915268 30232 net.cpp:157] Top shape: 10 102 (1020)
I0627 10:15:29.915271 30232 net.cpp:165] Memory required for data: 554837200
I0627 10:15:29.915277 30232 layer_factory.hpp:77] Creating layer prob
I0627 10:15:29.915284 30232 net.cpp:106] Creating Layer prob
I0627 10:15:29.915287 30232 net.cpp:454] prob <- 102flowers
I0627 10:15:29.915292 30232 net.cpp:411] prob -> prob
I0627 10:15:29.915690 30232 net.cpp:150] Setting up prob
I0627 10:15:29.915700 30232 net.cpp:157] Top shape: 10 102 (1020)
I0627 10:15:29.915704 30232 net.cpp:165] Memory required for data: 554841280
I0627 10:15:29.915707 30232 net.cpp:228] prob does not need backward computation.
I0627 10:15:29.915710 30232 net.cpp:228] 102flowers does not need backward computation.
I0627 10:15:29.915714 30232 net.cpp:228] pool5/drop_7x7_s1 does not need backward computation.
I0627 10:15:29.915716 30232 net.cpp:228] pool5/7x7_s1 does not need backward computation.
…
