…
 'ROOT_DIR': '/home/zheda/workspace/cnn/flower-classify',
 'TEST': {'TARGET_SIZE': [227, 227]},
 'TRAIN': {'BATCH_SIZE': 64,
           'MAX_ITERATION': 100000,
           'SNAPSHOT_INFIX': '',
           'SNAPSHOT_ITERS': 10000,
           'TARGET_SIZE': [227, 227],
           'USE_FLIPPED': True,
           'USE_PREFETCH': False}}
WARNING: Logging before InitGoogleLogging() is written to STDERR
I0627 11:31:14.576771 31701 net.cpp:49] Initializing net from parameters: 
name: "GoogleNet"
input: "data"
state {
  phase: TEST
}
input_shape {
  dim: 10
  dim: 3
  dim: 224
  dim: 224
}
layer {
  name: "conv1/7x7_s2"
  type: "Convolution"
  bottom: "data"
  top: "conv1/7x7_s2"
  param {
    lr_mult: 1
    decay_mult: 1
  }
  param {
    lr_mult: 2
    decay_mult: 0
  }
  convolution_param {
    num_output: 64
    pad: 3
    kernel_size: 7
    stride: 2
    weight_filler {
      type: "xavier"
    }
    bias_filler {
      type: "constant"
      value: 0.2
    }
  }
}
layer {
  name: "conv1/relu_7x7"
  type: "ReLU"
  bottom: "conv1/7x7_s2"
  top: "conv1/7x7_s2"
}
layer {
  name: "pool1/3x3_s2"
  type: "Pooling"
  bottom: "conv1/7x7_s2"
  top: "pool1/3x3_s2"
  pooling_param {
    pool: MAX
    kernel_size: 3
    stride: 2
  }
}
layer {
  name: "pool1/norm1"
  type: "LRN"
  bottom: "pool1/3x3_s2"
  top: "pool1/norm1"
  lrn_param {
    local_size: 5
    alpha: 0.0001
    beta: 0.75
  }
}
layer {
  name: "conv2/3x3_reduce"
  type: "Convolution"
  bottom: "pool1/norm1"
  top: "conv2/3x3_reduce"
  param {
    lr_mult: 1
    decay_mult: 1
  }
  param {
    lr_mult: 2
    decay_mult: 0
  }
  convolution_param {
    num_output: 64
    kernel_size: 1
    weight_filler {
      type: "xavier"
    }
    bias_filler {
      type: "constant"
      value: 0.2
    }
  }
}
layer {
  name: "conv2/relu_3x3_reduce"
  type: "ReLU"
  bottom: "conv2/3x3_reduce"
  top: "conv2/3x3_reduce"
}
layer {
  name: "conv2/3x3"
  type: "Convolution"
  bottom: "conv2/3x3_reduce"
  top: "conv2/3x3"
  param {
    lr_mult: 1
    decay_mult: 1
  }
  param {
    lr_mult: 2
    decay_mult: 0
  }
  convolution_param {
    num_output: 192
    pad: 1
    kernel_size: 3
    weight_filler {
      type: "xavier"
    }
    bias_filler {
      type: "constant"
      value: 0.2
    }
  }
}
layer {
  name: "conv2/relu_3x3"
  type: "ReLU"
  bottom: "conv2/3x3"
  top: "conv2/3x3"
}
layer {
  name: "conv2/norm2"
  type: "LRN"
  bottom: "conv2/3x3"
  top: "conv2/norm2"
  lrn_param {
    local_size: 5
    alpha: 0.0001
    beta: 0.75
  }
}
layer {
  name: "pool2/3x3_s2"
  type: "Pooling"
  bottom: "conv2/norm2"
  top: "pool2/3x3_s2"
  pooling_param {
    pool: MAX
    kernel_size: 3
    stride: 2
  }
}
layer {
  name: "inception_3a/1x1"
  type: "Convolution"
  bottom: "pool2/3x3_s2"
  top: "inception_3a/1x1"
  param {
    lr_mult: 1
    decay_mult: 1
  }
  param {
    lr_mult: 2
    decay_mult: 0
  }
  convolution_param {
    num_output: 64
    kernel_size: 1
    weight_filler {
      type: "xavier"
    }
    bias_filler {
      type: "constant"
      value: 0.2
    }
  }
}
layer {
  name: "inception_3a/relu_1x1"
  type: "ReLU"
  bottom: "inception_3a/1x1"
  top: "inception_3a/1x1"
}
layer {
  name: "inception_3a/3x3_reduce"
  type: "Convolution"
  bottom: "pool2/3x3_s2"
  top: "inception_3a/3x3_reduce"
  param {
    lr_mult: 1
    decay_mult: 1
  }
  param {
    lr_mult: 2
    decay_mult: 0
  }
  convolution_param {
    num_output: 96
    kernel_size: 1
    weight_filler {
      type: "xavier"
    }
    bias_filler {
      type: "constant"
      value: 0.2
    }
  }
}
layer {
  name: "inception_3a/relu_3x3_reduce"
  type: "ReLU"
  bottom: "inception_3a/3x3_reduce"
  top: "inception_3a/3x3_reduce"
}
layer {
  name: "inception_3a/3x3"
  type: "Convolution"
  bottom: "inception_3a/3x3_reduce"
  top: "inception_3a/3x3"
  param {
    lr_mult: 1
    decay_mult: 1
  }
  param {
    lr_mult: 2
    decay_mult: 0
  }
  convolution_param {
    num_output: 128
    pad: 1
    kernel_size: 3
    weight_filler {
      type: "xavier"
    }
    bias_filler {
      type: "constant"
      value: 0.2
    }
  }
}
layer {
  name: "inception_3a/relu_3x3"
  type: "ReLU"
  bottom: "inception_3a/3x3"
  top: "inception_3a/3x3"
}
layer {
  name: "inception_3a/5x5_reduce"
  type: "Convolution"
  bottom: "pool2/3x3_s2"
  top: "inception_3a/5x5_reduce"
  param {
    lr_mult: 1
    decay_mult: 1
  }
  param {
    lr_mult: 2
    decay_mult: 0
  }
  convolution_param {
    num_output: 16
    kernel_size: 1
    weight_filler {
      type: "xavier"
    }
    bias_filler {
      type: "constant"
      value: 0.2
    }
  }
}
layer {
  name: "inception_3a/relu_5x5_reduce"
  type: "ReLU"
  bottom: "inception_3a/5x5_reduce"
  top: "inception_3a/5x5_reduce"
}
layer {
  name: "inception_3a/5x5"
  type: "Convolution"
  bottom: "inception_3a/5x5_reduce"
  top: "inception_3a/5x5"
  param {
    lr_mult: 1
    decay_mult: 1
  }
  param {
    lr_mult: 2
    decay_mult: 0
  }
  convolution_param {
    num_output: 32
    pad: 2
    kernel_size: 5
    weight_filler {
      type: "xavier"
    }
    bias_filler {
      type: "constant"
      value: 0.2
    }
  }
}
layer {
  name: "inception_3a/relu_5x5"
  type: "ReLU"
  bottom: "inception_3a/5x5"
  top: "inception_3a/5x5"
}
layer {
  name: "inception_3a/pool"
  type: "Pooling"
  bottom: "pool2/3x3_s2"
  top: "inception_3a/pool"
  pooling_param {
    pool: MAX
    kernel_size: 3
    stride: 1
    pad: 1
  }
}
layer {
  name: "inception_3a/pool_proj"
  type: "Convolution"
  bottom: "inception_3a/pool"
  top: "inception_3a/pool_proj"
  param {
    lr_mult: 1
    decay_mult: 1
  }
  param {
    lr_mult: 2
    decay_mult: 0
  }
  convolution_param {
    num_output: 32
    kernel_size: 1
    weight_filler {
      type: "xavier"
    }
    bias_filler {
      type: "constant"
      value: 0.2
    }
  }
}
layer {
  name: "inception_3a/relu_pool_proj"
  type: "ReLU"
  bottom: "inception_3a/pool_proj"
  top: "inception_3a/pool_proj"
}
layer {
  name: "inception_3a/output"
  type: "Concat"
  bottom: "inception_3a/1x1"
  bottom: "inception_3a/3x3"
  bottom: "inception_3a/5x5"
  bottom: "inception_3a/pool_proj"
  top: "inception_3a/output"
}
layer {
  name: "inception_3b/1x1"
  type: "Convolution"
  bottom: "inception_3a/output"
  top: "inception_3b/1x1"
  param {
    lr_mult: 1
    decay_mult: 1
  }
  param {
    lr_mult: 2
    decay_mult: 0
  }
  convolution_param {
    num_output: 128
    kernel_size: 1
    weight_filler {
      type: "xavier"
    }
    bias_filler {
      type: "constant"
      value: 0.2
    }
  }
}
layer {
  name: "inception_3b/relu_1x1"
  type: "ReLU"
  bottom: "inception_3b/1x1"
  top: "inception_3b/1x1"
}
layer {
  name: "inception_3b/3x3_reduce"
  type: "Convolution"
  bottom: "inception_3a/output"
  top: "inception_3b/3x3_reduce"
  param {
    lr_mult: 1
    decay_mult: 1
  }
  param {
    lr_mult: 2
    decay_mult: 0
  }
  convolution_param {
    num_output: 128
    kernel_size: 1
    weight_filler {
      type: "xavier"
    }
    bias_filler {
      type: "constant"
      value: 0.2
    }
  }
}
layer {
  name: "inception_3b/relu_3x3_reduce"
  type: "ReLU"
  bottom: "inception_3b/3x3_reduce"
  top: "inception_3b/3x3_reduce"
}
layer {
  name: "inception_3b/3x3"
  type: "Convolution"
  bottom: "inception_3b/3x3_reduce"
  top: "inception_3b/3x3"
  param {
    lr_mult: 1
    decay_mult: 1
  }
  param {
    lr_mult: 2
    decay_mult: 0
  }
  convolution_param {
    num_output: 192
    pad: 1
    kernel_size: 3
    weight_filler {
      type: "xavier"
    }
    bias_filler {
      type: "constant"
      value: 0.2
    }
  }
}
layer {
  name: "inception_3b/relu_3x3"
  type: "ReLU"
  bottom: "inception_3b/3x3"
  top: "inception_3b/3x3"
}
layer {
  name: "inception_3b/5x5_reduce"
  type: "Convolution"
  bottom: "inception_3a/output"
  top: "inception_3b/5x5_reduce"
  param {
    lr_mult: 1
    decay_mult: 1
  }
  param {
    lr_mult: 2
    decay_mult: 0
  }
  convolution_param {
    num_output: 32
    kernel_size: 1
    weight_filler {
      type: "xavier"
    }
    bias_filler {
      type: "constant"
      value: 0.2
    }
  }
}
layer {
  name: "inception_3b/relu_5x5_reduce"
  type: "ReLU"
  bottom: "inception_3b/5x5_reduce"
  top: "inception_3b/5x5_reduce"
}
layer {
  name: "inception_3b/5x5"
  type: "Convolution"
  bottom: "inception_3b/5x5_reduce"
  top: "inception_3b/5x5"
  param {
    lr_mult: 1
    decay_mult: 1
  }
  param {
    lr_mult: 2
    decay_mult: 0
  }
  convolution_param {
    num_output: 96
    pad: 2
    kernel_size: 5
    weight_filler {
      type: "xavier"
    }
    bias_filler {
      type: "constant"
      value: 0.2
    }
  }
}
layer {
  name: "inception_3b/relu_5x5"
  type: "ReLU"
  bottom: "inception_3b/5x5"
  top: "inception_3b/5x5"
}
layer {
  name: "inception_3b/pool"
  type: "Pooling"
  bottom: "inception_3a/output"
  top: "inception_3b/pool"
  pooling_param {
    pool: MAX
    kernel_size: 3
    stride: 1
    pad: 1
  }
}
layer {
  name: "inception_3b/pool_proj"
  type: "Convolution"
  bottom: "inception_3b/pool"
  top: "inception_3b/pool_proj"
  param {
    lr_mult: 1
    decay_mult: 1
  }
  param {
    lr_mult: 2
    decay_mult: 0
  }
  convolution_param {
    num_output: 64
    kernel_size: 1
    weight_filler {
      type: "xavier"
    }
    bias_filler {
      type: "constant"
      value: 0.2
    }
  }
}
layer {
  name: "inception_3b/relu_pool_proj"
  type: "ReLU"
  bottom: "inception_3b/pool_proj"
  top: "inception_3b/pool_proj"
}
layer {
  name: "inception_3b/output"
  type: "Concat"
  bottom: "inception_3b/1x1"
  bottom: "inception_3b/3x3"
  bottom: "inception_3b/5x5"
  bottom: "inception_3b/pool_proj"
  top: "inception_3b/output"
}
layer {
  name: "pool3/3x3_s2"
  type: "Pooling"
  bottom: "inception_3b/output"
  top: "pool3/3x3_s2"
  pooling_param {
    pool: MAX
    kernel_size: 3
    stride: 2
  }
}
layer {
  name: "inception_4a/1x1"
  type: "Convolution"
  bottom: "pool3/3x3_s2"
  top: "inception_4a/1x1"
  param {
    lr_mult: 1
    decay_mult: 1
  }
  param {
    lr_mult: 2
    decay_mult: 0
  }
  convolution_param {
    num_output: 192
    kernel_size: 1
    weight_filler {
      type: "xavier"
    }
    bias_filler {
      type: "constant"
      value: 0.2
    }
  }
}
layer {
  name: "inception_4a/relu_1x1"
  type: "ReLU"
  bottom: "inception_4a/1x1"
  top: "inception_4a/1x1"
}
layer {
  name: "inception_4a/3x3_reduce"
  type: "Convolution"
  bottom: "pool3/3x3_s2"
  top: "inception_4a/3x3_reduce"
  param {
    lr_mult: 1
    decay_mult: 1
  }
  param {
    lr_mult: 2
    decay_mult: 0
  }
  convolution_param {
    num_output: 96
    kernel_size: 1
    weight_filler {
      type: "xavier"
    }
    bias_filler {
      type: "constant"
      value: 0.2
    }
  }
}
layer {
  name: "inception_4a/relu_3x3_reduce"
  type: "ReLU"
  bottom: "inception_4a/3x3_reduce"
  top: "inception_4a/3x3_reduce"
}
layer {
  name: "inception_4a/3x3"
  type: "Convolution"
  bottom: "inception_4a/3x3_reduce"
  top: "inception_4a/3x3"
  param {
    lr_mult: 1
    decay_mult: 1
  }
  param {
    lr_mult: 2
    decay_mult: 0
  }
  convolution_param {
    num_output: 208
    pad: 1
    kernel_size: 3
    weight_filler {
      type: "xavier"
    }
    bias_filler {
      type: "constant"
      value: 0.2
    }
  }
}
layer {
  name: "inception_4a/relu_3x3"
  type: "ReLU"
  bottom: "inception_4a/3x3"
  top: "inception_4a/3x3"
}
layer {
  name: "inception_4a/5x5_reduce"
  type: "Convolution"
  bottom: "pool3/3x3_s2"
  top: "inception_4a/5x5_reduce"
  param {
    lr_mult: 1
    decay_mult: 1
  }
  param {
    lr_mult: 2
    decay_mult: 0
  }
  convolution_param {
    num_output: 16
    kernel_size: 1
    weight_filler {
      type: "xavier"
    }
    bias_filler {
      type: "constant"
      value: 0.2
    }
  }
}
layer {
  name: "inception_4a/relu_5x5_reduce"
  type: "ReLU"
  bottom: "inception_4a/5x5_reduce"
  top: "inception_4a/5x5_reduce"
}
layer {
  name: "inception_4a/5x5"
  type: "Convolution"
  bottom: "inception_4a/5x5_reduce"
  top: "inception_4a/5x5"
  param {
    lr_mult: 1
    decay_mult: 1
  }
  param {
    lr_mult: 2
    decay_mult: 0
  }
  convolution_param {
    num_output: 48
    pad: 2
    kernel_size: 5
    weight_filler {
      type: "xavier"
    }
    bias_filler {
      type: "constant"
      value: 0.2
    }
  }
}
layer {
  name: "inception_4a/relu_5x5"
  type: "ReLU"
  bottom: "inception_4a/5x5"
  top: "inception_4a/5x5"
}
layer {
  name: "inception_4a/pool"
  type: "Pooling"
  bottom: "pool3/3x3_s2"
  top: "inception_4a/pool"
  pooling_param {
    pool: MAX
    kernel_size: 3
    stride: 1
    pad: 1
  }
}
layer {
  name: "inception_4a/pool_proj"
  type: "Convolution"
  bottom: "inception_4a/pool"
  top: "inception_4a/pool_proj"
  param {
    lr_mult: 1
    decay_mult: 1
  }
  param {
    lr_mult: 2
    decay_mult: 0
  }
  convolution_param {
    num_output: 64
    kernel_size: 1
    weight_filler {
      type: "xavier"
    }
    bias_filler {
      type: "constant"
      value: 0.2
    }
  }
}
layer {
  name: "inception_4a/relu_pool_proj"
  type: "ReLU"
  bottom: "inception_4a/pool_proj"
  top: "inception_4a/pool_proj"
}
layer {
  name: "inception_4a/output"
  type: "Concat"
  bottom: "inception_4a/1x1"
  bottom: "inception_4a/3x3"
  bottom: "inception_4a/5x5"
  bottom: "inception_4a/pool_proj"
  top: "inception_4a/output"
}
layer {
  name: "loss1/ave_pool"
  type: "Pooling"
  bottom: "inception_4a/output"
  top: "loss1/ave_pool"
  pooling_param {
    pool: AVE
    kernel_size: 5
    stride: 3
  }
}
layer {
  name: "loss1/conv"
  type: "Convolution"
  bottom: "loss1/ave_pool"
  top: "loss1/conv"
  param {
    lr_mult: 1
    decay_mult: 1
  }
  param {
    lr_mult: 2
    decay_mult: 0
  }
  convolution_param {
    num_output: 128
    kernel_size: 1
    weight_filler {
      type: "xavier"
    }
    bias_filler {
      type: "constant"
      value: 0.2
    }
  }
}
layer {
  name: "loss1/relu_conv"
  type: "ReLU"
  bottom: "loss1/conv"
  top: "loss1/conv"
}
layer {
  name: "loss1/fc"
  type: "InnerProduct"
  bottom: "loss1/conv"
  top: "loss1/fc"
  param {
    lr_mult: 1
    decay_mult: 1
  }
  param {
    lr_mult: 2
    decay_mult: 0
  }
  inner_product_param {
    num_output: 1024
    weight_filler {
      type: "xavier"
    }
    bias_filler {
      type: "constant"
      value: 0.2
    }
  }
}
layer {
  name: "loss1/relu_fc"
  type: "ReLU"
  bottom: "loss1/fc"
  top: "loss1/fc"
}
layer {
  name: "loss1/drop_fc"
  type: "Dropout"
  bottom: "loss1/fc"
  top: "loss1/fc"
  dropout_param {
    dropout_ratio: 0.7
  }
}
layer {
  name: "102flowers1/classifier"
  type: "InnerProduct"
  bottom: "loss1/fc"
  top: "102flowers1/classifier"
  param {
    lr_mult: 1
    decay_mult: 1
  }
  param {
    lr_mult: 2
    decay_mult: 0
  }
  inner_product_param {
    num_output: 102
    weight_filler {
      type: "xavier"
    }
    bias_filler {
      type: "constant"
      value: 0
    }
  }
}
layer {
  name: "inception_4b/1x1"
  type: "Convolution"
  bottom: "inception_4a/output"
  top: "inception_4b/1x1"
  param {
    lr_mult: 1
    decay_mult: 1
  }
  param {
    lr_mult: 2
    decay_mult: 0
  }
  convolution_param {
    num_output: 160
    kernel_size: 1
    weight_filler {
      type: "xavier"
    }
    bias_filler {
      type: "constant"
      value: 0.2
    }
  }
}
layer {
  name: "inception_4b/relu_1x1"
  type: "ReLU"
  bottom: "inception_4b/1x1"
  top: "inception_4b/1x1"
}
layer {
  name: "inception_4b/3x3_reduce"
  type: "Convolution"
  bottom: "inception_4a/output"
  top: "inception_4b/3x3_reduce"
  param {
    lr_mult: 1
    decay_mult: 1
  }
  param {
    lr_mult: 2
    decay_mult: 0
  }
  convolution_param {
    num_output: 112
    kernel_size: 1
    weight_filler {
      type: "xavier"
    }
    bias_filler {
      type: "constant"
      value: 0.2
    }
  }
}
layer {
  name: "inception_4b/relu_3x3_reduce"
  type: "ReLU"
  bottom: "inception_4b/3x3_reduce"
  top: "inception_4b/3x3_reduce"
}
layer {
  name: "inception_4b/3x3"
  type: "Convolution"
  bottom: "inception_4b/3x3_reduce"
  top: "inception_4b/3x3"
  param {
    lr_mult: 1
    decay_mult: 1
  }
  param {
    lr_mult: 2
    decay_mult: 0
  }
  convolution_param {
    num_output: 224
    pad: 1
    kernel_size: 3
    weight_filler {
      type: "xavier"
    }
    bias_filler {
      type: "constant"
      value: 0.2
    }
  }
}
layer {
  name: "inception_4b/relu_3x3"
  type: "ReLU"
  bottom: "inception_4b/3x3"
  top: "inception_4b/3x3"
}
layer {
  name: "inception_4b/5x5_reduce"
  type: "Convolution"
  bottom: "inception_4a/output"
  top: "inception_4b/5x5_reduce"
  param {
    lr_mult: 1
    decay_mult: 1
  }
  param {
    lr_mult: 2
    decay_mult: 0
  }
  convolution_param {
    num_output: 24
    kernel_size: 1
    weight_filler {
      type: "xavier"
    }
    bias_filler {
      type: "constant"
      value: 0.2
    }
  }
}
layer {
  name: "inception_4b/relu_5x5_reduce"
  type: "ReLU"
  bottom: "inception_4b/5x5_reduce"
  top: "inception_4b/5x5_reduce"
}
layer {
  name: "inception_4b/5x5"
  type: "Convolution"
  bottom: "inception_4b/5x5_reduce"
  top: "inception_4b/5x5"
  param {
    lr_mult: 1
    decay_mult: 1
  }
  param {
    lr_mult: 2
    decay_mult: 0
  }
  convolution_param {
    num_output: 64
    pad: 2
    kernel_size: 5
    weight_filler {
      type: "xavier"
    }
    bias_filler {
      type: "constant"
      value: 0.2
    }
  }
}
layer {
  name: "inception_4b/relu_5x5"
  type: "ReLU"
  bottom: "inception_4b/5x5"
  top: "inception_4b/5x5"
}
layer {
  name: "inception_4b/pool"
  type: "Pooling"
  bottom: "inception_4a/output"
  top: "inception_4b/pool"
  pooling_param {
    pool: MAX
    kernel_size: 3
    stride: 1
    pad: 1
  }
}
layer {
  name: "inception_4b/pool_proj"
  type: "Convolution"
  bottom: "inception_4b/pool"
  top: "inception_4b/pool_proj"
  param {
    lr_mult: 1
    decay_mult: 1
  }
  param {
    lr_mult: 2
    decay_mult: 0
  }
  convolution_param {
    num_output: 64
    kernel_size: 1
    weight_filler {
      type: "xavier"
    }
    bias_filler {
      type: "constant"
      value: 0.2
    }
  }
}
layer {
  name: "inception_4b/relu_pool_proj"
  type: "ReLU"
  bottom: "inception_4b/pool_proj"
  top: "inception_4b/pool_proj"
}
layer {
  name: "inception_4b/output"
  type: "Concat"
  bottom: "inception_4b/1x1"
  bottom: "inception_4b/3x3"
  bottom: "inception_4b/5x5"
  bottom: "inception_4b/pool_proj"
  top: "inception_4b/output"
}
layer {
  name: "inception_4c/1x1"
  type: "Convolution"
  bottom: "inception_4b/output"
  top: "inception_4c/1x1"
  param {
    lr_mult: 1
    decay_mult: 1
  }
  param {
    lr_mult: 2
    decay_mult: 0
  }
  convolution_param {
    num_output: 128
    kernel_size: 1
    weight_filler {
      type: "xavier"
    }
    bias_filler {
      type: "constant"
      value: 0.2
    }
  }
}
layer {
  name: "inception_4c/relu_1x1"
  type: "ReLU"
  bottom: "inception_4c/1x1"
  top: "inception_4c/1x1"
}
layer {
  name: "inception_4c/3x3_reduce"
  type: "Convolution"
  bottom: "inception_4b/output"
  top: "inception_4c/3x3_reduce"
  param {
    lr_mult: 1
    decay_mult: 1
  }
  param {
    lr_mult: 2
    decay_mult: 0
  }
  convolution_param {
    num_output: 128
    kernel_size: 1
    weight_filler {
      type: "xavier"
    }
    bias_filler {
      type: "constant"
      value: 0.2
    }
  }
}
layer {
  name: "inception_4c/relu_3x3_reduce"
  type: "ReLU"
  bottom: "inception_4c/3x3_reduce"
  top: "inception_4c/3x3_reduce"
}
layer {
  name: "inception_4c/3x3"
  type: "Convolution"
  bottom: "inception_4c/3x3_reduce"
  top: "inception_4c/3x3"
  param {
    lr_mult: 1
    decay_mult: 1
  }
  param {
    lr_mult: 2
    decay_mult: 0
  }
  convolution_param {
    num_output: 256
    pad: 1
    kernel_size: 3
    weight_filler {
      type: "xavier"
    }
    bias_filler {
      type: "constant"
      value: 0.2
    }
  }
}
layer {
  name: "inception_4c/relu_3x3"
  type: "ReLU"
  bottom: "inception_4c/3x3"
  top: "inception_4c/3x3"
}
layer {
  name: "inception_4c/5x5_reduce"
  type: "Convolution"
  bottom: "inception_4b/output"
  top: "inception_4c/5x5_reduce"
  param {
    lr_mult: 1
    decay_mult: 1
  }
  param {
    lr_mult: 2
    decay_mult: 0
  }
  convolution_param {
    num_output: 24
    kernel_size: 1
    weight_filler {
      type: "xavier"
    }
    bias_filler {
      type: "constant"
      value: 0.2
    }
  }
}
layer {
  name: "inception_4c/relu_5x5_reduce"
  type: "ReLU"
  bottom: "inception_4c/5x5_reduce"
  top: "inception_4c/5x5_reduce"
}
layer {
  name: "inception_4c/5x5"
  type: "Convolution"
  bottom: "inception_4c/5x5_reduce"
  top: "inception_4c/5x5"
  param {
    lr_mult: 1
    decay_mult: 1
  }
  param {
    lr_mult: 2
    decay_mult: 0
  }
  convolution_param {
    num_output: 64
    pad: 2
    kernel_size: 5
    weight_filler {
      type: "xavier"
    }
    bias_filler {
      type: "constant"
      value: 0.2
    }
  }
}
layer {
  name: "inception_4c/relu_5x5"
  type: "ReLU"
  bottom: "inception_4c/5x5"
  top: "inception_4c/5x5"
}
layer {
  name: "inception_4c/pool"
  type: "Pooling"
  bottom: "inception_4b/output"
  top: "inception_4c/pool"
  pooling_param {
    pool: MAX
    kernel_size: 3
    stride: 1
    pad: 1
  }
}
layer {
  name: "inception_4c/pool_proj"
  type: "Convolution"
  bottom: "inception_4c/pool"
  top: "inception_4c/pool_proj"
  param {
    lr_mult: 1
    decay_mult: 1
  }
  param {
    lr_mult: 2
    decay_mult: 0
  }
  convolution_param {
    num_output: 64
    kernel_size: 1
    weight_filler {
      type: "xavier"
    }
    bias_filler {
      type: "constant"
      value: 0.2
    }
  }
}
layer {
  name: "inception_4c/relu_pool_proj"
  type: "ReLU"
  bottom: "inception_4c/pool_proj"
  top: "inception_4c/pool_proj"
}
layer {
  name: "inception_4c/output"
  type: "Concat"
  bottom: "inception_4c/1x1"
  bottom: "inception_4c/3x3"
  bottom: "inception_4c/5x5"
  bottom: "inception_4c/pool_proj"
  top: "inception_4c/output"
}
layer {
  name: "inception_4d/1x1"
  type: "Convolution"
  bottom: "inception_4c/output"
  top: "inception_4d/1x1"
  param {
    lr_mult: 1
    decay_mult: 1
  }
  param {
    lr_mult: 2
    decay_mult: 0
  }
  convolution_param {
    num_output: 112
    kernel_size: 1
    weight_filler {
      type: "xavier"
    }
    bias_filler {
      type: "constant"
      value: 0.2
    }
  }
}
layer {
  name: "inception_4d/relu_1x1"
  type: "ReLU"
  bottom: "inception_4d/1x1"
  top: "inception_4d/1x1"
}
layer {
  name: "inception_4d/3x3_reduce"
  type: "Convolution"
  bottom: "inception_4c/output"
  top: "inception_4d/3x3_reduce"
  param {
    lr_mult: 1
    decay_mult: 1
  }
  param {
    lr_mult: 2
    decay_mult: 0
  }
  convolution_param {
    num_output: 144
    kernel_size: 1
    weight_filler {
      type: "xavier"
    }
    bias_filler {
      type: "constant"
      value: 0.2
    }
  }
}
layer {
  name: "inception_4d/relu_3x3_reduce"
  type: "ReLU"
  bottom: "inception_4d/3x3_reduce"
  top: "inception_4d/3x3_reduce"
}
layer {
  name: "inception_4d/3x3"
  type: "Convolution"
  bottom: "inception_4d/3x3_reduce"
  top: "inception_4d/3x3"
  param {
    lr_mult: 1
    decay_mult: 1
  }
  param {
    lr_mult: 2
    decay_mult: 0
  }
  convolution_param {
    num_output: 288
    pad: 1
    kernel_size: 3
    weight_filler {
      type: "xavier"
    }
    bias_filler {
      type: "constant"
      value: 0.2
    }
  }
}
layer {
  name: "inception_4d/relu_3x3"
  type: "ReLU"
  bottom: "inception_4d/3x3"
  top: "inception_4d/3x3"
}
layer {
  name: "inception_4d/5x5_reduce"
  type: "Convolution"
  bottom: "inception_4c/output"
  top: "inception_4d/5x5_reduce"
  param {
    lr_mult: 1
    decay_mult: 1
  }
  param {
    lr_mult: 2
    decay_mult: 0
  }
  convolution_param {
    num_output: 32
    kernel_size: 1
    weight_filler {
      type: "xavier"
    }
    bias_filler {
      type: "constant"
      value: 0.2
    }
  }
}
layer {
  name: "inception_4d/relu_5x5_reduce"
  type: "ReLU"
  bottom: "inception_4d/5x5_reduce"
  top: "inception_4d/5x5_reduce"
}
layer {
  name: "inception_4d/5x5"
  type: "Convolution"
  bottom: "inception_4d/5x5_reduce"
  top: "inception_4d/5x5"
  param {
    lr_mult: 1
    decay_mult: 1
  }
  param {
    lr_mult: 2
    decay_mult: 0
  }
  convolution_param {
    num_output: 64
    pad: 2
    kernel_size: 5
    weight_filler {
      type: "xavier"
    }
    bias_filler {
      type: "constant"
      value: 0.2
    }
  }
}
layer {
  name: "inception_4d/relu_5x5"
  type: "ReLU"
  bottom: "inception_4d/5x5"
  top: "inception_4d/5x5"
}
layer {
  name: "inception_4d/pool"
  type: "Pooling"
  bottom: "inception_4c/output"
  top: "inception_4d/pool"
  pooling_param {
    pool: MAX
    kernel_size: 3
    stride: 1
    pad: 1
  }
}
layer {
  name: "inception_4d/pool_proj"
  type: "Convolution"
  bottom: "inception_4d/pool"
  top: "inception_4d/pool_proj"
  param {
    lr_mult: 1
    decay_mult: 1
  }
  param {
    lr_mult: 2
    decay_mult: 0
  }
  convolution_param {
    num_output: 64
    kernel_size: 1
    weight_filler {
      type: "xavier"
    }
    bias_filler {
      type: "constant"
      value: 0.2
    }
  }
}
layer {
  name: "inception_4d/relu_pool_proj"
  type: "ReLU"
  bottom: "inception_4d/pool_proj"
  top: "inception_4d/pool_proj"
}
layer {
  name: "inception_4d/output"
  type: "Concat"
  bottom: "inception_4d/1x1"
  bottom: "inception_4d/3x3"
  bottom: "inception_4d/5x5"
  bottom: "inception_4d/pool_proj"
  top: "inception_4d/output"
}
layer {
  name: "loss2/ave_pool"
  type: "Pooling"
  bottom: "inception_4d/output"
  top: "loss2/ave_pool"
  pooling_param {
    pool: AVE
    kernel_size: 5
    stride: 3
  }
}
layer {
  name: "loss2/conv"
  type: "Convolution"
  bottom: "loss2/ave_pool"
  top: "loss2/conv"
  param {
    lr_mult: 1
    decay_mult: 1
  }
  param {
    lr_mult: 2
    decay_mult: 0
  }
  convolution_param {
    num_output: 128
    kernel_size: 1
    weight_filler {
      type: "xavier"
    }
    bias_filler {
      type: "constant"
      value: 0.2
    }
  }
}
layer {
  name: "loss2/relu_conv"
  type: "ReLU"
  bottom: "loss2/conv"
  top: "loss2/conv"
}
layer {
  name: "loss2/fc"
  type: "InnerProduct"
  bottom: "loss2/conv"
  top: "loss2/fc"
  param {
    lr_mult: 1
    decay_mult: 1
  }
  param {
    lr_mult: 2
    decay_mult: 0
  }
  inner_product_param {
    num_output: 1024
    weight_filler {
      type: "xavier"
    }
    bias_filler {
      type: "constant"
      value: 0.2
    }
  }
}
layer {
  name: "loss2/relu_fc"
  type: "ReLU"
  bottom: "loss2/fc"
  top: "loss2/fc"
}
layer {
  name: "loss2/drop_fc"
  type: "Dropout"
  bottom: "loss2/fc"
  top: "loss2/fc"
  dropout_param {
    dropout_ratio: 0.7
  }
}
layer {
  name: "102flowers2/classifier"
  type: "InnerProduct"
  bottom: "loss2/fc"
  top: "102flowers2/classifier"
  param {
    lr_mult: 1
    decay_mult: 1
  }
  param {
    lr_mult: 2
    decay_mult: 0
  }
  inner_product_param {
    num_output: 102
    weight_filler {
      type: "xavier"
    }
    bias_filler {
      type: "constant"
      value: 0
    }
  }
}
layer {
  name: "inception_4e/1x1"
  type: "Convolution"
  bottom: "inception_4d/output"
  top: "inception_4e/1x1"
  param {
    lr_mult: 1
    decay_mult: 1
  }
  param {
    lr_mult: 2
    decay_mult: 0
  }
  convolution_param {
    num_output: 256
    kernel_size: 1
    weight_filler {
      type: "xavier"
    }
    bias_filler {
      type: "constant"
      value: 0.2
    }
  }
}
layer {
  name: "inception_4e/relu_1x1"
  type: "ReLU"
  bottom: "inception_4e/1x1"
  top: "inception_4e/1x1"
}
layer {
  name: "inception_4e/3x3_reduce"
  type: "Convolution"
  bottom: "inception_4d/output"
  top: "inception_4e/3x3_reduce"
  param {
    lr_mult: 1
    decay_mult: 1
  }
  param {
    lr_mult: 2
    decay_mult: 0
  }
  convolution_param {
    num_output: 160
    kernel_size: 1
    weight_filler {
      type: "xavier"
    }
    bias_filler {
      type: "constant"
      value: 0.2
    }
  }
}
layer {
  name: "inception_4e/relu_3x3_reduce"
  type: "ReLU"
  bottom: "inception_4e/3x3_reduce"
  top: "inception_4e/3x3_reduce"
}
layer {
  name: "inception_4e/3x3"
  type: "Convolution"
  bottom: "inception_4e/3x3_reduce"
  top: "inception_4e/3x3"
  param {
    lr_mult: 1
    decay_mult: 1
  }
  param {
    lr_mult: 2
    decay_mult: 0
  }
  convolution_param {
    num_output: 320
    pad: 1
    kernel_size: 3
    weight_filler {
      type: "xavier"
    }
    bias_filler {
      type: "constant"
      value: 0.2
    }
  }
}
layer {
  name: "inception_4e/relu_3x3"
  type: "ReLU"
  bottom: "inception_4e/3x3"
  top: "inception_4e/3x3"
}
layer {
  name: "inception_4e/5x5_reduce"
  type: "Convolution"
  bottom: "inception_4d/output"
  top: "inception_4e/5x5_reduce"
  param {
    lr_mult: 1
    decay_mult: 1
  }
  param {
    lr_mult: 2
    decay_mult: 0
  }
  convolution_param {
    num_output: 32
    kernel_size: 1
    weight_filler {
      type: "xavier"
    }
    bias_filler {
      type: "constant"
      value: 0.2
    }
  }
}
layer {
  name: "inception_4e/relu_5x5_reduce"
  type: "ReLU"
  bottom: "inception_4e/5x5_reduce"
  top: "inception_4e/5x5_reduce"
}
layer {
  name: "inception_4e/5x5"
  type: "Convolution"
  bottom: "inception_4e/5x5_reduce"
  top: "inception_4e/5x5"
  param {
    lr_mult: 1
    decay_mult: 1
  }
  param {
    lr_mult: 2
    decay_mult: 0
  }
  convolution_param {
    num_output: 128
    pad: 2
    kernel_size: 5
    weight_filler {
      type: "xavier"
    }
    bias_filler {
      type: "constant"
      value: 0.2
    }
  }
}
layer {
  name: "inception_4e/relu_5x5"
  type: "ReLU"
  bottom: "inception_4e/5x5"
  top: "inception_4e/5x5"
}
layer {
  name: "inception_4e/pool"
  type: "Pooling"
  bottom: "inception_4d/output"
  top: "inception_4e/pool"
  pooling_param {
    pool: MAX
    kernel_size: 3
    stride: 1
    pad: 1
  }
}
layer {
  name: "inception_4e/pool_proj"
  type: "Convolution"
  bottom: "inception_4e/pool"
  top: "inception_4e/pool_proj"
  param {
    lr_mult: 1
    decay_mult: 1
  }
  param {
    lr_mult: 2
    decay_mult: 0
  }
  convolution_param {
    num_output: 128
    kernel_size: 1
    weight_filler {
      type: "xavier"
    }
    bias_filler {
      type: "constant"
      value: 0.2
    }
  }
}
layer {
  name: "inception_4e/relu_pool_proj"
  type: "ReLU"
  bottom: "inception_4e/pool_proj"
  top: "inceptio
I0627 11:31:14.577410 31701 net.cpp:413] Input 0 -> data
I0627 11:31:14.585252 31701 layer_factory.hpp:77] Creating layer conv1/7x7_s2
I0627 11:31:14.585279 31701 net.cpp:106] Creating Layer conv1/7x7_s2
I0627 11:31:14.585285 31701 net.cpp:454] conv1/7x7_s2 <- data
I0627 11:31:14.585292 31701 net.cpp:411] conv1/7x7_s2 -> conv1/7x7_s2
I0627 11:31:14.697082 31701 net.cpp:150] Setting up conv1/7x7_s2
I0627 11:31:14.697113 31701 net.cpp:157] Top shape: 10 64 112 112 (8028160)
I0627 11:31:14.697116 31701 net.cpp:165] Memory required for data: 32112640
I0627 11:31:14.697130 31701 layer_factory.hpp:77] Creating layer conv1/relu_7x7
I0627 11:31:14.697142 31701 net.cpp:106] Creating Layer conv1/relu_7x7
I0627 11:31:14.697147 31701 net.cpp:454] conv1/relu_7x7 <- conv1/7x7_s2
I0627 11:31:14.697151 31701 net.cpp:397] conv1/relu_7x7 -> conv1/7x7_s2 (in-place)
I0627 11:31:14.697276 31701 net.cpp:150] Setting up conv1/relu_7x7
I0627 11:31:14.697284 31701 net.cpp:157] Top shape: 10 64 112 112 (8028160)
I0627 11:31:14.697288 31701 net.cpp:165] Memory required for data: 64225280
I0627 11:31:14.697291 31701 layer_factory.hpp:77] Creating layer pool1/3x3_s2
I0627 11:31:14.697299 31701 net.cpp:106] Creating Layer pool1/3x3_s2
I0627 11:31:14.697302 31701 net.cpp:454] pool1/3x3_s2 <- conv1/7x7_s2
I0627 11:31:14.697306 31701 net.cpp:411] pool1/3x3_s2 -> pool1/3x3_s2
I0627 11:31:14.697340 31701 net.cpp:150] Setting up pool1/3x3_s2
I0627 11:31:14.697345 31701 net.cpp:157] Top shape: 10 64 56 56 (2007040)
I0627 11:31:14.697347 31701 net.cpp:165] Memory required for data: 72253440
I0627 11:31:14.697350 31701 layer_factory.hpp:77] Creating layer pool1/norm1
I0627 11:31:14.697358 31701 net.cpp:106] Creating Layer pool1/norm1
I0627 11:31:14.697360 31701 net.cpp:454] pool1/norm1 <- pool1/3x3_s2
I0627 11:31:14.697365 31701 net.cpp:411] pool1/norm1 -> pool1/norm1
I0627 11:31:14.697651 31701 net.cpp:150] Setting up pool1/norm1
I0627 11:31:14.697662 31701 net.cpp:157] Top shape: 10 64 56 56 (2007040)
I0627 11:31:14.697665 31701 net.cpp:165] Memory required for data: 80281600
I0627 11:31:14.697669 31701 layer_factory.hpp:77] Creating layer conv2/3x3_reduce
I0627 11:31:14.697681 31701 net.cpp:106] Creating Layer conv2/3x3_reduce
I0627 11:31:14.697685 31701 net.cpp:454] conv2/3x3_reduce <- pool1/norm1
I0627 11:31:14.697690 31701 net.cpp:411] conv2/3x3_reduce -> conv2/3x3_reduce
I0627 11:31:14.699064 31701 net.cpp:150] Setting up conv2/3x3_reduce
I0627 11:31:14.699075 31701 net.cpp:157] Top shape: 10 64 56 56 (2007040)
I0627 11:31:14.699079 31701 net.cpp:165] Memory required for data: 88309760
I0627 11:31:14.699089 31701 layer_factory.hpp:77] Creating layer conv2/relu_3x3_reduce
I0627 11:31:14.699095 31701 net.cpp:106] Creating Layer conv2/relu_3x3_reduce
I0627 11:31:14.699097 31701 net.cpp:454] conv2/relu_3x3_reduce <- conv2/3x3_reduce
I0627 11:31:14.699102 31701 net.cpp:397] conv2/relu_3x3_reduce -> conv2/3x3_reduce (in-place)
I0627 11:31:14.699223 31701 net.cpp:150] Setting up conv2/relu_3x3_reduce
I0627 11:31:14.699230 31701 net.cpp:157] Top shape: 10 64 56 56 (2007040)
I0627 11:31:14.699234 31701 net.cpp:165] Memory required for data: 96337920
I0627 11:31:14.699236 31701 layer_factory.hpp:77] Creating layer conv2/3x3
I0627 11:31:14.699244 31701 net.cpp:106] Creating Layer conv2/3x3
I0627 11:31:14.699247 31701 net.cpp:454] conv2/3x3 <- conv2/3x3_reduce
I0627 11:31:14.699252 31701 net.cpp:411] conv2/3x3 -> conv2/3x3
I0627 11:31:14.701437 31701 net.cpp:150] Setting up conv2/3x3
I0627 11:31:14.701450 31701 net.cpp:157] Top shape: 10 192 56 56 (6021120)
I0627 11:31:14.701454 31701 net.cpp:165] Memory required for data: 120422400
I0627 11:31:14.701462 31701 layer_factory.hpp:77] Creating layer conv2/relu_3x3
I0627 11:31:14.701469 31701 net.cpp:106] Creating Layer conv2/relu_3x3
I0627 11:31:14.701472 31701 net.cpp:454] conv2/relu_3x3 <- conv2/3x3
I0627 11:31:14.701477 31701 net.cpp:397] conv2/relu_3x3 -> conv2/3x3 (in-place)
I0627 11:31:14.701752 31701 net.cpp:150] Setting up conv2/relu_3x3
I0627 11:31:14.701763 31701 net.cpp:157] Top shape: 10 192 56 56 (6021120)
I0627 11:31:14.701766 31701 net.cpp:165] Memory required for data: 144506880
I0627 11:31:14.701771 31701 layer_factory.hpp:77] Creating layer conv2/norm2
I0627 11:31:14.701778 31701 net.cpp:106] Creating Layer conv2/norm2
I0627 11:31:14.701781 31701 net.cpp:454] conv2/norm2 <- conv2/3x3
I0627 11:31:14.701786 31701 net.cpp:411] conv2/norm2 -> conv2/norm2
I0627 11:31:14.701936 31701 net.cpp:150] Setting up conv2/norm2
I0627 11:31:14.701943 31701 net.cpp:157] Top shape: 10 192 56 56 (6021120)
I0627 11:31:14.701946 31701 net.cpp:165] Memory required for data: 168591360
I0627 11:31:14.701949 31701 layer_factory.hpp:77] Creating layer pool2/3x3_s2
I0627 11:31:14.701956 31701 net.cpp:106] Creating Layer pool2/3x3_s2
I0627 11:31:14.701958 31701 net.cpp:454] pool2/3x3_s2 <- conv2/norm2
I0627 11:31:14.701963 31701 net.cpp:411] pool2/3x3_s2 -> pool2/3x3_s2
I0627 11:31:14.701989 31701 net.cpp:150] Setting up pool2/3x3_s2
I0627 11:31:14.701994 31701 net.cpp:157] Top shape: 10 192 28 28 (1505280)
I0627 11:31:14.702009 31701 net.cpp:165] Memory required for data: 174612480
I0627 11:31:14.702013 31701 layer_factory.hpp:77] Creating layer pool2/3x3_s2_pool2/3x3_s2_0_split
I0627 11:31:14.702024 31701 net.cpp:106] Creating Layer pool2/3x3_s2_pool2/3x3_s2_0_split
I0627 11:31:14.702028 31701 net.cpp:454] pool2/3x3_s2_pool2/3x3_s2_0_split <- pool2/3x3_s2
I0627 11:31:14.702033 31701 net.cpp:411] pool2/3x3_s2_pool2/3x3_s2_0_split -> pool2/3x3_s2_pool2/3x3_s2_0_split_0
I0627 11:31:14.702052 31701 net.cpp:411] pool2/3x3_s2_pool2/3x3_s2_0_split -> pool2/3x3_s2_pool2/3x3_s2_0_split_1
I0627 11:31:14.702069 31701 net.cpp:411] pool2/3x3_s2_pool2/3x3_s2_0_split -> pool2/3x3_s2_pool2/3x3_s2_0_split_2
I0627 11:31:14.702075 31701 net.cpp:411] pool2/3x3_s2_pool2/3x3_s2_0_split -> pool2/3x3_s2_pool2/3x3_s2_0_split_3
I0627 11:31:14.702131 31701 net.cpp:150] Setting up pool2/3x3_s2_pool2/3x3_s2_0_split
I0627 11:31:14.702137 31701 net.cpp:157] Top shape: 10 192 28 28 (1505280)
I0627 11:31:14.702141 31701 net.cpp:157] Top shape: 10 192 28 28 (1505280)
I0627 11:31:14.702144 31701 net.cpp:157] Top shape: 10 192 28 28 (1505280)
I0627 11:31:14.702147 31701 net.cpp:157] Top shape: 10 192 28 28 (1505280)
I0627 11:31:14.702150 31701 net.cpp:165] Memory required for data: 198696960
I0627 11:31:14.702153 31701 layer_factory.hpp:77] Creating layer inception_3a/1x1
I0627 11:31:14.702162 31701 net.cpp:106] Creating Layer inception_3a/1x1
I0627 11:31:14.702164 31701 net.cpp:454] inception_3a/1x1 <- pool2/3x3_s2_pool2/3x3_s2_0_split_0
I0627 11:31:14.702169 31701 net.cpp:411] inception_3a/1x1 -> inception_3a/1x1
I0627 11:31:14.703593 31701 net.cpp:150] Setting up inception_3a/1x1
I0627 11:31:14.703606 31701 net.cpp:157] Top shape: 10 64 28 28 (501760)
I0627 11:31:14.703609 31701 net.cpp:165] Memory required for data: 200704000
I0627 11:31:14.703616 31701 layer_factory.hpp:77] Creating layer inception_3a/relu_1x1
I0627 11:31:14.703624 31701 net.cpp:106] Creating Layer inception_3a/relu_1x1
I0627 11:31:14.703629 31701 net.cpp:454] inception_3a/relu_1x1 <- inception_3a/1x1
I0627 11:31:14.703632 31701 net.cpp:397] inception_3a/relu_1x1 -> inception_3a/1x1 (in-place)
I0627 11:31:14.703778 31701 net.cpp:150] Setting up inception_3a/relu_1x1
I0627 11:31:14.703785 31701 net.cpp:157] Top shape: 10 64 28 28 (501760)
I0627 11:31:14.703788 31701 net.cpp:165] Memory required for data: 202711040
I0627 11:31:14.703791 31701 layer_factory.hpp:77] Creating layer inception_3a/3x3_reduce
I0627 11:31:14.703804 31701 net.cpp:106] Creating Layer inception_3a/3x3_reduce
I0627 11:31:14.703806 31701 net.cpp:454] inception_3a/3x3_reduce <- pool2/3x3_s2_pool2/3x3_s2_0_split_1
I0627 11:31:14.703812 31701 net.cpp:411] inception_3a/3x3_reduce -> inception_3a/3x3_reduce
I0627 11:31:14.705446 31701 net.cpp:150] Setting up inception_3a/3x3_reduce
I0627 11:31:14.705459 31701 net.cpp:157] Top shape: 10 96 28 28 (752640)
I0627 11:31:14.705462 31701 net.cpp:165] Memory required for data: 205721600
I0627 11:31:14.705471 31701 layer_factory.hpp:77] Creating layer inception_3a/relu_3x3_reduce
I0627 11:31:14.705479 31701 net.cpp:106] Creating Layer inception_3a/relu_3x3_reduce
I0627 11:31:14.705482 31701 net.cpp:454] inception_3a/relu_3x3_reduce <- inception_3a/3x3_reduce
I0627 11:31:14.705487 31701 net.cpp:397] inception_3a/relu_3x3_reduce -> inception_3a/3x3_reduce (in-place)
I0627 11:31:14.705778 31701 net.cpp:150] Setting up inception_3a/relu_3x3_reduce
I0627 11:31:14.705790 31701 net.cpp:157] Top shape: 10 96 28 28 (752640)
I0627 11:31:14.705792 31701 net.cpp:165] Memory required for data: 208732160
I0627 11:31:14.705796 31701 layer_factory.hpp:77] Creating layer inception_3a/3x3
I0627 11:31:14.705807 31701 net.cpp:106] Creating Layer inception_3a/3x3
I0627 11:31:14.705811 31701 net.cpp:454] inception_3a/3x3 <- inception_3a/3x3_reduce
I0627 11:31:14.705817 31701 net.cpp:411] inception_3a/3x3 -> inception_3a/3x3
I0627 11:31:14.707361 31701 net.cpp:150] Setting up inception_3a/3x3
I0627 11:31:14.707373 31701 net.cpp:157] Top shape: 10 128 28 28 (1003520)
I0627 11:31:14.707377 31701 net.cpp:165] Memory required for data: 212746240
I0627 11:31:14.707383 31701 layer_factory.hpp:77] Creating layer inception_3a/relu_3x3
I0627 11:31:14.707392 31701 net.cpp:106] Creating Layer inception_3a/relu_3x3
I0627 11:31:14.707396 31701 net.cpp:454] inception_3a/relu_3x3 <- inception_3a/3x3
I0627 11:31:14.707401 31701 net.cpp:397] inception_3a/relu_3x3 -> inception_3a/3x3 (in-place)
I0627 11:31:14.707543 31701 net.cpp:150] Setting up inception_3a/relu_3x3
I0627 11:31:14.707551 31701 net.cpp:157] Top shape: 10 128 28 28 (1003520)
I0627 11:31:14.707554 31701 net.cpp:165] Memory required for data: 216760320
I0627 11:31:14.707557 31701 layer_factory.hpp:77] Creating layer inception_3a/5x5_reduce
I0627 11:31:14.707567 31701 net.cpp:106] Creating Layer inception_3a/5x5_reduce
I0627 11:31:14.707571 31701 net.cpp:454] inception_3a/5x5_reduce <- pool2/3x3_s2_pool2/3x3_s2_0_split_2
I0627 11:31:14.707576 31701 net.cpp:411] inception_3a/5x5_reduce -> inception_3a/5x5_reduce
I0627 11:31:14.708509 31701 net.cpp:150] Setting up inception_3a/5x5_reduce
I0627 11:31:14.708523 31701 net.cpp:157] Top shape: 10 16 28 28 (125440)
I0627 11:31:14.708526 31701 net.cpp:165] Memory required for data: 217262080
I0627 11:31:14.708533 31701 layer_factory.hpp:77] Creating layer inception_3a/relu_5x5_reduce
I0627 11:31:14.708539 31701 net.cpp:106] Creating Layer inception_3a/relu_5x5_reduce
I0627 11:31:14.708541 31701 net.cpp:454] inception_3a/relu_5x5_reduce <- inception_3a/5x5_reduce
I0627 11:31:14.708546 31701 net.cpp:397] inception_3a/relu_5x5_reduce -> inception_3a/5x5_reduce (in-place)
I0627 11:31:14.708688 31701 net.cpp:150] Setting up inception_3a/relu_5x5_reduce
I0627 11:31:14.708694 31701 net.cpp:157] Top shape: 10 16 28 28 (125440)
I0627 11:31:14.708698 31701 net.cpp:165] Memory required for data: 217763840
I0627 11:31:14.708700 31701 layer_factory.hpp:77] Creating layer inception_3a/5x5
I0627 11:31:14.708710 31701 net.cpp:106] Creating Layer inception_3a/5x5
I0627 11:31:14.708714 31701 net.cpp:454] inception_3a/5x5 <- inception_3a/5x5_reduce
I0627 11:31:14.708720 31701 net.cpp:411] inception_3a/5x5 -> inception_3a/5x5
I0627 11:31:14.709990 31701 net.cpp:150] Setting up inception_3a/5x5
I0627 11:31:14.710003 31701 net.cpp:157] Top shape: 10 32 28 28 (250880)
I0627 11:31:14.710007 31701 net.cpp:165] Memory required for data: 218767360
I0627 11:31:14.710013 31701 layer_factory.hpp:77] Creating layer inception_3a/relu_5x5
I0627 11:31:14.710019 31701 net.cpp:106] Creating Layer inception_3a/relu_5x5
I0627 11:31:14.710023 31701 net.cpp:454] inception_3a/relu_5x5 <- inception_3a/5x5
I0627 11:31:14.710027 31701 net.cpp:397] inception_3a/relu_5x5 -> inception_3a/5x5 (in-place)
I0627 11:31:14.710325 31701 net.cpp:150] Setting up inception_3a/relu_5x5
I0627 11:31:14.710336 31701 net.cpp:157] Top shape: 10 32 28 28 (250880)
I0627 11:31:14.710340 31701 net.cpp:165] Memory required for data: 219770880
I0627 11:31:14.710342 31701 layer_factory.hpp:77] Creating layer inception_3a/pool
I0627 11:31:14.710348 31701 net.cpp:106] Creating Layer inception_3a/pool
I0627 11:31:14.710352 31701 net.cpp:454] inception_3a/pool <- pool2/3x3_s2_pool2/3x3_s2_0_split_3
I0627 11:31:14.710357 31701 net.cpp:411] inception_3a/pool -> inception_3a/pool
I0627 11:31:14.710396 31701 net.cpp:150] Setting up inception_3a/pool
I0627 11:31:14.710402 31701 net.cpp:157] Top shape: 10 192 28 28 (1505280)
I0627 11:31:14.710407 31701 net.cpp:165] Memory required for data: 225792000
I0627 11:31:14.710409 31701 layer_factory.hpp:77] Creating layer inception_3a/pool_proj
I0627 11:31:14.710419 31701 net.cpp:106] Creating Layer inception_3a/pool_proj
I0627 11:31:14.710422 31701 net.cpp:454] inception_3a/pool_proj <- inception_3a/pool
I0627 11:31:14.710429 31701 net.cpp:411] inception_3a/pool_proj -> inception_3a/pool_proj
I0627 11:31:14.711364 31701 net.cpp:150] Setting up inception_3a/pool_proj
I0627 11:31:14.711376 31701 net.cpp:157] Top shape: 10 32 28 28 (250880)
I0627 11:31:14.711380 31701 net.cpp:165] Memory required for data: 226795520
I0627 11:31:14.711388 31701 layer_factory.hpp:77] Creating layer inception_3a/relu_pool_proj
I0627 11:31:14.711396 31701 net.cpp:106] Creating Layer inception_3a/relu_pool_proj
I0627 11:31:14.711400 31701 net.cpp:454] inception_3a/relu_pool_proj <- inception_3a/pool_proj
I0627 11:31:14.711405 31701 net.cpp:397] inception_3a/relu_pool_proj -> inception_3a/pool_proj (in-place)
I0627 11:31:14.711549 31701 net.cpp:150] Setting up inception_3a/relu_pool_proj
I0627 11:31:14.711556 31701 net.cpp:157] Top shape: 10 32 28 28 (250880)
I0627 11:31:14.711560 31701 net.cpp:165] Memory required for data: 227799040
I0627 11:31:14.711562 31701 layer_factory.hpp:77] Creating layer inception_3a/output
I0627 11:31:14.711572 31701 net.cpp:106] Creating Layer inception_3a/output
I0627 11:31:14.711575 31701 net.cpp:454] inception_3a/output <- inception_3a/1x1
I0627 11:31:14.711580 31701 net.cpp:454] inception_3a/output <- inception_3a/3x3
I0627 11:31:14.711583 31701 net.cpp:454] inception_3a/output <- inception_3a/5x5
I0627 11:31:14.711586 31701 net.cpp:454] inception_3a/output <- inception_3a/pool_proj
I0627 11:31:14.711592 31701 net.cpp:411] inception_3a/output -> inception_3a/output
I0627 11:31:14.711616 31701 net.cpp:150] Setting up inception_3a/output
I0627 11:31:14.711623 31701 net.cpp:157] Top shape: 10 256 28 28 (2007040)
I0627 11:31:14.711627 31701 net.cpp:165] Memory required for data: 235827200
I0627 11:31:14.711628 31701 layer_factory.hpp:77] Creating layer inception_3a/output_inception_3a/output_0_split
I0627 11:31:14.711633 31701 net.cpp:106] Creating Layer inception_3a/output_inception_3a/output_0_split
I0627 11:31:14.711637 31701 net.cpp:454] inception_3a/output_inception_3a/output_0_split <- inception_3a/output
I0627 11:31:14.711640 31701 net.cpp:411] inception_3a/output_inception_3a/output_0_split -> inception_3a/output_inception_3a/output_0_split_0
I0627 11:31:14.711647 31701 net.cpp:411] inception_3a/output_inception_3a/output_0_split -> inception_3a/output_inception_3a/output_0_split_1
I0627 11:31:14.711652 31701 net.cpp:411] inception_3a/output_inception_3a/output_0_split -> inception_3a/output_inception_3a/output_0_split_2
I0627 11:31:14.711658 31701 net.cpp:411] inception_3a/output_inception_3a/output_0_split -> inception_3a/output_inception_3a/output_0_split_3
I0627 11:31:14.711706 31701 net.cpp:150] Setting up inception_3a/output_inception_3a/output_0_split
I0627 11:31:14.711712 31701 net.cpp:157] Top shape: 10 256 28 28 (2007040)
I0627 11:31:14.711716 31701 net.cpp:157] Top shape: 10 256 28 28 (2007040)
I0627 11:31:14.711719 31701 net.cpp:157] Top shape: 10 256 28 28 (2007040)
I0627 11:31:14.711722 31701 net.cpp:157] Top shape: 10 256 28 28 (2007040)
I0627 11:31:14.711725 31701 net.cpp:165] Memory required for data: 267939840
I0627 11:31:14.711729 31701 layer_factory.hpp:77] Creating layer inception_3b/1x1
I0627 11:31:14.711737 31701 net.cpp:106] Creating Layer inception_3b/1x1
I0627 11:31:14.711741 31701 net.cpp:454] inception_3b/1x1 <- inception_3a/output_inception_3a/output_0_split_0
I0627 11:31:14.711750 31701 net.cpp:411] inception_3b/1x1 -> inception_3b/1x1
I0627 11:31:14.712844 31701 net.cpp:150] Setting up inception_3b/1x1
I0627 11:31:14.712857 31701 net.cpp:157] Top shape: 10 128 28 28 (1003520)
I0627 11:31:14.712859 31701 net.cpp:165] Memory required for data: 271953920
I0627 11:31:14.712867 31701 layer_factory.hpp:77] Creating layer inception_3b/relu_1x1
I0627 11:31:14.712872 31701 net.cpp:106] Creating Layer inception_3b/relu_1x1
I0627 11:31:14.712875 31701 net.cpp:454] inception_3b/relu_1x1 <- inception_3b/1x1
I0627 11:31:14.712882 31701 net.cpp:397] inception_3b/relu_1x1 -> inception_3b/1x1 (in-place)
I0627 11:31:14.713021 31701 net.cpp:150] Setting up inception_3b/relu_1x1
I0627 11:31:14.713029 31701 net.cpp:157] Top shape: 10 128 28 28 (1003520)
I0627 11:31:14.713032 31701 net.cpp:165] Memory required for data: 275968000
I0627 11:31:14.713035 31701 layer_factory.hpp:77] Creating layer inception_3b/3x3_reduce
I0627 11:31:14.713047 31701 net.cpp:106] Creating Layer inception_3b/3x3_reduce
I0627 11:31:14.713050 31701 net.cpp:454] inception_3b/3x3_reduce <- inception_3a/output_inception_3a/output_0_split_1
I0627 11:31:14.713055 31701 net.cpp:411] inception_3b/3x3_reduce -> inception_3b/3x3_reduce
I0627 11:31:14.714145 31701 net.cpp:150] Setting up inception_3b/3x3_reduce
I0627 11:31:14.714157 31701 net.cpp:157] Top shape: 10 128 28 28 (1003520)
I0627 11:31:14.714160 31701 net.cpp:165] Memory required for data: 279982080
I0627 11:31:14.714166 31701 layer_factory.hpp:77] Creating layer inception_3b/relu_3x3_reduce
I0627 11:31:14.714174 31701 net.cpp:106] Creating Layer inception_3b/relu_3x3_reduce
I0627 11:31:14.714177 31701 net.cpp:454] inception_3b/relu_3x3_reduce <- inception_3b/3x3_reduce
I0627 11:31:14.714184 31701 net.cpp:397] inception_3b/relu_3x3_reduce -> inception_3b/3x3_reduce (in-place)
I0627 11:31:14.714471 31701 net.cpp:150] Setting up inception_3b/relu_3x3_reduce
I0627 11:31:14.714481 31701 net.cpp:157] Top shape: 10 128 28 28 (1003520)
I0627 11:31:14.714484 31701 net.cpp:165] Memory required for data: 283996160
I0627 11:31:14.714488 31701 layer_factory.hpp:77] Creating layer inception_3b/3x3
I0627 11:31:14.714498 31701 net.cpp:106] Creating Layer inception_3b/3x3
I0627 11:31:14.714503 31701 net.cpp:454] inception_3b/3x3 <- inception_3b/3x3_reduce
I0627 11:31:14.714509 31701 net.cpp:411] inception_3b/3x3 -> inception_3b/3x3
I0627 11:31:14.717233 31701 net.cpp:150] Setting up inception_3b/3x3
I0627 11:31:14.717245 31701 net.cpp:157] Top shape: 10 192 28 28 (1505280)
I0627 11:31:14.717248 31701 net.cpp:165] Memory required for data: 290017280
I0627 11:31:14.717268 31701 layer_factory.hpp:77] Creating layer inception_3b/relu_3x3
I0627 11:31:14.717277 31701 net.cpp:106] Creating Layer inception_3b/relu_3x3
I0627 11:31:14.717280 31701 net.cpp:454] inception_3b/relu_3x3 <- inception_3b/3x3
I0627 11:31:14.717298 31701 net.cpp:397] inception_3b/relu_3x3 -> inception_3b/3x3 (in-place)
I0627 11:31:14.717468 31701 net.cpp:150] Setting up inception_3b/relu_3x3
I0627 11:31:14.717476 31701 net.cpp:157] Top shape: 10 192 28 28 (1505280)
I0627 11:31:14.717479 31701 net.cpp:165] Memory required for data: 296038400
I0627 11:31:14.717483 31701 layer_factory.hpp:77] Creating layer inception_3b/5x5_reduce
I0627 11:31:14.717494 31701 net.cpp:106] Creating Layer inception_3b/5x5_reduce
I0627 11:31:14.717499 31701 net.cpp:454] inception_3b/5x5_reduce <- inception_3a/output_inception_3a/output_0_split_2
I0627 11:31:14.717505 31701 net.cpp:411] inception_3b/5x5_reduce -> inception_3b/5x5_reduce
I0627 11:31:14.718499 31701 net.cpp:150] Setting up inception_3b/5x5_reduce
I0627 11:31:14.718511 31701 net.cpp:157] Top shape: 10 32 28 28 (250880)
I0627 11:31:14.718514 31701 net.cpp:165] Memory required for data: 297041920
I0627 11:31:14.718521 31701 layer_factory.hpp:77] Creating layer inception_3b/relu_5x5_reduce
I0627 11:31:14.718528 31701 net.cpp:106] Creating Layer inception_3b/relu_5x5_reduce
I0627 11:31:14.718530 31701 net.cpp:454] inception_3b/relu_5x5_reduce <- inception_3b/5x5_reduce
I0627 11:31:14.718536 31701 net.cpp:397] inception_3b/relu_5x5_reduce -> inception_3b/5x5_reduce (in-place)
I0627 11:31:14.718677 31701 net.cpp:150] Setting up inception_3b/relu_5x5_reduce
I0627 11:31:14.718684 31701 net.cpp:157] Top shape: 10 32 28 28 (250880)
I0627 11:31:14.718688 31701 net.cpp:165] Memory required for data: 298045440
I0627 11:31:14.718690 31701 layer_factory.hpp:77] Creating layer inception_3b/5x5
I0627 11:31:14.718703 31701 net.cpp:106] Creating Layer inception_3b/5x5
I0627 11:31:14.718706 31701 net.cpp:454] inception_3b/5x5 <- inception_3b/5x5_reduce
I0627 11:31:14.718713 31701 net.cpp:411] inception_3b/5x5 -> inception_3b/5x5
I0627 11:31:14.720573 31701 net.cpp:150] Setting up inception_3b/5x5
I0627 11:31:14.720585 31701 net.cpp:157] Top shape: 10 96 28 28 (752640)
I0627 11:31:14.720588 31701 net.cpp:165] Memory required for data: 301056000
I0627 11:31:14.720595 31701 layer_factory.hpp:77] Creating layer inception_3b/relu_5x5
I0627 11:31:14.720602 31701 net.cpp:106] Creating Layer inception_3b/relu_5x5
I0627 11:31:14.720605 31701 net.cpp:454] inception_3b/relu_5x5 <- inception_3b/5x5
I0627 11:31:14.720612 31701 net.cpp:397] inception_3b/relu_5x5 -> inception_3b/5x5 (in-place)
I0627 11:31:14.720911 31701 net.cpp:150] Setting up inception_3b/relu_5x5
I0627 11:31:14.720922 31701 net.cpp:157] Top shape: 10 96 28 28 (752640)
I0627 11:31:14.720926 31701 net.cpp:165] Memory required for data: 304066560
I0627 11:31:14.720928 31701 layer_factory.hpp:77] Creating layer inception_3b/pool
I0627 11:31:14.720934 31701 net.cpp:106] Creating Layer inception_3b/pool
I0627 11:31:14.720938 31701 net.cpp:454] inception_3b/pool <- inception_3a/output_inception_3a/output_0_split_3
I0627 11:31:14.720945 31701 net.cpp:411] inception_3b/pool -> inception_3b/pool
I0627 11:31:14.720984 31701 net.cpp:150] Setting up inception_3b/pool
I0627 11:31:14.720990 31701 net.cpp:157] Top shape: 10 256 28 28 (2007040)
I0627 11:31:14.720993 31701 net.cpp:165] Memory required for data: 312094720
I0627 11:31:14.720995 31701 layer_factory.hpp:77] Creating layer inception_3b/pool_proj
I0627 11:31:14.721006 31701 net.cpp:106] Creating Layer inception_3b/pool_proj
I0627 11:31:14.721009 31701 net.cpp:454] inception_3b/pool_proj <- inception_3b/pool
I0627 11:31:14.721014 31701 net.cpp:411] inception_3b/pool_proj -> inception_3b/pool_proj
I0627 11:31:14.722054 31701 net.cpp:150] Setting up inception_3b/pool_proj
I0627 11:31:14.722065 31701 net.cpp:157] Top shape: 10 64 28 28 (501760)
I0627 11:31:14.722069 31701 net.cpp:165] Memory required for data: 314101760
I0627 11:31:14.722075 31701 layer_factory.hpp:77] Creating layer inception_3b/relu_pool_proj
I0627 11:31:14.722081 31701 net.cpp:106] Creating Layer inception_3b/relu_pool_proj
I0627 11:31:14.722085 31701 net.cpp:454] inception_3b/relu_pool_proj <- inception_3b/pool_proj
I0627 11:31:14.722091 31701 net.cpp:397] inception_3b/relu_pool_proj -> inception_3b/pool_proj (in-place)
I0627 11:31:14.722275 31701 net.cpp:150] Setting up inception_3b/relu_pool_proj
I0627 11:31:14.722285 31701 net.cpp:157] Top shape: 10 64 28 28 (501760)
I0627 11:31:14.722287 31701 net.cpp:165] Memory required for data: 316108800
I0627 11:31:14.722303 31701 layer_factory.hpp:77] Creating layer inception_3b/output
I0627 11:31:14.722322 31701 net.cpp:106] Creating Layer inception_3b/output
I0627 11:31:14.722326 31701 net.cpp:454] inception_3b/output <- inception_3b/1x1
I0627 11:31:14.722332 31701 net.cpp:454] inception_3b/output <- inception_3b/3x3
I0627 11:31:14.722335 31701 net.cpp:454] inception_3b/output <- inception_3b/5x5
I0627 11:31:14.722338 31701 net.cpp:454] inception_3b/output <- inception_3b/pool_proj
I0627 11:31:14.722343 31701 net.cpp:411] inception_3b/output -> inception_3b/output
I0627 11:31:14.722383 31701 net.cpp:150] Setting up inception_3b/output
I0627 11:31:14.722389 31701 net.cpp:157] Top shape: 10 480 28 28 (3763200)
I0627 11:31:14.722393 31701 net.cpp:165] Memory required for data: 331161600
I0627 11:31:14.722395 31701 layer_factory.hpp:77] Creating layer pool3/3x3_s2
I0627 11:31:14.722400 31701 net.cpp:106] Creating Layer pool3/3x3_s2
I0627 11:31:14.722404 31701 net.cpp:454] pool3/3x3_s2 <- inception_3b/output
I0627 11:31:14.722409 31701 net.cpp:411] pool3/3x3_s2 -> pool3/3x3_s2
I0627 11:31:14.722445 31701 net.cpp:150] Setting up pool3/3x3_s2
I0627 11:31:14.722451 31701 net.cpp:157] Top shape: 10 480 14 14 (940800)
I0627 11:31:14.722453 31701 net.cpp:165] Memory required for data: 334924800
I0627 11:31:14.722456 31701 layer_factory.hpp:77] Creating layer pool3/3x3_s2_pool3/3x3_s2_0_split
I0627 11:31:14.722461 31701 net.cpp:106] Creating Layer pool3/3x3_s2_pool3/3x3_s2_0_split
I0627 11:31:14.722466 31701 net.cpp:454] pool3/3x3_s2_pool3/3x3_s2_0_split <- pool3/3x3_s2
I0627 11:31:14.722470 31701 net.cpp:411] pool3/3x3_s2_pool3/3x3_s2_0_split -> pool3/3x3_s2_pool3/3x3_s2_0_split_0
I0627 11:31:14.722476 31701 net.cpp:411] pool3/3x3_s2_pool3/3x3_s2_0_split -> pool3/3x3_s2_pool3/3x3_s2_0_split_1
I0627 11:31:14.722481 31701 net.cpp:411] pool3/3x3_s2_pool3/3x3_s2_0_split -> pool3/3x3_s2_pool3/3x3_s2_0_split_2
I0627 11:31:14.722486 31701 net.cpp:411] pool3/3x3_s2_pool3/3x3_s2_0_split -> pool3/3x3_s2_pool3/3x3_s2_0_split_3
I0627 11:31:14.722533 31701 net.cpp:150] Setting up pool3/3x3_s2_pool3/3x3_s2_0_split
I0627 11:31:14.722538 31701 net.cpp:157] Top shape: 10 480 14 14 (940800)
I0627 11:31:14.722543 31701 net.cpp:157] Top shape: 10 480 14 14 (940800)
I0627 11:31:14.722545 31701 net.cpp:157] Top shape: 10 480 14 14 (940800)
I0627 11:31:14.722548 31701 net.cpp:157] Top shape: 10 480 14 14 (940800)
I0627 11:31:14.722551 31701 net.cpp:165] Memory required for data: 349977600
I0627 11:31:14.722554 31701 layer_factory.hpp:77] Creating layer inception_4a/1x1
I0627 11:31:14.722563 31701 net.cpp:106] Creating Layer inception_4a/1x1
I0627 11:31:14.722566 31701 net.cpp:454] inception_4a/1x1 <- pool3/3x3_s2_pool3/3x3_s2_0_split_0
I0627 11:31:14.722573 31701 net.cpp:411] inception_4a/1x1 -> inception_4a/1x1
I0627 11:31:14.724172 31701 net.cpp:150] Setting up inception_4a/1x1
I0627 11:31:14.724184 31701 net.cpp:157] Top shape: 10 192 14 14 (376320)
I0627 11:31:14.724187 31701 net.cpp:165] Memory required for data: 351482880
I0627 11:31:14.724195 31701 layer_factory.hpp:77] Creating layer inception_4a/relu_1x1
I0627 11:31:14.724201 31701 net.cpp:106] Creating Layer inception_4a/relu_1x1
I0627 11:31:14.724205 31701 net.cpp:454] inception_4a/relu_1x1 <- inception_4a/1x1
I0627 11:31:14.724210 31701 net.cpp:397] inception_4a/relu_1x1 -> inception_4a/1x1 (in-place)
I0627 11:31:14.724355 31701 net.cpp:150] Setting up inception_4a/relu_1x1
I0627 11:31:14.724364 31701 net.cpp:157] Top shape: 10 192 14 14 (376320)
I0627 11:31:14.724366 31701 net.cpp:165] Memory required for data: 352988160
I0627 11:31:14.724370 31701 layer_factory.hpp:77] Creating layer inception_4a/3x3_reduce
I0627 11:31:14.724382 31701 net.cpp:106] Creating Layer inception_4a/3x3_reduce
I0627 11:31:14.724386 31701 net.cpp:454] inception_4a/3x3_reduce <- pool3/3x3_s2_pool3/3x3_s2_0_split_1
I0627 11:31:14.724391 31701 net.cpp:411] inception_4a/3x3_reduce -> inception_4a/3x3_reduce
I0627 11:31:14.725595 31701 net.cpp:150] Setting up inception_4a/3x3_reduce
I0627 11:31:14.725607 31701 net.cpp:157] Top shape: 10 96 14 14 (188160)
I0627 11:31:14.725610 31701 net.cpp:165] Memory required for data: 353740800
I0627 11:31:14.725623 31701 layer_factory.hpp:77] Creating layer inception_4a/relu_3x3_reduce
I0627 11:31:14.725630 31701 net.cpp:106] Creating Layer inception_4a/relu_3x3_reduce
I0627 11:31:14.725633 31701 net.cpp:454] inception_4a/relu_3x3_reduce <- inception_4a/3x3_reduce
I0627 11:31:14.725638 31701 net.cpp:397] inception_4a/relu_3x3_reduce -> inception_4a/3x3_reduce (in-place)
I0627 11:31:14.725927 31701 net.cpp:150] Setting up inception_4a/relu_3x3_reduce
I0627 11:31:14.725939 31701 net.cpp:157] Top shape: 10 96 14 14 (188160)
I0627 11:31:14.725944 31701 net.cpp:165] Memory required for data: 354493440
I0627 11:31:14.725947 31701 layer_factory.hpp:77] Creating layer inception_4a/3x3
I0627 11:31:14.725957 31701 net.cpp:106] Creating Layer inception_4a/3x3
I0627 11:31:14.725961 31701 net.cpp:454] inception_4a/3x3 <- inception_4a/3x3_reduce
I0627 11:31:14.725966 31701 net.cpp:411] inception_4a/3x3 -> inception_4a/3x3
I0627 11:31:14.728461 31701 net.cpp:150] Setting up inception_4a/3x3
I0627 11:31:14.728474 31701 net.cpp:157] Top shape: 10 208 14 14 (407680)
I0627 11:31:14.728478 31701 net.cpp:165] Memory required for data: 356124160
I0627 11:31:14.728484 31701 layer_factory.hpp:77] Creating layer inception_4a/relu_3x3
I0627 11:31:14.728490 31701 net.cpp:106] Creating Layer inception_4a/relu_3x3
I0627 11:31:14.728494 31701 net.cpp:454] inception_4a/relu_3x3 <- inception_4a/3x3
I0627 11:31:14.728498 31701 net.cpp:397] inception_4a/relu_3x3 -> inception_4a/3x3 (in-place)
I0627 11:31:14.728646 31701 net.cpp:150] Setting up inception_4a/relu_3x3
I0627 11:31:14.728652 31701 net.cpp:157] Top shape: 10 208 14 14 (407680)
I0627 11:31:14.728655 31701 net.cpp:165] Memory required for data: 357754880
I0627 11:31:14.728659 31701 layer_factory.hpp:77] Creating layer inception_4a/5x5_reduce
I0627 11:31:14.728668 31701 net.cpp:106] Creating Layer inception_4a/5x5_reduce
I0627 11:31:14.728672 31701 net.cpp:454] inception_4a/5x5_reduce <- pool3/3x3_s2_pool3/3x3_s2_0_split_2
I0627 11:31:14.728679 31701 net.cpp:411] inception_4a/5x5_reduce -> inception_4a/5x5_reduce
I0627 11:31:14.729677 31701 net.cpp:150] Setting up inception_4a/5x5_reduce
I0627 11:31:14.729689 31701 net.cpp:157] Top shape: 10 16 14 14 (31360)
I0627 11:31:14.729692 31701 net.cpp:165] Memory required for data: 357880320
I0627 11:31:14.729699 31701 layer_factory.hpp:77] Creating layer inception_4a/relu_5x5_reduce
I0627 11:31:14.729704 31701 net.cpp:106] Creating Layer inception_4a/relu_5x5_reduce
I0627 11:31:14.729708 31701 net.cpp:454] inception_4a/relu_5x5_reduce <- inception_4a/5x5_reduce
I0627 11:31:14.729714 31701 net.cpp:397] inception_4a/relu_5x5_reduce -> inception_4a/5x5_reduce (in-place)
I0627 11:31:14.729859 31701 net.cpp:150] Setting up inception_4a/relu_5x5_reduce
I0627 11:31:14.729867 31701 net.cpp:157] Top shape: 10 16 14 14 (31360)
I0627 11:31:14.729871 31701 net.cpp:165] Memory required for data: 358005760
I0627 11:31:14.729873 31701 layer_factory.hpp:77] Creating layer inception_4a/5x5
I0627 11:31:14.729883 31701 net.cpp:106] Creating Layer inception_4a/5x5
I0627 11:31:14.729887 31701 net.cpp:454] inception_4a/5x5 <- inception_4a/5x5_reduce
I0627 11:31:14.729894 31701 net.cpp:411] inception_4a/5x5 -> inception_4a/5x5
I0627 11:31:14.730931 31701 net.cpp:150] Setting up inception_4a/5x5
I0627 11:31:14.730942 31701 net.cpp:157] Top shape: 10 48 14 14 (94080)
I0627 11:31:14.730945 31701 net.cpp:165] Memory required for data: 358382080
I0627 11:31:14.730952 31701 layer_factory.hpp:77] Creating layer inception_4a/relu_5x5
I0627 11:31:14.730959 31701 net.cpp:106] Creating Layer inception_4a/relu_5x5
I0627 11:31:14.730962 31701 net.cpp:454] inception_4a/relu_5x5 <- inception_4a/5x5
I0627 11:31:14.730967 31701 net.cpp:397] inception_4a/relu_5x5 -> inception_4a/5x5 (in-place)
I0627 11:31:14.731261 31701 net.cpp:150] Setting up inception_4a/relu_5x5
I0627 11:31:14.731272 31701 net.cpp:157] Top shape: 10 48 14 14 (94080)
I0627 11:31:14.731276 31701 net.cpp:165] Memory required for data: 358758400
I0627 11:31:14.731279 31701 layer_factory.hpp:77] Creating layer inception_4a/pool
I0627 11:31:14.731287 31701 net.cpp:106] Creating Layer inception_4a/pool
I0627 11:31:14.731290 31701 net.cpp:454] inception_4a/pool <- pool3/3x3_s2_pool3/3x3_s2_0_split_3
I0627 11:31:14.731295 31701 net.cpp:411] inception_4a/pool -> inception_4a/pool
I0627 11:31:14.731336 31701 net.cpp:150] Setting up inception_4a/pool
I0627 11:31:14.731343 31701 net.cpp:157] Top shape: 10 480 14 14 (940800)
I0627 11:31:14.731344 31701 net.cpp:165] Memory required for data: 362521600
I0627 11:31:14.731348 31701 layer_factory.hpp:77] Creating layer inception_4a/pool_proj
I0627 11:31:14.731358 31701 net.cpp:106] Creating Layer inception_4a/pool_proj
I0627 11:31:14.731360 31701 net.cpp:454] inception_4a/pool_proj <- inception_4a/pool
I0627 11:31:14.731367 31701 net.cpp:411] inception_4a/pool_proj -> inception_4a/pool_proj
I0627 11:31:14.732487 31701 net.cpp:150] Setting up inception_4a/pool_proj
I0627 11:31:14.732499 31701 net.cpp:157] Top shape: 10 64 14 14 (125440)
I0627 11:31:14.732503 31701 net.cpp:165] Memory required for data: 363023360
I0627 11:31:14.732509 31701 layer_factory.hpp:77] Creating layer inception_4a/relu_pool_proj
I0627 11:31:14.732516 31701 net.cpp:106] Creating Layer inception_4a/relu_pool_proj
I0627 11:31:14.732519 31701 net.cpp:454] inception_4a/relu_pool_proj <- inception_4a/pool_proj
I0627 11:31:14.732525 31701 net.cpp:397] inception_4a/relu_pool_proj -> inception_4a/pool_proj (in-place)
I0627 11:31:14.732667 31701 net.cpp:150] Setting up inception_4a/relu_pool_proj
I0627 11:31:14.732676 31701 net.cpp:157] Top shape: 10 64 14 14 (125440)
I0627 11:31:14.732678 31701 net.cpp:165] Memory required for data: 363525120
I0627 11:31:14.732681 31701 layer_factory.hpp:77] Creating layer inception_4a/output
I0627 11:31:14.732688 31701 net.cpp:106] Creating Layer inception_4a/output
I0627 11:31:14.732692 31701 net.cpp:454] inception_4a/output <- inception_4a/1x1
I0627 11:31:14.732697 31701 net.cpp:454] inception_4a/output <- inception_4a/3x3
I0627 11:31:14.732700 31701 net.cpp:454] inception_4a/output <- inception_4a/5x5
I0627 11:31:14.732703 31701 net.cpp:454] inception_4a/output <- inception_4a/pool_proj
I0627 11:31:14.732707 31701 net.cpp:411] inception_4a/output -> inception_4a/output
I0627 11:31:14.732734 31701 net.cpp:150] Setting up inception_4a/output
I0627 11:31:14.732741 31701 net.cpp:157] Top shape: 10 512 14 14 (1003520)
I0627 11:31:14.732743 31701 net.cpp:165] Memory required for data: 367539200
I0627 11:31:14.732746 31701 layer_factory.hpp:77] Creating layer inception_4a/output_inception_4a/output_0_split
I0627 11:31:14.732751 31701 net.cpp:106] Creating Layer inception_4a/output_inception_4a/output_0_split
I0627 11:31:14.732754 31701 net.cpp:454] inception_4a/output_inception_4a/output_0_split <- inception_4a/output
I0627 11:31:14.732760 31701 net.cpp:411] inception_4a/output_inception_4a/output_0_split -> inception_4a/output_inception_4a/output_0_split_0
I0627 11:31:14.732766 31701 net.cpp:411] inception_4a/output_inception_4a/output_0_split -> inception_4a/output_inception_4a/output_0_split_1
I0627 11:31:14.732771 31701 net.cpp:411] inception_4a/output_inception_4a/output_0_split -> inception_4a/output_inception_4a/output_0_split_2
I0627 11:31:14.732776 31701 net.cpp:411] inception_4a/output_inception_4a/output_0_split -> inception_4a/output_inception_4a/output_0_split_3
I0627 11:31:14.732781 31701 net.cpp:411] inception_4a/output_inception_4a/output_0_split -> inception_4a/output_inception_4a/output_0_split_4
I0627 11:31:14.732851 31701 net.cpp:150] Setting up inception_4a/output_inception_4a/output_0_split
I0627 11:31:14.732859 31701 net.cpp:157] Top shape: 10 512 14 14 (1003520)
I0627 11:31:14.732863 31701 net.cpp:157] Top shape: 10 512 14 14 (1003520)
I0627 11:31:14.732867 31701 net.cpp:157] Top shape: 10 512 14 14 (1003520)
I0627 11:31:14.732870 31701 net.cpp:157] Top shape: 10 512 14 14 (1003520)
I0627 11:31:14.732873 31701 net.cpp:157] Top shape: 10 512 14 14 (1003520)
I0627 11:31:14.732877 31701 net.cpp:165] Memory required for data: 387609600
I0627 11:31:14.732879 31701 layer_factory.hpp:77] Creating layer loss1/ave_pool
I0627 11:31:14.732885 31701 net.cpp:106] Creating Layer loss1/ave_pool
I0627 11:31:14.732888 31701 net.cpp:454] loss1/ave_pool <- inception_4a/output_inception_4a/output_0_split_0
I0627 11:31:14.732893 31701 net.cpp:411] loss1/ave_pool -> loss1/ave_pool
I0627 11:31:14.733211 31701 net.cpp:150] Setting up loss1/ave_pool
I0627 11:31:14.733222 31701 net.cpp:157] Top shape: 10 512 4 4 (81920)
I0627 11:31:14.733224 31701 net.cpp:165] Memory required for data: 387937280
I0627 11:31:14.733228 31701 layer_factory.hpp:77] Creating layer loss1/conv
I0627 11:31:14.733238 31701 net.cpp:106] Creating Layer loss1/conv
I0627 11:31:14.733242 31701 net.cpp:454] loss1/conv <- loss1/ave_pool
I0627 11:31:14.733249 31701 net.cpp:411] loss1/conv -> loss1/conv
I0627 11:31:14.734443 31701 net.cpp:150] Setting up loss1/conv
I0627 11:31:14.734455 31701 net.cpp:157] Top shape: 10 128 4 4 (20480)
I0627 11:31:14.734458 31701 net.cpp:165] Memory required for data: 388019200
I0627 11:31:14.734464 31701 layer_factory.hpp:77] Creating layer loss1/relu_conv
I0627 11:31:14.734470 31701 net.cpp:106] Creating Layer loss1/relu_conv
I0627 11:31:14.734474 31701 net.cpp:454] loss1/relu_conv <- loss1/conv
I0627 11:31:14.734480 31701 net.cpp:397] loss1/relu_conv -> loss1/conv (in-place)
I0627 11:31:14.734771 31701 net.cpp:150] Setting up loss1/relu_conv
I0627 11:31:14.734781 31701 net.cpp:157] Top shape: 10 128 4 4 (20480)
I0627 11:31:14.734783 31701 net.cpp:165] Memory required for data: 388101120
I0627 11:31:14.734787 31701 layer_factory.hpp:77] Creating layer loss1/fc
I0627 11:31:14.734797 31701 net.cpp:106] Creating Layer loss1/fc
I0627 11:31:14.734799 31701 net.cpp:454] loss1/fc <- loss1/conv
I0627 11:31:14.734804 31701 net.cpp:411] loss1/fc -> loss1/fc
I0627 11:31:14.750392 31701 net.cpp:150] Setting up loss1/fc
I0627 11:31:14.750409 31701 net.cpp:157] Top shape: 10 1024 (10240)
I0627 11:31:14.750412 31701 net.cpp:165] Memory required for data: 388142080
I0627 11:31:14.750419 31701 layer_factory.hpp:77] Creating layer loss1/relu_fc
I0627 11:31:14.750427 31701 net.cpp:106] Creating Layer loss1/relu_fc
I0627 11:31:14.750429 31701 net.cpp:454] loss1/relu_fc <- loss1/fc
I0627 11:31:14.750437 31701 net.cpp:397] loss1/relu_fc -> loss1/fc (in-place)
I0627 11:31:14.750754 31701 net.cpp:150] Setting up loss1/relu_fc
I0627 11:31:14.750766 31701 net.cpp:157] Top shape: 10 1024 (10240)
I0627 11:31:14.750768 31701 net.cpp:165] Memory required for data: 388183040
I0627 11:31:14.750772 31701 layer_factory.hpp:77] Creating layer loss1/drop_fc
I0627 11:31:14.750778 31701 net.cpp:106] Creating Layer loss1/drop_fc
I0627 11:31:14.750782 31701 net.cpp:454] loss1/drop_fc <- loss1/fc
I0627 11:31:14.750788 31701 net.cpp:397] loss1/drop_fc -> loss1/fc (in-place)
I0627 11:31:14.750814 31701 net.cpp:150] Setting up loss1/drop_fc
I0627 11:31:14.750820 31701 net.cpp:157] Top shape: 10 1024 (10240)
I0627 11:31:14.750823 31701 net.cpp:165] Memory required for data: 388224000
I0627 11:31:14.750825 31701 layer_factory.hpp:77] Creating layer 102flowers1/classifier
I0627 11:31:14.750834 31701 net.cpp:106] Creating Layer 102flowers1/classifier
I0627 11:31:14.750838 31701 net.cpp:454] 102flowers1/classifier <- loss1/fc
I0627 11:31:14.750844 31701 net.cpp:411] 102flowers1/classifier -> 102flowers1/classifier
I0627 11:31:14.752053 31701 net.cpp:150] Setting up 102flowers1/classifier
I0627 11:31:14.752063 31701 net.cpp:157] Top shape: 10 102 (1020)
I0627 11:31:14.752066 31701 net.cpp:165] Memory required for data: 388228080
I0627 11:31:14.752073 31701 layer_factory.hpp:77] Creating layer inception_4b/1x1
I0627 11:31:14.752090 31701 net.cpp:106] Creating Layer inception_4b/1x1
I0627 11:31:14.752094 31701 net.cpp:454] inception_4b/1x1 <- inception_4a/output_inception_4a/output_0_split_1
I0627 11:31:14.752100 31701 net.cpp:411] inception_4b/1x1 -> inception_4b/1x1
I0627 11:31:14.753408 31701 net.cpp:150] Setting up inception_4b/1x1
I0627 11:31:14.753422 31701 net.cpp:157] Top shape: 10 160 14 14 (313600)
I0627 11:31:14.753424 31701 net.cpp:165] Memory required for data: 389482480
I0627 11:31:14.753432 31701 layer_factory.hpp:77] Creating layer inception_4b/relu_1x1
I0627 11:31:14.753437 31701 net.cpp:106] Creating Layer inception_4b/relu_1x1
I0627 11:31:14.753440 31701 net.cpp:454] inception_4b/relu_1x1 <- inception_4b/1x1
I0627 11:31:14.753448 31701 net.cpp:397] inception_4b/relu_1x1 -> inception_4b/1x1 (in-place)
I0627 11:31:14.753882 31701 net.cpp:150] Setting up inception_4b/relu_1x1
I0627 11:31:14.753893 31701 net.cpp:157] Top shape: 10 160 14 14 (313600)
I0627 11:31:14.753896 31701 net.cpp:165] Memory required for data: 390736880
I0627 11:31:14.753900 31701 layer_factory.hpp:77] Creating layer inception_4b/3x3_reduce
I0627 11:31:14.753909 31701 net.cpp:106] Creating Layer inception_4b/3x3_reduce
I0627 11:31:14.753913 31701 net.cpp:454] inception_4b/3x3_reduce <- inception_4a/output_inception_4a/output_0_split_2
I0627 11:31:14.753922 31701 net.cpp:411] inception_4b/3x3_reduce -> inception_4b/3x3_reduce
I0627 11:31:14.755725 31701 net.cpp:150] Setting up inception_4b/3x3_reduce
I0627 11:31:14.755738 31701 net.cpp:157] Top shape: 10 112 14 14 (219520)
I0627 11:31:14.755741 31701 net.cpp:165] Memory required for data: 391614960
I0627 11:31:14.755748 31701 layer_factory.hpp:77] Creating layer inception_4b/relu_3x3_reduce
I0627 11:31:14.755755 31701 net.cpp:106] Creating Layer inception_4b/relu_3x3_reduce
I0627 11:31:14.755759 31701 net.cpp:454] inception_4b/relu_3x3_reduce <- inception_4b/3x3_reduce
I0627 11:31:14.755764 31701 net.cpp:397] inception_4b/relu_3x3_reduce -> inception_4b/3x3_reduce (in-place)
I0627 11:31:14.755913 31701 net.cpp:150] Setting up inception_4b/relu_3x3_reduce
I0627 11:31:14.755920 31701 net.cpp:157] Top shape: 10 112 14 14 (219520)
I0627 11:31:14.755923 31701 net.cpp:165] Memory required for data: 392493040
I0627 11:31:14.755928 31701 layer_factory.hpp:77] Creating layer inception_4b/3x3
I0627 11:31:14.755936 31701 net.cpp:106] Creating Layer inception_4b/3x3
I0627 11:31:14.755940 31701 net.cpp:454] inception_4b/3x3 <- inception_4b/3x3_reduce
I0627 11:31:14.755947 31701 net.cpp:411] inception_4b/3x3 -> inception_4b/3x3
I0627 11:31:14.758741 31701 net.cpp:150] Setting up inception_4b/3x3
I0627 11:31:14.758754 31701 net.cpp:157] Top shape: 10 224 14 14 (439040)
I0627 11:31:14.758757 31701 net.cpp:165] Memory required for data: 394249200
I0627 11:31:14.758764 31701 layer_factory.hpp:77] Creating layer inception_4b/relu_3x3
I0627 11:31:14.758771 31701 net.cpp:106] Creating Layer inception_4b/relu_3x3
I0627 11:31:14.758774 31701 net.cpp:454] inception_4b/relu_3x3 <- inception_4b/3x3
I0627 11:31:14.758780 31701 net.cpp:397] inception_4b/relu_3x3 -> inception_4b/3x3 (in-place)
I0627 11:31:14.759078 31701 net.cpp:150] Setting up inception_4b/relu_3x3
I0627 11:31:14.759089 31701 net.cpp:157] Top shape: 10 224 14 14 (439040)
I0627 11:31:14.759093 31701 net.cpp:165] Memory required for data: 396005360
I0627 11:31:14.759096 31701 layer_factory.hpp:77] Creating layer inception_4b/5x5_reduce
I0627 11:31:14.759104 31701 net.cpp:106] Creating Layer inception_4b/5x5_reduce
I0627 11:31:14.759109 31701 net.cpp:454] inception_4b/5x5_reduce <- inception_4a/output_inception_4a/output_0_split_3
I0627 11:31:14.759115 31701 net.cpp:411] inception_4b/5x5_reduce -> inception_4b/5x5_reduce
I0627 11:31:14.760026 31701 net.cpp:150] Setting up inception_4b/5x5_reduce
I0627 11:31:14.760038 31701 net.cpp:157] Top shape: 10 24 14 14 (47040)
I0627 11:31:14.760041 31701 net.cpp:165] Memory required for data: 396193520
I0627 11:31:14.760047 31701 layer_factory.hpp:77] Creating layer inception_4b/relu_5x5_reduce
I0627 11:31:14.760053 31701 net.cpp:106] Creating Layer inception_4b/relu_5x5_reduce
I0627 11:31:14.760057 31701 net.cpp:454] inception_4b/relu_5x5_reduce <- inception_4b/5x5_reduce
I0627 11:31:14.760062 31701 net.cpp:397] inception_4b/relu_5x5_reduce -> inception_4b/5x5_reduce (in-place)
I0627 11:31:14.760362 31701 net.cpp:150] Setting up inception_4b/relu_5x5_reduce
I0627 11:31:14.760373 31701 net.cpp:157] Top shape: 10 24 14 14 (47040)
I0627 11:31:14.760376 31701 net.cpp:165] Memory required for data: 396381680
I0627 11:31:14.760380 31701 layer_factory.hpp:77] Creating layer inception_4b/5x5
I0627 11:31:14.760390 31701 net.cpp:106] Creating Layer inception_4b/5x5
I0627 11:31:14.760395 31701 net.cpp:454] inception_4b/5x5 <- inception_4b/5x5_reduce
I0627 11:31:14.760401 31701 net.cpp:411] inception_4b/5x5 -> inception_4b/5x5
I0627 11:31:14.761600 31701 net.cpp:150] Setting up inception_4b/5x5
I0627 11:31:14.761611 31701 net.cpp:157] Top shape: 10 64 14 14 (125440)
I0627 11:31:14.761615 31701 net.cpp:165] Memory required for data: 396883440
I0627 11:31:14.761621 31701 layer_factory.hpp:77] Creating layer inception_4b/relu_5x5
I0627 11:31:14.761627 31701 net.cpp:106] Creating Layer inception_4b/relu_5x5
I0627 11:31:14.761631 31701 net.cpp:454] inception_4b/relu_5x5 <- inception_4b/5x5
I0627 11:31:14.761637 31701 net.cpp:397] inception_4b/relu_5x5 -> inception_4b/5x5 (in-place)
I0627 11:31:14.761783 31701 net.cpp:150] Setting up inception_4b/relu_5x5
I0627 11:31:14.761792 31701 net.cpp:157] Top shape: 10 64 14 14 (125440)
I0627 11:31:14.761795 31701 net.cpp:165] Memory required for data: 397385200
I0627 11:31:14.761800 31701 layer_factory.hpp:77] Creating layer inception_4b/pool
I0627 11:31:14.761806 31701 net.cpp:106] Creating Layer inception_4b/pool
I0627 11:31:14.761809 31701 net.cpp:454] inception_4b/pool <- inception_4a/output_inception_4a/output_0_split_4
I0627 11:31:14.761816 31701 net.cpp:411] inception_4b/pool -> inception_4b/pool
I0627 11:31:14.761857 31701 net.cpp:150] Setting up inception_4b/pool
I0627 11:31:14.761864 31701 net.cpp:157] Top shape: 10 512 14 14 (1003520)
I0627 11:31:14.761867 31701 net.cpp:165] Memory required for data: 401399280
I0627 11:31:14.761869 31701 layer_factory.hpp:77] Creating layer inception_4b/pool_proj
I0627 11:31:14.761878 31701 net.cpp:106] Creating Layer inception_4b/pool_proj
I0627 11:31:14.761883 31701 net.cpp:454] inception_4b/pool_proj <- inception_4b/pool
I0627 11:31:14.761888 31701 net.cpp:411] inception_4b/pool_proj -> inception_4b/pool_proj
I0627 11:31:14.763129 31701 net.cpp:150] Setting up inception_4b/pool_proj
I0627 11:31:14.763141 31701 net.cpp:157] Top shape: 10 64 14 14 (125440)
I0627 11:31:14.763144 31701 net.cpp:165] Memory required for data: 401901040
I0627 11:31:14.763151 31701 layer_factory.hpp:77] Creating layer inception_4b/relu_pool_proj
I0627 11:31:14.763159 31701 net.cpp:106] Creating Layer inception_4b/relu_pool_proj
I0627 11:31:14.763162 31701 net.cpp:454] inception_4b/relu_pool_proj <- inception_4b/pool_proj
I0627 11:31:14.763167 31701 net.cpp:397] inception_4b/relu_pool_proj -> inception_4b/pool_proj (in-place)
I0627 11:31:14.763465 31701 net.cpp:150] Setting up inception_4b/relu_pool_proj
I0627 11:31:14.763476 31701 net.cpp:157] Top shape: 10 64 14 14 (125440)
I0627 11:31:14.763479 31701 net.cpp:165] Memory required for data: 402402800
I0627 11:31:14.763483 31701 layer_factory.hpp:77] Creating layer inception_4b/output
I0627 11:31:14.763491 31701 net.cpp:106] Creating Layer inception_4b/output
I0627 11:31:14.763494 31701 net.cpp:454] inception_4b/output <- inception_4b/1x1
I0627 11:31:14.763499 31701 net.cpp:454] inception_4b/output <- inception_4b/3x3
I0627 11:31:14.763502 31701 net.cpp:454] inception_4b/output <- inception_4b/5x5
I0627 11:31:14.763506 31701 net.cpp:454] inception_4b/output <- inception_4b/pool_proj
I0627 11:31:14.763510 31701 net.cpp:411] inception_4b/output -> inception_4b/output
I0627 11:31:14.763541 31701 net.cpp:150] Setting up inception_4b/output
I0627 11:31:14.763547 31701 net.cpp:157] Top shape: 10 512 14 14 (1003520)
I0627 11:31:14.763550 31701 net.cpp:165] Memory required for data: 406416880
I0627 11:31:14.763553 31701 layer_factory.hpp:77] Creating layer inception_4b/output_inception_4b/output_0_split
I0627 11:31:14.763558 31701 net.cpp:106] Creating Layer inception_4b/output_inception_4b/output_0_split
I0627 11:31:14.763562 31701 net.cpp:454] inception_4b/output_inception_4b/output_0_split <- inception_4b/output
I0627 11:31:14.763567 31701 net.cpp:411] inception_4b/output_inception_4b/output_0_split -> inception_4b/output_inception_4b/output_0_split_0
I0627 11:31:14.763573 31701 net.cpp:411] inception_4b/output_inception_4b/output_0_split -> inception_4b/output_inception_4b/output_0_split_1
I0627 11:31:14.763579 31701 net.cpp:411] inception_4b/output_inception_4b/output_0_split -> inception_4b/output_inception_4b/output_0_split_2
I0627 11:31:14.763592 31701 net.cpp:411] inception_4b/output_inception_4b/output_0_split -> inception_4b/output_inception_4b/output_0_split_3
I0627 11:31:14.763649 31701 net.cpp:150] Setting up inception_4b/output_inception_4b/output_0_split
I0627 11:31:14.763656 31701 net.cpp:157] Top shape: 10 512 14 14 (1003520)
I0627 11:31:14.763660 31701 net.cpp:157] Top shape: 10 512 14 14 (1003520)
I0627 11:31:14.763664 31701 net.cpp:157] Top shape: 10 512 14 14 (1003520)
I0627 11:31:14.763669 31701 net.cpp:157] Top shape: 10 512 14 14 (1003520)
I0627 11:31:14.763670 31701 net.cpp:165] Memory required for data: 422473200
I0627 11:31:14.763674 31701 layer_factory.hpp:77] Creating layer inception_4c/1x1
I0627 11:31:14.763682 31701 net.cpp:106] Creating Layer inception_4c/1x1
I0627 11:31:14.763686 31701 net.cpp:454] inception_4c/1x1 <- inception_4b/output_inception_4b/output_0_split_0
I0627 11:31:14.763691 31701 net.cpp:411] inception_4c/1x1 -> inception_4c/1x1
I0627 11:31:14.764931 31701 net.cpp:150] Setting up inception_4c/1x1
I0627 11:31:14.764945 31701 net.cpp:157] Top shape: 10 128 14 14 (250880)
I0627 11:31:14.764948 31701 net.cpp:165] Memory required for data: 423476720
I0627 11:31:14.764955 31701 layer_factory.hpp:77] Creating layer inception_4c/relu_1x1
I0627 11:31:14.764961 31701 net.cpp:106] Creating Layer inception_4c/relu_1x1
I0627 11:31:14.764964 31701 net.cpp:454] inception_4c/relu_1x1 <- inception_4c/1x1
I0627 11:31:14.764969 31701 net.cpp:397] inception_4c/relu_1x1 -> inception_4c/1x1 (in-place)
I0627 11:31:14.765269 31701 net.cpp:150] Setting up inception_4c/relu_1x1
I0627 11:31:14.765281 31701 net.cpp:157] Top shape: 10 128 14 14 (250880)
I0627 11:31:14.765285 31701 net.cpp:165] Memory required for data: 424480240
I0627 11:31:14.765288 31701 layer_factory.hpp:77] Creating layer inception_4c/3x3_reduce
I0627 11:31:14.765298 31701 net.cpp:106] Creating Layer inception_4c/3x3_reduce
I0627 11:31:14.765302 31701 net.cpp:454] inception_4c/3x3_reduce <- inception_4b/output_inception_4b/output_0_split_1
I0627 11:31:14.765307 31701 net.cpp:411] inception_4c/3x3_reduce -> inception_4c/3x3_reduce
I0627 11:31:14.766674 31701 net.cpp:150] Setting up inception_4c/3x3_reduce
I0627 11:31:14.766685 31701 net.cpp:157] Top shape: 10 128 14 14 (250880)
I0627 11:31:14.766688 31701 net.cpp:165] Memory required for data: 425483760
I0627 11:31:14.766695 31701 layer_factory.hpp:77] Creating layer inception_4c/relu_3x3_reduce
I0627 11:31:14.766701 31701 net.cpp:106] Creating Layer inception_4c/relu_3x3_reduce
I0627 11:31:14.766705 31701 net.cpp:454] inception_4c/relu_3x3_reduce <- inception_4c/3x3_reduce
I0627 11:31:14.766711 31701 net.cpp:397] inception_4c/relu_3x3_reduce -> inception_4c/3x3_reduce (in-place)
I0627 11:31:14.766866 31701 net.cpp:150] Setting up inception_4c/relu_3x3_reduce
I0627 11:31:14.766875 31701 net.cpp:157] Top shape: 10 128 14 14 (250880)
I0627 11:31:14.766878 31701 net.cpp:165] Memory required for data: 426487280
I0627 11:31:14.766882 31701 layer_factory.hpp:77] Creating layer inception_4c/3x3
I0627 11:31:14.766891 31701 net.cpp:106] Creating Layer inception_4c/3x3
I0627 11:31:14.766896 31701 net.cpp:454] inception_4c/3x3 <- inception_4c/3x3_reduce
I0627 11:31:14.766901 31701 net.cpp:411] inception_4c/3x3 -> inception_4c/3x3
I0627 11:31:14.770257 31701 net.cpp:150] Setting up inception_4c/3x3
I0627 11:31:14.770270 31701 net.cpp:157] Top shape: 10 256 14 14 (501760)
I0627 11:31:14.770273 31701 net.cpp:165] Memory required for data: 428494320
I0627 11:31:14.770292 31701 layer_factory.hpp:77] Creating layer inception_4c/relu_3x3
I0627 11:31:14.770298 31701 net.cpp:106] Creating Layer inception_4c/relu_3x3
I0627 11:31:14.770301 31701 net.cpp:454] inception_4c/relu_3x3 <- inception_4c/3x3
I0627 11:31:14.770306 31701 net.cpp:397] inception_4c/relu_3x3 -> inception_4c/3x3 (in-place)
I0627 11:31:14.770757 31701 net.cpp:150] Setting up inception_4c/relu_3x3
I0627 11:31:14.770768 31701 net.cpp:157] Top shape: 10 256 14 14 (501760)
I0627 11:31:14.770771 31701 net.cpp:165] Memory required for data: 430501360
I0627 11:31:14.770776 31701 layer_factory.hpp:77] Creating layer inception_4c/5x5_reduce
I0627 11:31:14.770787 31701 net.cpp:106] Creating Layer inception_4c/5x5_reduce
I0627 11:31:14.770790 31701 net.cpp:454] inception_4c/5x5_reduce <- inception_4b/output_inception_4b/output_0_split_2
I0627 11:31:14.770797 31701 net.cpp:411] inception_4c/5x5_reduce -> inception_4c/5x5_reduce
I0627 11:31:14.771744 31701 net.cpp:150] Setting up inception_4c/5x5_reduce
I0627 11:31:14.771756 31701 net.cpp:157] Top shape: 10 24 14 14 (47040)
I0627 11:31:14.771759 31701 net.cpp:165] Memory required for data: 430689520
I0627 11:31:14.771765 31701 layer_factory.hpp:77] Creating layer inception_4c/relu_5x5_reduce
I0627 11:31:14.771772 31701 net.cpp:106] Creating Layer inception_4c/relu_5x5_reduce
I0627 11:31:14.771775 31701 net.cpp:454] inception_4c/relu_5x5_reduce <- inception_4c/5x5_reduce
I0627 11:31:14.771782 31701 net.cpp:397] inception_4c/relu_5x5_reduce -> inception_4c/5x5_reduce (in-place)
I0627 11:31:14.772092 31701 net.cpp:150] Setting up inception_4c/relu_5x5_reduce
I0627 11:31:14.772102 31701 net.cpp:157] Top shape: 10 24 14 14 (47040)
I0627 11:31:14.772105 31701 net.cpp:165] Memory required for data: 430877680
I0627 11:31:14.772109 31701 layer_factory.hpp:77] Creating layer inception_4c/5x5
I0627 11:31:14.772119 31701 net.cpp:106] Creating Layer inception_4c/5x5
I0627 11:31:14.772124 31701 net.cpp:454] inception_4c/5x5 <- inception_4c/5x5_reduce
I0627 11:31:14.772130 31701 net.cpp:411] inception_4c/5x5 -> inception_4c/5x5
I0627 11:31:14.773974 31701 net.cpp:150] Setting up inception_4c/5x5
I0627 11:31:14.773988 31701 net.cpp:157] Top shape: 10 64 14 14 (125440)
I0627 11:31:14.773993 31701 net.cpp:165] Memory required for data: 431379440
I0627 11:31:14.773998 31701 layer_factory.hpp:77] Creating layer inception_4c/relu_5x5
I0627 11:31:14.774004 31701 net.cpp:106] Creating Layer inception_4c/relu_5x5
I0627 11:31:14.774008 31701 net.cpp:454] inception_4c/relu_5x5 <- inception_4c/5x5
I0627 11:31:14.774013 31701 net.cpp:397] inception_4c/relu_5x5 -> inception_4c/5x5 (in-place)
I0627 11:31:14.774169 31701 net.cpp:150] Setting up inception_4c/relu_5x5
I0627 11:31:14.774178 31701 net.cpp:157] Top shape: 10 64 14 14 (125440)
I0627 11:31:14.774180 31701 net.cpp:165] Memory required for data: 431881200
I0627 11:31:14.774184 31701 layer_factory.hpp:77] Creating layer inception_4c/pool
I0627 11:31:14.774190 31701 net.cpp:106] Creating Layer inception_4c/pool
I0627 11:31:14.774194 31701 net.cpp:454] inception_4c/pool <- inception_4b/output_inception_4b/output_0_split_3
I0627 11:31:14.774200 31701 net.cpp:411] inception_4c/pool -> inception_4c/pool
I0627 11:31:14.774245 31701 net.cpp:150] Setting up inception_4c/pool
I0627 11:31:14.774250 31701 net.cpp:157] Top shape: 10 512 14 14 (1003520)
I0627 11:31:14.774253 31701 net.cpp:165] Memory required for data: 435895280
I0627 11:31:14.774256 31701 layer_factory.hpp:77] Creating layer inception_4c/pool_proj
I0627 11:31:14.774266 31701 net.cpp:106] Creating Layer inception_4c/pool_proj
I0627 11:31:14.774268 31701 net.cpp:454] inception_4c/pool_proj <- inception_4c/pool
I0627 11:31:14.774273 31701 net.cpp:411] inception_4c/pool_proj -> inception_4c/pool_proj
I0627 11:31:14.775456 31701 net.cpp:150] Setting up inception_4c/pool_proj
I0627 11:31:14.775468 31701 net.cpp:157] Top shape: 10 64 14 14 (125440)
I0627 11:31:14.775471 31701 net.cpp:165] Memory required for data: 436397040
I0627 11:31:14.775478 31701 layer_factory.hpp:77] Creating layer inception_4c/relu_pool_proj
I0627 11:31:14.775485 31701 net.cpp:106] Creating Layer inception_4c/relu_pool_proj
I0627 11:31:14.775490 31701 net.cpp:454] inception_4c/relu_pool_proj <- inception_4c/pool_proj
I0627 11:31:14.775495 31701 net.cpp:397] inception_4c/relu_pool_proj -> inception_4c/pool_proj (in-place)
I0627 11:31:14.775799 31701 net.cpp:150] Setting up inception_4c/relu_pool_proj
I0627 11:31:14.775810 31701 net.cpp:157] Top shape: 10 64 14 14 (125440)
I0627 11:31:14.775813 31701 net.cpp:165] Memory required for data: 436898800
I0627 11:31:14.775816 31701 layer_factory.hpp:77] Creating layer inception_4c/output
I0627 11:31:14.775823 31701 net.cpp:106] Creating Layer inception_4c/output
I0627 11:31:14.775827 31701 net.cpp:454] inception_4c/output <- inception_4c/1x1
I0627 11:31:14.775831 31701 net.cpp:454] inception_4c/output <- inception_4c/3x3
I0627 11:31:14.775835 31701 net.cpp:454] inception_4c/output <- inception_4c/5x5
I0627 11:31:14.775838 31701 net.cpp:454] inception_4c/output <- inception_4c/pool_proj
I0627 11:31:14.775842 31701 net.cpp:411] inception_4c/output -> inception_4c/output
I0627 11:31:14.775874 31701 net.cpp:150] Setting up inception_4c/output
I0627 11:31:14.775881 31701 net.cpp:157] Top shape: 10 512 14 14 (1003520)
I0627 11:31:14.775883 31701 net.cpp:165] Memory required for data: 440912880
I0627 11:31:14.775885 31701 layer_factory.hpp:77] Creating layer inception_4c/output_inception_4c/output_0_split
I0627 11:31:14.775890 31701 net.cpp:106] Creating Layer inception_4c/output_inception_4c/output_0_split
I0627 11:31:14.775894 31701 net.cpp:454] inception_4c/output_inception_4c/output_0_split <- inception_4c/output
I0627 11:31:14.775900 31701 net.cpp:411] inception_4c/output_inception_4c/output_0_split -> inception_4c/output_inception_4c/output_0_split_0
I0627 11:31:14.775907 31701 net.cpp:411] inception_4c/output_inception_4c/output_0_split -> inception_4c/output_inception_4c/output_0_split_1
I0627 11:31:14.775912 31701 net.cpp:411] inception_4c/output_inception_4c/output_0_split -> inception_4c/output_inception_4c/output_0_split_2
I0627 11:31:14.775916 31701 net.cpp:411] inception_4c/output_inception_4c/output_0_split -> inception_4c/output_inception_4c/output_0_split_3
I0627 11:31:14.775974 31701 net.cpp:150] Setting up inception_4c/output_inception_4c/output_0_split
I0627 11:31:14.775980 31701 net.cpp:157] Top shape: 10 512 14 14 (1003520)
I0627 11:31:14.775984 31701 net.cpp:157] Top shape: 10 512 14 14 (1003520)
I0627 11:31:14.775987 31701 net.cpp:157] Top shape: 10 512 14 14 (1003520)
I0627 11:31:14.775990 31701 net.cpp:157] Top shape: 10 512 14 14 (1003520)
I0627 11:31:14.775993 31701 net.cpp:165] Memory required for data: 456969200
I0627 11:31:14.775996 31701 layer_factory.hpp:77] Creating layer inception_4d/1x1
I0627 11:31:14.776007 31701 net.cpp:106] Creating Layer inception_4d/1x1
I0627 11:31:14.776010 31701 net.cpp:454] inception_4d/1x1 <- inception_4c/output_inception_4c/output_0_split_0
I0627 11:31:14.776016 31701 net.cpp:411] inception_4d/1x1 -> inception_4d/1x1
I0627 11:31:14.777207 31701 net.cpp:150] Setting up inception_4d/1x1
I0627 11:31:14.777220 31701 net.cpp:157] Top shape: 10 112 14 14 (219520)
I0627 11:31:14.777223 31701 net.cpp:165] Memory required for data: 457847280
I0627 11:31:14.777230 31701 layer_factory.hpp:77] Creating layer inception_4d/relu_1x1
I0627 11:31:14.777236 31701 net.cpp:106] Creating Layer inception_4d/relu_1x1
I0627 11:31:14.777240 31701 net.cpp:454] inception_4d/relu_1x1 <- inception_4d/1x1
I0627 11:31:14.777246 31701 net.cpp:397] inception_4d/relu_1x1 -> inception_4d/1x1 (in-place)
I0627 11:31:14.777556 31701 net.cpp:150] Setting up inception_4d/relu_1x1
I0627 11:31:14.777567 31701 net.cpp:157] Top shape: 10 112 14 14 (219520)
I0627 11:31:14.777570 31701 net.cpp:165] Memory required for data: 458725360
I0627 11:31:14.777573 31701 layer_factory.hpp:77] Creating layer inception_4d/3x3_reduce
I0627 11:31:14.777585 31701 net.cpp:106] Creating Layer inception_4d/3x3_reduce
I0627 11:31:14.777588 31701 net.cpp:454] inception_4d/3x3_reduce <- inception_4c/output_inception_4c/output_0_split_1
I0627 11:31:14.777595 31701 net.cpp:411] inception_4d/3x3_reduce -> inception_4d/3x3_reduce
I0627 11:31:14.779050 31701 net.cpp:150] Setting up inception_4d/3x3_reduce
I0627 11:31:14.779062 31701 net.cpp:157] Top shape: 10 144 14 14 (282240)
I0627 11:31:14.779065 31701 net.cpp:165] Memory required for data: 459854320
I0627 11:31:14.779072 31701 layer_factory.hpp:77] Creating layer inception_4d/relu_3x3_reduce
I0627 11:31:14.779079 31701 net.cpp:106] Creating Layer inception_4d/relu_3x3_reduce
I0627 11:31:14.779083 31701 net.cpp:454] inception_4d/relu_3x3_reduce <- inception_4d/3x3_reduce
I0627 11:31:14.779088 31701 net.cpp:397] inception_4d/relu_3x3_reduce -> inception_4d/3x3_reduce (in-place)
I0627 11:31:14.779244 31701 net.cpp:150] Setting up inception_4d/relu_3x3_reduce
I0627 11:31:14.779253 31701 net.cpp:157] Top shape: 10 144 14 14 (282240)
I0627 11:31:14.779255 31701 net.cpp:165] Memory required for data: 460983280
I0627 11:31:14.779258 31701 layer_factory.hpp:77] Creating layer inception_4d/3x3
I0627 11:31:14.779268 31701 net.cpp:106] Creating Layer inception_4d/3x3
I0627 11:31:14.779273 31701 net.cpp:454] inception_4d/3x3 <- inception_4d/3x3_reduce
I0627 11:31:14.779278 31701 net.cpp:411] inception_4d/3x3 -> inception_4d/3x3
I0627 11:31:14.783241 31701 net.cpp:150] Setting up inception_4d/3x3
I0627 11:31:14.783254 31701 net.cpp:157] Top shape: 10 288 14 14 (564480)
I0627 11:31:14.783257 31701 net.cpp:165] Memory required for data: 463241200
I0627 11:31:14.783264 31701 layer_factory.hpp:77] Creating layer inception_4d/relu_3x3
I0627 11:31:14.783270 31701 net.cpp:106] Creating Layer inception_4d/relu_3x3
I0627 11:31:14.783274 31701 net.cpp:454] inception_4d/relu_3x3 <- inception_4d/3x3
I0627 11:31:14.783280 31701 net.cpp:397] inception_4d/relu_3x3 -> inception_4d/3x3 (in-place)
I0627 11:31:14.783586 31701 net.cpp:150] Setting up inception_4d/relu_3x3
I0627 11:31:14.783596 31701 net.cpp:157] Top shape: 10 288 14 14 (564480)
I0627 11:31:14.783599 31701 net.cpp:165] Memory required for data: 465499120
I0627 11:31:14.783603 31701 layer_factory.hpp:77] Creating layer inception_4d/5x5_reduce
I0627 11:31:14.783612 31701 net.cpp:106] Creating Layer inception_4d/5x5_reduce
I0627 11:31:14.783617 31701 net.cpp:454] inception_4d/5x5_reduce <- inception_4c/output_inception_4c/output_0_split_2
I0627 11:31:14.783627 31701 net.cpp:411] inception_4d/5x5_reduce -> inception_4d/5x5_reduce
I0627 11:31:14.784600 31701 net.cpp:150] Setting up inception_4d/5x5_reduce
I0627 11:31:14.784612 31701 net.cpp:157] Top shape: 10 32 14 14 (62720)
I0627 11:31:14.784615 31701 net.cpp:165] Memory required for data: 465750000
I0627 11:31:14.784621 31701 layer_factory.hpp:77] Creating layer inception_4d/relu_5x5_reduce
I0627 11:31:14.784629 31701 net.cpp:106] Creating Layer inception_4d/relu_5x5_reduce
I0627 11:31:14.784632 31701 net.cpp:454] inception_4d/relu_5x5_reduce <- inception_4d/5x5_reduce
I0627 11:31:14.784637 31701 net.cpp:397] inception_4d/relu_5x5_reduce -> inception_4d/5x5_reduce (in-place)
I0627 11:31:14.784953 31701 net.cpp:150] Setting up inception_4d/relu_5x5_reduce
I0627 11:31:14.784965 31701 net.cpp:157] Top shape: 10 32 14 14 (62720)
I0627 11:31:14.784967 31701 net.cpp:165] Memory required for data: 466000880
I0627 11:31:14.784971 31701 layer_factory.hpp:77] Creating layer inception_4d/5x5
I0627 11:31:14.784982 31701 net.cpp:106] Creating Layer inception_4d/5x5
I0627 11:31:14.784986 31701 net.cpp:454] inception_4d/5x5 <- inception_4d/5x5_reduce
I0627 11:31:14.784992 31701 net.cpp:411] inception_4d/5x5 -> inception_4d/5x5
I0627 11:31:14.786339 31701 net.cpp:150] Setting up inception_4d/5x5
I0627 11:31:14.786351 31701 net.cpp:157] Top shape: 10 64 14 14 (125440)
I0627 11:31:14.786355 31701 net.cpp:165] Memory required for data: 466502640
I0627 11:31:14.786360 31701 layer_factory.hpp:77] Creating layer inception_4d/relu_5x5
I0627 11:31:14.786366 31701 net.cpp:106] Creating Layer inception_4d/relu_5x5
I0627 11:31:14.786370 31701 net.cpp:454] inception_4d/relu_5x5 <- inception_4d/5x5
I0627 11:31:14.786376 31701 net.cpp:397] inception_4d/relu_5x5 -> inception_4d/5x5 (in-place)
I0627 11:31:14.786677 31701 net.cpp:150] Setting up inception_4d/relu_5x5
I0627 11:31:14.786689 31701 net.cpp:157] Top shape: 10 64 14 14 (125440)
I0627 11:31:14.786691 31701 net.cpp:165] Memory required for data: 467004400
I0627 11:31:14.786695 31701 layer_factory.hpp:77] Creating layer inception_4d/pool
I0627 11:31:14.786702 31701 net.cpp:106] Creating Layer inception_4d/pool
I0627 11:31:14.786706 31701 net.cpp:454] inception_4d/pool <- inception_4c/output_inception_4c/output_0_split_3
I0627 11:31:14.786711 31701 net.cpp:411] inception_4d/pool -> inception_4d/pool
I0627 11:31:14.786761 31701 net.cpp:150] Setting up inception_4d/pool
I0627 11:31:14.786767 31701 net.cpp:157] Top shape: 10 512 14 14 (1003520)
I0627 11:31:14.786770 31701 net.cpp:165] Memory required for data: 471018480
I0627 11:31:14.786773 31701 layer_factory.hpp:77] Creating layer inception_4d/pool_proj
I0627 11:31:14.786784 31701 net.cpp:106] Creating Layer inception_4d/pool_proj
I0627 11:31:14.786787 31701 net.cpp:454] inception_4d/pool_proj <- inception_4d/pool
I0627 11:31:14.786793 31701 net.cpp:411] inception_4d/pool_proj -> inception_4d/pool_proj
I0627 11:31:14.788033 31701 net.cpp:150] Setting up inception_4d/pool_proj
I0627 11:31:14.788044 31701 net.cpp:157] Top shape: 10 64 14 14 (125440)
I0627 11:31:14.788048 31701 net.cpp:165] Memory required for data: 471520240
I0627 11:31:14.788054 31701 layer_factory.hpp:77] Creating layer inception_4d/relu_pool_proj
I0627 11:31:14.788059 31701 net.cpp:106] Creating Layer inception_4d/relu_pool_proj
I0627 11:31:14.788064 31701 net.cpp:454] inception_4d/relu_pool_proj <- inception_4d/pool_proj
I0627 11:31:14.788069 31701 net.cpp:397] inception_4d/relu_pool_proj -> inception_4d/pool_proj (in-place)
I0627 11:31:14.788378 31701 net.cpp:150] Setting up inception_4d/relu_pool_proj
I0627 11:31:14.788389 31701 net.cpp:157] Top shape: 10 64 14 14 (125440)
I0627 11:31:14.788393 31701 net.cpp:165] Memory required for data: 472022000
I0627 11:31:14.788395 31701 layer_factory.hpp:77] Creating layer inception_4d/output
I0627 11:31:14.788401 31701 net.cpp:106] Creating Layer inception_4d/output
I0627 11:31:14.788405 31701 net.cpp:454] inception_4d/output <- inception_4d/1x1
I0627 11:31:14.788409 31701 net.cpp:454] inception_4d/output <- inception_4d/3x3
I0627 11:31:14.788413 31701 net.cpp:454] inception_4d/output <- inception_4d/5x5
I0627 11:31:14.788416 31701 net.cpp:454] inception_4d/output <- inception_4d/pool_proj
I0627 11:31:14.788420 31701 net.cpp:411] inception_4d/output -> inception_4d/output
I0627 11:31:14.788453 31701 net.cpp:150] Setting up inception_4d/output
I0627 11:31:14.788460 31701 net.cpp:157] Top shape: 10 528 14 14 (1034880)
I0627 11:31:14.788463 31701 net.cpp:165] Memory required for data: 476161520
I0627 11:31:14.788466 31701 layer_factory.hpp:77] Creating layer inception_4d/output_inception_4d/output_0_split
I0627 11:31:14.788471 31701 net.cpp:106] Creating Layer inception_4d/output_inception_4d/output_0_split
I0627 11:31:14.788475 31701 net.cpp:454] inception_4d/output_inception_4d/output_0_split <- inception_4d/output
I0627 11:31:14.788480 31701 net.cpp:411] inception_4d/output_inception_4d/output_0_split -> inception_4d/output_inception_4d/output_0_split_0
I0627 11:31:14.788486 31701 net.cpp:411] inception_4d/output_inception_4d/output_0_split -> inception_4d/output_inception_4d/output_0_split_1
I0627 11:31:14.788491 31701 net.cpp:411] inception_4d/output_inception_4d/output_0_split -> inception_4d/output_inception_4d/output_0_split_2
I0627 11:31:14.788497 31701 net.cpp:411] inception_4d/output_inception_4d/output_0_split -> inception_4d/output_inception_4d/output_0_split_3
I0627 11:31:14.788501 31701 net.cpp:411] inception_4d/output_inception_4d/output_0_split -> inception_4d/output_inception_4d/output_0_split_4
I0627 11:31:14.788575 31701 net.cpp:150] Setting up inception_4d/output_inception_4d/output_0_split
I0627 11:31:14.788581 31701 net.cpp:157] Top shape: 10 528 14 14 (1034880)
I0627 11:31:14.788585 31701 net.cpp:157] Top shape: 10 528 14 14 (1034880)
I0627 11:31:14.788589 31701 net.cpp:157] Top shape: 10 528 14 14 (1034880)
I0627 11:31:14.788591 31701 net.cpp:157] Top shape: 10 528 14 14 (1034880)
I0627 11:31:14.788594 31701 net.cpp:157] Top shape: 10 528 14 14 (1034880)
I0627 11:31:14.788597 31701 net.cpp:165] Memory required for data: 496859120
I0627 11:31:14.788600 31701 layer_factory.hpp:77] Creating layer loss2/ave_pool
I0627 11:31:14.788606 31701 net.cpp:106] Creating Layer loss2/ave_pool
I0627 11:31:14.788610 31701 net.cpp:454] loss2/ave_pool <- inception_4d/output_inception_4d/output_0_split_0
I0627 11:31:14.788614 31701 net.cpp:411] loss2/ave_pool -> loss2/ave_pool
I0627 11:31:14.788790 31701 net.cpp:150] Setting up loss2/ave_pool
I0627 11:31:14.788800 31701 net.cpp:157] Top shape: 10 528 4 4 (84480)
I0627 11:31:14.788802 31701 net.cpp:165] Memory required for data: 497197040
I0627 11:31:14.788806 31701 layer_factory.hpp:77] Creating layer loss2/conv
I0627 11:31:14.788815 31701 net.cpp:106] Creating Layer loss2/conv
I0627 11:31:14.788820 31701 net.cpp:454] loss2/conv <- loss2/ave_pool
I0627 11:31:14.788826 31701 net.cpp:411] loss2/conv -> loss2/conv
I0627 11:31:14.790267 31701 net.cpp:150] Setting up loss2/conv
I0627 11:31:14.790279 31701 net.cpp:157] Top shape: 10 128 4 4 (20480)
I0627 11:31:14.790282 31701 net.cpp:165] Memory required for data: 497278960
I0627 11:31:14.790288 31701 layer_factory.hpp:77] Creating layer loss2/relu_conv
I0627 11:31:14.790294 31701 net.cpp:106] Creating Layer loss2/relu_conv
I0627 11:31:14.790298 31701 net.cpp:454] loss2/relu_conv <- loss2/conv
I0627 11:31:14.790303 31701 net.cpp:397] loss2/relu_conv -> loss2/conv (in-place)
I0627 11:31:14.790462 31701 net.cpp:150] Setting up loss2/relu_conv
I0627 11:31:14.790469 31701 net.cpp:157] Top shape: 10 128 4 4 (20480)
I0627 11:31:14.790472 31701 net.cpp:165] Memory required for data: 497360880
I0627 11:31:14.790475 31701 layer_factory.hpp:77] Creating layer loss2/fc
I0627 11:31:14.790484 31701 net.cpp:106] Creating Layer loss2/fc
I0627 11:31:14.790488 31701 net.cpp:454] loss2/fc <- loss2/conv
I0627 11:31:14.790493 31701 net.cpp:411] loss2/fc -> loss2/fc
I0627 11:31:14.806304 31701 net.cpp:150] Setting up loss2/fc
I0627 11:31:14.806329 31701 net.cpp:157] Top shape: 10 1024 (10240)
I0627 11:31:14.806331 31701 net.cpp:165] Memory required for data: 497401840
I0627 11:31:14.806339 31701 layer_factory.hpp:77] Creating layer loss2/relu_fc
I0627 11:31:14.806347 31701 net.cpp:106] Creating Layer loss2/relu_fc
I0627 11:31:14.806351 31701 net.cpp:454] loss2/relu_fc <- loss2/fc
I0627 11:31:14.806360 31701 net.cpp:397] loss2/relu_fc -> loss2/fc (in-place)
I0627 11:31:14.806745 31701 net.cpp:150] Setting up loss2/relu_fc
I0627 11:31:14.806756 31701 net.cpp:157] Top shape: 10 1024 (10240)
I0627 11:31:14.806759 31701 net.cpp:165] Memory required for data: 497442800
I0627 11:31:14.806762 31701 layer_factory.hpp:77] Creating layer loss2/drop_fc
I0627 11:31:14.806771 31701 net.cpp:106] Creating Layer loss2/drop_fc
I0627 11:31:14.806774 31701 net.cpp:454] loss2/drop_fc <- loss2/fc
I0627 11:31:14.806780 31701 net.cpp:397] loss2/drop_fc -> loss2/fc (in-place)
I0627 11:31:14.806813 31701 net.cpp:150] Setting up loss2/drop_fc
I0627 11:31:14.806818 31701 net.cpp:157] Top shape: 10 1024 (10240)
I0627 11:31:14.806821 31701 net.cpp:165] Memory required for data: 497483760
I0627 11:31:14.806824 31701 layer_factory.hpp:77] Creating layer 102flowers2/classifier
I0627 11:31:14.806833 31701 net.cpp:106] Creating Layer 102flowers2/classifier
I0627 11:31:14.806835 31701 net.cpp:454] 102flowers2/classifier <- loss2/fc
I0627 11:31:14.806843 31701 net.cpp:411] 102flowers2/classifier -> 102flowers2/classifier
I0627 11:31:14.808181 31701 net.cpp:150] Setting up 102flowers2/classifier
I0627 11:31:14.808192 31701 net.cpp:157] Top shape: 10 102 (1020)
I0627 11:31:14.808194 31701 net.cpp:165] Memory required for data: 497487840
I0627 11:31:14.808200 31701 layer_factory.hpp:77] Creating layer inception_4e/1x1
I0627 11:31:14.808212 31701 net.cpp:106] Creating Layer inception_4e/1x1
I0627 11:31:14.808217 31701 net.cpp:454] inception_4e/1x1 <- inception_4d/output_inception_4d/output_0_split_1
I0627 11:31:14.808223 31701 net.cpp:411] inception_4e/1x1 -> inception_4e/1x1
I0627 11:31:14.810225 31701 net.cpp:150] Setting up inception_4e/1x1
I0627 11:31:14.810237 31701 net.cpp:157] Top shape: 10 256 14 14 (501760)
I0627 11:31:14.810240 31701 net.cpp:165] Memory required for data: 499494880
I0627 11:31:14.810250 31701 layer_factory.hpp:77] Creating layer inception_4e/relu_1x1
I0627 11:31:14.810256 31701 net.cpp:106] Creating Layer inception_4e/relu_1x1
I0627 11:31:14.810259 31701 net.cpp:454] inception_4e/relu_1x1 <- inception_4e/1x1
I0627 11:31:14.810266 31701 net.cpp:397] inception_4e/relu_1x1 -> inception_4e/1x1 (in-place)
I0627 11:31:14.810423 31701 net.cpp:150] Setting up inception_4e/relu_1x1
I0627 11:31:14.810431 31701 net.cpp:157] Top shape: 10 256 14 14 (501760)
I0627 11:31:14.810434 31701 net.cpp:165] Memory required for data: 501501920
I0627 11:31:14.810437 31701 layer_factory.hpp:77] Creating layer inception_4e/3x3_reduce
I0627 11:31:14.810446 31701 net.cpp:106] Creating Layer inception_4e/3x3_reduce
I0627 11:31:14.810451 31701 net.cpp:454] inception_4e/3x3_reduce <- inception_4d/output_inception_4d/output_0_split_2
I0627 11:31:14.810457 31701 net.cpp:411] inception_4e/3x3_reduce -> inception_4e/3x3_reduce
I0627 11:31:14.812204 31701 net.cpp:150] Setting up inception_4e/3x3_reduce
I0627 11:31:14.812216 31701 net.cpp:157] Top shape: 10 160 14 14 (313600)
I0627 11:31:14.812219 31701 net.cpp:165] Memory required for data: 502756320
I0627 11:31:14.812225 31701 layer_factory.hpp:77] Creating layer inception_4e/relu_3x3_reduce
I0627 11:31:14.812233 31701 net.cpp:106] Creating Layer inception_4e/relu_3x3_reduce
I0627 11:31:14.812237 31701 net.cpp:454] inception_4e/relu_3x3_reduce <- inception_4e/3x3_reduce
I0627 11:31:14.812242 31701 net.cpp:397] inception_4e/relu_3x3_reduce -> inception_4e/3x3_reduce (in-place)
I0627 11:31:14.812554 31701 net.cpp:150] Setting up inception_4e/relu_3x3_reduce
I0627 11:31:14.812566 31701 net.cpp:157] Top shape: 10 160 14 14 (313600)
I0627 11:31:14.812567 31701 net.cpp:165] Memory required for data: 504010720
I0627 11:31:14.812572 31701 layer_factory.hpp:77] Creating layer inception_4e/3x3
I0627 11:31:14.812582 31701 net.cpp:106] Creating Layer inception_4e/3x3
I0627 11:31:14.812585 31701 net.cpp:454] inception_4e/3x3 <- inception_4e/3x3_reduce
I0627 11:31:14.812592 31701 net.cpp:411] inception_4e/3x3 -> inception_4e/3x3
I0627 11:31:14.817181 31701 net.cpp:150] Setting up inception_4e/3x3
I0627 11:31:14.817195 31701 net.cpp:157] Top shape: 10 320 14 14 (627200)
I0627 11:31:14.817199 31701 net.cpp:165] Memory required for data: 506519520
I0627 11:31:14.817206 31701 layer_factory.hpp:77] Creating layer inception_4e/relu_3x3
I0627 11:31:14.817212 31701 net.cpp:106] Creating Layer inception_4e/relu_3x3
I0627 11:31:14.817216 31701 net.cpp:454] inception_4e/relu_3x3 <- inception_4e/3x3
I0627 11:31:14.817221 31701 net.cpp:397] inception_4e/relu_3x3 -> inception_4e/3x3 (in-place)
I0627 11:31:14.817548 31701 net.cpp:150] Setting up inception_4e/relu_3x3
I0627 11:31:14.817558 31701 net.cpp:157] Top shape: 10 320 14 14 (627200)
I0627 11:31:14.817560 31701 net.cpp:165] Memory required for data: 509028320
I0627 11:31:14.817564 31701 layer_factory.hpp:77] Creating layer inception_4e/5x5_reduce
I0627 11:31:14.817574 31701 net.cpp:106] Creating Layer inception_4e/5x5_reduce
I0627 11:31:14.817579 31701 net.cpp:454] inception_4e/5x5_reduce <- inception_4d/output_inception_4d/output_0_split_3
I0627 11:31:14.817586 31701 net.cpp:411] inception_4e/5x5_reduce -> inception_4e/5x5_reduce
I0627 11:31:14.818735 31701 net.cpp:150] Setting up inception_4e/5x5_reduce
I0627 11:31:14.818747 31701 net.cpp:157] Top shape: 10 32 14 14 (62720)
I0627 11:31:14.818750 31701 net.cpp:165] Memory required for data: 509279200
I0627 11:31:14.818758 31701 layer_factory.hpp:77] Creating layer inception_4e/relu_5x5_reduce
I0627 11:31:14.818764 31701 net.cpp:106] Creating Layer inception_4e/relu_5x5_reduce
I0627 11:31:14.818768 31701 net.cpp:454] inception_4e/relu_5x5_reduce <- inception_4e/5x5_reduce
I0627 11:31:14.818774 31701 net.cpp:397] inception_4e/relu_5x5_reduce -> inception_4e/5x5_reduce (in-place)
I0627 11:31:14.818935 31701 net.cpp:150] Setting up inception_4e/relu_5x5_reduce
I0627 11:31:14.818943 31701 net.cpp:157] Top shape: 10 32 14 14 (62720)
I0627 11:31:14.818946 31701 net.cpp:165] Memory required for data: 509530080
I0627 11:31:14.818949 31701 layer_factory.hpp:77] Creating layer inception_4e/5x5
I0627 11:31:14.818959 31701 net.cpp:106] Creating Layer inception_4e/5x5
I0627 11:31:14.818963 31701 net.cpp:454] inception_4e/5x5 <- inception_4e/5x5_reduce
I0627 11:31:14.818969 31701 net.cpp:411] inception_4e/5x5 -> inception_4e/5x5
I0627 11:31:14.821138 31701 net.cpp:150] Setting up inception_4e/5x5
I0627 11:31:14.821151 31701 net.cpp:157] Top shape: 10 128 14 14 (250880)
I0627 11:31:14.821154 31701 net.cpp:165] Memory required for data: 510533600
I0627 11:31:14.821161 31701 layer_factory.hpp:77] Creating layer inception_4e/relu_5x5
I0627 11:31:14.821171 31701 net.cpp:106] Creating Layer inception_4e/relu_5x5
I0627 11:31:14.821174 31701 net.cpp:454] inception_4e/relu_5x5 <- inception_4e/5x5
I0627 11:31:14.821179 31701 net.cpp:397] inception_4e/relu_5x5 -> inception_4e/5x5 (in-place)
I0627 11:31:14.821491 31701 net.cpp:150] Setting up inception_4e/relu_5x5
I0627 11:31:14.821501 31701 net.cpp:157] Top shape: 10 128 14 14 (250880)
I0627 11:31:14.821504 31701 net.cpp:165] Memory required for data: 511537120
I0627 11:31:14.821508 31701 layer_factory.hpp:77] Creating layer inception_4e/pool
I0627 11:31:14.821516 31701 net.cpp:106] Creating Layer inception_4e/pool
I0627 11:31:14.821521 31701 net.cpp:454] inception_4e/pool <- inception_4d/output_inception_4d/output_0_split_4
I0627 11:31:14.821527 31701 net.cpp:411] inception_4e/pool -> inception_4e/pool
I0627 11:31:14.821576 31701 net.cpp:150] Setting up inception_4e/pool
I0627 11:31:14.821583 31701 net.cpp:157] Top shape: 10 528 14 14 (1034880)
I0627 11:31:14.821585 31701 net.cpp:165] Memory required for data: 515676640
I0627 11:31:14.821588 31701 layer_factory.hpp:77] Creating layer inception_4e/pool_proj
I0627 11:31:14.821597 31701 net.cpp:106] Creating Layer inception_4e/pool_proj
I0627 11:31:14.821601 31701 net.cpp:454] inception_4e/pool_proj <- inception_4e/pool
I0627 11:31:14.821607 31701 net.cpp:411] inception_4e/pool_proj -> inception_4e/pool_proj
I0627 11:31:14.823030 31701 net.cpp:150] Setting up inception_4e/pool_proj
I0627 11:31:14.823042 31701 net.cpp:157] Top shape: 10 128 14 14 (250880)
I0627 11:31:14.823045 31701 net.cpp:165] Memory required for data: 516680160
I0627 11:31:14.823051 31701 layer_factory.hpp:77] Creating layer inception_4e/relu_pool_proj
I0627 11:31:14.823074 31701 net.cpp:106] Creating Layer inception_4e/relu_pool_proj
I0627 11:31:14.823078 31701 net.cpp:454] inception_4e/relu_pool_proj <- inception_4e/pool_proj
I0627 11:31:14.823086 31701 net.cpp:397] inception_4e/relu_pool_proj -> inception_4e/pool_proj (in-place)
I0627 11:31:14.823397 31701 net.cpp:150] Setting up inception_4e/relu_pool_proj
I0627 11:31:14.823408 31701 net.cpp:157] Top shape: 10 128 14 14 (250880)
I0627 11:31:14.823411 31701 net.cpp:165] Memory required for data: 517683680
I0627 11:31:14.823416 31701 layer_factory.hpp:77] Creating layer inception_4e/output
I0627 11:31:14.823422 31701 net.cpp:106] Creating Layer inception_4e/output
I0627 11:31:14.823426 31701 net.cpp:454] inception_4e/output <- inception_4e/1x1
I0627 11:31:14.823431 31701 net.cpp:454] inception_4e/output <- inception_4e/3x3
I0627 11:31:14.823433 31701 net.cpp:454] inception_4e/output <- inception_4e/5x5
I0627 11:31:14.823437 31701 net.cpp:454] inception_4e/output <- inception_4e/pool_proj
I0627 11:31:14.823442 31701 net.cpp:411] inception_4e/output -> inception_4e/output
I0627 11:31:14.823475 31701 net.cpp:150] Setting up inception_4e/output
I0627 11:31:14.823483 31701 net.cpp:157] Top shape: 10 832 14 14 (1630720)
I0627 11:31:14.823487 31701 net.cpp:165] Memory required for data: 524206560
I0627 11:31:14.823489 31701 layer_factory.hpp:77] Creating layer pool4/3x3_s2
I0627 11:31:14.823494 31701 net.cpp:106] Creating Layer pool4/3x3_s2
I0627 11:31:14.823498 31701 net.cpp:454] pool4/3x3_s2 <- inception_4e/output
I0627 11:31:14.823503 31701 net.cpp:411] pool4/3x3_s2 -> pool4/3x3_s2
I0627 11:31:14.823544 31701 net.cpp:150] Setting up pool4/3x3_s2
I0627 11:31:14.823550 31701 net.cpp:157] Top shape: 10 832 7 7 (407680)
I0627 11:31:14.823552 31701 net.cpp:165] Memory required for data: 525837280
I0627 11:31:14.823555 31701 layer_factory.hpp:77] Creating layer pool4/3x3_s2_pool4/3x3_s2_0_split
I0627 11:31:14.823561 31701 net.cpp:106] Creating Layer pool4/3x3_s2_pool4/3x3_s2_0_split
I0627 11:31:14.823565 31701 net.cpp:454] pool4/3x3_s2_pool4/3x3_s2_0_split <- pool4/3x3_s2
I0627 11:31:14.823572 31701 net.cpp:411] pool4/3x3_s2_pool4/3x3_s2_0_split -> pool4/3x3_s2_pool4/3x3_s2_0_split_0
I0627 11:31:14.823578 31701 net.cpp:411] pool4/3x3_s2_pool4/3x3_s2_0_split -> pool4/3x3_s2_pool4/3x3_s2_0_split_1
I0627 11:31:14.823583 31701 net.cpp:411] pool4/3x3_s2_pool4/3x3_s2_0_split -> pool4/3x3_s2_pool4/3x3_s2_0_split_2
I0627 11:31:14.823588 31701 net.cpp:411] pool4/3x3_s2_pool4/3x3_s2_0_split -> pool4/3x3_s2_pool4/3x3_s2_0_split_3
I0627 11:31:14.823652 31701 net.cpp:150] Setting up pool4/3x3_s2_pool4/3x3_s2_0_split
I0627 11:31:14.823658 31701 net.cpp:157] Top shape: 10 832 7 7 (407680)
I0627 11:31:14.823662 31701 net.cpp:157] Top shape: 10 832 7 7 (407680)
I0627 11:31:14.823665 31701 net.cpp:157] Top shape: 10 832 7 7 (407680)
I0627 11:31:14.823668 31701 net.cpp:157] Top shape: 10 832 7 7 (407680)
I0627 11:31:14.823670 31701 net.cpp:165] Memory required for data: 532360160
I0627 11:31:14.823673 31701 layer_factory.hpp:77] Creating layer inception_5a/1x1
I0627 11:31:14.823683 31701 net.cpp:106] Creating Layer inception_5a/1x1
I0627 11:31:14.823686 31701 net.cpp:454] inception_5a/1x1 <- pool4/3x3_s2_pool4/3x3_s2_0_split_0
I0627 11:31:14.823691 31701 net.cpp:411] inception_5a/1x1 -> inception_5a/1x1
I0627 11:31:14.826719 31701 net.cpp:150] Setting up inception_5a/1x1
I0627 11:31:14.826730 31701 net.cpp:157] Top shape: 10 256 7 7 (125440)
I0627 11:31:14.826735 31701 net.cpp:165] Memory required for data: 532861920
I0627 11:31:14.826740 31701 layer_factory.hpp:77] Creating layer inception_5a/relu_1x1
I0627 11:31:14.826750 31701 net.cpp:106] Creating Layer inception_5a/relu_1x1
I0627 11:31:14.826755 31701 net.cpp:454] inception_5a/relu_1x1 <- inception_5a/1x1
I0627 11:31:14.826759 31701 net.cpp:397] inception_5a/relu_1x1 -> inception_5a/1x1 (in-place)
I0627 11:31:14.826918 31701 net.cpp:150] Setting up inception_5a/relu_1x1
I0627 11:31:14.826926 31701 net.cpp:157] Top shape: 10 256 7 7 (125440)
I0627 11:31:14.826930 31701 net.cpp:165] Memory required for data: 533363680
I0627 11:31:14.826932 31701 layer_factory.hpp:77] Creating layer inception_5a/3x3_reduce
I0627 11:31:14.826941 31701 net.cpp:106] Creating Layer inception_5a/3x3_reduce
I0627 11:31:14.826946 31701 net.cpp:454] inception_5a/3x3_reduce <- pool4/3x3_s2_pool4/3x3_s2_0_split_1
I0627 11:31:14.826952 31701 net.cpp:411] inception_5a/3x3_reduce -> inception_5a/3x3_reduce
I0627 11:31:14.829385 31701 net.cpp:150] Setting up inception_5a/3x3_reduce
I0627 11:31:14.829396 31701 net.cpp:157] Top shape: 10 160 7 7 (78400)
I0627 11:31:14.829401 31701 net.cpp:165] Memory required for data: 533677280
I0627 11:31:14.829406 31701 layer_factory.hpp:77] Creating layer inception_5a/relu_3x3_reduce
I0627 11:31:14.829414 31701 net.cpp:106] Creating Layer inception_5a/relu_3x3_reduce
I0627 11:31:14.829418 31701 net.cpp:454] inception_5a/relu_3x3_reduce <- inception_5a/3x3_reduce
I0627 11:31:14.829423 31701 net.cpp:397] inception_5a/relu_3x3_reduce -> inception_5a/3x3_reduce (in-place)
I0627 11:31:14.829737 31701 net.cpp:150] Setting up inception_5a/relu_3x3_reduce
I0627 11:31:14.829748 31701 net.cpp:157] Top shape: 10 160 7 7 (78400)
I0627 11:31:14.829752 31701 net.cpp:165] Memory required for data: 533990880
I0627 11:31:14.829756 31701 layer_factory.hpp:77] Creating layer inception_5a/3x3
I0627 11:31:14.829764 31701 net.cpp:106] Creating Layer inception_5a/3x3
I0627 11:31:14.829768 31701 net.cpp:454] inception_5a/3x3 <- inception_5a/3x3_reduce
I0627 11:31:14.829776 31701 net.cpp:411] inception_5a/3x3 -> inception_5a/3x3
I0627 11:31:14.834548 31701 net.cpp:150] Setting up inception_5a/3x3
I0627 11:31:14.834560 31701 net.cpp:157] Top shape: 10 320 7 7 (156800)
I0627 11:31:14.834564 31701 net.cpp:165] Memory required for data: 534618080
I0627 11:31:14.834571 31701 layer_factory.hpp:77] Creating layer inception_5a/relu_3x3
I0627 11:31:14.834578 31701 net.cpp:106] Creating Layer inception_5a/relu_3x3
I0627 11:31:14.834583 31701 net.cpp:454] inception_5a/relu_3x3 <- inception_5a/3x3
I0627 11:31:14.834588 31701 net.cpp:397] inception_5a/relu_3x3 -> inception_5a/3x3 (in-place)
I0627 11:31:14.834908 31701 net.cpp:150] Setting up inception_5a/relu_3x3
I0627 11:31:14.834918 31701 net.cpp:157] Top shape: 10 320 7 7 (156800)
I0627 11:31:14.834921 31701 net.cpp:165] Memory required for data: 535245280
I0627 11:31:14.834925 31701 layer_factory.hpp:77] Creating layer inception_5a/5x5_reduce
I0627 11:31:14.834935 31701 net.cpp:106] Creating Layer inception_5a/5x5_reduce
I0627 11:31:14.834939 31701 net.cpp:454] inception_5a/5x5_reduce <- pool4/3x3_s2_pool4/3x3_s2_0_split_2
I0627 11:31:14.834947 31701 net.cpp:411] inception_5a/5x5_reduce -> inception_5a/5x5_reduce
I0627 11:31:14.836175 31701 net.cpp:150] Setting up inception_5a/5x5_reduce
I0627 11:31:14.836186 31701 net.cpp:157] Top shape: 10 32 7 7 (15680)
I0627 11:31:14.836189 31701 net.cpp:165] Memory required for data: 535308000
I0627 11:31:14.836196 31701 layer_factory.hpp:77] Creating layer inception_5a/relu_5x5_reduce
I0627 11:31:14.836202 31701 net.cpp:106] Creating Layer inception_5a/relu_5x5_reduce
I0627 11:31:14.836205 31701 net.cpp:454] inception_5a/relu_5x5_reduce <- inception_5a/5x5_reduce
I0627 11:31:14.836212 31701 net.cpp:397] inception_5a/relu_5x5_reduce -> inception_5a/5x5_reduce (in-place)
I0627 11:31:14.836374 31701 net.cpp:150] Setting up inception_5a/relu_5x5_reduce
I0627 11:31:14.836381 31701 net.cpp:157] Top shape: 10 32 7 7 (15680)
I0627 11:31:14.836385 31701 net.cpp:165] Memory required for data: 535370720
I0627 11:31:14.836387 31701 layer_factory.hpp:77] Creating layer inception_5a/5x5
I0627 11:31:14.836397 31701 net.cpp:106] Creating Layer inception_5a/5x5
I0627 11:31:14.836400 31701 net.cpp:454] inception_5a/5x5 <- inception_5a/5x5_reduce
I0627 11:31:14.836406 31701 net.cpp:411] inception_5a/5x5 -> inception_5a/5x5
I0627 11:31:14.838068 31701 net.cpp:150] Setting up inception_5a/5x5
I0627 11:31:14.838079 31701 net.cpp:157] Top shape: 10 128 7 7 (62720)
I0627 11:31:14.838083 31701 net.cpp:165] Memory required for data: 535621600
I0627 11:31:14.838089 31701 layer_factory.hpp:77] Creating layer inception_5a/relu_5x5
I0627 11:31:14.838096 31701 net.cpp:106] Creating Layer inception_5a/relu_5x5
I0627 11:31:14.838100 31701 net.cpp:454] inception_5a/relu_5x5 <- inception_5a/5x5
I0627 11:31:14.838105 31701 net.cpp:397] inception_5a/relu_5x5 -> inception_5a/5x5 (in-place)
I0627 11:31:14.838418 31701 net.cpp:150] Setting up inception_5a/relu_5x5
I0627 11:31:14.838429 31701 net.cpp:157] Top shape: 10 128 7 7 (62720)
I0627 11:31:14.838433 31701 net.cpp:165] Memory required for data: 535872480
I0627 11:31:14.838436 31701 layer_factory.hpp:77] Creating layer inception_5a/pool
I0627 11:31:14.838444 31701 net.cpp:106] Creating Layer inception_5a/pool
I0627 11:31:14.838449 31701 net.cpp:454] inception_5a/pool <- pool4/3x3_s2_pool4/3x3_s2_0_split_3
I0627 11:31:14.838454 31701 net.cpp:411] inception_5a/pool -> inception_5a/pool
I0627 11:31:14.838505 31701 net.cpp:150] Setting up inception_5a/pool
I0627 11:31:14.838510 31701 net.cpp:157] Top shape: 10 832 7 7 (407680)
I0627 11:31:14.838513 31701 net.cpp:165] Memory required for data: 537503200
I0627 11:31:14.838516 31701 layer_factory.hpp:77] Creating layer inception_5a/pool_proj
I0627 11:31:14.838526 31701 net.cpp:106] Creating Layer inception_5a/pool_proj
I0627 11:31:14.838529 31701 net.cpp:454] inception_5a/pool_proj <- inception_5a/pool
I0627 11:31:14.838536 31701 net.cpp:411] inception_5a/pool_proj -> inception_5a/pool_proj
I0627 11:31:14.840641 31701 net.cpp:150] Setting up inception_5a/pool_proj
I0627 11:31:14.840653 31701 net.cpp:157] Top shape: 10 128 7 7 (62720)
I0627 11:31:14.840656 31701 net.cpp:165] Memory required for data: 537754080
I0627 11:31:14.840663 31701 layer_factory.hpp:77] Creating layer inception_5a/relu_pool_proj
I0627 11:31:14.840669 31701 net.cpp:106] Creating Layer inception_5a/relu_pool_proj
I0627 11:31:14.840673 31701 net.cpp:454] inception_5a/relu_pool_proj <- inception_5a/pool_proj
I0627 11:31:14.840680 31701 net.cpp:397] inception_5a/relu_pool_proj -> inception_5a/pool_proj (in-place)
I0627 11:31:14.841011 31701 net.cpp:150] Setting up inception_5a/relu_pool_proj
I0627 11:31:14.841022 31701 net.cpp:157] Top shape: 10 128 7 7 (62720)
I0627 11:31:14.841025 31701 net.cpp:165] Memory required for data: 538004960
I0627 11:31:14.841029 31701 layer_factory.hpp:77] Creating layer inception_5a/output
I0627 11:31:14.841035 31701 net.cpp:106] Creating Layer inception_5a/output
I0627 11:31:14.841039 31701 net.cpp:454] inception_5a/output <- inception_5a/1x1
I0627 11:31:14.841043 31701 net.cpp:454] inception_5a/output <- inception_5a/3x3
I0627 11:31:14.841051 31701 net.cpp:454] inception_5a/output <- inception_5a/5x5
I0627 11:31:14.841055 31701 net.cpp:454] inception_5a/output <- inception_5a/pool_proj
I0627 11:31:14.841059 31701 net.cpp:411] inception_5a/output -> inception_5a/output
I0627 11:31:14.841094 31701 net.cpp:150] Setting up inception_5a/output
I0627 11:31:14.841100 31701 net.cpp:157] Top shape: 10 832 7 7 (407680)
I0627 11:31:14.841102 31701 net.cpp:165] Memory required for data: 539635680
I0627 11:31:14.841105 31701 layer_factory.hpp:77] Creating layer inception_5a/output_inception_5a/output_0_split
I0627 11:31:14.841114 31701 net.cpp:106] Creating Layer inception_5a/output_inception_5a/output_0_split
I0627 11:31:14.841116 31701 net.cpp:454] inception_5a/output_inception_5a/output_0_split <- inception_5a/output
I0627 11:31:14.841120 31701 net.cpp:411] inception_5a/output_inception_5a/output_0_split -> inception_5a/output_inception_5a/output_0_split_0
I0627 11:31:14.841128 31701 net.cpp:411] inception_5a/output_inception_5a/output_0_split -> inception_5a/output_inception_5a/output_0_split_1
I0627 11:31:14.841135 31701 net.cpp:411] inception_5a/output_inception_5a/output_0_split -> inception_5a/output_inception_5a/output_0_split_2
I0627 11:31:14.841140 31701 net.cpp:411] inception_5a/output_inception_5a/output_0_split -> inception_5a/output_inception_5a/output_0_split_3
I0627 11:31:14.841204 31701 net.cpp:150] Setting up inception_5a/output_inception_5a/output_0_split
I0627 11:31:14.841210 31701 net.cpp:157] Top shape: 10 832 7 7 (407680)
I0627 11:31:14.841214 31701 net.cpp:157] Top shape: 10 832 7 7 (407680)
I0627 11:31:14.841217 31701 net.cpp:157] Top shape: 10 832 7 7 (407680)
I0627 11:31:14.841220 31701 net.cpp:157] Top shape: 10 832 7 7 (407680)
I0627 11:31:14.841223 31701 net.cpp:165] Memory required for data: 546158560
I0627 11:31:14.841226 31701 layer_factory.hpp:77] Creating layer inception_5b/1x1
I0627 11:31:14.841235 31701 net.cpp:106] Creating Layer inception_5b/1x1
I0627 11:31:14.841239 31701 net.cpp:454] inception_5b/1x1 <- inception_5a/output_inception_5a/output_0_split_0
I0627 11:31:14.841245 31701 net.cpp:411] inception_5b/1x1 -> inception_5b/1x1
I0627 11:31:14.845127 31701 net.cpp:150] Setting up inception_5b/1x1
I0627 11:31:14.845140 31701 net.cpp:157] Top shape: 10 384 7 7 (188160)
I0627 11:31:14.845144 31701 net.cpp:165] Memory required for data: 546911200
I0627 11:31:14.845150 31701 layer_factory.hpp:77] Creating layer inception_5b/relu_1x1
I0627 11:31:14.845158 31701 net.cpp:106] Creating Layer inception_5b/relu_1x1
I0627 11:31:14.845162 31701 net.cpp:454] inception_5b/relu_1x1 <- inception_5b/1x1
I0627 11:31:14.845167 31701 net.cpp:397] inception_5b/relu_1x1 -> inception_5b/1x1 (in-place)
I0627 11:31:14.845326 31701 net.cpp:150] Setting up inception_5b/relu_1x1
I0627 11:31:14.845335 31701 net.cpp:157] Top shape: 10 384 7 7 (188160)
I0627 11:31:14.845337 31701 net.cpp:165] Memory required for data: 547663840
I0627 11:31:14.845340 31701 layer_factory.hpp:77] Creating layer inception_5b/3x3_reduce
I0627 11:31:14.845350 31701 net.cpp:106] Creating Layer inception_5b/3x3_reduce
I0627 11:31:14.845353 31701 net.cpp:454] inception_5b/3x3_reduce <- inception_5a/output_inception_5a/output_0_split_1
I0627 11:31:14.845360 31701 net.cpp:411] inception_5b/3x3_reduce -> inception_5b/3x3_reduce
I0627 11:31:14.848032 31701 net.cpp:150] Setting up inception_5b/3x3_reduce
I0627 11:31:14.848044 31701 net.cpp:157] Top shape: 10 192 7 7 (94080)
I0627 11:31:14.848048 31701 net.cpp:165] Memory required for data: 548040160
I0627 11:31:14.848054 31701 layer_factory.hpp:77] Creating layer inception_5b/relu_3x3_reduce
I0627 11:31:14.848062 31701 net.cpp:106] Creating Layer inception_5b/relu_3x3_reduce
I0627 11:31:14.848067 31701 net.cpp:454] inception_5b/relu_3x3_reduce <- inception_5b/3x3_reduce
I0627 11:31:14.848070 31701 net.cpp:397] inception_5b/relu_3x3_reduce -> inception_5b/3x3_reduce (in-place)
I0627 11:31:14.848438 31701 net.cpp:150] Setting up inception_5b/relu_3x3_reduce
I0627 11:31:14.848448 31701 net.cpp:157] Top shape: 10 192 7 7 (94080)
I0627 11:31:14.848451 31701 net.cpp:165] Memory required for data: 548416480
I0627 11:31:14.848454 31701 layer_factory.hpp:77] Creating layer inception_5b/3x3
I0627 11:31:14.848465 31701 net.cpp:106] Creating Layer inception_5b/3x3
I0627 11:31:14.848469 31701 net.cpp:454] inception_5b/3x3 <- inception_5b/3x3_reduce
I0627 11:31:14.848475 31701 net.cpp:411] inception_5b/3x3 -> inception_5b/3x3
I0627 11:31:14.854959 31701 net.cpp:150] Setting up inception_5b/3x3
I0627 11:31:14.854977 31701 net.cpp:157] Top shape: 10 384 7 7 (188160)
I0627 11:31:14.854981 31701 net.cpp:165] Memory required for data: 549169120
I0627 11:31:14.854990 31701 layer_factory.hpp:77] Creating layer inception_5b/relu_3x3
I0627 11:31:14.854995 31701 net.cpp:106] Creating Layer inception_5b/relu_3x3
I0627 11:31:14.855000 31701 net.cpp:454] inception_5b/relu_3x3 <- inception_5b/3x3
I0627 11:31:14.855006 31701 net.cpp:397] inception_5b/relu_3x3 -> inception_5b/3x3 (in-place)
I0627 11:31:14.855355 31701 net.cpp:150] Setting up inception_5b/relu_3x3
I0627 11:31:14.855366 31701 net.cpp:157] Top shape: 10 384 7 7 (188160)
I0627 11:31:14.855370 31701 net.cpp:165] Memory required for data: 549921760
I0627 11:31:14.855373 31701 layer_factory.hpp:77] Creating layer inception_5b/5x5_reduce
I0627 11:31:14.855386 31701 net.cpp:106] Creating Layer inception_5b/5x5_reduce
I0627 11:31:14.855391 31701 net.cpp:454] inception_5b/5x5_reduce <- inception_5a/output_inception_5a/output_0_split_2
I0627 11:31:14.855397 31701 net.cpp:411] inception_5b/5x5_reduce -> inception_5b/5x5_reduce
I0627 11:31:14.857455 31701 net.cpp:150] Setting up inception_5b/5x5_reduce
I0627 11:31:14.857467 31701 net.cpp:157] Top shape: 10 48 7 7 (23520)
I0627 11:31:14.857471 31701 net.cpp:165] Memory required for data: 550015840
I0627 11:31:14.857477 31701 layer_factory.hpp:77] Creating layer inception_5b/relu_5x5_reduce
I0627 11:31:14.857486 31701 net.cpp:106] Creating Layer inception_5b/relu_5x5_reduce
I0627 11:31:14.857489 31701 net.cpp:454] inception_5b/relu_5x5_reduce <- inception_5b/5x5_reduce
I0627 11:31:14.857494 31701 net.cpp:397] inception_5b/relu_5x5_reduce -> inception_5b/5x5_reduce (in-place)
I0627 11:31:14.857724 31701 net.cpp:150] Setting up inception_5b/relu_5x5_reduce
I0627 11:31:14.857733 31701 net.cpp:157] Top shape: 10 48 7 7 (23520)
I0627 11:31:14.857736 31701 net.cpp:165] Memory required for data: 550109920
I0627 11:31:14.857739 31701 layer_factory.hpp:77] Creating layer inception_5b/5x5
I0627 11:31:14.857748 31701 net.cpp:106] Creating Layer inception_5b/5x5
I0627 11:31:14.857753 31701 net.cpp:454] inception_5b/5x5 <- inception_5b/5x5_reduce
I0627 11:31:14.857758 31701 net.cpp:411] inception_5b/5x5 -> inception_5b/5x5
I0627 11:31:14.859745 31701 net.cpp:150] Setting up inception_5b/5x5
I0627 11:31:14.859755 31701 net.cpp:157] Top shape: 10 128 7 7 (62720)
I0627 11:31:14.859760 31701 net.cpp:165] Memory required for data: 550360800
I0627 11:31:14.859766 31701 layer_factory.hpp:77] Creating layer inception_5b/relu_5x5
I0627 11:31:14.859773 31701 net.cpp:106] Creating Layer inception_5b/relu_5x5
I0627 11:31:14.859777 31701 net.cpp:454] inception_5b/relu_5x5 <- inception_5b/5x5
I0627 11:31:14.859782 31701 net.cpp:397] inception_5b/relu_5x5 -> inception_5b/5x5 (in-place)
I0627 11:31:14.860102 31701 net.cpp:150] Setting up inception_5b/relu_5x5
I0627 11:31:14.860113 31701 net.cpp:157] Top shape: 10 128 7 7 (62720)
I0627 11:31:14.860116 31701 net.cpp:165] Memory required for data: 550611680
I0627 11:31:14.860119 31701 layer_factory.hpp:77] Creating layer inception_5b/pool
I0627 11:31:14.860127 31701 net.cpp:106] Creating Layer inception_5b/pool
I0627 11:31:14.860131 31701 net.cpp:454] inception_5b/pool <- inception_5a/output_inception_5a/output_0_split_3
I0627 11:31:14.860138 31701 net.cpp:411] inception_5b/pool -> inception_5b/pool
I0627 11:31:14.860193 31701 net.cpp:150] Setting up inception_5b/pool
I0627 11:31:14.860198 31701 net.cpp:157] Top shape: 10 832 7 7 (407680)
I0627 11:31:14.860201 31701 net.cpp:165] Memory required for data: 552242400
I0627 11:31:14.860204 31701 layer_factory.hpp:77] Creating layer inception_5b/pool_proj
I0627 11:31:14.860213 31701 net.cpp:106] Creating Layer inception_5b/pool_proj
I0627 11:31:14.860218 31701 net.cpp:454] inception_5b/pool_proj <- inception_5b/pool
I0627 11:31:14.860224 31701 net.cpp:411] inception_5b/pool_proj -> inception_5b/pool_proj
I0627 11:31:14.862285 31701 net.cpp:150] Setting up inception_5b/pool_proj
I0627 11:31:14.862298 31701 net.cpp:157] Top shape: 10 128 7 7 (62720)
I0627 11:31:14.862300 31701 net.cpp:165] Memory required for data: 552493280
I0627 11:31:14.862308 31701 layer_factory.hpp:77] Creating layer inception_5b/relu_pool_proj
I0627 11:31:14.862314 31701 net.cpp:106] Creating Layer inception_5b/relu_pool_proj
I0627 11:31:14.862318 31701 net.cpp:454] inception_5b/relu_pool_proj <- inception_5b/pool_proj
I0627 11:31:14.862323 31701 net.cpp:397] inception_5b/relu_pool_proj -> inception_5b/pool_proj (in-place)
I0627 11:31:14.862643 31701 net.cpp:150] Setting up inception_5b/relu_pool_proj
I0627 11:31:14.862654 31701 net.cpp:157] Top shape: 10 128 7 7 (62720)
I0627 11:31:14.862658 31701 net.cpp:165] Memory required for data: 552744160
I0627 11:31:14.862660 31701 layer_factory.hpp:77] Creating layer inception_5b/output
I0627 11:31:14.862669 31701 net.cpp:106] Creating Layer inception_5b/output
I0627 11:31:14.862673 31701 net.cpp:454] inception_5b/output <- inception_5b/1x1
I0627 11:31:14.862678 31701 net.cpp:454] inception_5b/output <- inception_5b/3x3
I0627 11:31:14.862681 31701 net.cpp:454] inception_5b/output <- inception_5b/5x5
I0627 11:31:14.862684 31701 net.cpp:454] inception_5b/output <- inception_5b/pool_proj
I0627 11:31:14.862689 31701 net.cpp:411] inception_5b/output -> inception_5b/output
I0627 11:31:14.862726 31701 net.cpp:150] Setting up inception_5b/output
I0627 11:31:14.862732 31701 net.cpp:157] Top shape: 10 1024 7 7 (501760)
I0627 11:31:14.862735 31701 net.cpp:165] Memory required for data: 554751200
I0627 11:31:14.862738 31701 layer_factory.hpp:77] Creating layer pool5/7x7_s1
I0627 11:31:14.862743 31701 net.cpp:106] Creating Layer pool5/7x7_s1
I0627 11:31:14.862747 31701 net.cpp:454] pool5/7x7_s1 <- inception_5b/output
I0627 11:31:14.862753 31701 net.cpp:411] pool5/7x7_s1 -> pool5/7x7_s1
I0627 11:31:14.862947 31701 net.cpp:150] Setting up pool5/7x7_s1
I0627 11:31:14.862957 31701 net.cpp:157] Top shape: 10 1024 1 1 (10240)
I0627 11:31:14.862959 31701 net.cpp:165] Memory required for data: 554792160
I0627 11:31:14.862962 31701 layer_factory.hpp:77] Creating layer pool5/drop_7x7_s1
I0627 11:31:14.862970 31701 net.cpp:106] Creating Layer pool5/drop_7x7_s1
I0627 11:31:14.862973 31701 net.cpp:454] pool5/drop_7x7_s1 <- pool5/7x7_s1
I0627 11:31:14.862978 31701 net.cpp:397] pool5/drop_7x7_s1 -> pool5/7x7_s1 (in-place)
I0627 11:31:14.863009 31701 net.cpp:150] Setting up pool5/drop_7x7_s1
I0627 11:31:14.863015 31701 net.cpp:157] Top shape: 10 1024 1 1 (10240)
I0627 11:31:14.863018 31701 net.cpp:165] Memory required for data: 554833120
I0627 11:31:14.863020 31701 layer_factory.hpp:77] Creating layer 102flowers
I0627 11:31:14.863026 31701 net.cpp:106] Creating Layer 102flowers
I0627 11:31:14.863029 31701 net.cpp:454] 102flowers <- pool5/7x7_s1
I0627 11:31:14.863036 31701 net.cpp:411] 102flowers -> 102flowers
I0627 11:31:14.863780 31701 net.cpp:150] Setting up 102flowers
I0627 11:31:14.863788 31701 net.cpp:157] Top shape: 10 102 (1020)
I0627 11:31:14.863790 31701 net.cpp:165] Memory required for data: 554837200
I0627 11:31:14.863796 31701 layer_factory.hpp:77] Creating layer prob
I0627 11:31:14.863802 31701 net.cpp:106] Creating Layer prob
I0627 11:31:14.863806 31701 net.cpp:454] prob <- 102flowers
I0627 11:31:14.863811 31701 net.cpp:411] prob -> prob
I0627 11:31:14.864297 31701 net.cpp:150] Setting up prob
I0627 11:31:14.864310 31701 net.cpp:157] Top shape: 10 102 (1020)
I0627 11:31:14.864312 31701 net.cpp:165] Memory required for data: 554841280
I0627 11:31:14.864316 31701 net.cpp:228] prob does not need backward computation.
I0627 11:31:14.864320 31701 net.cpp:228] 102flowers does not need backward computation.
I0627 11:31:14.864323 31701 net.cpp:228] pool5/drop_7x7_s1 does not need backward computation.
I0627 11:31:14.864326 31701 net.cpp:228] pool5/7x7_s1 does not need backward computation.
…
