…
I0520 12:24:27.539315 121113 net.cpp:313] The NetState phase (0) differed from the phase (1) specified by a rule in layer accuracy
I0520 12:24:27.539495 121113 net.cpp:49] Initializing net from parameters: 
name: "102FlowerCaffeNet"
state {
  phase: TRAIN
}
layer {
  name: "data"
  type: "ImageData"
  top: "data"
  top: "label"
  include {
    phase: TRAIN
  }
  transform_param {
    mirror: true
    crop_size: 227
    mean_file: "/home/zheda/data/flower_all/102flowers/102flowers_mean.binaryproto"
  }
  image_data_param {
    source: "/home/zheda/data/flower_all/102flowers/train.txt"
    batch_size: 50
    new_height: 256
    new_width: 256
  }
}
layer {
  name: "conv1"
  type: "Convolution"
  bottom: "data"
  top: "conv1"
  param {
    lr_mult: 1
    decay_mult: 1
  }
  param {
    lr_mult: 2
    decay_mult: 0
  }
  convolution_param {
    num_output: 96
    kernel_size: 11
    stride: 4
    weight_filler {
      type: "gaussian"
      std: 0.01
    }
    bias_filler {
      type: "constant"
      value: 0
    }
  }
}
layer {
  name: "relu1"
  type: "ReLU"
  bottom: "conv1"
  top: "conv1"
}
layer {
  name: "pool1"
  type: "Pooling"
  bottom: "conv1"
  top: "pool1"
  pooling_param {
    pool: MAX
    kernel_size: 3
    stride: 2
  }
}
layer {
  name: "norm1"
  type: "LRN"
  bottom: "pool1"
  top: "norm1"
  lrn_param {
    local_size: 5
    alpha: 0.0001
    beta: 0.75
  }
}
layer {
  name: "conv2"
  type: "Convolution"
  bottom: "norm1"
  top: "conv2"
  param {
    lr_mult: 1
    decay_mult: 1
  }
  param {
    lr_mult: 2
    decay_mult: 0
  }
  convolution_param {
    num_output: 256
    pad: 2
    kernel_size: 5
    group: 2
    weight_filler {
      type: "gaussian"
      std: 0.01
    }
    bias_filler {
      type: "constant"
      value: 1
    }
  }
}
layer {
  name: "relu2"
  type: "ReLU"
  bottom: "conv2"
  top: "conv2"
}
layer {
  name: "pool2"
  type: "Pooling"
  bottom: "conv2"
  top: "pool2"
  pooling_param {
    pool: MAX
    kernel_size: 3
    stride: 2
  }
}
layer {
  name: "norm2"
  type: "LRN"
  bottom: "pool2"
  top: "norm2"
  lrn_param {
    local_size: 5
    alpha: 0.0001
    beta: 0.75
  }
}
layer {
  name: "conv3"
  type: "Convolution"
  bottom: "norm2"
  top: "conv3"
  param {
    lr_mult: 1
    decay_mult: 1
  }
  param {
    lr_mult: 2
    decay_mult: 0
  }
  convolution_param {
    num_output: 384
    pad: 1
    kernel_size: 3
    weight_filler {
      type: "gaussian"
      std: 0.01
    }
    bias_filler {
      type: "constant"
      value: 0
    }
  }
}
layer {
  name: "relu3"
  type: "ReLU"
  bottom: "conv3"
  top: "conv3"
}
layer {
  name: "conv4"
  type: "Convolution"
  bottom: "conv3"
  top: "conv4"
  param {
    lr_mult: 1
    decay_mult: 1
  }
  param {
    lr_mult: 2
    decay_mult: 0
  }
  convolution_param {
    num_output: 384
    pad: 1
    kernel_size: 3
    group: 2
    weight_filler {
      type: "gaussian"
      std: 0.01
    }
    bias_filler {
      type: "constant"
      value: 1
    }
  }
}
layer {
  name: "relu4"
  type: "ReLU"
  bottom: "conv4"
  top: "conv4"
}
layer {
  name: "conv5"
  type: "Convolution"
  bottom: "conv4"
  top: "conv5"
  param {
    lr_mult: 1
    decay_mult: 1
  }
  param {
    lr_mult: 2
    decay_mult: 0
  }
  convolution_param {
    num_output: 256
    pad: 1
    kernel_size: 3
    group: 2
    weight_filler {
      type: "gaussian"
      std: 0.01
    }
    bias_filler {
      type: "constant"
      value: 1
    }
  }
}
layer {
  name: "relu5"
  type: "ReLU"
  bottom: "conv5"
  top: "conv5"
}
layer {
  name: "pool5"
  type: "Pooling"
  bottom: "conv5"
  top: "pool5"
  pooling_param {
    pool: MAX
    kernel_size: 3
    stride: 2
  }
}
layer {
  name: "fc6"
  type: "InnerProduct"
  bottom: "pool5"
  top: "fc6"
  param {
    lr_mult: 1
    decay_mult: 1
  }
  param {
    lr_mult: 2
    decay_mult: 0
  }
  inner_product_param {
    num_output: 4096
    weight_filler {
      type: "gaussian"
      std: 0.005
    }
    bias_filler {
      type: "constant"
      value: 1
    }
  }
}
layer {
  name: "relu6"
  type: "ReLU"
  bottom: "fc6"
  top: "fc6"
}
layer {
  name: "drop6"
  type: "Dropout"
  bottom: "fc6"
  top: "fc6"
  dropout_param {
    dropout_ratio: 0.5
  }
}
layer {
  name: "fc7"
  type: "InnerProduct"
  bottom: "fc6"
  top: "fc7"
  param {
    lr_mult: 1
    decay_mult: 1
  }
  param {
    lr_mult: 2
    decay_mult: 0
  }
  inner_product_param {
    num_output: 4096
    weight_filler {
      type: "gaussian"
      std: 0.005
    }
    bias_filler {
      type: "constant"
      value: 1
    }
  }
}
layer {
  name: "relu7"
  type: "ReLU"
  bottom: "fc7"
  top: "fc7"
}
layer {
  name: "drop7"
  type: "Dropout"
  bottom: "fc7"
  top: "fc7"
  dropout_param {
    dropout_ratio: 0.5
  }
}
layer {
  name: "102flower"
  type: "InnerProduct"
  bottom: "fc7"
  top: "102flower"
  param {
    lr_mult: 10
    decay_mult: 1
  }
  param {
    lr_mult: 20
    decay_mult: 0
  }
  inner_product_param {
    num_output: 102
    weight_filler {
      type: "gaussian"
      std: 0.01
    }
    bias_filler {
      type: "constant"
      value: 0
    }
  }
}
layer {
  name: "loss"
  type: "SoftmaxWithLoss"
  bottom: "102flower"
  bottom: "label"
  top: "loss"
}
I0520 12:24:27.540603 121113 layer_factory.hpp:77] Creating layer data
I0520 12:24:27.540653 121113 net.cpp:91] Creating Layer data
I0520 12:24:27.540668 121113 net.cpp:399] data -> data
I0520 12:24:27.540702 121113 net.cpp:399] data -> label
I0520 12:24:27.540729 121113 data_transformer.cpp:25] Loading mean file from: /home/zheda/data/flower_all/102flowers/102flowers_mean.binaryproto
I0520 12:24:27.552422 121113 image_data_layer.cpp:38] Opening file /home/zheda/data/flower_all/102flowers/train.txt
I0520 12:24:27.552986 121113 image_data_layer.cpp:53] A total of 1020 images.
I0520 12:24:27.561028 121113 image_data_layer.cpp:80] output data size: 50,3,227,227
I0520 12:24:27.645906 121113 net.cpp:141] Setting up data
I0520 12:24:27.645987 121113 net.cpp:148] Top shape: 50 3 227 227 (7729350)
I0520 12:24:27.646000 121113 net.cpp:148] Top shape: 50 (50)
I0520 12:24:27.646008 121113 net.cpp:156] Memory required for data: 30917600
I0520 12:24:27.646023 121113 layer_factory.hpp:77] Creating layer conv1
I0520 12:24:27.646060 121113 net.cpp:91] Creating Layer conv1
I0520 12:24:27.646075 121113 net.cpp:425] conv1 <- data
I0520 12:24:27.646096 121113 net.cpp:399] conv1 -> conv1
I0520 12:24:27.795307 121113 net.cpp:141] Setting up conv1
I0520 12:24:27.795372 121113 net.cpp:148] Top shape: 50 96 55 55 (14520000)
I0520 12:24:27.795382 121113 net.cpp:156] Memory required for data: 88997600
I0520 12:24:27.795410 121113 layer_factory.hpp:77] Creating layer relu1
I0520 12:24:27.795433 121113 net.cpp:91] Creating Layer relu1
I0520 12:24:27.795442 121113 net.cpp:425] relu1 <- conv1
I0520 12:24:27.795451 121113 net.cpp:386] relu1 -> conv1 (in-place)
I0520 12:24:27.795626 121113 net.cpp:141] Setting up relu1
I0520 12:24:27.795645 121113 net.cpp:148] Top shape: 50 96 55 55 (14520000)
I0520 12:24:27.795657 121113 net.cpp:156] Memory required for data: 147077600
I0520 12:24:27.795665 121113 layer_factory.hpp:77] Creating layer pool1
I0520 12:24:27.795676 121113 net.cpp:91] Creating Layer pool1
I0520 12:24:27.795683 121113 net.cpp:425] pool1 <- conv1
I0520 12:24:27.795693 121113 net.cpp:399] pool1 -> pool1
I0520 12:24:27.795754 121113 net.cpp:141] Setting up pool1
I0520 12:24:27.795769 121113 net.cpp:148] Top shape: 50 96 27 27 (3499200)
I0520 12:24:27.795814 121113 net.cpp:156] Memory required for data: 161074400
I0520 12:24:27.795825 121113 layer_factory.hpp:77] Creating layer norm1
I0520 12:24:27.795845 121113 net.cpp:91] Creating Layer norm1
I0520 12:24:27.795861 121113 net.cpp:425] norm1 <- pool1
I0520 12:24:27.795869 121113 net.cpp:399] norm1 -> norm1
I0520 12:24:27.796203 121113 net.cpp:141] Setting up norm1
I0520 12:24:27.796226 121113 net.cpp:148] Top shape: 50 96 27 27 (3499200)
I0520 12:24:27.796234 121113 net.cpp:156] Memory required for data: 175071200
I0520 12:24:27.796241 121113 layer_factory.hpp:77] Creating layer conv2
I0520 12:24:27.796262 121113 net.cpp:91] Creating Layer conv2
I0520 12:24:27.796270 121113 net.cpp:425] conv2 <- norm1
I0520 12:24:27.796280 121113 net.cpp:399] conv2 -> conv2
I0520 12:24:27.808334 121113 net.cpp:141] Setting up conv2
I0520 12:24:27.808359 121113 net.cpp:148] Top shape: 50 256 27 27 (9331200)
I0520 12:24:27.808368 121113 net.cpp:156] Memory required for data: 212396000
I0520 12:24:27.808382 121113 layer_factory.hpp:77] Creating layer relu2
I0520 12:24:27.808394 121113 net.cpp:91] Creating Layer relu2
I0520 12:24:27.808416 121113 net.cpp:425] relu2 <- conv2
I0520 12:24:27.808429 121113 net.cpp:386] relu2 -> conv2 (in-place)
I0520 12:24:27.808605 121113 net.cpp:141] Setting up relu2
I0520 12:24:27.808624 121113 net.cpp:148] Top shape: 50 256 27 27 (9331200)
I0520 12:24:27.808632 121113 net.cpp:156] Memory required for data: 249720800
I0520 12:24:27.808640 121113 layer_factory.hpp:77] Creating layer pool2
I0520 12:24:27.808652 121113 net.cpp:91] Creating Layer pool2
I0520 12:24:27.808660 121113 net.cpp:425] pool2 <- conv2
I0520 12:24:27.808672 121113 net.cpp:399] pool2 -> pool2
I0520 12:24:27.808722 121113 net.cpp:141] Setting up pool2
I0520 12:24:27.808735 121113 net.cpp:148] Top shape: 50 256 13 13 (2163200)
I0520 12:24:27.808744 121113 net.cpp:156] Memory required for data: 258373600
I0520 12:24:27.808753 121113 layer_factory.hpp:77] Creating layer norm2
I0520 12:24:27.808770 121113 net.cpp:91] Creating Layer norm2
I0520 12:24:27.808779 121113 net.cpp:425] norm2 <- pool2
I0520 12:24:27.808789 121113 net.cpp:399] norm2 -> norm2
I0520 12:24:27.809125 121113 net.cpp:141] Setting up norm2
I0520 12:24:27.809146 121113 net.cpp:148] Top shape: 50 256 13 13 (2163200)
I0520 12:24:27.809157 121113 net.cpp:156] Memory required for data: 267026400
I0520 12:24:27.809165 121113 layer_factory.hpp:77] Creating layer conv3
I0520 12:24:27.809181 121113 net.cpp:91] Creating Layer conv3
I0520 12:24:27.809190 121113 net.cpp:425] conv3 <- norm2
I0520 12:24:27.809203 121113 net.cpp:399] conv3 -> conv3
I0520 12:24:27.837929 121113 net.cpp:141] Setting up conv3
I0520 12:24:27.837959 121113 net.cpp:148] Top shape: 50 384 13 13 (3244800)
I0520 12:24:27.837968 121113 net.cpp:156] Memory required for data: 280005600
I0520 12:24:27.837983 121113 layer_factory.hpp:77] Creating layer relu3
I0520 12:24:27.837997 121113 net.cpp:91] Creating Layer relu3
I0520 12:24:27.838006 121113 net.cpp:425] relu3 <- conv3
I0520 12:24:27.838018 121113 net.cpp:386] relu3 -> conv3 (in-place)
I0520 12:24:27.838362 121113 net.cpp:141] Setting up relu3
I0520 12:24:27.838384 121113 net.cpp:148] Top shape: 50 384 13 13 (3244800)
I0520 12:24:27.838392 121113 net.cpp:156] Memory required for data: 292984800
I0520 12:24:27.838399 121113 layer_factory.hpp:77] Creating layer conv4
I0520 12:24:27.838419 121113 net.cpp:91] Creating Layer conv4
I0520 12:24:27.838428 121113 net.cpp:425] conv4 <- conv3
I0520 12:24:27.838438 121113 net.cpp:399] conv4 -> conv4
I0520 12:24:27.860975 121113 net.cpp:141] Setting up conv4
I0520 12:24:27.861006 121113 net.cpp:148] Top shape: 50 384 13 13 (3244800)
I0520 12:24:27.861013 121113 net.cpp:156] Memory required for data: 305964000
I0520 12:24:27.861024 121113 layer_factory.hpp:77] Creating layer relu4
I0520 12:24:27.861039 121113 net.cpp:91] Creating Layer relu4
I0520 12:24:27.861048 121113 net.cpp:425] relu4 <- conv4
I0520 12:24:27.861057 121113 net.cpp:386] relu4 -> conv4 (in-place)
I0520 12:24:27.861279 121113 net.cpp:141] Setting up relu4
I0520 12:24:27.861299 121113 net.cpp:148] Top shape: 50 384 13 13 (3244800)
I0520 12:24:27.861305 121113 net.cpp:156] Memory required for data: 318943200
I0520 12:24:27.861312 121113 layer_factory.hpp:77] Creating layer conv5
I0520 12:24:27.861330 121113 net.cpp:91] Creating Layer conv5
I0520 12:24:27.861338 121113 net.cpp:425] conv5 <- conv4
I0520 12:24:27.861351 121113 net.cpp:399] conv5 -> conv5
I0520 12:24:27.876158 121113 net.cpp:141] Setting up conv5
I0520 12:24:27.876183 121113 net.cpp:148] Top shape: 50 256 13 13 (2163200)
I0520 12:24:27.876194 121113 net.cpp:156] Memory required for data: 327596000
I0520 12:24:27.876209 121113 layer_factory.hpp:77] Creating layer relu5
I0520 12:24:27.876220 121113 net.cpp:91] Creating Layer relu5
I0520 12:24:27.876227 121113 net.cpp:425] relu5 <- conv5
I0520 12:24:27.876235 121113 net.cpp:386] relu5 -> conv5 (in-place)
I0520 12:24:27.876400 121113 net.cpp:141] Setting up relu5
I0520 12:24:27.876417 121113 net.cpp:148] Top shape: 50 256 13 13 (2163200)
I0520 12:24:27.876423 121113 net.cpp:156] Memory required for data: 336248800
I0520 12:24:27.876430 121113 layer_factory.hpp:77] Creating layer pool5
I0520 12:24:27.876441 121113 net.cpp:91] Creating Layer pool5
I0520 12:24:27.876446 121113 net.cpp:425] pool5 <- conv5
I0520 12:24:27.876456 121113 net.cpp:399] pool5 -> pool5
I0520 12:24:27.876500 121113 net.cpp:141] Setting up pool5
I0520 12:24:27.876525 121113 net.cpp:148] Top shape: 50 256 6 6 (460800)
I0520 12:24:27.876533 121113 net.cpp:156] Memory required for data: 338092000
I0520 12:24:27.876538 121113 layer_factory.hpp:77] Creating layer fc6
I0520 12:24:27.876552 121113 net.cpp:91] Creating Layer fc6
I0520 12:24:27.876559 121113 net.cpp:425] fc6 <- pool5
I0520 12:24:27.876570 121113 net.cpp:399] fc6 -> fc6
I0520 12:24:29.156478 121113 net.cpp:141] Setting up fc6
I0520 12:24:29.156539 121113 net.cpp:148] Top shape: 50 4096 (204800)
I0520 12:24:29.156548 121113 net.cpp:156] Memory required for data: 338911200
I0520 12:24:29.156564 121113 layer_factory.hpp:77] Creating layer relu6
I0520 12:24:29.156582 121113 net.cpp:91] Creating Layer relu6
I0520 12:24:29.156591 121113 net.cpp:425] relu6 <- fc6
I0520 12:24:29.156602 121113 net.cpp:386] relu6 -> fc6 (in-place)
I0520 12:24:29.157215 121113 net.cpp:141] Setting up relu6
I0520 12:24:29.157249 121113 net.cpp:148] Top shape: 50 4096 (204800)
I0520 12:24:29.157258 121113 net.cpp:156] Memory required for data: 339730400
I0520 12:24:29.157265 121113 layer_factory.hpp:77] Creating layer drop6
I0520 12:24:29.157282 121113 net.cpp:91] Creating Layer drop6
I0520 12:24:29.157290 121113 net.cpp:425] drop6 <- fc6
I0520 12:24:29.157299 121113 net.cpp:386] drop6 -> fc6 (in-place)
I0520 12:24:29.157356 121113 net.cpp:141] Setting up drop6
I0520 12:24:29.157368 121113 net.cpp:148] Top shape: 50 4096 (204800)
I0520 12:24:29.157376 121113 net.cpp:156] Memory required for data: 340549600
I0520 12:24:29.157382 121113 layer_factory.hpp:77] Creating layer fc7
I0520 12:24:29.157397 121113 net.cpp:91] Creating Layer fc7
I0520 12:24:29.157404 121113 net.cpp:425] fc7 <- fc6
I0520 12:24:29.157425 121113 net.cpp:399] fc7 -> fc7
I0520 12:24:29.628103 121113 net.cpp:141] Setting up fc7
I0520 12:24:29.628154 121113 net.cpp:148] Top shape: 50 4096 (204800)
I0520 12:24:29.628162 121113 net.cpp:156] Memory required for data: 341368800
I0520 12:24:29.628176 121113 layer_factory.hpp:77] Creating layer relu7
I0520 12:24:29.628193 121113 net.cpp:91] Creating Layer relu7
I0520 12:24:29.628202 121113 net.cpp:425] relu7 <- fc7
I0520 12:24:29.628213 121113 net.cpp:386] relu7 -> fc7 (in-place)
I0520 12:24:29.628484 121113 net.cpp:141] Setting up relu7
I0520 12:24:29.628511 121113 net.cpp:148] Top shape: 50 4096 (204800)
I0520 12:24:29.628518 121113 net.cpp:156] Memory required for data: 342188000
I0520 12:24:29.628525 121113 layer_factory.hpp:77] Creating layer drop7
I0520 12:24:29.628536 121113 net.cpp:91] Creating Layer drop7
I0520 12:24:29.628542 121113 net.cpp:425] drop7 <- fc7
I0520 12:24:29.628552 121113 net.cpp:386] drop7 -> fc7 (in-place)
I0520 12:24:29.628644 121113 net.cpp:141] Setting up drop7
I0520 12:24:29.628656 121113 net.cpp:148] Top shape: 50 4096 (204800)
I0520 12:24:29.628664 121113 net.cpp:156] Memory required for data: 343007200
I0520 12:24:29.628671 121113 layer_factory.hpp:77] Creating layer 102flower
I0520 12:24:29.628710 121113 net.cpp:91] Creating Layer 102flower
I0520 12:24:29.628720 121113 net.cpp:425] 102flower <- fc7
I0520 12:24:29.628729 121113 net.cpp:399] 102flower -> 102flower
I0520 12:24:29.640910 121113 net.cpp:141] Setting up 102flower
I0520 12:24:29.640941 121113 net.cpp:148] Top shape: 50 102 (5100)
I0520 12:24:29.640949 121113 net.cpp:156] Memory required for data: 343027600
I0520 12:24:29.640959 121113 layer_factory.hpp:77] Creating layer loss
I0520 12:24:29.640969 121113 net.cpp:91] Creating Layer loss
I0520 12:24:29.640976 121113 net.cpp:425] loss <- 102flower
I0520 12:24:29.640985 121113 net.cpp:425] loss <- label
I0520 12:24:29.640996 121113 net.cpp:399] loss -> loss
I0520 12:24:29.641028 121113 layer_factory.hpp:77] Creating layer loss
…
I0520 12:24:29.643061 121113 net.cpp:313] The NetState phase (1) differed from the phase (0) specified by a rule in layer data
I0520 12:24:29.643296 121113 net.cpp:49] Initializing net from parameters: 
name: "102FlowerCaffeNet"
state {
  phase: TEST
}
layer {
  name: "data"
  type: "ImageData"
  top: "data"
  top: "label"
  include {
    phase: TEST
  }
  transform_param {
    mirror: false
    crop_size: 227
    mean_file: "/home/zheda/data/flower_all/102flowers/102flowers_mean.binaryproto"
  }
  image_data_param {
    source: "/home/zheda/data/flower_all/102flowers/test.txt"
    batch_size: 50
    new_height: 256
    new_width: 256
  }
}
layer {
  name: "conv1"
  type: "Convolution"
  bottom: "data"
  top: "conv1"
  param {
    lr_mult: 1
    decay_mult: 1
  }
  param {
    lr_mult: 2
    decay_mult: 0
  }
  convolution_param {
    num_output: 96
    kernel_size: 11
    stride: 4
    weight_filler {
      type: "gaussian"
      std: 0.01
    }
    bias_filler {
      type: "constant"
      value: 0
    }
  }
}
layer {
  name: "relu1"
  type: "ReLU"
  bottom: "conv1"
  top: "conv1"
}
layer {
  name: "pool1"
  type: "Pooling"
  bottom: "conv1"
  top: "pool1"
  pooling_param {
    pool: MAX
    kernel_size: 3
    stride: 2
  }
}
layer {
  name: "norm1"
  type: "LRN"
  bottom: "pool1"
  top: "norm1"
  lrn_param {
    local_size: 5
    alpha: 0.0001
    beta: 0.75
  }
}
layer {
  name: "conv2"
  type: "Convolution"
  bottom: "norm1"
  top: "conv2"
  param {
    lr_mult: 1
    decay_mult: 1
  }
  param {
    lr_mult: 2
    decay_mult: 0
  }
  convolution_param {
    num_output: 256
    pad: 2
    kernel_size: 5
    group: 2
    weight_filler {
      type: "gaussian"
      std: 0.01
    }
    bias_filler {
      type: "constant"
      value: 1
    }
  }
}
layer {
  name: "relu2"
  type: "ReLU"
  bottom: "conv2"
  top: "conv2"
}
layer {
  name: "pool2"
  type: "Pooling"
  bottom: "conv2"
  top: "pool2"
  pooling_param {
    pool: MAX
    kernel_size: 3
    stride: 2
  }
}
layer {
  name: "norm2"
  type: "LRN"
  bottom: "pool2"
  top: "norm2"
  lrn_param {
    local_size: 5
    alpha: 0.0001
    beta: 0.75
  }
}
layer {
  name: "conv3"
  type: "Convolution"
  bottom: "norm2"
  top: "conv3"
  param {
    lr_mult: 1
    decay_mult: 1
  }
  param {
    lr_mult: 2
    decay_mult: 0
  }
  convolution_param {
    num_output: 384
    pad: 1
    kernel_size: 3
    weight_filler {
      type: "gaussian"
      std: 0.01
    }
    bias_filler {
      type: "constant"
      value: 0
    }
  }
}
layer {
  name: "relu3"
  type: "ReLU"
  bottom: "conv3"
  top: "conv3"
}
layer {
  name: "conv4"
  type: "Convolution"
  bottom: "conv3"
  top: "conv4"
  param {
    lr_mult: 1
    decay_mult: 1
  }
  param {
    lr_mult: 2
    decay_mult: 0
  }
  convolution_param {
    num_output: 384
    pad: 1
    kernel_size: 3
    group: 2
    weight_filler {
      type: "gaussian"
      std: 0.01
    }
    bias_filler {
      type: "constant"
      value: 1
    }
  }
}
layer {
  name: "relu4"
  type: "ReLU"
  bottom: "conv4"
  top: "conv4"
}
layer {
  name: "conv5"
  type: "Convolution"
  bottom: "conv4"
  top: "conv5"
  param {
    lr_mult: 1
    decay_mult: 1
  }
  param {
    lr_mult: 2
    decay_mult: 0
  }
  convolution_param {
    num_output: 256
    pad: 1
    kernel_size: 3
    group: 2
    weight_filler {
      type: "gaussian"
      std: 0.01
    }
    bias_filler {
      type: "constant"
      value: 1
    }
  }
}
layer {
  name: "relu5"
  type: "ReLU"
  bottom: "conv5"
  top: "conv5"
}
layer {
  name: "pool5"
  type: "Pooling"
  bottom: "conv5"
  top: "pool5"
  pooling_param {
    pool: MAX
    kernel_size: 3
    stride: 2
  }
}
layer {
  name: "fc6"
  type: "InnerProduct"
  bottom: "pool5"
  top: "fc6"
  param {
    lr_mult: 1
    decay_mult: 1
  }
  param {
    lr_mult: 2
    decay_mult: 0
  }
  inner_product_param {
    num_output: 4096
    weight_filler {
      type: "gaussian"
      std: 0.005
    }
    bias_filler {
      type: "constant"
      value: 1
    }
  }
}
layer {
  name: "relu6"
  type: "ReLU"
  bottom: "fc6"
  top: "fc6"
}
layer {
  name: "drop6"
  type: "Dropout"
  bottom: "fc6"
  top: "fc6"
  dropout_param {
    dropout_ratio: 0.5
  }
}
layer {
  name: "fc7"
  type: "InnerProduct"
  bottom: "fc6"
  top: "fc7"
  param {
    lr_mult: 1
    decay_mult: 1
  }
  param {
    lr_mult: 2
    decay_mult: 0
  }
  inner_product_param {
    num_output: 4096
    weight_filler {
      type: "gaussian"
      std: 0.005
    }
    bias_filler {
      type: "constant"
      value: 1
    }
  }
}
layer {
  name: "relu7"
  type: "ReLU"
  bottom: "fc7"
  top: "fc7"
}
layer {
  name: "drop7"
  type: "Dropout"
  bottom: "fc7"
  top: "fc7"
  dropout_param {
    dropout_ratio: 0.5
  }
}
layer {
  name: "102flower"
  type: "InnerProduct"
  bottom: "fc7"
  top: "102flower"
  param {
    lr_mult: 10
    decay_mult: 1
  }
  param {
    lr_mult: 20
    decay_mult: 0
  }
  inner_product_param {
    num_output: 102
    weight_filler {
      type: "gaussian"
      std: 0.01
    }
    bias_filler {
      type: "constant"
      value: 0
    }
  }
}
layer {
  name: "accuracy"
  type: "Accuracy"
  bottom: "102flower"
  bottom: "label"
  top: "accuracy"
  include {
    phase: TEST
  }
}
layer {
  name: "loss"
  type: "SoftmaxWithLoss"
  bottom: "102flower"
  bottom: "label"
  top: "loss"
}
I0520 12:24:29.644421 121113 layer_factory.hpp:77] Creating layer data
I0520 12:24:29.644455 121113 net.cpp:91] Creating Layer data
I0520 12:24:29.644465 121113 net.cpp:399] data -> data
I0520 12:24:29.644479 121113 net.cpp:399] data -> label
I0520 12:24:29.644490 121113 data_transformer.cpp:25] Loading mean file from: /home/zheda/data/flower_all/102flowers/102flowers_mean.binaryproto
I0520 12:24:29.646576 121113 image_data_layer.cpp:38] Opening file /home/zheda/data/flower_all/102flowers/test.txt
I0520 12:24:29.649011 121113 image_data_layer.cpp:53] A total of 6149 images.
I0520 12:24:29.651509 121113 image_data_layer.cpp:80] output data size: 50,3,227,227
I0520 12:24:29.706488 121113 net.cpp:141] Setting up data
I0520 12:24:29.706542 121113 net.cpp:148] Top shape: 50 3 227 227 (7729350)
I0520 12:24:29.706552 121113 net.cpp:148] Top shape: 50 (50)
I0520 12:24:29.706560 121113 net.cpp:156] Memory required for data: 30917600
I0520 12:24:29.706570 121113 layer_factory.hpp:77] Creating layer label_data_1_split
I0520 12:24:29.706586 121113 net.cpp:91] Creating Layer label_data_1_split
I0520 12:24:29.706596 121113 net.cpp:425] label_data_1_split <- label
I0520 12:24:29.706607 121113 net.cpp:399] label_data_1_split -> label_data_1_split_0
I0520 12:24:29.706621 121113 net.cpp:399] label_data_1_split -> label_data_1_split_1
I0520 12:24:29.706904 121113 net.cpp:141] Setting up label_data_1_split
I0520 12:24:29.706939 121113 net.cpp:148] Top shape: 50 (50)
I0520 12:24:29.706949 121113 net.cpp:148] Top shape: 50 (50)
I0520 12:24:29.706957 121113 net.cpp:156] Memory required for data: 30918000
I0520 12:24:29.706965 121113 layer_factory.hpp:77] Creating layer conv1
I0520 12:24:29.706984 121113 net.cpp:91] Creating Layer conv1
I0520 12:24:29.707002 121113 net.cpp:425] conv1 <- data
I0520 12:24:29.707013 121113 net.cpp:399] conv1 -> conv1
I0520 12:24:29.709338 121113 net.cpp:141] Setting up conv1
I0520 12:24:29.709374 121113 net.cpp:148] Top shape: 50 96 55 55 (14520000)
I0520 12:24:29.709383 121113 net.cpp:156] Memory required for data: 88998000
I0520 12:24:29.709398 121113 layer_factory.hpp:77] Creating layer relu1
I0520 12:24:29.709410 121113 net.cpp:91] Creating Layer relu1
I0520 12:24:29.709417 121113 net.cpp:425] relu1 <- conv1
I0520 12:24:29.709426 121113 net.cpp:386] relu1 -> conv1 (in-place)
I0520 12:24:29.709599 121113 net.cpp:141] Setting up relu1
I0520 12:24:29.709625 121113 net.cpp:148] Top shape: 50 96 55 55 (14520000)
I0520 12:24:29.709632 121113 net.cpp:156] Memory required for data: 147078000
I0520 12:24:29.709640 121113 layer_factory.hpp:77] Creating layer pool1
I0520 12:24:29.709651 121113 net.cpp:91] Creating Layer pool1
I0520 12:24:29.709658 121113 net.cpp:425] pool1 <- conv1
I0520 12:24:29.709667 121113 net.cpp:399] pool1 -> pool1
I0520 12:24:29.709713 121113 net.cpp:141] Setting up pool1
I0520 12:24:29.709725 121113 net.cpp:148] Top shape: 50 96 27 27 (3499200)
I0520 12:24:29.709744 121113 net.cpp:156] Memory required for data: 161074800
I0520 12:24:29.709750 121113 layer_factory.hpp:77] Creating layer norm1
I0520 12:24:29.709761 121113 net.cpp:91] Creating Layer norm1
I0520 12:24:29.709769 121113 net.cpp:425] norm1 <- pool1
I0520 12:24:29.709779 121113 net.cpp:399] norm1 -> norm1
I0520 12:24:29.710142 121113 net.cpp:141] Setting up norm1
I0520 12:24:29.710175 121113 net.cpp:148] Top shape: 50 96 27 27 (3499200)
I0520 12:24:29.710182 121113 net.cpp:156] Memory required for data: 175071600
I0520 12:24:29.710229 121113 layer_factory.hpp:77] Creating layer conv2
I0520 12:24:29.710244 121113 net.cpp:91] Creating Layer conv2
I0520 12:24:29.710253 121113 net.cpp:425] conv2 <- norm1
I0520 12:24:29.710264 121113 net.cpp:399] conv2 -> conv2
I0520 12:24:29.723181 121113 net.cpp:141] Setting up conv2
I0520 12:24:29.723223 121113 net.cpp:148] Top shape: 50 256 27 27 (9331200)
I0520 12:24:29.723232 121113 net.cpp:156] Memory required for data: 212396400
I0520 12:24:29.723248 121113 layer_factory.hpp:77] Creating layer relu2
I0520 12:24:29.723259 121113 net.cpp:91] Creating Layer relu2
I0520 12:24:29.723268 121113 net.cpp:425] relu2 <- conv2
I0520 12:24:29.723278 121113 net.cpp:386] relu2 -> conv2 (in-place)
I0520 12:24:29.723621 121113 net.cpp:141] Setting up relu2
I0520 12:24:29.723654 121113 net.cpp:148] Top shape: 50 256 27 27 (9331200)
I0520 12:24:29.723661 121113 net.cpp:156] Memory required for data: 249721200
I0520 12:24:29.723670 121113 layer_factory.hpp:77] Creating layer pool2
I0520 12:24:29.723681 121113 net.cpp:91] Creating Layer pool2
I0520 12:24:29.723690 121113 net.cpp:425] pool2 <- conv2
I0520 12:24:29.723700 121113 net.cpp:399] pool2 -> pool2
I0520 12:24:29.723760 121113 net.cpp:141] Setting up pool2
I0520 12:24:29.723774 121113 net.cpp:148] Top shape: 50 256 13 13 (2163200)
I0520 12:24:29.723781 121113 net.cpp:156] Memory required for data: 258374000
I0520 12:24:29.723788 121113 layer_factory.hpp:77] Creating layer norm2
I0520 12:24:29.723798 121113 net.cpp:91] Creating Layer norm2
I0520 12:24:29.723805 121113 net.cpp:425] norm2 <- pool2
I0520 12:24:29.723814 121113 net.cpp:399] norm2 -> norm2
I0520 12:24:29.724046 121113 net.cpp:141] Setting up norm2
I0520 12:24:29.724076 121113 net.cpp:148] Top shape: 50 256 13 13 (2163200)
I0520 12:24:29.724083 121113 net.cpp:156] Memory required for data: 267026800
I0520 12:24:29.724090 121113 layer_factory.hpp:77] Creating layer conv3
I0520 12:24:29.724104 121113 net.cpp:91] Creating Layer conv3
I0520 12:24:29.724112 121113 net.cpp:425] conv3 <- norm2
I0520 12:24:29.724123 121113 net.cpp:399] conv3 -> conv3
I0520 12:24:29.753387 121113 net.cpp:141] Setting up conv3
I0520 12:24:29.753442 121113 net.cpp:148] Top shape: 50 384 13 13 (3244800)
I0520 12:24:29.753460 121113 net.cpp:156] Memory required for data: 280006000
I0520 12:24:29.753479 121113 layer_factory.hpp:77] Creating layer relu3
I0520 12:24:29.753492 121113 net.cpp:91] Creating Layer relu3
I0520 12:24:29.753500 121113 net.cpp:425] relu3 <- conv3
I0520 12:24:29.753511 121113 net.cpp:386] relu3 -> conv3 (in-place)
I0520 12:24:29.753840 121113 net.cpp:141] Setting up relu3
I0520 12:24:29.753871 121113 net.cpp:148] Top shape: 50 384 13 13 (3244800)
I0520 12:24:29.753880 121113 net.cpp:156] Memory required for data: 292985200
I0520 12:24:29.753886 121113 layer_factory.hpp:77] Creating layer conv4
I0520 12:24:29.753902 121113 net.cpp:91] Creating Layer conv4
I0520 12:24:29.753911 121113 net.cpp:425] conv4 <- conv3
I0520 12:24:29.753921 121113 net.cpp:399] conv4 -> conv4
I0520 12:24:29.777132 121113 net.cpp:141] Setting up conv4
I0520 12:24:29.777186 121113 net.cpp:148] Top shape: 50 384 13 13 (3244800)
I0520 12:24:29.777200 121113 net.cpp:156] Memory required for data: 305964400
I0520 12:24:29.777215 121113 layer_factory.hpp:77] Creating layer relu4
I0520 12:24:29.777230 121113 net.cpp:91] Creating Layer relu4
I0520 12:24:29.777240 121113 net.cpp:425] relu4 <- conv4
I0520 12:24:29.777251 121113 net.cpp:386] relu4 -> conv4 (in-place)
I0520 12:24:29.777616 121113 net.cpp:141] Setting up relu4
I0520 12:24:29.777647 121113 net.cpp:148] Top shape: 50 384 13 13 (3244800)
I0520 12:24:29.777655 121113 net.cpp:156] Memory required for data: 318943600
I0520 12:24:29.777663 121113 layer_factory.hpp:77] Creating layer conv5
I0520 12:24:29.777678 121113 net.cpp:91] Creating Layer conv5
I0520 12:24:29.777686 121113 net.cpp:425] conv5 <- conv4
I0520 12:24:29.777699 121113 net.cpp:399] conv5 -> conv5
I0520 12:24:29.793956 121113 net.cpp:141] Setting up conv5
I0520 12:24:29.794008 121113 net.cpp:148] Top shape: 50 256 13 13 (2163200)
I0520 12:24:29.794059 121113 net.cpp:156] Memory required for data: 327596400
I0520 12:24:29.794077 121113 layer_factory.hpp:77] Creating layer relu5
I0520 12:24:29.794090 121113 net.cpp:91] Creating Layer relu5
I0520 12:24:29.794100 121113 net.cpp:425] relu5 <- conv5
I0520 12:24:29.794109 121113 net.cpp:386] relu5 -> conv5 (in-place)
I0520 12:24:29.794301 121113 net.cpp:141] Setting up relu5
I0520 12:24:29.794329 121113 net.cpp:148] Top shape: 50 256 13 13 (2163200)
I0520 12:24:29.794348 121113 net.cpp:156] Memory required for data: 336249200
I0520 12:24:29.794358 121113 layer_factory.hpp:77] Creating layer pool5
I0520 12:24:29.794375 121113 net.cpp:91] Creating Layer pool5
I0520 12:24:29.794384 121113 net.cpp:425] pool5 <- conv5
I0520 12:24:29.794392 121113 net.cpp:399] pool5 -> pool5
I0520 12:24:29.794450 121113 net.cpp:141] Setting up pool5
I0520 12:24:29.794462 121113 net.cpp:148] Top shape: 50 256 6 6 (460800)
I0520 12:24:29.794469 121113 net.cpp:156] Memory required for data: 338092400
I0520 12:24:29.794476 121113 layer_factory.hpp:77] Creating layer fc6
I0520 12:24:29.794489 121113 net.cpp:91] Creating Layer fc6
I0520 12:24:29.794497 121113 net.cpp:425] fc6 <- pool5
I0520 12:24:29.794507 121113 net.cpp:399] fc6 -> fc6
I0520 12:24:31.034991 121113 net.cpp:141] Setting up fc6
I0520 12:24:31.035044 121113 net.cpp:148] Top shape: 50 4096 (204800)
I0520 12:24:31.035053 121113 net.cpp:156] Memory required for data: 338911600
I0520 12:24:31.035073 121113 layer_factory.hpp:77] Creating layer relu6
I0520 12:24:31.035092 121113 net.cpp:91] Creating Layer relu6
I0520 12:24:31.035102 121113 net.cpp:425] relu6 <- fc6
I0520 12:24:31.035114 121113 net.cpp:386] relu6 -> fc6 (in-place)
I0520 12:24:31.035761 121113 net.cpp:141] Setting up relu6
I0520 12:24:31.035791 121113 net.cpp:148] Top shape: 50 4096 (204800)
I0520 12:24:31.035799 121113 net.cpp:156] Memory required for data: 339730800
I0520 12:24:31.035806 121113 layer_factory.hpp:77] Creating layer drop6
I0520 12:24:31.035820 121113 net.cpp:91] Creating Layer drop6
I0520 12:24:31.035826 121113 net.cpp:425] drop6 <- fc6
I0520 12:24:31.035836 121113 net.cpp:386] drop6 -> fc6 (in-place)
I0520 12:24:31.035888 121113 net.cpp:141] Setting up drop6
I0520 12:24:31.035902 121113 net.cpp:148] Top shape: 50 4096 (204800)
I0520 12:24:31.035909 121113 net.cpp:156] Memory required for data: 340550000
I0520 12:24:31.035915 121113 layer_factory.hpp:77] Creating layer fc7
I0520 12:24:31.035939 121113 net.cpp:91] Creating Layer fc7
I0520 12:24:31.035958 121113 net.cpp:425] fc7 <- fc6
I0520 12:24:31.035981 121113 net.cpp:399] fc7 -> fc7
I0520 12:24:31.507042 121113 net.cpp:141] Setting up fc7
I0520 12:24:31.507098 121113 net.cpp:148] Top shape: 50 4096 (204800)
I0520 12:24:31.507107 121113 net.cpp:156] Memory required for data: 341369200
I0520 12:24:31.507120 121113 layer_factory.hpp:77] Creating layer relu7
I0520 12:24:31.507138 121113 net.cpp:91] Creating Layer relu7
I0520 12:24:31.507146 121113 net.cpp:425] relu7 <- fc7
I0520 12:24:31.507155 121113 net.cpp:386] relu7 -> fc7 (in-place)
I0520 12:24:31.507418 121113 net.cpp:141] Setting up relu7
I0520 12:24:31.507446 121113 net.cpp:148] Top shape: 50 4096 (204800)
I0520 12:24:31.507453 121113 net.cpp:156] Memory required for data: 342188400
I0520 12:24:31.507459 121113 layer_factory.hpp:77] Creating layer drop7
I0520 12:24:31.507472 121113 net.cpp:91] Creating Layer drop7
I0520 12:24:31.507478 121113 net.cpp:425] drop7 <- fc7
I0520 12:24:31.507490 121113 net.cpp:386] drop7 -> fc7 (in-place)
I0520 12:24:31.507540 121113 net.cpp:141] Setting up drop7
I0520 12:24:31.507553 121113 net.cpp:148] Top shape: 50 4096 (204800)
I0520 12:24:31.507560 121113 net.cpp:156] Memory required for data: 343007600
I0520 12:24:31.507567 121113 layer_factory.hpp:77] Creating layer 102flower
I0520 12:24:31.507580 121113 net.cpp:91] Creating Layer 102flower
I0520 12:24:31.507587 121113 net.cpp:425] 102flower <- fc7
I0520 12:24:31.507598 121113 net.cpp:399] 102flower -> 102flower
I0520 12:24:31.520474 121113 net.cpp:141] Setting up 102flower
I0520 12:24:31.520510 121113 net.cpp:148] Top shape: 50 102 (5100)
I0520 12:24:31.520557 121113 net.cpp:156] Memory required for data: 343028000
I0520 12:24:31.520570 121113 layer_factory.hpp:77] Creating layer 102flower_102flower_0_split
I0520 12:24:31.520581 121113 net.cpp:91] Creating Layer 102flower_102flower_0_split
I0520 12:24:31.520588 121113 net.cpp:425] 102flower_102flower_0_split <- 102flower
I0520 12:24:31.520597 121113 net.cpp:399] 102flower_102flower_0_split -> 102flower_102flower_0_split_0
I0520 12:24:31.520609 121113 net.cpp:399] 102flower_102flower_0_split -> 102flower_102flower_0_split_1
I0520 12:24:31.520658 121113 net.cpp:141] Setting up 102flower_102flower_0_split
I0520 12:24:31.520671 121113 net.cpp:148] Top shape: 50 102 (5100)
I0520 12:24:31.520691 121113 net.cpp:148] Top shape: 50 102 (5100)
I0520 12:24:31.520697 121113 net.cpp:156] Memory required for data: 343068800
I0520 12:24:31.520704 121113 layer_factory.hpp:77] Creating layer accuracy
I0520 12:24:31.520721 121113 net.cpp:91] Creating Layer accuracy
I0520 12:24:31.520741 121113 net.cpp:425] accuracy <- 102flower_102flower_0_split_0
I0520 12:24:31.520750 121113 net.cpp:425] accuracy <- label_data_1_split_0
I0520 12:24:31.520761 121113 net.cpp:399] accuracy -> accuracy
…
