…
I0519 21:23:37.200453 107161 net.cpp:313] The NetState phase (0) differed from the phase (1) specified by a rule in layer accuracy
I0519 21:23:37.200657 107161 net.cpp:49] Initializing net from parameters: 
name: "102FlowerCaffeNet"
state {
  phase: TRAIN
}
layer {
  name: "data"
  type: "ImageData"
  top: "data"
  top: "label"
  include {
    phase: TRAIN
  }
  transform_param {
    mirror: true
    crop_size: 227
    mean_file: "/home/zheda/software/caffe/data/ilsvrc12/imagenet_mean.binaryproto"
  }
  image_data_param {
    source: "/home/zheda/data/flower_all/102flowers/train.txt"
    batch_size: 50
    new_height: 256
    new_width: 256
  }
}
layer {
  name: "conv1"
  type: "Convolution"
  bottom: "data"
  top: "conv1"
  param {
    lr_mult: 1
    decay_mult: 1
  }
  param {
    lr_mult: 2
    decay_mult: 0
  }
  convolution_param {
    num_output: 96
    kernel_size: 11
    stride: 4
    weight_filler {
      type: "gaussian"
      std: 0.01
    }
    bias_filler {
      type: "constant"
      value: 0
    }
  }
}
layer {
  name: "relu1"
  type: "ReLU"
  bottom: "conv1"
  top: "conv1"
}
layer {
  name: "pool1"
  type: "Pooling"
  bottom: "conv1"
  top: "pool1"
  pooling_param {
    pool: MAX
    kernel_size: 3
    stride: 2
  }
}
layer {
  name: "norm1"
  type: "LRN"
  bottom: "pool1"
  top: "norm1"
  lrn_param {
    local_size: 5
    alpha: 0.0001
    beta: 0.75
  }
}
layer {
  name: "conv2"
  type: "Convolution"
  bottom: "norm1"
  top: "conv2"
  param {
    lr_mult: 1
    decay_mult: 1
  }
  param {
    lr_mult: 2
    decay_mult: 0
  }
  convolution_param {
    num_output: 256
    pad: 2
    kernel_size: 5
    group: 2
    weight_filler {
      type: "gaussian"
      std: 0.01
    }
    bias_filler {
      type: "constant"
      value: 1
    }
  }
}
layer {
  name: "relu2"
  type: "ReLU"
  bottom: "conv2"
  top: "conv2"
}
layer {
  name: "pool2"
  type: "Pooling"
  bottom: "conv2"
  top: "pool2"
  pooling_param {
    pool: MAX
    kernel_size: 3
    stride: 2
  }
}
layer {
  name: "norm2"
  type: "LRN"
  bottom: "pool2"
  top: "norm2"
  lrn_param {
    local_size: 5
    alpha: 0.0001
    beta: 0.75
  }
}
layer {
  name: "conv3"
  type: "Convolution"
  bottom: "norm2"
  top: "conv3"
  param {
    lr_mult: 1
    decay_mult: 1
  }
  param {
    lr_mult: 2
    decay_mult: 0
  }
  convolution_param {
    num_output: 384
    pad: 1
    kernel_size: 3
    weight_filler {
      type: "gaussian"
      std: 0.01
    }
    bias_filler {
      type: "constant"
      value: 0
    }
  }
}
layer {
  name: "relu3"
  type: "ReLU"
  bottom: "conv3"
  top: "conv3"
}
layer {
  name: "conv4"
  type: "Convolution"
  bottom: "conv3"
  top: "conv4"
  param {
    lr_mult: 1
    decay_mult: 1
  }
  param {
    lr_mult: 2
    decay_mult: 0
  }
  convolution_param {
    num_output: 384
    pad: 1
    kernel_size: 3
    group: 2
    weight_filler {
      type: "gaussian"
      std: 0.01
    }
    bias_filler {
      type: "constant"
      value: 1
    }
  }
}
layer {
  name: "relu4"
  type: "ReLU"
  bottom: "conv4"
  top: "conv4"
}
layer {
  name: "conv5"
  type: "Convolution"
  bottom: "conv4"
  top: "conv5"
  param {
    lr_mult: 1
    decay_mult: 1
  }
  param {
    lr_mult: 2
    decay_mult: 0
  }
  convolution_param {
    num_output: 256
    pad: 1
    kernel_size: 3
    group: 2
    weight_filler {
      type: "gaussian"
      std: 0.01
    }
    bias_filler {
      type: "constant"
      value: 1
    }
  }
}
layer {
  name: "relu5"
  type: "ReLU"
  bottom: "conv5"
  top: "conv5"
}
layer {
  name: "pool5"
  type: "Pooling"
  bottom: "conv5"
  top: "pool5"
  pooling_param {
    pool: MAX
    kernel_size: 3
    stride: 2
  }
}
layer {
  name: "fc6"
  type: "InnerProduct"
  bottom: "pool5"
  top: "fc6"
  param {
    lr_mult: 1
    decay_mult: 1
  }
  param {
    lr_mult: 2
    decay_mult: 0
  }
  inner_product_param {
    num_output: 4096
    weight_filler {
      type: "gaussian"
      std: 0.005
    }
    bias_filler {
      type: "constant"
      value: 1
    }
  }
}
layer {
  name: "relu6"
  type: "ReLU"
  bottom: "fc6"
  top: "fc6"
}
layer {
  name: "drop6"
  type: "Dropout"
  bottom: "fc6"
  top: "fc6"
  dropout_param {
    dropout_ratio: 0.5
  }
}
layer {
  name: "fc7"
  type: "InnerProduct"
  bottom: "fc6"
  top: "fc7"
  param {
    lr_mult: 1
    decay_mult: 1
  }
  param {
    lr_mult: 2
    decay_mult: 0
  }
  inner_product_param {
    num_output: 4096
    weight_filler {
      type: "gaussian"
      std: 0.005
    }
    bias_filler {
      type: "constant"
      value: 1
    }
  }
}
layer {
  name: "relu7"
  type: "ReLU"
  bottom: "fc7"
  top: "fc7"
}
layer {
  name: "drop7"
  type: "Dropout"
  bottom: "fc7"
  top: "fc7"
  dropout_param {
    dropout_ratio: 0.5
  }
}
layer {
  name: "102flower"
  type: "InnerProduct"
  bottom: "fc7"
  top: "102flower"
  param {
    lr_mult: 10
    decay_mult: 1
  }
  param {
    lr_mult: 20
    decay_mult: 0
  }
  inner_product_param {
    num_output: 102
    weight_filler {
      type: "gaussian"
      std: 0.01
    }
    bias_filler {
      type: "constant"
      value: 0
    }
  }
}
layer {
  name: "loss"
  type: "SoftmaxWithLoss"
  bottom: "102flower"
  bottom: "label"
  top: "loss"
}
I0519 21:23:37.201647 107161 layer_factory.hpp:77] Creating layer data
I0519 21:23:37.201690 107161 net.cpp:91] Creating Layer data
I0519 21:23:37.201701 107161 net.cpp:399] data -> data
I0519 21:23:37.201726 107161 net.cpp:399] data -> label
I0519 21:23:37.201750 107161 data_transformer.cpp:25] Loading mean file from: /home/zheda/software/caffe/data/ilsvrc12/imagenet_mean.binaryproto
I0519 21:23:37.212052 107161 image_data_layer.cpp:38] Opening file /home/zheda/data/flower_all/102flowers/train.txt
I0519 21:23:37.212509 107161 image_data_layer.cpp:53] A total of 1020 images.
I0519 21:23:37.261426 107161 image_data_layer.cpp:80] output data size: 50,3,227,227
I0519 21:23:37.349681 107161 net.cpp:141] Setting up data
I0519 21:23:37.349748 107161 net.cpp:148] Top shape: 50 3 227 227 (7729350)
I0519 21:23:37.349772 107161 net.cpp:148] Top shape: 50 (50)
I0519 21:23:37.349791 107161 net.cpp:156] Memory required for data: 30917600
I0519 21:23:37.349814 107161 layer_factory.hpp:77] Creating layer conv1
I0519 21:23:37.349908 107161 net.cpp:91] Creating Layer conv1
I0519 21:23:37.349925 107161 net.cpp:425] conv1 <- data
I0519 21:23:37.349946 107161 net.cpp:399] conv1 -> conv1
I0519 21:23:38.136786 107161 net.cpp:141] Setting up conv1
I0519 21:23:38.136850 107161 net.cpp:148] Top shape: 50 96 55 55 (14520000)
I0519 21:23:38.136868 107161 net.cpp:156] Memory required for data: 88997600
I0519 21:23:38.136907 107161 layer_factory.hpp:77] Creating layer relu1
I0519 21:23:38.136939 107161 net.cpp:91] Creating Layer relu1
I0519 21:23:38.136957 107161 net.cpp:425] relu1 <- conv1
I0519 21:23:38.136977 107161 net.cpp:386] relu1 -> conv1 (in-place)
I0519 21:23:38.137279 107161 net.cpp:141] Setting up relu1
I0519 21:23:38.137306 107161 net.cpp:148] Top shape: 50 96 55 55 (14520000)
I0519 21:23:38.137321 107161 net.cpp:156] Memory required for data: 147077600
I0519 21:23:38.137336 107161 layer_factory.hpp:77] Creating layer pool1
I0519 21:23:38.137367 107161 net.cpp:91] Creating Layer pool1
I0519 21:23:38.137382 107161 net.cpp:425] pool1 <- conv1
I0519 21:23:38.137401 107161 net.cpp:399] pool1 -> pool1
I0519 21:23:38.149679 107161 net.cpp:141] Setting up pool1
I0519 21:23:38.149711 107161 net.cpp:148] Top shape: 50 96 27 27 (3499200)
I0519 21:23:38.149755 107161 net.cpp:156] Memory required for data: 161074400
I0519 21:23:38.149771 107161 layer_factory.hpp:77] Creating layer norm1
I0519 21:23:38.149797 107161 net.cpp:91] Creating Layer norm1
I0519 21:23:38.149814 107161 net.cpp:425] norm1 <- pool1
I0519 21:23:38.149832 107161 net.cpp:399] norm1 -> norm1
I0519 21:23:38.150409 107161 net.cpp:141] Setting up norm1
I0519 21:23:38.150447 107161 net.cpp:148] Top shape: 50 96 27 27 (3499200)
I0519 21:23:38.150468 107161 net.cpp:156] Memory required for data: 175071200
I0519 21:23:38.150482 107161 layer_factory.hpp:77] Creating layer conv2
I0519 21:23:38.150512 107161 net.cpp:91] Creating Layer conv2
I0519 21:23:38.150528 107161 net.cpp:425] conv2 <- norm1
I0519 21:23:38.150547 107161 net.cpp:399] conv2 -> conv2
I0519 21:23:38.170806 107161 net.cpp:141] Setting up conv2
I0519 21:23:38.170845 107161 net.cpp:148] Top shape: 50 256 27 27 (9331200)
I0519 21:23:38.170858 107161 net.cpp:156] Memory required for data: 212396000
I0519 21:23:38.170881 107161 layer_factory.hpp:77] Creating layer relu2
I0519 21:23:38.170904 107161 net.cpp:91] Creating Layer relu2
I0519 21:23:38.170919 107161 net.cpp:425] relu2 <- conv2
I0519 21:23:38.170941 107161 net.cpp:386] relu2 -> conv2 (in-place)
I0519 21:23:38.171212 107161 net.cpp:141] Setting up relu2
I0519 21:23:38.171236 107161 net.cpp:148] Top shape: 50 256 27 27 (9331200)
I0519 21:23:38.171248 107161 net.cpp:156] Memory required for data: 249720800
I0519 21:23:38.171262 107161 layer_factory.hpp:77] Creating layer pool2
I0519 21:23:38.171277 107161 net.cpp:91] Creating Layer pool2
I0519 21:23:38.171289 107161 net.cpp:425] pool2 <- conv2
I0519 21:23:38.171304 107161 net.cpp:399] pool2 -> pool2
I0519 21:23:38.171372 107161 net.cpp:141] Setting up pool2
I0519 21:23:38.171391 107161 net.cpp:148] Top shape: 50 256 13 13 (2163200)
I0519 21:23:38.171403 107161 net.cpp:156] Memory required for data: 258373600
I0519 21:23:38.171416 107161 layer_factory.hpp:77] Creating layer norm2
I0519 21:23:38.171434 107161 net.cpp:91] Creating Layer norm2
I0519 21:23:38.171448 107161 net.cpp:425] norm2 <- pool2
I0519 21:23:38.171463 107161 net.cpp:399] norm2 -> norm2
I0519 21:23:38.171996 107161 net.cpp:141] Setting up norm2
I0519 21:23:38.172027 107161 net.cpp:148] Top shape: 50 256 13 13 (2163200)
I0519 21:23:38.172039 107161 net.cpp:156] Memory required for data: 267026400
I0519 21:23:38.172052 107161 layer_factory.hpp:77] Creating layer conv3
I0519 21:23:38.172077 107161 net.cpp:91] Creating Layer conv3
I0519 21:23:38.172091 107161 net.cpp:425] conv3 <- norm2
I0519 21:23:38.172113 107161 net.cpp:399] conv3 -> conv3
I0519 21:23:38.215014 107161 net.cpp:141] Setting up conv3
I0519 21:23:38.215046 107161 net.cpp:148] Top shape: 50 384 13 13 (3244800)
I0519 21:23:38.215059 107161 net.cpp:156] Memory required for data: 280005600
I0519 21:23:38.215080 107161 layer_factory.hpp:77] Creating layer relu3
I0519 21:23:38.215106 107161 net.cpp:91] Creating Layer relu3
I0519 21:23:38.215119 107161 net.cpp:425] relu3 <- conv3
I0519 21:23:38.215134 107161 net.cpp:386] relu3 -> conv3 (in-place)
I0519 21:23:38.215528 107161 net.cpp:141] Setting up relu3
I0519 21:23:38.215556 107161 net.cpp:148] Top shape: 50 384 13 13 (3244800)
I0519 21:23:38.215567 107161 net.cpp:156] Memory required for data: 292984800
I0519 21:23:38.215577 107161 layer_factory.hpp:77] Creating layer conv4
I0519 21:23:38.215597 107161 net.cpp:91] Creating Layer conv4
I0519 21:23:38.215615 107161 net.cpp:425] conv4 <- conv3
I0519 21:23:38.215629 107161 net.cpp:399] conv4 -> conv4
I0519 21:23:38.244761 107161 net.cpp:141] Setting up conv4
I0519 21:23:38.244791 107161 net.cpp:148] Top shape: 50 384 13 13 (3244800)
I0519 21:23:38.244801 107161 net.cpp:156] Memory required for data: 305964000
I0519 21:23:38.244814 107161 layer_factory.hpp:77] Creating layer relu4
I0519 21:23:38.244849 107161 net.cpp:91] Creating Layer relu4
I0519 21:23:38.244860 107161 net.cpp:425] relu4 <- conv4
I0519 21:23:38.244876 107161 net.cpp:386] relu4 -> conv4 (in-place)
I0519 21:23:38.245102 107161 net.cpp:141] Setting up relu4
I0519 21:23:38.245122 107161 net.cpp:148] Top shape: 50 384 13 13 (3244800)
I0519 21:23:38.245131 107161 net.cpp:156] Memory required for data: 318943200
I0519 21:23:38.245141 107161 layer_factory.hpp:77] Creating layer conv5
I0519 21:23:38.245158 107161 net.cpp:91] Creating Layer conv5
I0519 21:23:38.245168 107161 net.cpp:425] conv5 <- conv4
I0519 21:23:38.245182 107161 net.cpp:399] conv5 -> conv5
I0519 21:23:38.263150 107161 net.cpp:141] Setting up conv5
I0519 21:23:38.263171 107161 net.cpp:148] Top shape: 50 256 13 13 (2163200)
I0519 21:23:38.263180 107161 net.cpp:156] Memory required for data: 327596000
I0519 21:23:38.263192 107161 layer_factory.hpp:77] Creating layer relu5
I0519 21:23:38.263205 107161 net.cpp:91] Creating Layer relu5
I0519 21:23:38.263242 107161 net.cpp:425] relu5 <- conv5
I0519 21:23:38.263250 107161 net.cpp:386] relu5 -> conv5 (in-place)
I0519 21:23:38.263422 107161 net.cpp:141] Setting up relu5
I0519 21:23:38.263437 107161 net.cpp:148] Top shape: 50 256 13 13 (2163200)
I0519 21:23:38.263443 107161 net.cpp:156] Memory required for data: 336248800
I0519 21:23:38.263449 107161 layer_factory.hpp:77] Creating layer pool5
I0519 21:23:38.263459 107161 net.cpp:91] Creating Layer pool5
I0519 21:23:38.263465 107161 net.cpp:425] pool5 <- conv5
I0519 21:23:38.263475 107161 net.cpp:399] pool5 -> pool5
I0519 21:23:38.263527 107161 net.cpp:141] Setting up pool5
I0519 21:23:38.263541 107161 net.cpp:148] Top shape: 50 256 6 6 (460800)
I0519 21:23:38.263548 107161 net.cpp:156] Memory required for data: 338092000
I0519 21:23:38.263556 107161 layer_factory.hpp:77] Creating layer fc6
I0519 21:23:38.263573 107161 net.cpp:91] Creating Layer fc6
I0519 21:23:38.263589 107161 net.cpp:425] fc6 <- pool5
I0519 21:23:38.263599 107161 net.cpp:399] fc6 -> fc6
I0519 21:23:39.339610 107161 net.cpp:141] Setting up fc6
I0519 21:23:39.339658 107161 net.cpp:148] Top shape: 50 4096 (204800)
I0519 21:23:39.339666 107161 net.cpp:156] Memory required for data: 338911200
I0519 21:23:39.339690 107161 layer_factory.hpp:77] Creating layer relu6
I0519 21:23:39.339707 107161 net.cpp:91] Creating Layer relu6
I0519 21:23:39.339723 107161 net.cpp:425] relu6 <- fc6
I0519 21:23:39.339751 107161 net.cpp:386] relu6 -> fc6 (in-place)
I0519 21:23:39.340476 107161 net.cpp:141] Setting up relu6
I0519 21:23:39.340494 107161 net.cpp:148] Top shape: 50 4096 (204800)
I0519 21:23:39.340502 107161 net.cpp:156] Memory required for data: 339730400
I0519 21:23:39.340508 107161 layer_factory.hpp:77] Creating layer drop6
I0519 21:23:39.340525 107161 net.cpp:91] Creating Layer drop6
I0519 21:23:39.340533 107161 net.cpp:425] drop6 <- fc6
I0519 21:23:39.340543 107161 net.cpp:386] drop6 -> fc6 (in-place)
I0519 21:23:39.340838 107161 net.cpp:141] Setting up drop6
I0519 21:23:39.340853 107161 net.cpp:148] Top shape: 50 4096 (204800)
I0519 21:23:39.340860 107161 net.cpp:156] Memory required for data: 340549600
I0519 21:23:39.340881 107161 layer_factory.hpp:77] Creating layer fc7
I0519 21:23:39.340900 107161 net.cpp:91] Creating Layer fc7
I0519 21:23:39.340909 107161 net.cpp:425] fc7 <- fc6
I0519 21:23:39.340919 107161 net.cpp:399] fc7 -> fc7
I0519 21:23:39.817528 107161 net.cpp:141] Setting up fc7
I0519 21:23:39.817570 107161 net.cpp:148] Top shape: 50 4096 (204800)
I0519 21:23:39.817579 107161 net.cpp:156] Memory required for data: 341368800
I0519 21:23:39.817591 107161 layer_factory.hpp:77] Creating layer relu7
I0519 21:23:39.817605 107161 net.cpp:91] Creating Layer relu7
I0519 21:23:39.817613 107161 net.cpp:425] relu7 <- fc7
I0519 21:23:39.817623 107161 net.cpp:386] relu7 -> fc7 (in-place)
I0519 21:23:39.817862 107161 net.cpp:141] Setting up relu7
I0519 21:23:39.817876 107161 net.cpp:148] Top shape: 50 4096 (204800)
I0519 21:23:39.817883 107161 net.cpp:156] Memory required for data: 342188000
I0519 21:23:39.817889 107161 layer_factory.hpp:77] Creating layer drop7
I0519 21:23:39.817899 107161 net.cpp:91] Creating Layer drop7
I0519 21:23:39.817905 107161 net.cpp:425] drop7 <- fc7
I0519 21:23:39.817915 107161 net.cpp:386] drop7 -> fc7 (in-place)
I0519 21:23:39.817981 107161 net.cpp:141] Setting up drop7
I0519 21:23:39.817994 107161 net.cpp:148] Top shape: 50 4096 (204800)
I0519 21:23:39.818001 107161 net.cpp:156] Memory required for data: 343007200
I0519 21:23:39.818009 107161 layer_factory.hpp:77] Creating layer 102flower
I0519 21:23:39.818022 107161 net.cpp:91] Creating Layer 102flower
I0519 21:23:39.818029 107161 net.cpp:425] 102flower <- fc7
I0519 21:23:39.818042 107161 net.cpp:399] 102flower -> 102flower
I0519 21:23:39.830235 107161 net.cpp:141] Setting up 102flower
I0519 21:23:39.830255 107161 net.cpp:148] Top shape: 50 102 (5100)
I0519 21:23:39.830261 107161 net.cpp:156] Memory required for data: 343027600
I0519 21:23:39.830271 107161 layer_factory.hpp:77] Creating layer loss
I0519 21:23:39.830289 107161 net.cpp:91] Creating Layer loss
I0519 21:23:39.830297 107161 net.cpp:425] loss <- 102flower
I0519 21:23:39.830309 107161 net.cpp:425] loss <- label
I0519 21:23:39.830335 107161 net.cpp:399] loss -> loss
I0519 21:23:39.830364 107161 layer_factory.hpp:77] Creating layer loss
…
I0519 21:23:39.832442 107161 net.cpp:313] The NetState phase (1) differed from the phase (0) specified by a rule in layer data
I0519 21:23:39.832655 107161 net.cpp:49] Initializing net from parameters: 
name: "102FlowerCaffeNet"
state {
  phase: TEST
}
layer {
  name: "data"
  type: "ImageData"
  top: "data"
  top: "label"
  include {
    phase: TEST
  }
  transform_param {
    mirror: false
    crop_size: 227
    mean_file: "/home/zheda/software/caffe/data/ilsvrc12/imagenet_mean.binaryproto"
  }
  image_data_param {
    source: "/home/zheda/data/flower_all/102flowers/test.txt"
    batch_size: 50
    new_height: 256
    new_width: 256
  }
}
layer {
  name: "conv1"
  type: "Convolution"
  bottom: "data"
  top: "conv1"
  param {
    lr_mult: 1
    decay_mult: 1
  }
  param {
    lr_mult: 2
    decay_mult: 0
  }
  convolution_param {
    num_output: 96
    kernel_size: 11
    stride: 4
    weight_filler {
      type: "gaussian"
      std: 0.01
    }
    bias_filler {
      type: "constant"
      value: 0
    }
  }
}
layer {
  name: "relu1"
  type: "ReLU"
  bottom: "conv1"
  top: "conv1"
}
layer {
  name: "pool1"
  type: "Pooling"
  bottom: "conv1"
  top: "pool1"
  pooling_param {
    pool: MAX
    kernel_size: 3
    stride: 2
  }
}
layer {
  name: "norm1"
  type: "LRN"
  bottom: "pool1"
  top: "norm1"
  lrn_param {
    local_size: 5
    alpha: 0.0001
    beta: 0.75
  }
}
layer {
  name: "conv2"
  type: "Convolution"
  bottom: "norm1"
  top: "conv2"
  param {
    lr_mult: 1
    decay_mult: 1
  }
  param {
    lr_mult: 2
    decay_mult: 0
  }
  convolution_param {
    num_output: 256
    pad: 2
    kernel_size: 5
    group: 2
    weight_filler {
      type: "gaussian"
      std: 0.01
    }
    bias_filler {
      type: "constant"
      value: 1
    }
  }
}
layer {
  name: "relu2"
  type: "ReLU"
  bottom: "conv2"
  top: "conv2"
}
layer {
  name: "pool2"
  type: "Pooling"
  bottom: "conv2"
  top: "pool2"
  pooling_param {
    pool: MAX
    kernel_size: 3
    stride: 2
  }
}
layer {
  name: "norm2"
  type: "LRN"
  bottom: "pool2"
  top: "norm2"
  lrn_param {
    local_size: 5
    alpha: 0.0001
    beta: 0.75
  }
}
layer {
  name: "conv3"
  type: "Convolution"
  bottom: "norm2"
  top: "conv3"
  param {
    lr_mult: 1
    decay_mult: 1
  }
  param {
    lr_mult: 2
    decay_mult: 0
  }
  convolution_param {
    num_output: 384
    pad: 1
    kernel_size: 3
    weight_filler {
      type: "gaussian"
      std: 0.01
    }
    bias_filler {
      type: "constant"
      value: 0
    }
  }
}
layer {
  name: "relu3"
  type: "ReLU"
  bottom: "conv3"
  top: "conv3"
}
layer {
  name: "conv4"
  type: "Convolution"
  bottom: "conv3"
  top: "conv4"
  param {
    lr_mult: 1
    decay_mult: 1
  }
  param {
    lr_mult: 2
    decay_mult: 0
  }
  convolution_param {
    num_output: 384
    pad: 1
    kernel_size: 3
    group: 2
    weight_filler {
      type: "gaussian"
      std: 0.01
    }
    bias_filler {
      type: "constant"
      value: 1
    }
  }
}
layer {
  name: "relu4"
  type: "ReLU"
  bottom: "conv4"
  top: "conv4"
}
layer {
  name: "conv5"
  type: "Convolution"
  bottom: "conv4"
  top: "conv5"
  param {
    lr_mult: 1
    decay_mult: 1
  }
  param {
    lr_mult: 2
    decay_mult: 0
  }
  convolution_param {
    num_output: 256
    pad: 1
    kernel_size: 3
    group: 2
    weight_filler {
      type: "gaussian"
      std: 0.01
    }
    bias_filler {
      type: "constant"
      value: 1
    }
  }
}
layer {
  name: "relu5"
  type: "ReLU"
  bottom: "conv5"
  top: "conv5"
}
layer {
  name: "pool5"
  type: "Pooling"
  bottom: "conv5"
  top: "pool5"
  pooling_param {
    pool: MAX
    kernel_size: 3
    stride: 2
  }
}
layer {
  name: "fc6"
  type: "InnerProduct"
  bottom: "pool5"
  top: "fc6"
  param {
    lr_mult: 1
    decay_mult: 1
  }
  param {
    lr_mult: 2
    decay_mult: 0
  }
  inner_product_param {
    num_output: 4096
    weight_filler {
      type: "gaussian"
      std: 0.005
    }
    bias_filler {
      type: "constant"
      value: 1
    }
  }
}
layer {
  name: "relu6"
  type: "ReLU"
  bottom: "fc6"
  top: "fc6"
}
layer {
  name: "drop6"
  type: "Dropout"
  bottom: "fc6"
  top: "fc6"
  dropout_param {
    dropout_ratio: 0.5
  }
}
layer {
  name: "fc7"
  type: "InnerProduct"
  bottom: "fc6"
  top: "fc7"
  param {
    lr_mult: 1
    decay_mult: 1
  }
  param {
    lr_mult: 2
    decay_mult: 0
  }
  inner_product_param {
    num_output: 4096
    weight_filler {
      type: "gaussian"
      std: 0.005
    }
    bias_filler {
      type: "constant"
      value: 1
    }
  }
}
layer {
  name: "relu7"
  type: "ReLU"
  bottom: "fc7"
  top: "fc7"
}
layer {
  name: "drop7"
  type: "Dropout"
  bottom: "fc7"
  top: "fc7"
  dropout_param {
    dropout_ratio: 0.5
  }
}
layer {
  name: "102flower"
  type: "InnerProduct"
  bottom: "fc7"
  top: "102flower"
  param {
    lr_mult: 10
    decay_mult: 1
  }
  param {
    lr_mult: 20
    decay_mult: 0
  }
  inner_product_param {
    num_output: 102
    weight_filler {
      type: "gaussian"
      std: 0.01
    }
    bias_filler {
      type: "constant"
      value: 0
    }
  }
}
layer {
  name: "accuracy"
  type: "Accuracy"
  bottom: "102flower"
  bottom: "label"
  top: "accuracy"
  include {
    phase: TEST
  }
}
layer {
  name: "loss"
  type: "SoftmaxWithLoss"
  bottom: "102flower"
  bottom: "label"
  top: "loss"
}
I0519 21:23:39.833698 107161 layer_factory.hpp:77] Creating layer data
I0519 21:23:39.833745 107161 net.cpp:91] Creating Layer data
I0519 21:23:39.833753 107161 net.cpp:399] data -> data
I0519 21:23:39.833765 107161 net.cpp:399] data -> label
I0519 21:23:39.833777 107161 data_transformer.cpp:25] Loading mean file from: /home/zheda/software/caffe/data/ilsvrc12/imagenet_mean.binaryproto
I0519 21:23:39.835957 107161 image_data_layer.cpp:38] Opening file /home/zheda/data/flower_all/102flowers/test.txt
I0519 21:23:39.838330 107161 image_data_layer.cpp:53] A total of 6149 images.
I0519 21:23:39.840905 107161 image_data_layer.cpp:80] output data size: 50,3,227,227
I0519 21:23:39.900897 107161 net.cpp:141] Setting up data
I0519 21:23:39.900943 107161 net.cpp:148] Top shape: 50 3 227 227 (7729350)
I0519 21:23:39.900951 107161 net.cpp:148] Top shape: 50 (50)
I0519 21:23:39.900959 107161 net.cpp:156] Memory required for data: 30917600
I0519 21:23:39.900969 107161 layer_factory.hpp:77] Creating layer label_data_1_split
I0519 21:23:39.900985 107161 net.cpp:91] Creating Layer label_data_1_split
I0519 21:23:39.900992 107161 net.cpp:425] label_data_1_split <- label
I0519 21:23:39.901003 107161 net.cpp:399] label_data_1_split -> label_data_1_split_0
I0519 21:23:39.901017 107161 net.cpp:399] label_data_1_split -> label_data_1_split_1
I0519 21:23:39.901268 107161 net.cpp:141] Setting up label_data_1_split
I0519 21:23:39.901283 107161 net.cpp:148] Top shape: 50 (50)
I0519 21:23:39.901290 107161 net.cpp:148] Top shape: 50 (50)
I0519 21:23:39.901296 107161 net.cpp:156] Memory required for data: 30918000
I0519 21:23:39.901303 107161 layer_factory.hpp:77] Creating layer conv1
I0519 21:23:39.901319 107161 net.cpp:91] Creating Layer conv1
I0519 21:23:39.901337 107161 net.cpp:425] conv1 <- data
I0519 21:23:39.901347 107161 net.cpp:399] conv1 -> conv1
I0519 21:23:39.903664 107161 net.cpp:141] Setting up conv1
I0519 21:23:39.903687 107161 net.cpp:148] Top shape: 50 96 55 55 (14520000)
I0519 21:23:39.903694 107161 net.cpp:156] Memory required for data: 88998000
I0519 21:23:39.903708 107161 layer_factory.hpp:77] Creating layer relu1
I0519 21:23:39.903720 107161 net.cpp:91] Creating Layer relu1
I0519 21:23:39.903726 107161 net.cpp:425] relu1 <- conv1
I0519 21:23:39.903734 107161 net.cpp:386] relu1 -> conv1 (in-place)
I0519 21:23:39.903911 107161 net.cpp:141] Setting up relu1
I0519 21:23:39.903934 107161 net.cpp:148] Top shape: 50 96 55 55 (14520000)
I0519 21:23:39.903944 107161 net.cpp:156] Memory required for data: 147078000
I0519 21:23:39.903964 107161 layer_factory.hpp:77] Creating layer pool1
I0519 21:23:39.903976 107161 net.cpp:91] Creating Layer pool1
I0519 21:23:39.903995 107161 net.cpp:425] pool1 <- conv1
I0519 21:23:39.904006 107161 net.cpp:399] pool1 -> pool1
I0519 21:23:39.904067 107161 net.cpp:141] Setting up pool1
I0519 21:23:39.904079 107161 net.cpp:148] Top shape: 50 96 27 27 (3499200)
I0519 21:23:39.904088 107161 net.cpp:156] Memory required for data: 161074800
I0519 21:23:39.904094 107161 layer_factory.hpp:77] Creating layer norm1
I0519 21:23:39.904106 107161 net.cpp:91] Creating Layer norm1
I0519 21:23:39.904114 107161 net.cpp:425] norm1 <- pool1
I0519 21:23:39.904122 107161 net.cpp:399] norm1 -> norm1
I0519 21:23:39.904496 107161 net.cpp:141] Setting up norm1
I0519 21:23:39.904516 107161 net.cpp:148] Top shape: 50 96 27 27 (3499200)
I0519 21:23:39.904525 107161 net.cpp:156] Memory required for data: 175071600
I0519 21:23:39.904554 107161 layer_factory.hpp:77] Creating layer conv2
I0519 21:23:39.904568 107161 net.cpp:91] Creating Layer conv2
I0519 21:23:39.904577 107161 net.cpp:425] conv2 <- norm1
I0519 21:23:39.904587 107161 net.cpp:399] conv2 -> conv2
I0519 21:23:39.915426 107161 net.cpp:141] Setting up conv2
I0519 21:23:39.915448 107161 net.cpp:148] Top shape: 50 256 27 27 (9331200)
I0519 21:23:39.915457 107161 net.cpp:156] Memory required for data: 212396400
I0519 21:23:39.915468 107161 layer_factory.hpp:77] Creating layer relu2
I0519 21:23:39.915478 107161 net.cpp:91] Creating Layer relu2
I0519 21:23:39.915485 107161 net.cpp:425] relu2 <- conv2
I0519 21:23:39.915494 107161 net.cpp:386] relu2 -> conv2 (in-place)
I0519 21:23:39.915845 107161 net.cpp:141] Setting up relu2
I0519 21:23:39.915866 107161 net.cpp:148] Top shape: 50 256 27 27 (9331200)
I0519 21:23:39.915874 107161 net.cpp:156] Memory required for data: 249721200
I0519 21:23:39.915881 107161 layer_factory.hpp:77] Creating layer pool2
I0519 21:23:39.915894 107161 net.cpp:91] Creating Layer pool2
I0519 21:23:39.915900 107161 net.cpp:425] pool2 <- conv2
I0519 21:23:39.915910 107161 net.cpp:399] pool2 -> pool2
I0519 21:23:39.915966 107161 net.cpp:141] Setting up pool2
I0519 21:23:39.915982 107161 net.cpp:148] Top shape: 50 256 13 13 (2163200)
I0519 21:23:39.915988 107161 net.cpp:156] Memory required for data: 258374000
I0519 21:23:39.915995 107161 layer_factory.hpp:77] Creating layer norm2
I0519 21:23:39.916018 107161 net.cpp:91] Creating Layer norm2
I0519 21:23:39.916024 107161 net.cpp:425] norm2 <- pool2
I0519 21:23:39.916033 107161 net.cpp:399] norm2 -> norm2
I0519 21:23:39.916205 107161 net.cpp:141] Setting up norm2
I0519 21:23:39.916219 107161 net.cpp:148] Top shape: 50 256 13 13 (2163200)
I0519 21:23:39.916226 107161 net.cpp:156] Memory required for data: 267026800
I0519 21:23:39.916232 107161 layer_factory.hpp:77] Creating layer conv3
I0519 21:23:39.916245 107161 net.cpp:91] Creating Layer conv3
I0519 21:23:39.916254 107161 net.cpp:425] conv3 <- norm2
I0519 21:23:39.916262 107161 net.cpp:399] conv3 -> conv3
I0519 21:23:39.943356 107161 net.cpp:141] Setting up conv3
I0519 21:23:39.943379 107161 net.cpp:148] Top shape: 50 384 13 13 (3244800)
I0519 21:23:39.943387 107161 net.cpp:156] Memory required for data: 280006000
I0519 21:23:39.943399 107161 layer_factory.hpp:77] Creating layer relu3
I0519 21:23:39.943410 107161 net.cpp:91] Creating Layer relu3
I0519 21:23:39.943418 107161 net.cpp:425] relu3 <- conv3
I0519 21:23:39.943425 107161 net.cpp:386] relu3 -> conv3 (in-place)
I0519 21:23:39.943797 107161 net.cpp:141] Setting up relu3
I0519 21:23:39.943825 107161 net.cpp:148] Top shape: 50 384 13 13 (3244800)
I0519 21:23:39.943835 107161 net.cpp:156] Memory required for data: 292985200
I0519 21:23:39.943842 107161 layer_factory.hpp:77] Creating layer conv4
I0519 21:23:39.943856 107161 net.cpp:91] Creating Layer conv4
I0519 21:23:39.943863 107161 net.cpp:425] conv4 <- conv3
I0519 21:23:39.943874 107161 net.cpp:399] conv4 -> conv4
I0519 21:23:39.965102 107161 net.cpp:141] Setting up conv4
I0519 21:23:39.965126 107161 net.cpp:148] Top shape: 50 384 13 13 (3244800)
I0519 21:23:39.965133 107161 net.cpp:156] Memory required for data: 305964400
I0519 21:23:39.965143 107161 layer_factory.hpp:77] Creating layer relu4
I0519 21:23:39.965152 107161 net.cpp:91] Creating Layer relu4
I0519 21:23:39.965159 107161 net.cpp:425] relu4 <- conv4
I0519 21:23:39.965180 107161 net.cpp:386] relu4 -> conv4 (in-place)
I0519 21:23:39.965534 107161 net.cpp:141] Setting up relu4
I0519 21:23:39.965553 107161 net.cpp:148] Top shape: 50 384 13 13 (3244800)
I0519 21:23:39.965561 107161 net.cpp:156] Memory required for data: 318943600
I0519 21:23:39.965569 107161 layer_factory.hpp:77] Creating layer conv5
I0519 21:23:39.965581 107161 net.cpp:91] Creating Layer conv5
I0519 21:23:39.965600 107161 net.cpp:425] conv5 <- conv4
I0519 21:23:39.965611 107161 net.cpp:399] conv5 -> conv5
I0519 21:23:39.980754 107161 net.cpp:141] Setting up conv5
I0519 21:23:39.980777 107161 net.cpp:148] Top shape: 50 256 13 13 (2163200)
I0519 21:23:39.980803 107161 net.cpp:156] Memory required for data: 327596400
I0519 21:23:39.980832 107161 layer_factory.hpp:77] Creating layer relu5
I0519 21:23:39.980859 107161 net.cpp:91] Creating Layer relu5
I0519 21:23:39.980866 107161 net.cpp:425] relu5 <- conv5
I0519 21:23:39.980877 107161 net.cpp:386] relu5 -> conv5 (in-place)
I0519 21:23:39.981077 107161 net.cpp:141] Setting up relu5
I0519 21:23:39.981091 107161 net.cpp:148] Top shape: 50 256 13 13 (2163200)
I0519 21:23:39.981098 107161 net.cpp:156] Memory required for data: 336249200
I0519 21:23:39.981106 107161 layer_factory.hpp:77] Creating layer pool5
I0519 21:23:39.981129 107161 net.cpp:91] Creating Layer pool5
I0519 21:23:39.981148 107161 net.cpp:425] pool5 <- conv5
I0519 21:23:39.981159 107161 net.cpp:399] pool5 -> pool5
I0519 21:23:39.981207 107161 net.cpp:141] Setting up pool5
I0519 21:23:39.981231 107161 net.cpp:148] Top shape: 50 256 6 6 (460800)
I0519 21:23:39.981237 107161 net.cpp:156] Memory required for data: 338092400
I0519 21:23:39.981245 107161 layer_factory.hpp:77] Creating layer fc6
I0519 21:23:39.981256 107161 net.cpp:91] Creating Layer fc6
I0519 21:23:39.981263 107161 net.cpp:425] fc6 <- pool5
I0519 21:23:39.981272 107161 net.cpp:399] fc6 -> fc6
I0519 21:23:41.063627 107161 net.cpp:141] Setting up fc6
I0519 21:23:41.063670 107161 net.cpp:148] Top shape: 50 4096 (204800)
I0519 21:23:41.063679 107161 net.cpp:156] Memory required for data: 338911600
I0519 21:23:41.063691 107161 layer_factory.hpp:77] Creating layer relu6
I0519 21:23:41.063709 107161 net.cpp:91] Creating Layer relu6
I0519 21:23:41.063716 107161 net.cpp:425] relu6 <- fc6
I0519 21:23:41.063740 107161 net.cpp:386] relu6 -> fc6 (in-place)
I0519 21:23:41.064254 107161 net.cpp:141] Setting up relu6
I0519 21:23:41.064272 107161 net.cpp:148] Top shape: 50 4096 (204800)
I0519 21:23:41.064280 107161 net.cpp:156] Memory required for data: 339730800
I0519 21:23:41.064296 107161 layer_factory.hpp:77] Creating layer drop6
I0519 21:23:41.064311 107161 net.cpp:91] Creating Layer drop6
I0519 21:23:41.064332 107161 net.cpp:425] drop6 <- fc6
I0519 21:23:41.064342 107161 net.cpp:386] drop6 -> fc6 (in-place)
I0519 21:23:41.064380 107161 net.cpp:141] Setting up drop6
I0519 21:23:41.064393 107161 net.cpp:148] Top shape: 50 4096 (204800)
I0519 21:23:41.064399 107161 net.cpp:156] Memory required for data: 340550000
I0519 21:23:41.064406 107161 layer_factory.hpp:77] Creating layer fc7
I0519 21:23:41.064420 107161 net.cpp:91] Creating Layer fc7
I0519 21:23:41.064429 107161 net.cpp:425] fc7 <- fc6
I0519 21:23:41.064440 107161 net.cpp:399] fc7 -> fc7
I0519 21:23:41.541533 107161 net.cpp:141] Setting up fc7
I0519 21:23:41.541573 107161 net.cpp:148] Top shape: 50 4096 (204800)
I0519 21:23:41.541580 107161 net.cpp:156] Memory required for data: 341369200
I0519 21:23:41.541594 107161 layer_factory.hpp:77] Creating layer relu7
I0519 21:23:41.541606 107161 net.cpp:91] Creating Layer relu7
I0519 21:23:41.541615 107161 net.cpp:425] relu7 <- fc7
I0519 21:23:41.541637 107161 net.cpp:386] relu7 -> fc7 (in-place)
I0519 21:23:41.541879 107161 net.cpp:141] Setting up relu7
I0519 21:23:41.541894 107161 net.cpp:148] Top shape: 50 4096 (204800)
I0519 21:23:41.541901 107161 net.cpp:156] Memory required for data: 342188400
I0519 21:23:41.541908 107161 layer_factory.hpp:77] Creating layer drop7
I0519 21:23:41.541920 107161 net.cpp:91] Creating Layer drop7
I0519 21:23:41.541928 107161 net.cpp:425] drop7 <- fc7
I0519 21:23:41.541947 107161 net.cpp:386] drop7 -> fc7 (in-place)
I0519 21:23:41.541990 107161 net.cpp:141] Setting up drop7
I0519 21:23:41.542002 107161 net.cpp:148] Top shape: 50 4096 (204800)
I0519 21:23:41.542013 107161 net.cpp:156] Memory required for data: 343007600
I0519 21:23:41.542024 107161 layer_factory.hpp:77] Creating layer 102flower
I0519 21:23:41.542035 107161 net.cpp:91] Creating Layer 102flower
I0519 21:23:41.542047 107161 net.cpp:425] 102flower <- fc7
I0519 21:23:41.542057 107161 net.cpp:399] 102flower -> 102flower
I0519 21:23:41.554203 107161 net.cpp:141] Setting up 102flower
I0519 21:23:41.554222 107161 net.cpp:148] Top shape: 50 102 (5100)
I0519 21:23:41.554252 107161 net.cpp:156] Memory required for data: 343028000
I0519 21:23:41.554281 107161 layer_factory.hpp:77] Creating layer 102flower_102flower_0_split
I0519 21:23:41.554296 107161 net.cpp:91] Creating Layer 102flower_102flower_0_split
I0519 21:23:41.554306 107161 net.cpp:425] 102flower_102flower_0_split <- 102flower
I0519 21:23:41.554318 107161 net.cpp:399] 102flower_102flower_0_split -> 102flower_102flower_0_split_0
I0519 21:23:41.554332 107161 net.cpp:399] 102flower_102flower_0_split -> 102flower_102flower_0_split_1
I0519 21:23:41.554379 107161 net.cpp:141] Setting up 102flower_102flower_0_split
I0519 21:23:41.554402 107161 net.cpp:148] Top shape: 50 102 (5100)
I0519 21:23:41.554422 107161 net.cpp:148] Top shape: 50 102 (5100)
I0519 21:23:41.554441 107161 net.cpp:156] Memory required for data: 343068800
I0519 21:23:41.554461 107161 layer_factory.hpp:77] Creating layer accuracy
I0519 21:23:41.554472 107161 net.cpp:91] Creating Layer accuracy
I0519 21:23:41.554481 107161 net.cpp:425] accuracy <- 102flower_102flower_0_split_0
I0519 21:23:41.554489 107161 net.cpp:425] accuracy <- label_data_1_split_0
I0519 21:23:41.554499 107161 net.cpp:399] accuracy -> accuracy
…
