…
I0516 21:41:30.855149 23021 net.cpp:313] The NetState phase (0) differed from the phase (1) specified by a rule in layer accuracy
I0516 21:41:30.855309 23021 net.cpp:49] Initializing net from parameters: 
name: "102FlowerCaffeNet"
state {
  phase: TRAIN
}
layer {
  name: "data"
  type: "Data"
  top: "data"
  top: "label"
  include {
    phase: TRAIN
  }
  transform_param {
    mirror: true
    crop_size: 227
    mean_file: "/home/zheda/software/caffe/data/ilsvrc12/imagenet_mean.binaryproto"
  }
  data_param {
    source: "/home/zheda/workspace/cnn/flower-classify/102flowers_train_lmdb"
    batch_size: 256
    backend: LMDB
  }
}
layer {
  name: "conv1"
  type: "Convolution"
  bottom: "data"
  top: "conv1"
  param {
    lr_mult: 1
    decay_mult: 1
  }
  param {
    lr_mult: 2
    decay_mult: 0
  }
  convolution_param {
    num_output: 96
    kernel_size: 11
    stride: 4
    weight_filler {
      type: "gaussian"
      std: 0.01
    }
    bias_filler {
      type: "constant"
      value: 0
    }
  }
}
layer {
  name: "relu1"
  type: "ReLU"
  bottom: "conv1"
  top: "conv1"
}
layer {
  name: "pool1"
  type: "Pooling"
  bottom: "conv1"
  top: "pool1"
  pooling_param {
    pool: MAX
    kernel_size: 3
    stride: 2
  }
}
layer {
  name: "norm1"
  type: "LRN"
  bottom: "pool1"
  top: "norm1"
  lrn_param {
    local_size: 5
    alpha: 0.0001
    beta: 0.75
  }
}
layer {
  name: "conv2"
  type: "Convolution"
  bottom: "norm1"
  top: "conv2"
  param {
    lr_mult: 1
    decay_mult: 1
  }
  param {
    lr_mult: 2
    decay_mult: 0
  }
  convolution_param {
    num_output: 256
    pad: 2
    kernel_size: 5
    group: 2
    weight_filler {
      type: "gaussian"
      std: 0.01
    }
    bias_filler {
      type: "constant"
      value: 1
    }
  }
}
layer {
  name: "relu2"
  type: "ReLU"
  bottom: "conv2"
  top: "conv2"
}
layer {
  name: "pool2"
  type: "Pooling"
  bottom: "conv2"
  top: "pool2"
  pooling_param {
    pool: MAX
    kernel_size: 3
    stride: 2
  }
}
layer {
  name: "norm2"
  type: "LRN"
  bottom: "pool2"
  top: "norm2"
  lrn_param {
    local_size: 5
    alpha: 0.0001
    beta: 0.75
  }
}
layer {
  name: "conv3"
  type: "Convolution"
  bottom: "norm2"
  top: "conv3"
  param {
    lr_mult: 1
    decay_mult: 1
  }
  param {
    lr_mult: 2
    decay_mult: 0
  }
  convolution_param {
    num_output: 384
    pad: 1
    kernel_size: 3
    weight_filler {
      type: "gaussian"
      std: 0.01
    }
    bias_filler {
      type: "constant"
      value: 0
    }
  }
}
layer {
  name: "relu3"
  type: "ReLU"
  bottom: "conv3"
  top: "conv3"
}
layer {
  name: "conv4"
  type: "Convolution"
  bottom: "conv3"
  top: "conv4"
  param {
    lr_mult: 1
    decay_mult: 1
  }
  param {
    lr_mult: 2
    decay_mult: 0
  }
  convolution_param {
    num_output: 384
    pad: 1
    kernel_size: 3
    group: 2
    weight_filler {
      type: "gaussian"
      std: 0.01
    }
    bias_filler {
      type: "constant"
      value: 1
    }
  }
}
layer {
  name: "relu4"
  type: "ReLU"
  bottom: "conv4"
  top: "conv4"
}
layer {
  name: "conv5"
  type: "Convolution"
  bottom: "conv4"
  top: "conv5"
  param {
    lr_mult: 1
    decay_mult: 1
  }
  param {
    lr_mult: 2
    decay_mult: 0
  }
  convolution_param {
    num_output: 256
    pad: 1
    kernel_size: 3
    group: 2
    weight_filler {
      type: "gaussian"
      std: 0.01
    }
    bias_filler {
      type: "constant"
      value: 1
    }
  }
}
layer {
  name: "relu5"
  type: "ReLU"
  bottom: "conv5"
  top: "conv5"
}
layer {
  name: "pool5"
  type: "Pooling"
  bottom: "conv5"
  top: "pool5"
  pooling_param {
    pool: MAX
    kernel_size: 3
    stride: 2
  }
}
layer {
  name: "fc6"
  type: "InnerProduct"
  bottom: "pool5"
  top: "fc6"
  param {
    lr_mult: 1
    decay_mult: 1
  }
  param {
    lr_mult: 2
    decay_mult: 0
  }
  inner_product_param {
    num_output: 4096
    weight_filler {
      type: "gaussian"
      std: 0.005
    }
    bias_filler {
      type: "constant"
      value: 1
    }
  }
}
layer {
  name: "relu6"
  type: "ReLU"
  bottom: "fc6"
  top: "fc6"
}
layer {
  name: "drop6"
  type: "Dropout"
  bottom: "fc6"
  top: "fc6"
  dropout_param {
    dropout_ratio: 0.5
  }
}
layer {
  name: "fc7"
  type: "InnerProduct"
  bottom: "fc6"
  top: "fc7"
  param {
    lr_mult: 1
    decay_mult: 1
  }
  param {
    lr_mult: 2
    decay_mult: 0
  }
  inner_product_param {
    num_output: 4096
    weight_filler {
      type: "gaussian"
      std: 0.005
    }
    bias_filler {
      type: "constant"
      value: 1
    }
  }
}
layer {
  name: "relu7"
  type: "ReLU"
  bottom: "fc7"
  top: "fc7"
}
layer {
  name: "drop7"
  type: "Dropout"
  bottom: "fc7"
  top: "fc7"
  dropout_param {
    dropout_ratio: 0.5
  }
}
layer {
  name: "102flower"
  type: "InnerProduct"
  bottom: "fc7"
  top: "102flower"
  param {
    lr_mult: 10
    decay_mult: 1
  }
  param {
    lr_mult: 20
    decay_mult: 0
  }
  inner_product_param {
    num_output: 102
    weight_filler {
      type: "gaussian"
      std: 0.01
    }
    bias_filler {
      type: "constant"
      value: 0
    }
  }
}
layer {
  name: "loss"
  type: "SoftmaxWithLoss"
  bottom: "102flower"
  bottom: "label"
  top: "loss"
}
I0516 21:41:30.856351 23021 layer_factory.hpp:77] Creating layer data
I0516 21:41:30.856884 23021 net.cpp:91] Creating Layer data
I0516 21:41:30.856901 23021 net.cpp:399] data -> data
I0516 21:41:30.856956 23021 net.cpp:399] data -> label
I0516 21:41:30.856974 23021 data_transformer.cpp:25] Loading mean file from: /home/zheda/software/caffe/data/ilsvrc12/imagenet_mean.binaryproto
I0516 21:41:30.858512 23028 db_lmdb.cpp:35] Opened lmdb /home/zheda/workspace/cnn/flower-classify/102flowers_train_lmdb
I0516 21:41:30.867095 23021 data_layer.cpp:41] output data size: 256,3,227,227
I0516 21:41:31.209882 23021 net.cpp:141] Setting up data
I0516 21:41:31.209933 23021 net.cpp:148] Top shape: 256 3 227 227 (39574272)
I0516 21:41:31.209944 23021 net.cpp:148] Top shape: 256 (256)
I0516 21:41:31.209951 23021 net.cpp:156] Memory required for data: 158298112
I0516 21:41:31.209966 23021 layer_factory.hpp:77] Creating layer conv1
I0516 21:41:31.209995 23021 net.cpp:91] Creating Layer conv1
I0516 21:41:31.210005 23021 net.cpp:425] conv1 <- data
I0516 21:41:31.210021 23021 net.cpp:399] conv1 -> conv1
I0516 21:41:31.350281 23021 net.cpp:141] Setting up conv1
I0516 21:41:31.350333 23021 net.cpp:148] Top shape: 256 96 55 55 (74342400)
I0516 21:41:31.350342 23021 net.cpp:156] Memory required for data: 455667712
I0516 21:41:31.350365 23021 layer_factory.hpp:77] Creating layer relu1
I0516 21:41:31.350381 23021 net.cpp:91] Creating Layer relu1
I0516 21:41:31.350390 23021 net.cpp:425] relu1 <- conv1
I0516 21:41:31.350399 23021 net.cpp:386] relu1 -> conv1 (in-place)
I0516 21:41:31.350549 23021 net.cpp:141] Setting up relu1
I0516 21:41:31.350564 23021 net.cpp:148] Top shape: 256 96 55 55 (74342400)
I0516 21:41:31.350570 23021 net.cpp:156] Memory required for data: 753037312
I0516 21:41:31.350576 23021 layer_factory.hpp:77] Creating layer pool1
I0516 21:41:31.350585 23021 net.cpp:91] Creating Layer pool1
I0516 21:41:31.350591 23021 net.cpp:425] pool1 <- conv1
I0516 21:41:31.350600 23021 net.cpp:399] pool1 -> pool1
I0516 21:41:31.350648 23021 net.cpp:141] Setting up pool1
I0516 21:41:31.350672 23021 net.cpp:148] Top shape: 256 96 27 27 (17915904)
I0516 21:41:31.350677 23021 net.cpp:156] Memory required for data: 824700928
I0516 21:41:31.350684 23021 layer_factory.hpp:77] Creating layer norm1
I0516 21:41:31.350725 23021 net.cpp:91] Creating Layer norm1
I0516 21:41:31.350733 23021 net.cpp:425] norm1 <- pool1
I0516 21:41:31.350740 23021 net.cpp:399] norm1 -> norm1
I0516 21:41:31.351040 23021 net.cpp:141] Setting up norm1
I0516 21:41:31.351059 23021 net.cpp:148] Top shape: 256 96 27 27 (17915904)
I0516 21:41:31.351065 23021 net.cpp:156] Memory required for data: 896364544
I0516 21:41:31.351073 23021 layer_factory.hpp:77] Creating layer conv2
I0516 21:41:31.351086 23021 net.cpp:91] Creating Layer conv2
I0516 21:41:31.351092 23021 net.cpp:425] conv2 <- norm1
I0516 21:41:31.351100 23021 net.cpp:399] conv2 -> conv2
I0516 21:41:31.361868 23021 net.cpp:141] Setting up conv2
I0516 21:41:31.361888 23021 net.cpp:148] Top shape: 256 256 27 27 (47775744)
I0516 21:41:31.361896 23021 net.cpp:156] Memory required for data: 1087467520
I0516 21:41:31.361907 23021 layer_factory.hpp:77] Creating layer relu2
I0516 21:41:31.361919 23021 net.cpp:91] Creating Layer relu2
I0516 21:41:31.361925 23021 net.cpp:425] relu2 <- conv2
I0516 21:41:31.361933 23021 net.cpp:386] relu2 -> conv2 (in-place)
I0516 21:41:31.362093 23021 net.cpp:141] Setting up relu2
I0516 21:41:31.362107 23021 net.cpp:148] Top shape: 256 256 27 27 (47775744)
I0516 21:41:31.362112 23021 net.cpp:156] Memory required for data: 1278570496
I0516 21:41:31.362118 23021 layer_factory.hpp:77] Creating layer pool2
I0516 21:41:31.362131 23021 net.cpp:91] Creating Layer pool2
I0516 21:41:31.362138 23021 net.cpp:425] pool2 <- conv2
I0516 21:41:31.362145 23021 net.cpp:399] pool2 -> pool2
I0516 21:41:31.362186 23021 net.cpp:141] Setting up pool2
I0516 21:41:31.362195 23021 net.cpp:148] Top shape: 256 256 13 13 (11075584)
I0516 21:41:31.362201 23021 net.cpp:156] Memory required for data: 1322872832
I0516 21:41:31.362207 23021 layer_factory.hpp:77] Creating layer norm2
I0516 21:41:31.362218 23021 net.cpp:91] Creating Layer norm2
I0516 21:41:31.362224 23021 net.cpp:425] norm2 <- pool2
I0516 21:41:31.362231 23021 net.cpp:399] norm2 -> norm2
I0516 21:41:31.362529 23021 net.cpp:141] Setting up norm2
I0516 21:41:31.362553 23021 net.cpp:148] Top shape: 256 256 13 13 (11075584)
I0516 21:41:31.362560 23021 net.cpp:156] Memory required for data: 1367175168
I0516 21:41:31.362566 23021 layer_factory.hpp:77] Creating layer conv3
I0516 21:41:31.362581 23021 net.cpp:91] Creating Layer conv3
I0516 21:41:31.362587 23021 net.cpp:425] conv3 <- norm2
I0516 21:41:31.362596 23021 net.cpp:399] conv3 -> conv3
I0516 21:41:31.412377 23021 net.cpp:141] Setting up conv3
I0516 21:41:31.412451 23021 net.cpp:148] Top shape: 256 384 13 13 (16613376)
I0516 21:41:31.412467 23021 net.cpp:156] Memory required for data: 1433628672
I0516 21:41:31.412493 23021 layer_factory.hpp:77] Creating layer relu3
I0516 21:41:31.412521 23021 net.cpp:91] Creating Layer relu3
I0516 21:41:31.412534 23021 net.cpp:425] relu3 <- conv3
I0516 21:41:31.412554 23021 net.cpp:386] relu3 -> conv3 (in-place)
I0516 21:41:31.413079 23021 net.cpp:141] Setting up relu3
I0516 21:41:31.413120 23021 net.cpp:148] Top shape: 256 384 13 13 (16613376)
I0516 21:41:31.413132 23021 net.cpp:156] Memory required for data: 1500082176
I0516 21:41:31.413146 23021 layer_factory.hpp:77] Creating layer conv4
I0516 21:41:31.413175 23021 net.cpp:91] Creating Layer conv4
I0516 21:41:31.413189 23021 net.cpp:425] conv4 <- conv3
I0516 21:41:31.413208 23021 net.cpp:399] conv4 -> conv4
I0516 21:41:31.452400 23021 net.cpp:141] Setting up conv4
I0516 21:41:31.452450 23021 net.cpp:148] Top shape: 256 384 13 13 (16613376)
I0516 21:41:31.452463 23021 net.cpp:156] Memory required for data: 1566535680
I0516 21:41:31.452483 23021 layer_factory.hpp:77] Creating layer relu4
I0516 21:41:31.452509 23021 net.cpp:91] Creating Layer relu4
I0516 21:41:31.452524 23021 net.cpp:425] relu4 <- conv4
I0516 21:41:31.452539 23021 net.cpp:386] relu4 -> conv4 (in-place)
I0516 21:41:31.452798 23021 net.cpp:141] Setting up relu4
I0516 21:41:31.452821 23021 net.cpp:148] Top shape: 256 384 13 13 (16613376)
I0516 21:41:31.452831 23021 net.cpp:156] Memory required for data: 1632989184
I0516 21:41:31.452872 23021 layer_factory.hpp:77] Creating layer conv5
I0516 21:41:31.452898 23021 net.cpp:91] Creating Layer conv5
I0516 21:41:31.452915 23021 net.cpp:425] conv5 <- conv4
I0516 21:41:31.452932 23021 net.cpp:399] conv5 -> conv5
I0516 21:41:31.486016 23021 net.cpp:141] Setting up conv5
I0516 21:41:31.486068 23021 net.cpp:148] Top shape: 256 256 13 13 (11075584)
I0516 21:41:31.486081 23021 net.cpp:156] Memory required for data: 1677291520
I0516 21:41:31.486105 23021 layer_factory.hpp:77] Creating layer relu5
I0516 21:41:31.486135 23021 net.cpp:91] Creating Layer relu5
I0516 21:41:31.486153 23021 net.cpp:425] relu5 <- conv5
I0516 21:41:31.486166 23021 net.cpp:386] relu5 -> conv5 (in-place)
I0516 21:41:31.486407 23021 net.cpp:141] Setting up relu5
I0516 21:41:31.486428 23021 net.cpp:148] Top shape: 256 256 13 13 (11075584)
I0516 21:41:31.486440 23021 net.cpp:156] Memory required for data: 1721593856
I0516 21:41:31.486454 23021 layer_factory.hpp:77] Creating layer pool5
I0516 21:41:31.486470 23021 net.cpp:91] Creating Layer pool5
I0516 21:41:31.486480 23021 net.cpp:425] pool5 <- conv5
I0516 21:41:31.486495 23021 net.cpp:399] pool5 -> pool5
I0516 21:41:31.486557 23021 net.cpp:141] Setting up pool5
I0516 21:41:31.486573 23021 net.cpp:148] Top shape: 256 256 6 6 (2359296)
I0516 21:41:31.486582 23021 net.cpp:156] Memory required for data: 1731031040
I0516 21:41:31.486591 23021 layer_factory.hpp:77] Creating layer fc6
I0516 21:41:31.486613 23021 net.cpp:91] Creating Layer fc6
I0516 21:41:31.486623 23021 net.cpp:425] fc6 <- pool5
I0516 21:41:31.486637 23021 net.cpp:399] fc6 -> fc6
I0516 21:41:32.628177 23021 net.cpp:141] Setting up fc6
I0516 21:41:32.628221 23021 net.cpp:148] Top shape: 256 4096 (1048576)
I0516 21:41:32.628228 23021 net.cpp:156] Memory required for data: 1735225344
I0516 21:41:32.628242 23021 layer_factory.hpp:77] Creating layer relu6
I0516 21:41:32.628260 23021 net.cpp:91] Creating Layer relu6
I0516 21:41:32.628273 23021 net.cpp:425] relu6 <- fc6
I0516 21:41:32.628283 23021 net.cpp:386] relu6 -> fc6 (in-place)
I0516 21:41:32.628726 23021 net.cpp:141] Setting up relu6
I0516 21:41:32.628744 23021 net.cpp:148] Top shape: 256 4096 (1048576)
I0516 21:41:32.628762 23021 net.cpp:156] Memory required for data: 1739419648
I0516 21:41:32.628770 23021 layer_factory.hpp:77] Creating layer drop6
I0516 21:41:32.628789 23021 net.cpp:91] Creating Layer drop6
I0516 21:41:32.628798 23021 net.cpp:425] drop6 <- fc6
I0516 21:41:32.628806 23021 net.cpp:386] drop6 -> fc6 (in-place)
I0516 21:41:32.628846 23021 net.cpp:141] Setting up drop6
I0516 21:41:32.628857 23021 net.cpp:148] Top shape: 256 4096 (1048576)
I0516 21:41:32.628865 23021 net.cpp:156] Memory required for data: 1743613952
I0516 21:41:32.628870 23021 layer_factory.hpp:77] Creating layer fc7
I0516 21:41:32.628891 23021 net.cpp:91] Creating Layer fc7
I0516 21:41:32.628911 23021 net.cpp:425] fc7 <- fc6
I0516 21:41:32.628921 23021 net.cpp:399] fc7 -> fc7
I0516 21:41:33.207662 23021 net.cpp:141] Setting up fc7
I0516 21:41:33.207722 23021 net.cpp:148] Top shape: 256 4096 (1048576)
I0516 21:41:33.207734 23021 net.cpp:156] Memory required for data: 1747808256
I0516 21:41:33.207757 23021 layer_factory.hpp:77] Creating layer relu7
I0516 21:41:33.207779 23021 net.cpp:91] Creating Layer relu7
I0516 21:41:33.207792 23021 net.cpp:425] relu7 <- fc7
I0516 21:41:33.207806 23021 net.cpp:386] relu7 -> fc7 (in-place)
I0516 21:41:33.208251 23021 net.cpp:141] Setting up relu7
I0516 21:41:33.208273 23021 net.cpp:148] Top shape: 256 4096 (1048576)
I0516 21:41:33.208283 23021 net.cpp:156] Memory required for data: 1752002560
I0516 21:41:33.208292 23021 layer_factory.hpp:77] Creating layer drop7
I0516 21:41:33.208308 23021 net.cpp:91] Creating Layer drop7
I0516 21:41:33.208318 23021 net.cpp:425] drop7 <- fc7
I0516 21:41:33.208330 23021 net.cpp:386] drop7 -> fc7 (in-place)
I0516 21:41:33.208364 23021 net.cpp:141] Setting up drop7
I0516 21:41:33.208379 23021 net.cpp:148] Top shape: 256 4096 (1048576)
I0516 21:41:33.208389 23021 net.cpp:156] Memory required for data: 1756196864
I0516 21:41:33.208427 23021 layer_factory.hpp:77] Creating layer 102flower
I0516 21:41:33.208446 23021 net.cpp:91] Creating Layer 102flower
I0516 21:41:33.208456 23021 net.cpp:425] 102flower <- fc7
I0516 21:41:33.208477 23021 net.cpp:399] 102flower -> 102flower
I0516 21:41:33.225522 23021 net.cpp:141] Setting up 102flower
I0516 21:41:33.225548 23021 net.cpp:148] Top shape: 256 102 (26112)
I0516 21:41:33.225559 23021 net.cpp:156] Memory required for data: 1756301312
I0516 21:41:33.225572 23021 layer_factory.hpp:77] Creating layer loss
I0516 21:41:33.225587 23021 net.cpp:91] Creating Layer loss
I0516 21:41:33.225597 23021 net.cpp:425] loss <- 102flower
I0516 21:41:33.225606 23021 net.cpp:425] loss <- label
I0516 21:41:33.225625 23021 net.cpp:399] loss -> loss
I0516 21:41:33.225647 23021 layer_factory.hpp:77] Creating layer loss
…
I0516 21:41:33.227463 23021 net.cpp:313] The NetState phase (1) differed from the phase (0) specified by a rule in layer data
I0516 21:41:33.227691 23021 net.cpp:49] Initializing net from parameters: 
name: "102FlowerCaffeNet"
state {
  phase: TEST
}
layer {
  name: "data"
  type: "Data"
  top: "data"
  top: "label"
  include {
    phase: TEST
  }
  transform_param {
    mirror: false
    crop_size: 227
    mean_file: "/home/zheda/software/caffe/data/ilsvrc12/imagenet_mean.binaryproto"
  }
  data_param {
    source: "/home/zheda/workspace/cnn/flower-classify/102flowers_val_lmdb"
    batch_size: 50
    backend: LMDB
  }
}
layer {
  name: "conv1"
  type: "Convolution"
  bottom: "data"
  top: "conv1"
  param {
    lr_mult: 1
    decay_mult: 1
  }
  param {
    lr_mult: 2
    decay_mult: 0
  }
  convolution_param {
    num_output: 96
    kernel_size: 11
    stride: 4
    weight_filler {
      type: "gaussian"
      std: 0.01
    }
    bias_filler {
      type: "constant"
      value: 0
    }
  }
}
layer {
  name: "relu1"
  type: "ReLU"
  bottom: "conv1"
  top: "conv1"
}
layer {
  name: "pool1"
  type: "Pooling"
  bottom: "conv1"
  top: "pool1"
  pooling_param {
    pool: MAX
    kernel_size: 3
    stride: 2
  }
}
layer {
  name: "norm1"
  type: "LRN"
  bottom: "pool1"
  top: "norm1"
  lrn_param {
    local_size: 5
    alpha: 0.0001
    beta: 0.75
  }
}
layer {
  name: "conv2"
  type: "Convolution"
  bottom: "norm1"
  top: "conv2"
  param {
    lr_mult: 1
    decay_mult: 1
  }
  param {
    lr_mult: 2
    decay_mult: 0
  }
  convolution_param {
    num_output: 256
    pad: 2
    kernel_size: 5
    group: 2
    weight_filler {
      type: "gaussian"
      std: 0.01
    }
    bias_filler {
      type: "constant"
      value: 1
    }
  }
}
layer {
  name: "relu2"
  type: "ReLU"
  bottom: "conv2"
  top: "conv2"
}
layer {
  name: "pool2"
  type: "Pooling"
  bottom: "conv2"
  top: "pool2"
  pooling_param {
    pool: MAX
    kernel_size: 3
    stride: 2
  }
}
layer {
  name: "norm2"
  type: "LRN"
  bottom: "pool2"
  top: "norm2"
  lrn_param {
    local_size: 5
    alpha: 0.0001
    beta: 0.75
  }
}
layer {
  name: "conv3"
  type: "Convolution"
  bottom: "norm2"
  top: "conv3"
  param {
    lr_mult: 1
    decay_mult: 1
  }
  param {
    lr_mult: 2
    decay_mult: 0
  }
  convolution_param {
    num_output: 384
    pad: 1
    kernel_size: 3
    weight_filler {
      type: "gaussian"
      std: 0.01
    }
    bias_filler {
      type: "constant"
      value: 0
    }
  }
}
layer {
  name: "relu3"
  type: "ReLU"
  bottom: "conv3"
  top: "conv3"
}
layer {
  name: "conv4"
  type: "Convolution"
  bottom: "conv3"
  top: "conv4"
  param {
    lr_mult: 1
    decay_mult: 1
  }
  param {
    lr_mult: 2
    decay_mult: 0
  }
  convolution_param {
    num_output: 384
    pad: 1
    kernel_size: 3
    group: 2
    weight_filler {
      type: "gaussian"
      std: 0.01
    }
    bias_filler {
      type: "constant"
      value: 1
    }
  }
}
layer {
  name: "relu4"
  type: "ReLU"
  bottom: "conv4"
  top: "conv4"
}
layer {
  name: "conv5"
  type: "Convolution"
  bottom: "conv4"
  top: "conv5"
  param {
    lr_mult: 1
    decay_mult: 1
  }
  param {
    lr_mult: 2
    decay_mult: 0
  }
  convolution_param {
    num_output: 256
    pad: 1
    kernel_size: 3
    group: 2
    weight_filler {
      type: "gaussian"
      std: 0.01
    }
    bias_filler {
      type: "constant"
      value: 1
    }
  }
}
layer {
  name: "relu5"
  type: "ReLU"
  bottom: "conv5"
  top: "conv5"
}
layer {
  name: "pool5"
  type: "Pooling"
  bottom: "conv5"
  top: "pool5"
  pooling_param {
    pool: MAX
    kernel_size: 3
    stride: 2
  }
}
layer {
  name: "fc6"
  type: "InnerProduct"
  bottom: "pool5"
  top: "fc6"
  param {
    lr_mult: 1
    decay_mult: 1
  }
  param {
    lr_mult: 2
    decay_mult: 0
  }
  inner_product_param {
    num_output: 4096
    weight_filler {
      type: "gaussian"
      std: 0.005
    }
    bias_filler {
      type: "constant"
      value: 1
    }
  }
}
layer {
  name: "relu6"
  type: "ReLU"
  bottom: "fc6"
  top: "fc6"
}
layer {
  name: "drop6"
  type: "Dropout"
  bottom: "fc6"
  top: "fc6"
  dropout_param {
    dropout_ratio: 0.5
  }
}
layer {
  name: "fc7"
  type: "InnerProduct"
  bottom: "fc6"
  top: "fc7"
  param {
    lr_mult: 1
    decay_mult: 1
  }
  param {
    lr_mult: 2
    decay_mult: 0
  }
  inner_product_param {
    num_output: 4096
    weight_filler {
      type: "gaussian"
      std: 0.005
    }
    bias_filler {
      type: "constant"
      value: 1
    }
  }
}
layer {
  name: "relu7"
  type: "ReLU"
  bottom: "fc7"
  top: "fc7"
}
layer {
  name: "drop7"
  type: "Dropout"
  bottom: "fc7"
  top: "fc7"
  dropout_param {
    dropout_ratio: 0.5
  }
}
layer {
  name: "102flower"
  type: "InnerProduct"
  bottom: "fc7"
  top: "102flower"
  param {
    lr_mult: 10
    decay_mult: 1
  }
  param {
    lr_mult: 20
    decay_mult: 0
  }
  inner_product_param {
    num_output: 102
    weight_filler {
      type: "gaussian"
      std: 0.01
    }
    bias_filler {
      type: "constant"
      value: 0
    }
  }
}
layer {
  name: "accuracy"
  type: "Accuracy"
  bottom: "102flower"
  bottom: "label"
  top: "accuracy"
  include {
    phase: TEST
  }
}
layer {
  name: "loss"
  type: "SoftmaxWithLoss"
  bottom: "102flower"
  bottom: "label"
  top: "loss"
}
I0516 21:41:33.228818 23021 layer_factory.hpp:77] Creating layer data
I0516 21:41:33.228935 23021 net.cpp:91] Creating Layer data
I0516 21:41:33.228953 23021 net.cpp:399] data -> data
I0516 21:41:33.228989 23021 net.cpp:399] data -> label
I0516 21:41:33.229009 23021 data_transformer.cpp:25] Loading mean file from: /home/zheda/software/caffe/data/ilsvrc12/imagenet_mean.binaryproto
I0516 21:41:33.230438 23031 db_lmdb.cpp:35] Opened lmdb /home/zheda/workspace/cnn/flower-classify/102flowers_val_lmdb
I0516 21:41:33.231897 23021 data_layer.cpp:41] output data size: 50,3,227,227
I0516 21:41:33.317356 23021 net.cpp:141] Setting up data
I0516 21:41:33.317415 23021 net.cpp:148] Top shape: 50 3 227 227 (7729350)
I0516 21:41:33.317425 23021 net.cpp:148] Top shape: 50 (50)
I0516 21:41:33.317432 23021 net.cpp:156] Memory required for data: 30917600
I0516 21:41:33.317441 23021 layer_factory.hpp:77] Creating layer label_data_1_split
I0516 21:41:33.317459 23021 net.cpp:91] Creating Layer label_data_1_split
I0516 21:41:33.317479 23021 net.cpp:425] label_data_1_split <- label
I0516 21:41:33.317492 23021 net.cpp:399] label_data_1_split -> label_data_1_split_0
I0516 21:41:33.317507 23021 net.cpp:399] label_data_1_split -> label_data_1_split_1
I0516 21:41:33.317636 23021 net.cpp:141] Setting up label_data_1_split
I0516 21:41:33.317651 23021 net.cpp:148] Top shape: 50 (50)
I0516 21:41:33.317665 23021 net.cpp:148] Top shape: 50 (50)
I0516 21:41:33.317672 23021 net.cpp:156] Memory required for data: 30918000
I0516 21:41:33.317677 23021 layer_factory.hpp:77] Creating layer conv1
I0516 21:41:33.317695 23021 net.cpp:91] Creating Layer conv1
I0516 21:41:33.317703 23021 net.cpp:425] conv1 <- data
I0516 21:41:33.317713 23021 net.cpp:399] conv1 -> conv1
I0516 21:41:33.325906 23021 net.cpp:141] Setting up conv1
I0516 21:41:33.325930 23021 net.cpp:148] Top shape: 50 96 55 55 (14520000)
I0516 21:41:33.325938 23021 net.cpp:156] Memory required for data: 88998000
I0516 21:41:33.325953 23021 layer_factory.hpp:77] Creating layer relu1
I0516 21:41:33.325965 23021 net.cpp:91] Creating Layer relu1
I0516 21:41:33.325973 23021 net.cpp:425] relu1 <- conv1
I0516 21:41:33.325984 23021 net.cpp:386] relu1 -> conv1 (in-place)
I0516 21:41:33.326140 23021 net.cpp:141] Setting up relu1
I0516 21:41:33.326156 23021 net.cpp:148] Top shape: 50 96 55 55 (14520000)
I0516 21:41:33.326162 23021 net.cpp:156] Memory required for data: 147078000
I0516 21:41:33.326169 23021 layer_factory.hpp:77] Creating layer pool1
I0516 21:41:33.326179 23021 net.cpp:91] Creating Layer pool1
I0516 21:41:33.326186 23021 net.cpp:425] pool1 <- conv1
I0516 21:41:33.326195 23021 net.cpp:399] pool1 -> pool1
I0516 21:41:33.326244 23021 net.cpp:141] Setting up pool1
I0516 21:41:33.326257 23021 net.cpp:148] Top shape: 50 96 27 27 (3499200)
I0516 21:41:33.326263 23021 net.cpp:156] Memory required for data: 161074800
I0516 21:41:33.326270 23021 layer_factory.hpp:77] Creating layer norm1
I0516 21:41:33.326282 23021 net.cpp:91] Creating Layer norm1
I0516 21:41:33.326288 23021 net.cpp:425] norm1 <- pool1
I0516 21:41:33.326297 23021 net.cpp:399] norm1 -> norm1
I0516 21:41:33.326650 23021 net.cpp:141] Setting up norm1
I0516 21:41:33.326671 23021 net.cpp:148] Top shape: 50 96 27 27 (3499200)
I0516 21:41:33.326678 23021 net.cpp:156] Memory required for data: 175071600
I0516 21:41:33.326685 23021 layer_factory.hpp:77] Creating layer conv2
I0516 21:41:33.326699 23021 net.cpp:91] Creating Layer conv2
I0516 21:41:33.326706 23021 net.cpp:425] conv2 <- norm1
I0516 21:41:33.326716 23021 net.cpp:399] conv2 -> conv2
I0516 21:41:33.337303 23021 net.cpp:141] Setting up conv2
I0516 21:41:33.337328 23021 net.cpp:148] Top shape: 50 256 27 27 (9331200)
I0516 21:41:33.337337 23021 net.cpp:156] Memory required for data: 212396400
I0516 21:41:33.337378 23021 layer_factory.hpp:77] Creating layer relu2
I0516 21:41:33.337389 23021 net.cpp:91] Creating Layer relu2
I0516 21:41:33.337396 23021 net.cpp:425] relu2 <- conv2
I0516 21:41:33.337405 23021 net.cpp:386] relu2 -> conv2 (in-place)
I0516 21:41:33.337710 23021 net.cpp:141] Setting up relu2
I0516 21:41:33.337728 23021 net.cpp:148] Top shape: 50 256 27 27 (9331200)
I0516 21:41:33.337735 23021 net.cpp:156] Memory required for data: 249721200
I0516 21:41:33.337741 23021 layer_factory.hpp:77] Creating layer pool2
I0516 21:41:33.337754 23021 net.cpp:91] Creating Layer pool2
I0516 21:41:33.337760 23021 net.cpp:425] pool2 <- conv2
I0516 21:41:33.337769 23021 net.cpp:399] pool2 -> pool2
I0516 21:41:33.337816 23021 net.cpp:141] Setting up pool2
I0516 21:41:33.337828 23021 net.cpp:148] Top shape: 50 256 13 13 (2163200)
I0516 21:41:33.337834 23021 net.cpp:156] Memory required for data: 258374000
I0516 21:41:33.337841 23021 layer_factory.hpp:77] Creating layer norm2
I0516 21:41:33.337849 23021 net.cpp:91] Creating Layer norm2
I0516 21:41:33.337857 23021 net.cpp:425] norm2 <- pool2
I0516 21:41:33.337864 23021 net.cpp:399] norm2 -> norm2
I0516 21:41:33.338068 23021 net.cpp:141] Setting up norm2
I0516 21:41:33.338083 23021 net.cpp:148] Top shape: 50 256 13 13 (2163200)
I0516 21:41:33.338090 23021 net.cpp:156] Memory required for data: 267026800
I0516 21:41:33.338096 23021 layer_factory.hpp:77] Creating layer conv3
I0516 21:41:33.338111 23021 net.cpp:91] Creating Layer conv3
I0516 21:41:33.338119 23021 net.cpp:425] conv3 <- norm2
I0516 21:41:33.338129 23021 net.cpp:399] conv3 -> conv3
I0516 21:41:33.365182 23021 net.cpp:141] Setting up conv3
I0516 21:41:33.365232 23021 net.cpp:148] Top shape: 50 384 13 13 (3244800)
I0516 21:41:33.365241 23021 net.cpp:156] Memory required for data: 280006000
I0516 21:41:33.365260 23021 layer_factory.hpp:77] Creating layer relu3
I0516 21:41:33.365274 23021 net.cpp:91] Creating Layer relu3
I0516 21:41:33.365283 23021 net.cpp:425] relu3 <- conv3
I0516 21:41:33.365295 23021 net.cpp:386] relu3 -> conv3 (in-place)
I0516 21:41:33.365630 23021 net.cpp:141] Setting up relu3
I0516 21:41:33.365651 23021 net.cpp:148] Top shape: 50 384 13 13 (3244800)
I0516 21:41:33.365658 23021 net.cpp:156] Memory required for data: 292985200
I0516 21:41:33.365666 23021 layer_factory.hpp:77] Creating layer conv4
I0516 21:41:33.365682 23021 net.cpp:91] Creating Layer conv4
I0516 21:41:33.365690 23021 net.cpp:425] conv4 <- conv3
I0516 21:41:33.365703 23021 net.cpp:399] conv4 -> conv4
I0516 21:41:33.387279 23021 net.cpp:141] Setting up conv4
I0516 21:41:33.387331 23021 net.cpp:148] Top shape: 50 384 13 13 (3244800)
I0516 21:41:33.387338 23021 net.cpp:156] Memory required for data: 305964400
I0516 21:41:33.387352 23021 layer_factory.hpp:77] Creating layer relu4
I0516 21:41:33.387365 23021 net.cpp:91] Creating Layer relu4
I0516 21:41:33.387374 23021 net.cpp:425] relu4 <- conv4
I0516 21:41:33.387387 23021 net.cpp:386] relu4 -> conv4 (in-place)
I0516 21:41:33.387712 23021 net.cpp:141] Setting up relu4
I0516 21:41:33.387732 23021 net.cpp:148] Top shape: 50 384 13 13 (3244800)
I0516 21:41:33.387739 23021 net.cpp:156] Memory required for data: 318943600
I0516 21:41:33.387747 23021 layer_factory.hpp:77] Creating layer conv5
I0516 21:41:33.387760 23021 net.cpp:91] Creating Layer conv5
I0516 21:41:33.387773 23021 net.cpp:425] conv5 <- conv4
I0516 21:41:33.387784 23021 net.cpp:399] conv5 -> conv5
I0516 21:41:33.402830 23021 net.cpp:141] Setting up conv5
I0516 21:41:33.402855 23021 net.cpp:148] Top shape: 50 256 13 13 (2163200)
I0516 21:41:33.402863 23021 net.cpp:156] Memory required for data: 327596400
I0516 21:41:33.402878 23021 layer_factory.hpp:77] Creating layer relu5
I0516 21:41:33.402890 23021 net.cpp:91] Creating Layer relu5
I0516 21:41:33.402896 23021 net.cpp:425] relu5 <- conv5
I0516 21:41:33.402906 23021 net.cpp:386] relu5 -> conv5 (in-place)
I0516 21:41:33.403079 23021 net.cpp:141] Setting up relu5
I0516 21:41:33.403095 23021 net.cpp:148] Top shape: 50 256 13 13 (2163200)
I0516 21:41:33.403149 23021 net.cpp:156] Memory required for data: 336249200
I0516 21:41:33.403156 23021 layer_factory.hpp:77] Creating layer pool5
I0516 21:41:33.403172 23021 net.cpp:91] Creating Layer pool5
I0516 21:41:33.403178 23021 net.cpp:425] pool5 <- conv5
I0516 21:41:33.403189 23021 net.cpp:399] pool5 -> pool5
I0516 21:41:33.403242 23021 net.cpp:141] Setting up pool5
I0516 21:41:33.403254 23021 net.cpp:148] Top shape: 50 256 6 6 (460800)
I0516 21:41:33.403260 23021 net.cpp:156] Memory required for data: 338092400
I0516 21:41:33.403280 23021 layer_factory.hpp:77] Creating layer fc6
I0516 21:41:33.403292 23021 net.cpp:91] Creating Layer fc6
I0516 21:41:33.403300 23021 net.cpp:425] fc6 <- pool5
I0516 21:41:33.403308 23021 net.cpp:399] fc6 -> fc6
I0516 21:41:34.526150 23021 net.cpp:141] Setting up fc6
I0516 21:41:34.526196 23021 net.cpp:148] Top shape: 50 4096 (204800)
I0516 21:41:34.526203 23021 net.cpp:156] Memory required for data: 338911600
I0516 21:41:34.526216 23021 layer_factory.hpp:77] Creating layer relu6
I0516 21:41:34.526232 23021 net.cpp:91] Creating Layer relu6
I0516 21:41:34.526240 23021 net.cpp:425] relu6 <- fc6
I0516 21:41:34.526250 23021 net.cpp:386] relu6 -> fc6 (in-place)
I0516 21:41:34.526708 23021 net.cpp:141] Setting up relu6
I0516 21:41:34.526727 23021 net.cpp:148] Top shape: 50 4096 (204800)
I0516 21:41:34.526734 23021 net.cpp:156] Memory required for data: 339730800
I0516 21:41:34.526741 23021 layer_factory.hpp:77] Creating layer drop6
I0516 21:41:34.526751 23021 net.cpp:91] Creating Layer drop6
I0516 21:41:34.526757 23021 net.cpp:425] drop6 <- fc6
I0516 21:41:34.526765 23021 net.cpp:386] drop6 -> fc6 (in-place)
I0516 21:41:34.526800 23021 net.cpp:141] Setting up drop6
I0516 21:41:34.526824 23021 net.cpp:148] Top shape: 50 4096 (204800)
I0516 21:41:34.526830 23021 net.cpp:156] Memory required for data: 340550000
I0516 21:41:34.526836 23021 layer_factory.hpp:77] Creating layer fc7
I0516 21:41:34.526849 23021 net.cpp:91] Creating Layer fc7
I0516 21:41:34.526854 23021 net.cpp:425] fc7 <- fc6
I0516 21:41:34.526864 23021 net.cpp:399] fc7 -> fc7
I0516 21:41:35.005605 23021 net.cpp:141] Setting up fc7
I0516 21:41:35.005663 23021 net.cpp:148] Top shape: 50 4096 (204800)
I0516 21:41:35.005672 23021 net.cpp:156] Memory required for data: 341369200
I0516 21:41:35.005689 23021 layer_factory.hpp:77] Creating layer relu7
I0516 21:41:35.005707 23021 net.cpp:91] Creating Layer relu7
I0516 21:41:35.005715 23021 net.cpp:425] relu7 <- fc7
I0516 21:41:35.005727 23021 net.cpp:386] relu7 -> fc7 (in-place)
I0516 21:41:35.005967 23021 net.cpp:141] Setting up relu7
I0516 21:41:35.005993 23021 net.cpp:148] Top shape: 50 4096 (204800)
I0516 21:41:35.006000 23021 net.cpp:156] Memory required for data: 342188400
I0516 21:41:35.006006 23021 layer_factory.hpp:77] Creating layer drop7
I0516 21:41:35.006017 23021 net.cpp:91] Creating Layer drop7
I0516 21:41:35.006024 23021 net.cpp:425] drop7 <- fc7
I0516 21:41:35.006033 23021 net.cpp:386] drop7 -> fc7 (in-place)
I0516 21:41:35.006067 23021 net.cpp:141] Setting up drop7
I0516 21:41:35.006084 23021 net.cpp:148] Top shape: 50 4096 (204800)
I0516 21:41:35.006091 23021 net.cpp:156] Memory required for data: 343007600
I0516 21:41:35.006098 23021 layer_factory.hpp:77] Creating layer 102flower
I0516 21:41:35.006110 23021 net.cpp:91] Creating Layer 102flower
I0516 21:41:35.006117 23021 net.cpp:425] 102flower <- fc7
I0516 21:41:35.006126 23021 net.cpp:399] 102flower -> 102flower
I0516 21:41:35.018610 23021 net.cpp:141] Setting up 102flower
I0516 21:41:35.018630 23021 net.cpp:148] Top shape: 50 102 (5100)
I0516 21:41:35.018648 23021 net.cpp:156] Memory required for data: 343028000
I0516 21:41:35.018657 23021 layer_factory.hpp:77] Creating layer 102flower_102flower_0_split
I0516 21:41:35.018668 23021 net.cpp:91] Creating Layer 102flower_102flower_0_split
I0516 21:41:35.018676 23021 net.cpp:425] 102flower_102flower_0_split <- 102flower
I0516 21:41:35.018684 23021 net.cpp:399] 102flower_102flower_0_split -> 102flower_102flower_0_split_0
I0516 21:41:35.018694 23021 net.cpp:399] 102flower_102flower_0_split -> 102flower_102flower_0_split_1
I0516 21:41:35.018759 23021 net.cpp:141] Setting up 102flower_102flower_0_split
I0516 21:41:35.018782 23021 net.cpp:148] Top shape: 50 102 (5100)
I0516 21:41:35.018790 23021 net.cpp:148] Top shape: 50 102 (5100)
I0516 21:41:35.018795 23021 net.cpp:156] Memory required for data: 343068800
I0516 21:41:35.018802 23021 layer_factory.hpp:77] Creating layer accuracy
I0516 21:41:35.018812 23021 net.cpp:91] Creating Layer accuracy
I0516 21:41:35.018820 23021 net.cpp:425] accuracy <- 102flower_102flower_0_split_0
I0516 21:41:35.018827 23021 net.cpp:425] accuracy <- label_data_1_split_0
I0516 21:41:35.018836 23021 net.cpp:399] accuracy -> accuracy
…
