…
I0515 19:58:57.099325 147122 net.cpp:313] The NetState phase (0) differed from the phase (1) specified by a rule in layer accuracy
I0515 19:58:57.099491 147122 net.cpp:49] Initializing net from parameters: 
name: "102FlowerCaffeNet"
state {
  phase: TRAIN
}
layer {
  name: "data"
  type: "Data"
  top: "data"
  top: "label"
  include {
    phase: TRAIN
  }
  transform_param {
    mirror: true
    crop_size: 227
    mean_file: "/home/zheda/software/caffe/data/ilsvrc12/imagenet_mean.binaryproto"
  }
  data_param {
    source: "/home/zheda/workspace/cnn/flower-classify/102flowers_train_lmdb"
    batch_size: 256
    backend: LMDB
  }
}
layer {
  name: "conv1"
  type: "Convolution"
  bottom: "data"
  top: "conv1"
  param {
    lr_mult: 1
    decay_mult: 1
  }
  param {
    lr_mult: 2
    decay_mult: 0
  }
  convolution_param {
    num_output: 96
    kernel_size: 11
    stride: 4
    weight_filler {
      type: "gaussian"
      std: 0.01
    }
    bias_filler {
      type: "constant"
      value: 0
    }
  }
}
layer {
  name: "relu1"
  type: "ReLU"
  bottom: "conv1"
  top: "conv1"
}
layer {
  name: "pool1"
  type: "Pooling"
  bottom: "conv1"
  top: "pool1"
  pooling_param {
    pool: MAX
    kernel_size: 3
    stride: 2
  }
}
layer {
  name: "norm1"
  type: "LRN"
  bottom: "pool1"
  top: "norm1"
  lrn_param {
    local_size: 5
    alpha: 0.0001
    beta: 0.75
  }
}
layer {
  name: "conv2"
  type: "Convolution"
  bottom: "norm1"
  top: "conv2"
  param {
    lr_mult: 1
    decay_mult: 1
  }
  param {
    lr_mult: 2
    decay_mult: 0
  }
  convolution_param {
    num_output: 256
    pad: 2
    kernel_size: 5
    group: 2
    weight_filler {
      type: "gaussian"
      std: 0.01
    }
    bias_filler {
      type: "constant"
      value: 1
    }
  }
}
layer {
  name: "relu2"
  type: "ReLU"
  bottom: "conv2"
  top: "conv2"
}
layer {
  name: "pool2"
  type: "Pooling"
  bottom: "conv2"
  top: "pool2"
  pooling_param {
    pool: MAX
    kernel_size: 3
    stride: 2
  }
}
layer {
  name: "norm2"
  type: "LRN"
  bottom: "pool2"
  top: "norm2"
  lrn_param {
    local_size: 5
    alpha: 0.0001
    beta: 0.75
  }
}
layer {
  name: "conv3"
  type: "Convolution"
  bottom: "norm2"
  top: "conv3"
  param {
    lr_mult: 1
    decay_mult: 1
  }
  param {
    lr_mult: 2
    decay_mult: 0
  }
  convolution_param {
    num_output: 384
    pad: 1
    kernel_size: 3
    weight_filler {
      type: "gaussian"
      std: 0.01
    }
    bias_filler {
      type: "constant"
      value: 0
    }
  }
}
layer {
  name: "relu3"
  type: "ReLU"
  bottom: "conv3"
  top: "conv3"
}
layer {
  name: "conv4"
  type: "Convolution"
  bottom: "conv3"
  top: "conv4"
  param {
    lr_mult: 1
    decay_mult: 1
  }
  param {
    lr_mult: 2
    decay_mult: 0
  }
  convolution_param {
    num_output: 384
    pad: 1
    kernel_size: 3
    group: 2
    weight_filler {
      type: "gaussian"
      std: 0.01
    }
    bias_filler {
      type: "constant"
      value: 1
    }
  }
}
layer {
  name: "relu4"
  type: "ReLU"
  bottom: "conv4"
  top: "conv4"
}
layer {
  name: "conv5"
  type: "Convolution"
  bottom: "conv4"
  top: "conv5"
  param {
    lr_mult: 1
    decay_mult: 1
  }
  param {
    lr_mult: 2
    decay_mult: 0
  }
  convolution_param {
    num_output: 256
    pad: 1
    kernel_size: 3
    group: 2
    weight_filler {
      type: "gaussian"
      std: 0.01
    }
    bias_filler {
      type: "constant"
      value: 1
    }
  }
}
layer {
  name: "relu5"
  type: "ReLU"
  bottom: "conv5"
  top: "conv5"
}
layer {
  name: "pool5"
  type: "Pooling"
  bottom: "conv5"
  top: "pool5"
  pooling_param {
    pool: MAX
    kernel_size: 3
    stride: 2
  }
}
layer {
  name: "fc6"
  type: "InnerProduct"
  bottom: "pool5"
  top: "fc6"
  param {
    lr_mult: 1
    decay_mult: 1
  }
  param {
    lr_mult: 2
    decay_mult: 0
  }
  inner_product_param {
    num_output: 4096
    weight_filler {
      type: "gaussian"
      std: 0.005
    }
    bias_filler {
      type: "constant"
      value: 1
    }
  }
}
layer {
  name: "relu6"
  type: "ReLU"
  bottom: "fc6"
  top: "fc6"
}
layer {
  name: "drop6"
  type: "Dropout"
  bottom: "fc6"
  top: "fc6"
  dropout_param {
    dropout_ratio: 0.5
  }
}
layer {
  name: "fc7"
  type: "InnerProduct"
  bottom: "fc6"
  top: "fc7"
  param {
    lr_mult: 1
    decay_mult: 1
  }
  param {
    lr_mult: 2
    decay_mult: 0
  }
  inner_product_param {
    num_output: 4096
    weight_filler {
      type: "gaussian"
      std: 0.005
    }
    bias_filler {
      type: "constant"
      value: 1
    }
  }
}
layer {
  name: "relu7"
  type: "ReLU"
  bottom: "fc7"
  top: "fc7"
}
layer {
  name: "drop7"
  type: "Dropout"
  bottom: "fc7"
  top: "fc7"
  dropout_param {
    dropout_ratio: 0.5
  }
}
layer {
  name: "102flower"
  type: "InnerProduct"
  bottom: "fc7"
  top: "102flower"
  param {
    lr_mult: 10
    decay_mult: 1
  }
  param {
    lr_mult: 20
    decay_mult: 0
  }
  inner_product_param {
    num_output: 102
    weight_filler {
      type: "gaussian"
      std: 0.01
    }
    bias_filler {
      type: "constant"
      value: 0
    }
  }
}
layer {
  name: "loss"
  type: "SoftmaxWithLoss"
  bottom: "102flower"
  bottom: "label"
  top: "loss"
}
I0515 19:58:57.100513 147122 layer_factory.hpp:77] Creating layer data
I0515 19:58:57.101044 147122 net.cpp:91] Creating Layer data
I0515 19:58:57.101063 147122 net.cpp:399] data -> data
I0515 19:58:57.101090 147122 net.cpp:399] data -> label
I0515 19:58:57.101110 147122 data_transformer.cpp:25] Loading mean file from: /home/zheda/software/caffe/data/ilsvrc12/imagenet_mean.binaryproto
I0515 19:58:57.102677 147131 db_lmdb.cpp:35] Opened lmdb /home/zheda/workspace/cnn/flower-classify/102flowers_train_lmdb
I0515 19:58:57.111368 147122 data_layer.cpp:41] output data size: 256,3,227,227
I0515 19:58:57.357404 147122 net.cpp:141] Setting up data
I0515 19:58:57.357460 147122 net.cpp:148] Top shape: 256 3 227 227 (39574272)
I0515 19:58:57.357470 147122 net.cpp:148] Top shape: 256 (256)
I0515 19:58:57.357478 147122 net.cpp:156] Memory required for data: 158298112
I0515 19:58:57.357493 147122 layer_factory.hpp:77] Creating layer conv1
I0515 19:58:57.357525 147122 net.cpp:91] Creating Layer conv1
I0515 19:58:57.357535 147122 net.cpp:425] conv1 <- data
I0515 19:58:57.357553 147122 net.cpp:399] conv1 -> conv1
I0515 19:58:57.494633 147122 net.cpp:141] Setting up conv1
I0515 19:58:57.494693 147122 net.cpp:148] Top shape: 256 96 55 55 (74342400)
I0515 19:58:57.494701 147122 net.cpp:156] Memory required for data: 455667712
I0515 19:58:57.494725 147122 layer_factory.hpp:77] Creating layer relu1
I0515 19:58:57.494742 147122 net.cpp:91] Creating Layer relu1
I0515 19:58:57.494751 147122 net.cpp:425] relu1 <- conv1
I0515 19:58:57.494760 147122 net.cpp:386] relu1 -> conv1 (in-place)
I0515 19:58:57.494913 147122 net.cpp:141] Setting up relu1
I0515 19:58:57.494930 147122 net.cpp:148] Top shape: 256 96 55 55 (74342400)
I0515 19:58:57.494936 147122 net.cpp:156] Memory required for data: 753037312
I0515 19:58:57.494943 147122 layer_factory.hpp:77] Creating layer pool1
I0515 19:58:57.494953 147122 net.cpp:91] Creating Layer pool1
I0515 19:58:57.494961 147122 net.cpp:425] pool1 <- conv1
I0515 19:58:57.494968 147122 net.cpp:399] pool1 -> pool1
I0515 19:58:57.495033 147122 net.cpp:141] Setting up pool1
I0515 19:58:57.495048 147122 net.cpp:148] Top shape: 256 96 27 27 (17915904)
I0515 19:58:57.495054 147122 net.cpp:156] Memory required for data: 824700928
I0515 19:58:57.495090 147122 layer_factory.hpp:77] Creating layer norm1
I0515 19:58:57.495108 147122 net.cpp:91] Creating Layer norm1
I0515 19:58:57.495116 147122 net.cpp:425] norm1 <- pool1
I0515 19:58:57.495126 147122 net.cpp:399] norm1 -> norm1
I0515 19:58:57.495421 147122 net.cpp:141] Setting up norm1
I0515 19:58:57.495441 147122 net.cpp:148] Top shape: 256 96 27 27 (17915904)
I0515 19:58:57.495450 147122 net.cpp:156] Memory required for data: 896364544
I0515 19:58:57.495455 147122 layer_factory.hpp:77] Creating layer conv2
I0515 19:58:57.495471 147122 net.cpp:91] Creating Layer conv2
I0515 19:58:57.495478 147122 net.cpp:425] conv2 <- norm1
I0515 19:58:57.495487 147122 net.cpp:399] conv2 -> conv2
I0515 19:58:57.506081 147122 net.cpp:141] Setting up conv2
I0515 19:58:57.506103 147122 net.cpp:148] Top shape: 256 256 27 27 (47775744)
I0515 19:58:57.506111 147122 net.cpp:156] Memory required for data: 1087467520
I0515 19:58:57.506124 147122 layer_factory.hpp:77] Creating layer relu2
I0515 19:58:57.506134 147122 net.cpp:91] Creating Layer relu2
I0515 19:58:57.506141 147122 net.cpp:425] relu2 <- conv2
I0515 19:58:57.506150 147122 net.cpp:386] relu2 -> conv2 (in-place)
I0515 19:58:57.506294 147122 net.cpp:141] Setting up relu2
I0515 19:58:57.506309 147122 net.cpp:148] Top shape: 256 256 27 27 (47775744)
I0515 19:58:57.506315 147122 net.cpp:156] Memory required for data: 1278570496
I0515 19:58:57.506321 147122 layer_factory.hpp:77] Creating layer pool2
I0515 19:58:57.506330 147122 net.cpp:91] Creating Layer pool2
I0515 19:58:57.506336 147122 net.cpp:425] pool2 <- conv2
I0515 19:58:57.506345 147122 net.cpp:399] pool2 -> pool2
I0515 19:58:57.506384 147122 net.cpp:141] Setting up pool2
I0515 19:58:57.506394 147122 net.cpp:148] Top shape: 256 256 13 13 (11075584)
I0515 19:58:57.506400 147122 net.cpp:156] Memory required for data: 1322872832
I0515 19:58:57.506407 147122 layer_factory.hpp:77] Creating layer norm2
I0515 19:58:57.506417 147122 net.cpp:91] Creating Layer norm2
I0515 19:58:57.506424 147122 net.cpp:425] norm2 <- pool2
I0515 19:58:57.506431 147122 net.cpp:399] norm2 -> norm2
I0515 19:58:57.506721 147122 net.cpp:141] Setting up norm2
I0515 19:58:57.506738 147122 net.cpp:148] Top shape: 256 256 13 13 (11075584)
I0515 19:58:57.506745 147122 net.cpp:156] Memory required for data: 1367175168
I0515 19:58:57.506752 147122 layer_factory.hpp:77] Creating layer conv3
I0515 19:58:57.506764 147122 net.cpp:91] Creating Layer conv3
I0515 19:58:57.506772 147122 net.cpp:425] conv3 <- norm2
I0515 19:58:57.506781 147122 net.cpp:399] conv3 -> conv3
I0515 19:58:57.532019 147122 net.cpp:141] Setting up conv3
I0515 19:58:57.532047 147122 net.cpp:148] Top shape: 256 384 13 13 (16613376)
I0515 19:58:57.532054 147122 net.cpp:156] Memory required for data: 1433628672
I0515 19:58:57.532066 147122 layer_factory.hpp:77] Creating layer relu3
I0515 19:58:57.532078 147122 net.cpp:91] Creating Layer relu3
I0515 19:58:57.532083 147122 net.cpp:425] relu3 <- conv3
I0515 19:58:57.532091 147122 net.cpp:386] relu3 -> conv3 (in-place)
I0515 19:58:57.532373 147122 net.cpp:141] Setting up relu3
I0515 19:58:57.532390 147122 net.cpp:148] Top shape: 256 384 13 13 (16613376)
I0515 19:58:57.532397 147122 net.cpp:156] Memory required for data: 1500082176
I0515 19:58:57.532404 147122 layer_factory.hpp:77] Creating layer conv4
I0515 19:58:57.532420 147122 net.cpp:91] Creating Layer conv4
I0515 19:58:57.532430 147122 net.cpp:425] conv4 <- conv3
I0515 19:58:57.532439 147122 net.cpp:399] conv4 -> conv4
I0515 19:58:57.552541 147122 net.cpp:141] Setting up conv4
I0515 19:58:57.552563 147122 net.cpp:148] Top shape: 256 384 13 13 (16613376)
I0515 19:58:57.552572 147122 net.cpp:156] Memory required for data: 1566535680
I0515 19:58:57.552580 147122 layer_factory.hpp:77] Creating layer relu4
I0515 19:58:57.552592 147122 net.cpp:91] Creating Layer relu4
I0515 19:58:57.552599 147122 net.cpp:425] relu4 <- conv4
I0515 19:58:57.552611 147122 net.cpp:386] relu4 -> conv4 (in-place)
I0515 19:58:57.552769 147122 net.cpp:141] Setting up relu4
I0515 19:58:57.552788 147122 net.cpp:148] Top shape: 256 384 13 13 (16613376)
I0515 19:58:57.552809 147122 net.cpp:156] Memory required for data: 1632989184
I0515 19:58:57.552819 147122 layer_factory.hpp:77] Creating layer conv5
I0515 19:58:57.552834 147122 net.cpp:91] Creating Layer conv5
I0515 19:58:57.552842 147122 net.cpp:425] conv5 <- conv4
I0515 19:58:57.552851 147122 net.cpp:399] conv5 -> conv5
I0515 19:58:57.567095 147122 net.cpp:141] Setting up conv5
I0515 19:58:57.567114 147122 net.cpp:148] Top shape: 256 256 13 13 (11075584)
I0515 19:58:57.567122 147122 net.cpp:156] Memory required for data: 1677291520
I0515 19:58:57.567134 147122 layer_factory.hpp:77] Creating layer relu5
I0515 19:58:57.567144 147122 net.cpp:91] Creating Layer relu5
I0515 19:58:57.567152 147122 net.cpp:425] relu5 <- conv5
I0515 19:58:57.567162 147122 net.cpp:386] relu5 -> conv5 (in-place)
I0515 19:58:57.567318 147122 net.cpp:141] Setting up relu5
I0515 19:58:57.567332 147122 net.cpp:148] Top shape: 256 256 13 13 (11075584)
I0515 19:58:57.567339 147122 net.cpp:156] Memory required for data: 1721593856
I0515 19:58:57.567345 147122 layer_factory.hpp:77] Creating layer pool5
I0515 19:58:57.567358 147122 net.cpp:91] Creating Layer pool5
I0515 19:58:57.567366 147122 net.cpp:425] pool5 <- conv5
I0515 19:58:57.567376 147122 net.cpp:399] pool5 -> pool5
I0515 19:58:57.567420 147122 net.cpp:141] Setting up pool5
I0515 19:58:57.567431 147122 net.cpp:148] Top shape: 256 256 6 6 (2359296)
I0515 19:58:57.567438 147122 net.cpp:156] Memory required for data: 1731031040
I0515 19:58:57.567443 147122 layer_factory.hpp:77] Creating layer fc6
I0515 19:58:57.567458 147122 net.cpp:91] Creating Layer fc6
I0515 19:58:57.567466 147122 net.cpp:425] fc6 <- pool5
I0515 19:58:57.567476 147122 net.cpp:399] fc6 -> fc6
I0515 19:58:58.701947 147122 net.cpp:141] Setting up fc6
I0515 19:58:58.701994 147122 net.cpp:148] Top shape: 256 4096 (1048576)
I0515 19:58:58.702003 147122 net.cpp:156] Memory required for data: 1735225344
I0515 19:58:58.702015 147122 layer_factory.hpp:77] Creating layer relu6
I0515 19:58:58.702031 147122 net.cpp:91] Creating Layer relu6
I0515 19:58:58.702039 147122 net.cpp:425] relu6 <- fc6
I0515 19:58:58.702049 147122 net.cpp:386] relu6 -> fc6 (in-place)
I0515 19:58:58.702467 147122 net.cpp:141] Setting up relu6
I0515 19:58:58.702486 147122 net.cpp:148] Top shape: 256 4096 (1048576)
I0515 19:58:58.702493 147122 net.cpp:156] Memory required for data: 1739419648
I0515 19:58:58.702499 147122 layer_factory.hpp:77] Creating layer drop6
I0515 19:58:58.702518 147122 net.cpp:91] Creating Layer drop6
I0515 19:58:58.702525 147122 net.cpp:425] drop6 <- fc6
I0515 19:58:58.702534 147122 net.cpp:386] drop6 -> fc6 (in-place)
I0515 19:58:58.702560 147122 net.cpp:141] Setting up drop6
I0515 19:58:58.702570 147122 net.cpp:148] Top shape: 256 4096 (1048576)
I0515 19:58:58.702577 147122 net.cpp:156] Memory required for data: 1743613952
I0515 19:58:58.702584 147122 layer_factory.hpp:77] Creating layer fc7
I0515 19:58:58.702597 147122 net.cpp:91] Creating Layer fc7
I0515 19:58:58.702605 147122 net.cpp:425] fc7 <- fc6
I0515 19:58:58.702615 147122 net.cpp:399] fc7 -> fc7
I0515 19:58:59.171324 147122 net.cpp:141] Setting up fc7
I0515 19:58:59.171375 147122 net.cpp:148] Top shape: 256 4096 (1048576)
I0515 19:58:59.171383 147122 net.cpp:156] Memory required for data: 1747808256
I0515 19:58:59.171401 147122 layer_factory.hpp:77] Creating layer relu7
I0515 19:58:59.171417 147122 net.cpp:91] Creating Layer relu7
I0515 19:58:59.171427 147122 net.cpp:425] relu7 <- fc7
I0515 19:58:59.171437 147122 net.cpp:386] relu7 -> fc7 (in-place)
I0515 19:58:59.171735 147122 net.cpp:141] Setting up relu7
I0515 19:58:59.171751 147122 net.cpp:148] Top shape: 256 4096 (1048576)
I0515 19:58:59.171757 147122 net.cpp:156] Memory required for data: 1752002560
I0515 19:58:59.171764 147122 layer_factory.hpp:77] Creating layer drop7
I0515 19:58:59.171777 147122 net.cpp:91] Creating Layer drop7
I0515 19:58:59.171784 147122 net.cpp:425] drop7 <- fc7
I0515 19:58:59.171792 147122 net.cpp:386] drop7 -> fc7 (in-place)
I0515 19:58:59.171815 147122 net.cpp:141] Setting up drop7
I0515 19:58:59.171859 147122 net.cpp:148] Top shape: 256 4096 (1048576)
I0515 19:58:59.171865 147122 net.cpp:156] Memory required for data: 1756196864
I0515 19:58:59.171871 147122 layer_factory.hpp:77] Creating layer 102flower
I0515 19:58:59.171885 147122 net.cpp:91] Creating Layer 102flower
I0515 19:58:59.171893 147122 net.cpp:425] 102flower <- fc7
I0515 19:58:59.171905 147122 net.cpp:399] 102flower -> 102flower
I0515 19:58:59.183766 147122 net.cpp:141] Setting up 102flower
I0515 19:58:59.183784 147122 net.cpp:148] Top shape: 256 102 (26112)
I0515 19:58:59.183791 147122 net.cpp:156] Memory required for data: 1756301312
I0515 19:58:59.183800 147122 layer_factory.hpp:77] Creating layer loss
I0515 19:58:59.183810 147122 net.cpp:91] Creating Layer loss
I0515 19:58:59.183817 147122 net.cpp:425] loss <- 102flower
I0515 19:58:59.183825 147122 net.cpp:425] loss <- label
I0515 19:58:59.183836 147122 net.cpp:399] loss -> loss
I0515 19:58:59.183854 147122 layer_factory.hpp:77] Creating layer loss
…
I0515 19:58:59.185236 147122 net.cpp:313] The NetState phase (1) differed from the phase (0) specified by a rule in layer data
I0515 19:58:59.185415 147122 net.cpp:49] Initializing net from parameters: 
name: "102FlowerCaffeNet"
state {
  phase: TEST
}
layer {
  name: "data"
  type: "Data"
  top: "data"
  top: "label"
  include {
    phase: TEST
  }
  transform_param {
    mirror: false
    crop_size: 227
    mean_file: "/home/zheda/software/caffe/data/ilsvrc12/imagenet_mean.binaryproto"
  }
  data_param {
    source: "/home/zheda/workspace/cnn/flower-classify/102flowers_val_lmdb"
    batch_size: 50
    backend: LMDB
  }
}
layer {
  name: "conv1"
  type: "Convolution"
  bottom: "data"
  top: "conv1"
  param {
    lr_mult: 1
    decay_mult: 1
  }
  param {
    lr_mult: 2
    decay_mult: 0
  }
  convolution_param {
    num_output: 96
    kernel_size: 11
    stride: 4
    weight_filler {
      type: "gaussian"
      std: 0.01
    }
    bias_filler {
      type: "constant"
      value: 0
    }
  }
}
layer {
  name: "relu1"
  type: "ReLU"
  bottom: "conv1"
  top: "conv1"
}
layer {
  name: "pool1"
  type: "Pooling"
  bottom: "conv1"
  top: "pool1"
  pooling_param {
    pool: MAX
    kernel_size: 3
    stride: 2
  }
}
layer {
  name: "norm1"
  type: "LRN"
  bottom: "pool1"
  top: "norm1"
  lrn_param {
    local_size: 5
    alpha: 0.0001
    beta: 0.75
  }
}
layer {
  name: "conv2"
  type: "Convolution"
  bottom: "norm1"
  top: "conv2"
  param {
    lr_mult: 1
    decay_mult: 1
  }
  param {
    lr_mult: 2
    decay_mult: 0
  }
  convolution_param {
    num_output: 256
    pad: 2
    kernel_size: 5
    group: 2
    weight_filler {
      type: "gaussian"
      std: 0.01
    }
    bias_filler {
      type: "constant"
      value: 1
    }
  }
}
layer {
  name: "relu2"
  type: "ReLU"
  bottom: "conv2"
  top: "conv2"
}
layer {
  name: "pool2"
  type: "Pooling"
  bottom: "conv2"
  top: "pool2"
  pooling_param {
    pool: MAX
    kernel_size: 3
    stride: 2
  }
}
layer {
  name: "norm2"
  type: "LRN"
  bottom: "pool2"
  top: "norm2"
  lrn_param {
    local_size: 5
    alpha: 0.0001
    beta: 0.75
  }
}
layer {
  name: "conv3"
  type: "Convolution"
  bottom: "norm2"
  top: "conv3"
  param {
    lr_mult: 1
    decay_mult: 1
  }
  param {
    lr_mult: 2
    decay_mult: 0
  }
  convolution_param {
    num_output: 384
    pad: 1
    kernel_size: 3
    weight_filler {
      type: "gaussian"
      std: 0.01
    }
    bias_filler {
      type: "constant"
      value: 0
    }
  }
}
layer {
  name: "relu3"
  type: "ReLU"
  bottom: "conv3"
  top: "conv3"
}
layer {
  name: "conv4"
  type: "Convolution"
  bottom: "conv3"
  top: "conv4"
  param {
    lr_mult: 1
    decay_mult: 1
  }
  param {
    lr_mult: 2
    decay_mult: 0
  }
  convolution_param {
    num_output: 384
    pad: 1
    kernel_size: 3
    group: 2
    weight_filler {
      type: "gaussian"
      std: 0.01
    }
    bias_filler {
      type: "constant"
      value: 1
    }
  }
}
layer {
  name: "relu4"
  type: "ReLU"
  bottom: "conv4"
  top: "conv4"
}
layer {
  name: "conv5"
  type: "Convolution"
  bottom: "conv4"
  top: "conv5"
  param {
    lr_mult: 1
    decay_mult: 1
  }
  param {
    lr_mult: 2
    decay_mult: 0
  }
  convolution_param {
    num_output: 256
    pad: 1
    kernel_size: 3
    group: 2
    weight_filler {
      type: "gaussian"
      std: 0.01
    }
    bias_filler {
      type: "constant"
      value: 1
    }
  }
}
layer {
  name: "relu5"
  type: "ReLU"
  bottom: "conv5"
  top: "conv5"
}
layer {
  name: "pool5"
  type: "Pooling"
  bottom: "conv5"
  top: "pool5"
  pooling_param {
    pool: MAX
    kernel_size: 3
    stride: 2
  }
}
layer {
  name: "fc6"
  type: "InnerProduct"
  bottom: "pool5"
  top: "fc6"
  param {
    lr_mult: 1
    decay_mult: 1
  }
  param {
    lr_mult: 2
    decay_mult: 0
  }
  inner_product_param {
    num_output: 4096
    weight_filler {
      type: "gaussian"
      std: 0.005
    }
    bias_filler {
      type: "constant"
      value: 1
    }
  }
}
layer {
  name: "relu6"
  type: "ReLU"
  bottom: "fc6"
  top: "fc6"
}
layer {
  name: "drop6"
  type: "Dropout"
  bottom: "fc6"
  top: "fc6"
  dropout_param {
    dropout_ratio: 0.5
  }
}
layer {
  name: "fc7"
  type: "InnerProduct"
  bottom: "fc6"
  top: "fc7"
  param {
    lr_mult: 1
    decay_mult: 1
  }
  param {
    lr_mult: 2
    decay_mult: 0
  }
  inner_product_param {
    num_output: 4096
    weight_filler {
      type: "gaussian"
      std: 0.005
    }
    bias_filler {
      type: "constant"
      value: 1
    }
  }
}
layer {
  name: "relu7"
  type: "ReLU"
  bottom: "fc7"
  top: "fc7"
}
layer {
  name: "drop7"
  type: "Dropout"
  bottom: "fc7"
  top: "fc7"
  dropout_param {
    dropout_ratio: 0.5
  }
}
layer {
  name: "102flower"
  type: "InnerProduct"
  bottom: "fc7"
  top: "102flower"
  param {
    lr_mult: 10
    decay_mult: 1
  }
  param {
    lr_mult: 20
    decay_mult: 0
  }
  inner_product_param {
    num_output: 102
    weight_filler {
      type: "gaussian"
      std: 0.01
    }
    bias_filler {
      type: "constant"
      value: 0
    }
  }
}
layer {
  name: "accuracy"
  type: "Accuracy"
  bottom: "102flower"
  bottom: "label"
  top: "accuracy"
  include {
    phase: TEST
  }
}
layer {
  name: "loss"
  type: "SoftmaxWithLoss"
  bottom: "102flower"
  bottom: "label"
  top: "loss"
}
I0515 19:58:59.186174 147122 layer_factory.hpp:77] Creating layer data
I0515 19:58:59.186270 147122 net.cpp:91] Creating Layer data
I0515 19:58:59.186285 147122 net.cpp:399] data -> data
I0515 19:58:59.186295 147122 net.cpp:399] data -> label
I0515 19:58:59.186323 147122 data_transformer.cpp:25] Loading mean file from: /home/zheda/software/caffe/data/ilsvrc12/imagenet_mean.binaryproto
I0515 19:58:59.188320 147134 db_lmdb.cpp:35] Opened lmdb /home/zheda/workspace/cnn/flower-classify/102flowers_val_lmdb
I0515 19:58:59.188832 147122 data_layer.cpp:41] output data size: 50,3,227,227
I0515 19:58:59.237929 147122 net.cpp:141] Setting up data
I0515 19:58:59.237987 147122 net.cpp:148] Top shape: 50 3 227 227 (7729350)
I0515 19:58:59.237996 147122 net.cpp:148] Top shape: 50 (50)
I0515 19:58:59.238004 147122 net.cpp:156] Memory required for data: 30917600
I0515 19:58:59.238015 147122 layer_factory.hpp:77] Creating layer label_data_1_split
I0515 19:58:59.238032 147122 net.cpp:91] Creating Layer label_data_1_split
I0515 19:58:59.238040 147122 net.cpp:425] label_data_1_split <- label
I0515 19:58:59.238050 147122 net.cpp:399] label_data_1_split -> label_data_1_split_0
I0515 19:58:59.238066 147122 net.cpp:399] label_data_1_split -> label_data_1_split_1
I0515 19:58:59.238313 147122 net.cpp:141] Setting up label_data_1_split
I0515 19:58:59.238337 147122 net.cpp:148] Top shape: 50 (50)
I0515 19:58:59.238344 147122 net.cpp:148] Top shape: 50 (50)
I0515 19:58:59.238351 147122 net.cpp:156] Memory required for data: 30918000
I0515 19:58:59.238358 147122 layer_factory.hpp:77] Creating layer conv1
I0515 19:58:59.238376 147122 net.cpp:91] Creating Layer conv1
I0515 19:58:59.238384 147122 net.cpp:425] conv1 <- data
I0515 19:58:59.238396 147122 net.cpp:399] conv1 -> conv1
I0515 19:58:59.243790 147122 net.cpp:141] Setting up conv1
I0515 19:58:59.243816 147122 net.cpp:148] Top shape: 50 96 55 55 (14520000)
I0515 19:58:59.243824 147122 net.cpp:156] Memory required for data: 88998000
I0515 19:58:59.243841 147122 layer_factory.hpp:77] Creating layer relu1
I0515 19:58:59.243854 147122 net.cpp:91] Creating Layer relu1
I0515 19:58:59.243860 147122 net.cpp:425] relu1 <- conv1
I0515 19:58:59.243868 147122 net.cpp:386] relu1 -> conv1 (in-place)
I0515 19:58:59.244029 147122 net.cpp:141] Setting up relu1
I0515 19:58:59.244043 147122 net.cpp:148] Top shape: 50 96 55 55 (14520000)
I0515 19:58:59.244050 147122 net.cpp:156] Memory required for data: 147078000
I0515 19:58:59.244057 147122 layer_factory.hpp:77] Creating layer pool1
I0515 19:58:59.244068 147122 net.cpp:91] Creating Layer pool1
I0515 19:58:59.244076 147122 net.cpp:425] pool1 <- conv1
I0515 19:58:59.244084 147122 net.cpp:399] pool1 -> pool1
I0515 19:58:59.244127 147122 net.cpp:141] Setting up pool1
I0515 19:58:59.244138 147122 net.cpp:148] Top shape: 50 96 27 27 (3499200)
I0515 19:58:59.244143 147122 net.cpp:156] Memory required for data: 161074800
I0515 19:58:59.244150 147122 layer_factory.hpp:77] Creating layer norm1
I0515 19:58:59.244160 147122 net.cpp:91] Creating Layer norm1
I0515 19:58:59.244166 147122 net.cpp:425] norm1 <- pool1
I0515 19:58:59.244174 147122 net.cpp:399] norm1 -> norm1
I0515 19:58:59.244510 147122 net.cpp:141] Setting up norm1
I0515 19:58:59.244529 147122 net.cpp:148] Top shape: 50 96 27 27 (3499200)
I0515 19:58:59.244534 147122 net.cpp:156] Memory required for data: 175071600
I0515 19:58:59.244541 147122 layer_factory.hpp:77] Creating layer conv2
I0515 19:58:59.244554 147122 net.cpp:91] Creating Layer conv2
I0515 19:58:59.244561 147122 net.cpp:425] conv2 <- norm1
I0515 19:58:59.244599 147122 net.cpp:399] conv2 -> conv2
I0515 19:58:59.254742 147122 net.cpp:141] Setting up conv2
I0515 19:58:59.254763 147122 net.cpp:148] Top shape: 50 256 27 27 (9331200)
I0515 19:58:59.254770 147122 net.cpp:156] Memory required for data: 212396400
I0515 19:58:59.254783 147122 layer_factory.hpp:77] Creating layer relu2
I0515 19:58:59.254793 147122 net.cpp:91] Creating Layer relu2
I0515 19:58:59.254799 147122 net.cpp:425] relu2 <- conv2
I0515 19:58:59.254808 147122 net.cpp:386] relu2 -> conv2 (in-place)
I0515 19:58:59.255094 147122 net.cpp:141] Setting up relu2
I0515 19:58:59.255110 147122 net.cpp:148] Top shape: 50 256 27 27 (9331200)
I0515 19:58:59.255117 147122 net.cpp:156] Memory required for data: 249721200
I0515 19:58:59.255123 147122 layer_factory.hpp:77] Creating layer pool2
I0515 19:58:59.255134 147122 net.cpp:91] Creating Layer pool2
I0515 19:58:59.255141 147122 net.cpp:425] pool2 <- conv2
I0515 19:58:59.255151 147122 net.cpp:399] pool2 -> pool2
I0515 19:58:59.255194 147122 net.cpp:141] Setting up pool2
I0515 19:58:59.255205 147122 net.cpp:148] Top shape: 50 256 13 13 (2163200)
I0515 19:58:59.255211 147122 net.cpp:156] Memory required for data: 258374000
I0515 19:58:59.255218 147122 layer_factory.hpp:77] Creating layer norm2
I0515 19:58:59.255225 147122 net.cpp:91] Creating Layer norm2
I0515 19:58:59.255231 147122 net.cpp:425] norm2 <- pool2
I0515 19:58:59.255239 147122 net.cpp:399] norm2 -> norm2
I0515 19:58:59.255414 147122 net.cpp:141] Setting up norm2
I0515 19:58:59.255427 147122 net.cpp:148] Top shape: 50 256 13 13 (2163200)
I0515 19:58:59.255434 147122 net.cpp:156] Memory required for data: 267026800
I0515 19:58:59.255440 147122 layer_factory.hpp:77] Creating layer conv3
I0515 19:58:59.255452 147122 net.cpp:91] Creating Layer conv3
I0515 19:58:59.255458 147122 net.cpp:425] conv3 <- norm2
I0515 19:58:59.255468 147122 net.cpp:399] conv3 -> conv3
I0515 19:58:59.281118 147122 net.cpp:141] Setting up conv3
I0515 19:58:59.281155 147122 net.cpp:148] Top shape: 50 384 13 13 (3244800)
I0515 19:58:59.281162 147122 net.cpp:156] Memory required for data: 280006000
I0515 19:58:59.281177 147122 layer_factory.hpp:77] Creating layer relu3
I0515 19:58:59.281189 147122 net.cpp:91] Creating Layer relu3
I0515 19:58:59.281198 147122 net.cpp:425] relu3 <- conv3
I0515 19:58:59.281206 147122 net.cpp:386] relu3 -> conv3 (in-place)
I0515 19:58:59.281489 147122 net.cpp:141] Setting up relu3
I0515 19:58:59.281505 147122 net.cpp:148] Top shape: 50 384 13 13 (3244800)
I0515 19:58:59.281512 147122 net.cpp:156] Memory required for data: 292985200
I0515 19:58:59.281518 147122 layer_factory.hpp:77] Creating layer conv4
I0515 19:58:59.281533 147122 net.cpp:91] Creating Layer conv4
I0515 19:58:59.281539 147122 net.cpp:425] conv4 <- conv3
I0515 19:58:59.281549 147122 net.cpp:399] conv4 -> conv4
I0515 19:58:59.301688 147122 net.cpp:141] Setting up conv4
I0515 19:58:59.301726 147122 net.cpp:148] Top shape: 50 384 13 13 (3244800)
I0515 19:58:59.301736 147122 net.cpp:156] Memory required for data: 305964400
I0515 19:58:59.301746 147122 layer_factory.hpp:77] Creating layer relu4
I0515 19:58:59.301759 147122 net.cpp:91] Creating Layer relu4
I0515 19:58:59.301766 147122 net.cpp:425] relu4 <- conv4
I0515 19:58:59.301777 147122 net.cpp:386] relu4 -> conv4 (in-place)
I0515 19:58:59.302070 147122 net.cpp:141] Setting up relu4
I0515 19:58:59.302089 147122 net.cpp:148] Top shape: 50 384 13 13 (3244800)
I0515 19:58:59.302098 147122 net.cpp:156] Memory required for data: 318943600
I0515 19:58:59.302105 147122 layer_factory.hpp:77] Creating layer conv5
I0515 19:58:59.302120 147122 net.cpp:91] Creating Layer conv5
I0515 19:58:59.302129 147122 net.cpp:425] conv5 <- conv4
I0515 19:58:59.302139 147122 net.cpp:399] conv5 -> conv5
I0515 19:58:59.316076 147122 net.cpp:141] Setting up conv5
I0515 19:58:59.316097 147122 net.cpp:148] Top shape: 50 256 13 13 (2163200)
I0515 19:58:59.316104 147122 net.cpp:156] Memory required for data: 327596400
I0515 19:58:59.316119 147122 layer_factory.hpp:77] Creating layer relu5
I0515 19:58:59.316157 147122 net.cpp:91] Creating Layer relu5
I0515 19:58:59.316164 147122 net.cpp:425] relu5 <- conv5
I0515 19:58:59.316174 147122 net.cpp:386] relu5 -> conv5 (in-place)
I0515 19:58:59.316323 147122 net.cpp:141] Setting up relu5
I0515 19:58:59.316335 147122 net.cpp:148] Top shape: 50 256 13 13 (2163200)
I0515 19:58:59.316341 147122 net.cpp:156] Memory required for data: 336249200
I0515 19:58:59.316347 147122 layer_factory.hpp:77] Creating layer pool5
I0515 19:58:59.316359 147122 net.cpp:91] Creating Layer pool5
I0515 19:58:59.316365 147122 net.cpp:425] pool5 <- conv5
I0515 19:58:59.316373 147122 net.cpp:399] pool5 -> pool5
I0515 19:58:59.316418 147122 net.cpp:141] Setting up pool5
I0515 19:58:59.316428 147122 net.cpp:148] Top shape: 50 256 6 6 (460800)
I0515 19:58:59.316434 147122 net.cpp:156] Memory required for data: 338092400
I0515 19:58:59.316440 147122 layer_factory.hpp:77] Creating layer fc6
I0515 19:58:59.316452 147122 net.cpp:91] Creating Layer fc6
I0515 19:58:59.316457 147122 net.cpp:425] fc6 <- pool5
I0515 19:58:59.316465 147122 net.cpp:399] fc6 -> fc6
I0515 19:59:00.369740 147122 net.cpp:141] Setting up fc6
I0515 19:59:00.369786 147122 net.cpp:148] Top shape: 50 4096 (204800)
I0515 19:59:00.369793 147122 net.cpp:156] Memory required for data: 338911600
I0515 19:59:00.369807 147122 layer_factory.hpp:77] Creating layer relu6
I0515 19:59:00.369820 147122 net.cpp:91] Creating Layer relu6
I0515 19:59:00.369832 147122 net.cpp:425] relu6 <- fc6
I0515 19:59:00.369842 147122 net.cpp:386] relu6 -> fc6 (in-place)
I0515 19:59:00.370276 147122 net.cpp:141] Setting up relu6
I0515 19:59:00.370296 147122 net.cpp:148] Top shape: 50 4096 (204800)
I0515 19:59:00.370302 147122 net.cpp:156] Memory required for data: 339730800
I0515 19:59:00.370308 147122 layer_factory.hpp:77] Creating layer drop6
I0515 19:59:00.370319 147122 net.cpp:91] Creating Layer drop6
I0515 19:59:00.370326 147122 net.cpp:425] drop6 <- fc6
I0515 19:59:00.370334 147122 net.cpp:386] drop6 -> fc6 (in-place)
I0515 19:59:00.370369 147122 net.cpp:141] Setting up drop6
I0515 19:59:00.370379 147122 net.cpp:148] Top shape: 50 4096 (204800)
I0515 19:59:00.370388 147122 net.cpp:156] Memory required for data: 340550000
I0515 19:59:00.370393 147122 layer_factory.hpp:77] Creating layer fc7
I0515 19:59:00.370406 147122 net.cpp:91] Creating Layer fc7
I0515 19:59:00.370414 147122 net.cpp:425] fc7 <- fc6
I0515 19:59:00.370422 147122 net.cpp:399] fc7 -> fc7
I0515 19:59:00.837261 147122 net.cpp:141] Setting up fc7
I0515 19:59:00.837308 147122 net.cpp:148] Top shape: 50 4096 (204800)
I0515 19:59:00.837316 147122 net.cpp:156] Memory required for data: 341369200
I0515 19:59:00.837329 147122 layer_factory.hpp:77] Creating layer relu7
I0515 19:59:00.837343 147122 net.cpp:91] Creating Layer relu7
I0515 19:59:00.837353 147122 net.cpp:425] relu7 <- fc7
I0515 19:59:00.837363 147122 net.cpp:386] relu7 -> fc7 (in-place)
I0515 19:59:00.837580 147122 net.cpp:141] Setting up relu7
I0515 19:59:00.837595 147122 net.cpp:148] Top shape: 50 4096 (204800)
I0515 19:59:00.837601 147122 net.cpp:156] Memory required for data: 342188400
I0515 19:59:00.837607 147122 layer_factory.hpp:77] Creating layer drop7
I0515 19:59:00.837618 147122 net.cpp:91] Creating Layer drop7
I0515 19:59:00.837625 147122 net.cpp:425] drop7 <- fc7
I0515 19:59:00.837632 147122 net.cpp:386] drop7 -> fc7 (in-place)
I0515 19:59:00.837667 147122 net.cpp:141] Setting up drop7
I0515 19:59:00.837677 147122 net.cpp:148] Top shape: 50 4096 (204800)
I0515 19:59:00.837684 147122 net.cpp:156] Memory required for data: 343007600
I0515 19:59:00.837692 147122 layer_factory.hpp:77] Creating layer 102flower
I0515 19:59:00.837703 147122 net.cpp:91] Creating Layer 102flower
I0515 19:59:00.837709 147122 net.cpp:425] 102flower <- fc7
I0515 19:59:00.837719 147122 net.cpp:399] 102flower -> 102flower
I0515 19:59:00.849596 147122 net.cpp:141] Setting up 102flower
I0515 19:59:00.849614 147122 net.cpp:148] Top shape: 50 102 (5100)
I0515 19:59:00.849622 147122 net.cpp:156] Memory required for data: 343028000
I0515 19:59:00.849632 147122 layer_factory.hpp:77] Creating layer 102flower_102flower_0_split
I0515 19:59:00.849663 147122 net.cpp:91] Creating Layer 102flower_102flower_0_split
I0515 19:59:00.849670 147122 net.cpp:425] 102flower_102flower_0_split <- 102flower
I0515 19:59:00.849679 147122 net.cpp:399] 102flower_102flower_0_split -> 102flower_102flower_0_split_0
I0515 19:59:00.849689 147122 net.cpp:399] 102flower_102flower_0_split -> 102flower_102flower_0_split_1
I0515 19:59:00.849730 147122 net.cpp:141] Setting up 102flower_102flower_0_split
I0515 19:59:00.849740 147122 net.cpp:148] Top shape: 50 102 (5100)
I0515 19:59:00.849746 147122 net.cpp:148] Top shape: 50 102 (5100)
I0515 19:59:00.849752 147122 net.cpp:156] Memory required for data: 343068800
I0515 19:59:00.849758 147122 layer_factory.hpp:77] Creating layer accuracy
I0515 19:59:00.849774 147122 net.cpp:91] Creating Layer accuracy
I0515 19:59:00.849781 147122 net.cpp:425] accuracy <- 102flower_102flower_0_split_0
I0515 19:59:00.849788 147122 net.cpp:425] accuracy <- label_data_1_split_0
I0515 19:59:00.849797 147122 net.cpp:399] accuracy -> accuracy
…
