…
I0519 21:33:58.935567 107547 net.cpp:313] The NetState phase (0) differed from the phase (1) specified by a rule in layer accuracy
I0519 21:33:58.935748 107547 net.cpp:49] Initializing net from parameters: 
name: "102FlowerCaffeNet"
state {
  phase: TRAIN
}
layer {
  name: "data"
  type: "Data"
  top: "data"
  top: "label"
  include {
    phase: TRAIN
  }
  transform_param {
    mirror: true
    crop_size: 227
    mean_file: "/home/zheda/software/caffe/data/ilsvrc12/imagenet_mean.binaryproto"
  }
  data_param {
    source: "/home/zheda/workspace/cnn/flower-classify/102flowers_train_lmdb"
    batch_size: 256
    backend: LMDB
  }
}
layer {
  name: "conv1"
  type: "Convolution"
  bottom: "data"
  top: "conv1"
  param {
    lr_mult: 1
    decay_mult: 1
  }
  param {
    lr_mult: 2
    decay_mult: 0
  }
  convolution_param {
    num_output: 96
    kernel_size: 11
    stride: 4
    weight_filler {
      type: "gaussian"
      std: 0.01
    }
    bias_filler {
      type: "constant"
      value: 0
    }
  }
}
layer {
  name: "relu1"
  type: "ReLU"
  bottom: "conv1"
  top: "conv1"
}
layer {
  name: "pool1"
  type: "Pooling"
  bottom: "conv1"
  top: "pool1"
  pooling_param {
    pool: MAX
    kernel_size: 3
    stride: 2
  }
}
layer {
  name: "norm1"
  type: "LRN"
  bottom: "pool1"
  top: "norm1"
  lrn_param {
    local_size: 5
    alpha: 0.0001
    beta: 0.75
  }
}
layer {
  name: "conv2"
  type: "Convolution"
  bottom: "norm1"
  top: "conv2"
  param {
    lr_mult: 1
    decay_mult: 1
  }
  param {
    lr_mult: 2
    decay_mult: 0
  }
  convolution_param {
    num_output: 256
    pad: 2
    kernel_size: 5
    group: 2
    weight_filler {
      type: "gaussian"
      std: 0.01
    }
    bias_filler {
      type: "constant"
      value: 1
    }
  }
}
layer {
  name: "relu2"
  type: "ReLU"
  bottom: "conv2"
  top: "conv2"
}
layer {
  name: "pool2"
  type: "Pooling"
  bottom: "conv2"
  top: "pool2"
  pooling_param {
    pool: MAX
    kernel_size: 3
    stride: 2
  }
}
layer {
  name: "norm2"
  type: "LRN"
  bottom: "pool2"
  top: "norm2"
  lrn_param {
    local_size: 5
    alpha: 0.0001
    beta: 0.75
  }
}
layer {
  name: "conv3"
  type: "Convolution"
  bottom: "norm2"
  top: "conv3"
  param {
    lr_mult: 1
    decay_mult: 1
  }
  param {
    lr_mult: 2
    decay_mult: 0
  }
  convolution_param {
    num_output: 384
    pad: 1
    kernel_size: 3
    weight_filler {
      type: "gaussian"
      std: 0.01
    }
    bias_filler {
      type: "constant"
      value: 0
    }
  }
}
layer {
  name: "relu3"
  type: "ReLU"
  bottom: "conv3"
  top: "conv3"
}
layer {
  name: "conv4"
  type: "Convolution"
  bottom: "conv3"
  top: "conv4"
  param {
    lr_mult: 1
    decay_mult: 1
  }
  param {
    lr_mult: 2
    decay_mult: 0
  }
  convolution_param {
    num_output: 384
    pad: 1
    kernel_size: 3
    group: 2
    weight_filler {
      type: "gaussian"
      std: 0.01
    }
    bias_filler {
      type: "constant"
      value: 1
    }
  }
}
layer {
  name: "relu4"
  type: "ReLU"
  bottom: "conv4"
  top: "conv4"
}
layer {
  name: "conv5"
  type: "Convolution"
  bottom: "conv4"
  top: "conv5"
  param {
    lr_mult: 1
    decay_mult: 1
  }
  param {
    lr_mult: 2
    decay_mult: 0
  }
  convolution_param {
    num_output: 256
    pad: 1
    kernel_size: 3
    group: 2
    weight_filler {
      type: "gaussian"
      std: 0.01
    }
    bias_filler {
      type: "constant"
      value: 1
    }
  }
}
layer {
  name: "relu5"
  type: "ReLU"
  bottom: "conv5"
  top: "conv5"
}
layer {
  name: "pool5"
  type: "Pooling"
  bottom: "conv5"
  top: "pool5"
  pooling_param {
    pool: MAX
    kernel_size: 3
    stride: 2
  }
}
layer {
  name: "fc6"
  type: "InnerProduct"
  bottom: "pool5"
  top: "fc6"
  param {
    lr_mult: 1
    decay_mult: 1
  }
  param {
    lr_mult: 2
    decay_mult: 0
  }
  inner_product_param {
    num_output: 4096
    weight_filler {
      type: "gaussian"
      std: 0.005
    }
    bias_filler {
      type: "constant"
      value: 1
    }
  }
}
layer {
  name: "relu6"
  type: "ReLU"
  bottom: "fc6"
  top: "fc6"
}
layer {
  name: "drop6"
  type: "Dropout"
  bottom: "fc6"
  top: "fc6"
  dropout_param {
    dropout_ratio: 0.5
  }
}
layer {
  name: "fc7"
  type: "InnerProduct"
  bottom: "fc6"
  top: "fc7"
  param {
    lr_mult: 1
    decay_mult: 1
  }
  param {
    lr_mult: 2
    decay_mult: 0
  }
  inner_product_param {
    num_output: 4096
    weight_filler {
      type: "gaussian"
      std: 0.005
    }
    bias_filler {
      type: "constant"
      value: 1
    }
  }
}
layer {
  name: "relu7"
  type: "ReLU"
  bottom: "fc7"
  top: "fc7"
}
layer {
  name: "drop7"
  type: "Dropout"
  bottom: "fc7"
  top: "fc7"
  dropout_param {
    dropout_ratio: 0.5
  }
}
layer {
  name: "102flower"
  type: "InnerProduct"
  bottom: "fc7"
  top: "102flower"
  param {
    lr_mult: 10
    decay_mult: 1
  }
  param {
    lr_mult: 20
    decay_mult: 0
  }
  inner_product_param {
    num_output: 102
    weight_filler {
      type: "gaussian"
      std: 0.01
    }
    bias_filler {
      type: "constant"
      value: 0
    }
  }
}
layer {
  name: "loss"
  type: "SoftmaxWithLoss"
  bottom: "102flower"
  bottom: "label"
  top: "loss"
}
I0519 21:33:58.936789 107547 layer_factory.hpp:77] Creating layer data
I0519 21:33:58.937335 107547 net.cpp:91] Creating Layer data
I0519 21:33:58.937353 107547 net.cpp:399] data -> data
I0519 21:33:58.937389 107547 net.cpp:399] data -> label
I0519 21:33:58.937410 107547 data_transformer.cpp:25] Loading mean file from: /home/zheda/software/caffe/data/ilsvrc12/imagenet_mean.binaryproto
I0519 21:33:58.938884 107551 db_lmdb.cpp:35] Opened lmdb /home/zheda/workspace/cnn/flower-classify/102flowers_train_lmdb
I0519 21:33:58.947827 107547 data_layer.cpp:41] output data size: 256,3,227,227
I0519 21:33:59.290174 107547 net.cpp:141] Setting up data
I0519 21:33:59.290223 107547 net.cpp:148] Top shape: 256 3 227 227 (39574272)
I0519 21:33:59.290235 107547 net.cpp:148] Top shape: 256 (256)
I0519 21:33:59.290242 107547 net.cpp:156] Memory required for data: 158298112
I0519 21:33:59.290256 107547 layer_factory.hpp:77] Creating layer conv1
I0519 21:33:59.290284 107547 net.cpp:91] Creating Layer conv1
I0519 21:33:59.290307 107547 net.cpp:425] conv1 <- data
I0519 21:33:59.290324 107547 net.cpp:399] conv1 -> conv1
I0519 21:33:59.473151 107547 net.cpp:141] Setting up conv1
I0519 21:33:59.473207 107547 net.cpp:148] Top shape: 256 96 55 55 (74342400)
I0519 21:33:59.473217 107547 net.cpp:156] Memory required for data: 455667712
I0519 21:33:59.473243 107547 layer_factory.hpp:77] Creating layer relu1
I0519 21:33:59.473260 107547 net.cpp:91] Creating Layer relu1
I0519 21:33:59.473269 107547 net.cpp:425] relu1 <- conv1
I0519 21:33:59.473279 107547 net.cpp:386] relu1 -> conv1 (in-place)
I0519 21:33:59.473487 107547 net.cpp:141] Setting up relu1
I0519 21:33:59.473516 107547 net.cpp:148] Top shape: 256 96 55 55 (74342400)
I0519 21:33:59.473523 107547 net.cpp:156] Memory required for data: 753037312
I0519 21:33:59.473532 107547 layer_factory.hpp:77] Creating layer pool1
I0519 21:33:59.473547 107547 net.cpp:91] Creating Layer pool1
I0519 21:33:59.473556 107547 net.cpp:425] pool1 <- conv1
I0519 21:33:59.473564 107547 net.cpp:399] pool1 -> pool1
I0519 21:33:59.473620 107547 net.cpp:141] Setting up pool1
I0519 21:33:59.473634 107547 net.cpp:148] Top shape: 256 96 27 27 (17915904)
I0519 21:33:59.473640 107547 net.cpp:156] Memory required for data: 824700928
I0519 21:33:59.473672 107547 layer_factory.hpp:77] Creating layer norm1
I0519 21:33:59.473687 107547 net.cpp:91] Creating Layer norm1
I0519 21:33:59.473703 107547 net.cpp:425] norm1 <- pool1
I0519 21:33:59.473714 107547 net.cpp:399] norm1 -> norm1
I0519 21:33:59.474087 107547 net.cpp:141] Setting up norm1
I0519 21:33:59.474120 107547 net.cpp:148] Top shape: 256 96 27 27 (17915904)
I0519 21:33:59.474128 107547 net.cpp:156] Memory required for data: 896364544
I0519 21:33:59.474135 107547 layer_factory.hpp:77] Creating layer conv2
I0519 21:33:59.474154 107547 net.cpp:91] Creating Layer conv2
I0519 21:33:59.474164 107547 net.cpp:425] conv2 <- norm1
I0519 21:33:59.474174 107547 net.cpp:399] conv2 -> conv2
I0519 21:33:59.486567 107547 net.cpp:141] Setting up conv2
I0519 21:33:59.486616 107547 net.cpp:148] Top shape: 256 256 27 27 (47775744)
I0519 21:33:59.486625 107547 net.cpp:156] Memory required for data: 1087467520
I0519 21:33:59.486641 107547 layer_factory.hpp:77] Creating layer relu2
I0519 21:33:59.486657 107547 net.cpp:91] Creating Layer relu2
I0519 21:33:59.486666 107547 net.cpp:425] relu2 <- conv2
I0519 21:33:59.486676 107547 net.cpp:386] relu2 -> conv2 (in-place)
I0519 21:33:59.486873 107547 net.cpp:141] Setting up relu2
I0519 21:33:59.486902 107547 net.cpp:148] Top shape: 256 256 27 27 (47775744)
I0519 21:33:59.486910 107547 net.cpp:156] Memory required for data: 1278570496
I0519 21:33:59.486917 107547 layer_factory.hpp:77] Creating layer pool2
I0519 21:33:59.486930 107547 net.cpp:91] Creating Layer pool2
I0519 21:33:59.486937 107547 net.cpp:425] pool2 <- conv2
I0519 21:33:59.486948 107547 net.cpp:399] pool2 -> pool2
I0519 21:33:59.486996 107547 net.cpp:141] Setting up pool2
I0519 21:33:59.487010 107547 net.cpp:148] Top shape: 256 256 13 13 (11075584)
I0519 21:33:59.487016 107547 net.cpp:156] Memory required for data: 1322872832
I0519 21:33:59.487025 107547 layer_factory.hpp:77] Creating layer norm2
I0519 21:33:59.487038 107547 net.cpp:91] Creating Layer norm2
I0519 21:33:59.487046 107547 net.cpp:425] norm2 <- pool2
I0519 21:33:59.487056 107547 net.cpp:399] norm2 -> norm2
I0519 21:33:59.487408 107547 net.cpp:141] Setting up norm2
I0519 21:33:59.487442 107547 net.cpp:148] Top shape: 256 256 13 13 (11075584)
I0519 21:33:59.487449 107547 net.cpp:156] Memory required for data: 1367175168
I0519 21:33:59.487457 107547 layer_factory.hpp:77] Creating layer conv3
I0519 21:33:59.487474 107547 net.cpp:91] Creating Layer conv3
I0519 21:33:59.487483 107547 net.cpp:425] conv3 <- norm2
I0519 21:33:59.487493 107547 net.cpp:399] conv3 -> conv3
I0519 21:33:59.516990 107547 net.cpp:141] Setting up conv3
I0519 21:33:59.517041 107547 net.cpp:148] Top shape: 256 384 13 13 (16613376)
I0519 21:33:59.517050 107547 net.cpp:156] Memory required for data: 1433628672
I0519 21:33:59.517067 107547 layer_factory.hpp:77] Creating layer relu3
I0519 21:33:59.517083 107547 net.cpp:91] Creating Layer relu3
I0519 21:33:59.517092 107547 net.cpp:425] relu3 <- conv3
I0519 21:33:59.517102 107547 net.cpp:386] relu3 -> conv3 (in-place)
I0519 21:33:59.517434 107547 net.cpp:141] Setting up relu3
I0519 21:33:59.517464 107547 net.cpp:148] Top shape: 256 384 13 13 (16613376)
I0519 21:33:59.517472 107547 net.cpp:156] Memory required for data: 1500082176
I0519 21:33:59.517479 107547 layer_factory.hpp:77] Creating layer conv4
I0519 21:33:59.517498 107547 net.cpp:91] Creating Layer conv4
I0519 21:33:59.517505 107547 net.cpp:425] conv4 <- conv3
I0519 21:33:59.517515 107547 net.cpp:399] conv4 -> conv4
I0519 21:33:59.574450 107547 net.cpp:141] Setting up conv4
I0519 21:33:59.574515 107547 net.cpp:148] Top shape: 256 384 13 13 (16613376)
I0519 21:33:59.574532 107547 net.cpp:156] Memory required for data: 1566535680
I0519 21:33:59.574554 107547 layer_factory.hpp:77] Creating layer relu4
I0519 21:33:59.574581 107547 net.cpp:91] Creating Layer relu4
I0519 21:33:59.574597 107547 net.cpp:425] relu4 <- conv4
I0519 21:33:59.574617 107547 net.cpp:386] relu4 -> conv4 (in-place)
I0519 21:33:59.574967 107547 net.cpp:141] Setting up relu4
I0519 21:33:59.575003 107547 net.cpp:148] Top shape: 256 384 13 13 (16613376)
I0519 21:33:59.575047 107547 net.cpp:156] Memory required for data: 1632989184
I0519 21:33:59.575062 107547 layer_factory.hpp:77] Creating layer conv5
I0519 21:33:59.575093 107547 net.cpp:91] Creating Layer conv5
I0519 21:33:59.575109 107547 net.cpp:425] conv5 <- conv4
I0519 21:33:59.575131 107547 net.cpp:399] conv5 -> conv5
I0519 21:33:59.604686 107547 net.cpp:141] Setting up conv5
I0519 21:33:59.604748 107547 net.cpp:148] Top shape: 256 256 13 13 (11075584)
I0519 21:33:59.604763 107547 net.cpp:156] Memory required for data: 1677291520
I0519 21:33:59.604791 107547 layer_factory.hpp:77] Creating layer relu5
I0519 21:33:59.604814 107547 net.cpp:91] Creating Layer relu5
I0519 21:33:59.604828 107547 net.cpp:425] relu5 <- conv5
I0519 21:33:59.604845 107547 net.cpp:386] relu5 -> conv5 (in-place)
I0519 21:33:59.605139 107547 net.cpp:141] Setting up relu5
I0519 21:33:59.605165 107547 net.cpp:148] Top shape: 256 256 13 13 (11075584)
I0519 21:33:59.605178 107547 net.cpp:156] Memory required for data: 1721593856
I0519 21:33:59.605190 107547 layer_factory.hpp:77] Creating layer pool5
I0519 21:33:59.605208 107547 net.cpp:91] Creating Layer pool5
I0519 21:33:59.605221 107547 net.cpp:425] pool5 <- conv5
I0519 21:33:59.605238 107547 net.cpp:399] pool5 -> pool5
I0519 21:33:59.605315 107547 net.cpp:141] Setting up pool5
I0519 21:33:59.605334 107547 net.cpp:148] Top shape: 256 256 6 6 (2359296)
I0519 21:33:59.605345 107547 net.cpp:156] Memory required for data: 1731031040
I0519 21:33:59.605356 107547 layer_factory.hpp:77] Creating layer fc6
I0519 21:33:59.605379 107547 net.cpp:91] Creating Layer fc6
I0519 21:33:59.605391 107547 net.cpp:425] fc6 <- pool5
I0519 21:33:59.605408 107547 net.cpp:399] fc6 -> fc6
I0519 21:34:00.861452 107547 net.cpp:141] Setting up fc6
I0519 21:34:00.861510 107547 net.cpp:148] Top shape: 256 4096 (1048576)
I0519 21:34:00.861520 107547 net.cpp:156] Memory required for data: 1735225344
I0519 21:34:00.861543 107547 layer_factory.hpp:77] Creating layer relu6
I0519 21:34:00.861567 107547 net.cpp:91] Creating Layer relu6
I0519 21:34:00.861583 107547 net.cpp:425] relu6 <- fc6
I0519 21:34:00.861598 107547 net.cpp:386] relu6 -> fc6 (in-place)
I0519 21:34:00.862320 107547 net.cpp:141] Setting up relu6
I0519 21:34:00.862352 107547 net.cpp:148] Top shape: 256 4096 (1048576)
I0519 21:34:00.862360 107547 net.cpp:156] Memory required for data: 1739419648
I0519 21:34:00.862366 107547 layer_factory.hpp:77] Creating layer drop6
I0519 21:34:00.862385 107547 net.cpp:91] Creating Layer drop6
I0519 21:34:00.862392 107547 net.cpp:425] drop6 <- fc6
I0519 21:34:00.862401 107547 net.cpp:386] drop6 -> fc6 (in-place)
I0519 21:34:00.862437 107547 net.cpp:141] Setting up drop6
I0519 21:34:00.862452 107547 net.cpp:148] Top shape: 256 4096 (1048576)
I0519 21:34:00.862457 107547 net.cpp:156] Memory required for data: 1743613952
I0519 21:34:00.862467 107547 layer_factory.hpp:77] Creating layer fc7
I0519 21:34:00.862488 107547 net.cpp:91] Creating Layer fc7
I0519 21:34:00.862498 107547 net.cpp:425] fc7 <- fc6
I0519 21:34:00.862509 107547 net.cpp:399] fc7 -> fc7
I0519 21:34:01.426121 107547 net.cpp:141] Setting up fc7
I0519 21:34:01.426182 107547 net.cpp:148] Top shape: 256 4096 (1048576)
I0519 21:34:01.426189 107547 net.cpp:156] Memory required for data: 1747808256
I0519 21:34:01.426205 107547 layer_factory.hpp:77] Creating layer relu7
I0519 21:34:01.426224 107547 net.cpp:91] Creating Layer relu7
I0519 21:34:01.426234 107547 net.cpp:425] relu7 <- fc7
I0519 21:34:01.426244 107547 net.cpp:386] relu7 -> fc7 (in-place)
I0519 21:34:01.426530 107547 net.cpp:141] Setting up relu7
I0519 21:34:01.426548 107547 net.cpp:148] Top shape: 256 4096 (1048576)
I0519 21:34:01.426555 107547 net.cpp:156] Memory required for data: 1752002560
I0519 21:34:01.426563 107547 layer_factory.hpp:77] Creating layer drop7
I0519 21:34:01.426575 107547 net.cpp:91] Creating Layer drop7
I0519 21:34:01.426581 107547 net.cpp:425] drop7 <- fc7
I0519 21:34:01.426590 107547 net.cpp:386] drop7 -> fc7 (in-place)
I0519 21:34:01.426617 107547 net.cpp:141] Setting up drop7
I0519 21:34:01.426669 107547 net.cpp:148] Top shape: 256 4096 (1048576)
I0519 21:34:01.426677 107547 net.cpp:156] Memory required for data: 1756196864
I0519 21:34:01.426683 107547 layer_factory.hpp:77] Creating layer 102flower
I0519 21:34:01.426698 107547 net.cpp:91] Creating Layer 102flower
I0519 21:34:01.426705 107547 net.cpp:425] 102flower <- fc7
I0519 21:34:01.426723 107547 net.cpp:399] 102flower -> 102flower
I0519 21:34:01.438801 107547 net.cpp:141] Setting up 102flower
I0519 21:34:01.438820 107547 net.cpp:148] Top shape: 256 102 (26112)
I0519 21:34:01.438827 107547 net.cpp:156] Memory required for data: 1756301312
I0519 21:34:01.438837 107547 layer_factory.hpp:77] Creating layer loss
I0519 21:34:01.438848 107547 net.cpp:91] Creating Layer loss
I0519 21:34:01.438854 107547 net.cpp:425] loss <- 102flower
I0519 21:34:01.438863 107547 net.cpp:425] loss <- label
I0519 21:34:01.438879 107547 net.cpp:399] loss -> loss
I0519 21:34:01.438920 107547 layer_factory.hpp:77] Creating layer loss
…
I0519 21:34:01.440732 107547 net.cpp:313] The NetState phase (1) differed from the phase (0) specified by a rule in layer data
I0519 21:34:01.440932 107547 net.cpp:49] Initializing net from parameters: 
name: "102FlowerCaffeNet"
state {
  phase: TEST
}
layer {
  name: "data"
  type: "Data"
  top: "data"
  top: "label"
  include {
    phase: TEST
  }
  transform_param {
    mirror: false
    crop_size: 227
    mean_file: "/home/zheda/software/caffe/data/ilsvrc12/imagenet_mean.binaryproto"
  }
  data_param {
    source: "/home/zheda/workspace/cnn/flower-classify/102flowers_val_lmdb"
    batch_size: 50
    backend: LMDB
  }
}
layer {
  name: "conv1"
  type: "Convolution"
  bottom: "data"
  top: "conv1"
  param {
    lr_mult: 1
    decay_mult: 1
  }
  param {
    lr_mult: 2
    decay_mult: 0
  }
  convolution_param {
    num_output: 96
    kernel_size: 11
    stride: 4
    weight_filler {
      type: "gaussian"
      std: 0.01
    }
    bias_filler {
      type: "constant"
      value: 0
    }
  }
}
layer {
  name: "relu1"
  type: "ReLU"
  bottom: "conv1"
  top: "conv1"
}
layer {
  name: "pool1"
  type: "Pooling"
  bottom: "conv1"
  top: "pool1"
  pooling_param {
    pool: MAX
    kernel_size: 3
    stride: 2
  }
}
layer {
  name: "norm1"
  type: "LRN"
  bottom: "pool1"
  top: "norm1"
  lrn_param {
    local_size: 5
    alpha: 0.0001
    beta: 0.75
  }
}
layer {
  name: "conv2"
  type: "Convolution"
  bottom: "norm1"
  top: "conv2"
  param {
    lr_mult: 1
    decay_mult: 1
  }
  param {
    lr_mult: 2
    decay_mult: 0
  }
  convolution_param {
    num_output: 256
    pad: 2
    kernel_size: 5
    group: 2
    weight_filler {
      type: "gaussian"
      std: 0.01
    }
    bias_filler {
      type: "constant"
      value: 1
    }
  }
}
layer {
  name: "relu2"
  type: "ReLU"
  bottom: "conv2"
  top: "conv2"
}
layer {
  name: "pool2"
  type: "Pooling"
  bottom: "conv2"
  top: "pool2"
  pooling_param {
    pool: MAX
    kernel_size: 3
    stride: 2
  }
}
layer {
  name: "norm2"
  type: "LRN"
  bottom: "pool2"
  top: "norm2"
  lrn_param {
    local_size: 5
    alpha: 0.0001
    beta: 0.75
  }
}
layer {
  name: "conv3"
  type: "Convolution"
  bottom: "norm2"
  top: "conv3"
  param {
    lr_mult: 1
    decay_mult: 1
  }
  param {
    lr_mult: 2
    decay_mult: 0
  }
  convolution_param {
    num_output: 384
    pad: 1
    kernel_size: 3
    weight_filler {
      type: "gaussian"
      std: 0.01
    }
    bias_filler {
      type: "constant"
      value: 0
    }
  }
}
layer {
  name: "relu3"
  type: "ReLU"
  bottom: "conv3"
  top: "conv3"
}
layer {
  name: "conv4"
  type: "Convolution"
  bottom: "conv3"
  top: "conv4"
  param {
    lr_mult: 1
    decay_mult: 1
  }
  param {
    lr_mult: 2
    decay_mult: 0
  }
  convolution_param {
    num_output: 384
    pad: 1
    kernel_size: 3
    group: 2
    weight_filler {
      type: "gaussian"
      std: 0.01
    }
    bias_filler {
      type: "constant"
      value: 1
    }
  }
}
layer {
  name: "relu4"
  type: "ReLU"
  bottom: "conv4"
  top: "conv4"
}
layer {
  name: "conv5"
  type: "Convolution"
  bottom: "conv4"
  top: "conv5"
  param {
    lr_mult: 1
    decay_mult: 1
  }
  param {
    lr_mult: 2
    decay_mult: 0
  }
  convolution_param {
    num_output: 256
    pad: 1
    kernel_size: 3
    group: 2
    weight_filler {
      type: "gaussian"
      std: 0.01
    }
    bias_filler {
      type: "constant"
      value: 1
    }
  }
}
layer {
  name: "relu5"
  type: "ReLU"
  bottom: "conv5"
  top: "conv5"
}
layer {
  name: "pool5"
  type: "Pooling"
  bottom: "conv5"
  top: "pool5"
  pooling_param {
    pool: MAX
    kernel_size: 3
    stride: 2
  }
}
layer {
  name: "fc6"
  type: "InnerProduct"
  bottom: "pool5"
  top: "fc6"
  param {
    lr_mult: 1
    decay_mult: 1
  }
  param {
    lr_mult: 2
    decay_mult: 0
  }
  inner_product_param {
    num_output: 4096
    weight_filler {
      type: "gaussian"
      std: 0.005
    }
    bias_filler {
      type: "constant"
      value: 1
    }
  }
}
layer {
  name: "relu6"
  type: "ReLU"
  bottom: "fc6"
  top: "fc6"
}
layer {
  name: "drop6"
  type: "Dropout"
  bottom: "fc6"
  top: "fc6"
  dropout_param {
    dropout_ratio: 0.5
  }
}
layer {
  name: "fc7"
  type: "InnerProduct"
  bottom: "fc6"
  top: "fc7"
  param {
    lr_mult: 1
    decay_mult: 1
  }
  param {
    lr_mult: 2
    decay_mult: 0
  }
  inner_product_param {
    num_output: 4096
    weight_filler {
      type: "gaussian"
      std: 0.005
    }
    bias_filler {
      type: "constant"
      value: 1
    }
  }
}
layer {
  name: "relu7"
  type: "ReLU"
  bottom: "fc7"
  top: "fc7"
}
layer {
  name: "drop7"
  type: "Dropout"
  bottom: "fc7"
  top: "fc7"
  dropout_param {
    dropout_ratio: 0.5
  }
}
layer {
  name: "102flower"
  type: "InnerProduct"
  bottom: "fc7"
  top: "102flower"
  param {
    lr_mult: 10
    decay_mult: 1
  }
  param {
    lr_mult: 20
    decay_mult: 0
  }
  inner_product_param {
    num_output: 102
    weight_filler {
      type: "gaussian"
      std: 0.01
    }
    bias_filler {
      type: "constant"
      value: 0
    }
  }
}
layer {
  name: "accuracy"
  type: "Accuracy"
  bottom: "102flower"
  bottom: "label"
  top: "accuracy"
  include {
    phase: TEST
  }
}
layer {
  name: "loss"
  type: "SoftmaxWithLoss"
  bottom: "102flower"
  bottom: "label"
  top: "loss"
}
I0519 21:34:01.441954 107547 layer_factory.hpp:77] Creating layer data
I0519 21:34:01.442095 107547 net.cpp:91] Creating Layer data
I0519 21:34:01.442111 107547 net.cpp:399] data -> data
I0519 21:34:01.442129 107547 net.cpp:399] data -> label
I0519 21:34:01.442147 107547 data_transformer.cpp:25] Loading mean file from: /home/zheda/software/caffe/data/ilsvrc12/imagenet_mean.binaryproto
I0519 21:34:01.443018 107553 db_lmdb.cpp:35] Opened lmdb /home/zheda/workspace/cnn/flower-classify/102flowers_val_lmdb
I0519 21:34:01.444447 107547 data_layer.cpp:41] output data size: 50,3,227,227
I0519 21:34:01.497602 107547 net.cpp:141] Setting up data
I0519 21:34:01.497678 107547 net.cpp:148] Top shape: 50 3 227 227 (7729350)
I0519 21:34:01.497689 107547 net.cpp:148] Top shape: 50 (50)
I0519 21:34:01.497697 107547 net.cpp:156] Memory required for data: 30917600
I0519 21:34:01.497707 107547 layer_factory.hpp:77] Creating layer label_data_1_split
I0519 21:34:01.497727 107547 net.cpp:91] Creating Layer label_data_1_split
I0519 21:34:01.497737 107547 net.cpp:425] label_data_1_split <- label
I0519 21:34:01.497750 107547 net.cpp:399] label_data_1_split -> label_data_1_split_0
I0519 21:34:01.497766 107547 net.cpp:399] label_data_1_split -> label_data_1_split_1
I0519 21:34:01.497897 107547 net.cpp:141] Setting up label_data_1_split
I0519 21:34:01.497925 107547 net.cpp:148] Top shape: 50 (50)
I0519 21:34:01.497933 107547 net.cpp:148] Top shape: 50 (50)
I0519 21:34:01.497941 107547 net.cpp:156] Memory required for data: 30918000
I0519 21:34:01.497948 107547 layer_factory.hpp:77] Creating layer conv1
I0519 21:34:01.497968 107547 net.cpp:91] Creating Layer conv1
I0519 21:34:01.497977 107547 net.cpp:425] conv1 <- data
I0519 21:34:01.497987 107547 net.cpp:399] conv1 -> conv1
I0519 21:34:01.503777 107547 net.cpp:141] Setting up conv1
I0519 21:34:01.503825 107547 net.cpp:148] Top shape: 50 96 55 55 (14520000)
I0519 21:34:01.503835 107547 net.cpp:156] Memory required for data: 88998000
I0519 21:34:01.503854 107547 layer_factory.hpp:77] Creating layer relu1
I0519 21:34:01.503867 107547 net.cpp:91] Creating Layer relu1
I0519 21:34:01.503875 107547 net.cpp:425] relu1 <- conv1
I0519 21:34:01.503885 107547 net.cpp:386] relu1 -> conv1 (in-place)
I0519 21:34:01.504083 107547 net.cpp:141] Setting up relu1
I0519 21:34:01.504113 107547 net.cpp:148] Top shape: 50 96 55 55 (14520000)
I0519 21:34:01.504122 107547 net.cpp:156] Memory required for data: 147078000
I0519 21:34:01.504129 107547 layer_factory.hpp:77] Creating layer pool1
I0519 21:34:01.504142 107547 net.cpp:91] Creating Layer pool1
I0519 21:34:01.504150 107547 net.cpp:425] pool1 <- conv1
I0519 21:34:01.504159 107547 net.cpp:399] pool1 -> pool1
I0519 21:34:01.504215 107547 net.cpp:141] Setting up pool1
I0519 21:34:01.504228 107547 net.cpp:148] Top shape: 50 96 27 27 (3499200)
I0519 21:34:01.504235 107547 net.cpp:156] Memory required for data: 161074800
I0519 21:34:01.504242 107547 layer_factory.hpp:77] Creating layer norm1
I0519 21:34:01.504254 107547 net.cpp:91] Creating Layer norm1
I0519 21:34:01.504262 107547 net.cpp:425] norm1 <- pool1
I0519 21:34:01.504271 107547 net.cpp:399] norm1 -> norm1
I0519 21:34:01.504659 107547 net.cpp:141] Setting up norm1
I0519 21:34:01.504693 107547 net.cpp:148] Top shape: 50 96 27 27 (3499200)
I0519 21:34:01.504701 107547 net.cpp:156] Memory required for data: 175071600
I0519 21:34:01.504709 107547 layer_factory.hpp:77] Creating layer conv2
I0519 21:34:01.504724 107547 net.cpp:91] Creating Layer conv2
I0519 21:34:01.504732 107547 net.cpp:425] conv2 <- norm1
I0519 21:34:01.504788 107547 net.cpp:399] conv2 -> conv2
I0519 21:34:01.516346 107547 net.cpp:141] Setting up conv2
I0519 21:34:01.516399 107547 net.cpp:148] Top shape: 50 256 27 27 (9331200)
I0519 21:34:01.516407 107547 net.cpp:156] Memory required for data: 212396400
I0519 21:34:01.516425 107547 layer_factory.hpp:77] Creating layer relu2
I0519 21:34:01.516443 107547 net.cpp:91] Creating Layer relu2
I0519 21:34:01.516449 107547 net.cpp:425] relu2 <- conv2
I0519 21:34:01.516460 107547 net.cpp:386] relu2 -> conv2 (in-place)
I0519 21:34:01.516768 107547 net.cpp:141] Setting up relu2
I0519 21:34:01.516788 107547 net.cpp:148] Top shape: 50 256 27 27 (9331200)
I0519 21:34:01.516794 107547 net.cpp:156] Memory required for data: 249721200
I0519 21:34:01.516801 107547 layer_factory.hpp:77] Creating layer pool2
I0519 21:34:01.516814 107547 net.cpp:91] Creating Layer pool2
I0519 21:34:01.516822 107547 net.cpp:425] pool2 <- conv2
I0519 21:34:01.516831 107547 net.cpp:399] pool2 -> pool2
I0519 21:34:01.516882 107547 net.cpp:141] Setting up pool2
I0519 21:34:01.516896 107547 net.cpp:148] Top shape: 50 256 13 13 (2163200)
I0519 21:34:01.516902 107547 net.cpp:156] Memory required for data: 258374000
I0519 21:34:01.516911 107547 layer_factory.hpp:77] Creating layer norm2
I0519 21:34:01.516923 107547 net.cpp:91] Creating Layer norm2
I0519 21:34:01.516953 107547 net.cpp:425] norm2 <- pool2
I0519 21:34:01.516963 107547 net.cpp:399] norm2 -> norm2
I0519 21:34:01.517175 107547 net.cpp:141] Setting up norm2
I0519 21:34:01.517192 107547 net.cpp:148] Top shape: 50 256 13 13 (2163200)
I0519 21:34:01.517199 107547 net.cpp:156] Memory required for data: 267026800
I0519 21:34:01.517205 107547 layer_factory.hpp:77] Creating layer conv3
I0519 21:34:01.517221 107547 net.cpp:91] Creating Layer conv3
I0519 21:34:01.517228 107547 net.cpp:425] conv3 <- norm2
I0519 21:34:01.517237 107547 net.cpp:399] conv3 -> conv3
I0519 21:34:01.544082 107547 net.cpp:141] Setting up conv3
I0519 21:34:01.544131 107547 net.cpp:148] Top shape: 50 384 13 13 (3244800)
I0519 21:34:01.544152 107547 net.cpp:156] Memory required for data: 280006000
I0519 21:34:01.544172 107547 layer_factory.hpp:77] Creating layer relu3
I0519 21:34:01.544190 107547 net.cpp:91] Creating Layer relu3
I0519 21:34:01.544199 107547 net.cpp:425] relu3 <- conv3
I0519 21:34:01.544211 107547 net.cpp:386] relu3 -> conv3 (in-place)
I0519 21:34:01.544533 107547 net.cpp:141] Setting up relu3
I0519 21:34:01.544553 107547 net.cpp:148] Top shape: 50 384 13 13 (3244800)
I0519 21:34:01.544561 107547 net.cpp:156] Memory required for data: 292985200
I0519 21:34:01.544567 107547 layer_factory.hpp:77] Creating layer conv4
I0519 21:34:01.544584 107547 net.cpp:91] Creating Layer conv4
I0519 21:34:01.544592 107547 net.cpp:425] conv4 <- conv3
I0519 21:34:01.544603 107547 net.cpp:399] conv4 -> conv4
I0519 21:34:01.565816 107547 net.cpp:141] Setting up conv4
I0519 21:34:01.565862 107547 net.cpp:148] Top shape: 50 384 13 13 (3244800)
I0519 21:34:01.565871 107547 net.cpp:156] Memory required for data: 305964400
I0519 21:34:01.565883 107547 layer_factory.hpp:77] Creating layer relu4
I0519 21:34:01.565899 107547 net.cpp:91] Creating Layer relu4
I0519 21:34:01.565907 107547 net.cpp:425] relu4 <- conv4
I0519 21:34:01.565917 107547 net.cpp:386] relu4 -> conv4 (in-place)
I0519 21:34:01.566225 107547 net.cpp:141] Setting up relu4
I0519 21:34:01.566244 107547 net.cpp:148] Top shape: 50 384 13 13 (3244800)
I0519 21:34:01.566252 107547 net.cpp:156] Memory required for data: 318943600
I0519 21:34:01.566259 107547 layer_factory.hpp:77] Creating layer conv5
I0519 21:34:01.566274 107547 net.cpp:91] Creating Layer conv5
I0519 21:34:01.566282 107547 net.cpp:425] conv5 <- conv4
I0519 21:34:01.566293 107547 net.cpp:399] conv5 -> conv5
I0519 21:34:01.580972 107547 net.cpp:141] Setting up conv5
I0519 21:34:01.581007 107547 net.cpp:148] Top shape: 50 256 13 13 (2163200)
I0519 21:34:01.581014 107547 net.cpp:156] Memory required for data: 327596400
I0519 21:34:01.581044 107547 layer_factory.hpp:77] Creating layer relu5
I0519 21:34:01.581086 107547 net.cpp:91] Creating Layer relu5
I0519 21:34:01.581099 107547 net.cpp:425] relu5 <- conv5
I0519 21:34:01.581111 107547 net.cpp:386] relu5 -> conv5 (in-place)
I0519 21:34:01.581290 107547 net.cpp:141] Setting up relu5
I0519 21:34:01.581306 107547 net.cpp:148] Top shape: 50 256 13 13 (2163200)
I0519 21:34:01.581312 107547 net.cpp:156] Memory required for data: 336249200
I0519 21:34:01.581318 107547 layer_factory.hpp:77] Creating layer pool5
I0519 21:34:01.581332 107547 net.cpp:91] Creating Layer pool5
I0519 21:34:01.581341 107547 net.cpp:425] pool5 <- conv5
I0519 21:34:01.581349 107547 net.cpp:399] pool5 -> pool5
I0519 21:34:01.581396 107547 net.cpp:141] Setting up pool5
I0519 21:34:01.581414 107547 net.cpp:148] Top shape: 50 256 6 6 (460800)
I0519 21:34:01.581423 107547 net.cpp:156] Memory required for data: 338092400
I0519 21:34:01.581429 107547 layer_factory.hpp:77] Creating layer fc6
I0519 21:34:01.581440 107547 net.cpp:91] Creating Layer fc6
I0519 21:34:01.581447 107547 net.cpp:425] fc6 <- pool5
I0519 21:34:01.581459 107547 net.cpp:399] fc6 -> fc6
I0519 21:34:02.642827 107547 net.cpp:141] Setting up fc6
I0519 21:34:02.642887 107547 net.cpp:148] Top shape: 50 4096 (204800)
I0519 21:34:02.642895 107547 net.cpp:156] Memory required for data: 338911600
I0519 21:34:02.642915 107547 layer_factory.hpp:77] Creating layer relu6
I0519 21:34:02.642935 107547 net.cpp:91] Creating Layer relu6
I0519 21:34:02.642946 107547 net.cpp:425] relu6 <- fc6
I0519 21:34:02.642956 107547 net.cpp:386] relu6 -> fc6 (in-place)
I0519 21:34:02.643591 107547 net.cpp:141] Setting up relu6
I0519 21:34:02.643611 107547 net.cpp:148] Top shape: 50 4096 (204800)
I0519 21:34:02.643618 107547 net.cpp:156] Memory required for data: 339730800
I0519 21:34:02.643625 107547 layer_factory.hpp:77] Creating layer drop6
I0519 21:34:02.643638 107547 net.cpp:91] Creating Layer drop6
I0519 21:34:02.643646 107547 net.cpp:425] drop6 <- fc6
I0519 21:34:02.643656 107547 net.cpp:386] drop6 -> fc6 (in-place)
I0519 21:34:02.643704 107547 net.cpp:141] Setting up drop6
I0519 21:34:02.643718 107547 net.cpp:148] Top shape: 50 4096 (204800)
I0519 21:34:02.643724 107547 net.cpp:156] Memory required for data: 340550000
I0519 21:34:02.643730 107547 layer_factory.hpp:77] Creating layer fc7
I0519 21:34:02.643745 107547 net.cpp:91] Creating Layer fc7
I0519 21:34:02.643764 107547 net.cpp:425] fc7 <- fc6
I0519 21:34:02.643775 107547 net.cpp:399] fc7 -> fc7
I0519 21:34:03.113898 107547 net.cpp:141] Setting up fc7
I0519 21:34:03.113952 107547 net.cpp:148] Top shape: 50 4096 (204800)
I0519 21:34:03.113960 107547 net.cpp:156] Memory required for data: 341369200
I0519 21:34:03.113977 107547 layer_factory.hpp:77] Creating layer relu7
I0519 21:34:03.113996 107547 net.cpp:91] Creating Layer relu7
I0519 21:34:03.114004 107547 net.cpp:425] relu7 <- fc7
I0519 21:34:03.114015 107547 net.cpp:386] relu7 -> fc7 (in-place)
I0519 21:34:03.114267 107547 net.cpp:141] Setting up relu7
I0519 21:34:03.114284 107547 net.cpp:148] Top shape: 50 4096 (204800)
I0519 21:34:03.114289 107547 net.cpp:156] Memory required for data: 342188400
I0519 21:34:03.114296 107547 layer_factory.hpp:77] Creating layer drop7
I0519 21:34:03.114308 107547 net.cpp:91] Creating Layer drop7
I0519 21:34:03.114315 107547 net.cpp:425] drop7 <- fc7
I0519 21:34:03.114325 107547 net.cpp:386] drop7 -> fc7 (in-place)
I0519 21:34:03.114361 107547 net.cpp:141] Setting up drop7
I0519 21:34:03.114372 107547 net.cpp:148] Top shape: 50 4096 (204800)
I0519 21:34:03.114382 107547 net.cpp:156] Memory required for data: 343007600
I0519 21:34:03.114388 107547 layer_factory.hpp:77] Creating layer 102flower
I0519 21:34:03.114401 107547 net.cpp:91] Creating Layer 102flower
I0519 21:34:03.114408 107547 net.cpp:425] 102flower <- fc7
I0519 21:34:03.114418 107547 net.cpp:399] 102flower -> 102flower
I0519 21:34:03.126356 107547 net.cpp:141] Setting up 102flower
I0519 21:34:03.126377 107547 net.cpp:148] Top shape: 50 102 (5100)
I0519 21:34:03.126385 107547 net.cpp:156] Memory required for data: 343028000
I0519 21:34:03.126394 107547 layer_factory.hpp:77] Creating layer 102flower_102flower_0_split
I0519 21:34:03.126431 107547 net.cpp:91] Creating Layer 102flower_102flower_0_split
I0519 21:34:03.126440 107547 net.cpp:425] 102flower_102flower_0_split <- 102flower
I0519 21:34:03.126447 107547 net.cpp:399] 102flower_102flower_0_split -> 102flower_102flower_0_split_0
I0519 21:34:03.126458 107547 net.cpp:399] 102flower_102flower_0_split -> 102flower_102flower_0_split_1
I0519 21:34:03.126502 107547 net.cpp:141] Setting up 102flower_102flower_0_split
I0519 21:34:03.126515 107547 net.cpp:148] Top shape: 50 102 (5100)
I0519 21:34:03.126524 107547 net.cpp:148] Top shape: 50 102 (5100)
I0519 21:34:03.126530 107547 net.cpp:156] Memory required for data: 343068800
I0519 21:34:03.126536 107547 layer_factory.hpp:77] Creating layer accuracy
I0519 21:34:03.126556 107547 net.cpp:91] Creating Layer accuracy
I0519 21:34:03.126576 107547 net.cpp:425] accuracy <- 102flower_102flower_0_split_0
I0519 21:34:03.126586 107547 net.cpp:425] accuracy <- label_data_1_split_0
I0519 21:34:03.126597 107547 net.cpp:399] accuracy -> accuracy
…
