…
 'ROOT_DIR': '/home/zheda/workspace/cnn/flower-classify',
 'TEST': {'TARGET_SIZE': [227, 227]},
 'TRAIN': {'BATCH_SIZE': 255,
           'SNAPSHOT_INFIX': '',
           'SNAPSHOT_ITERS': 10000,
           'TARGET_SIZE': [227, 227],
           'USE_FLIPPED': True,
           'USE_PREFETCH': False}}
WARNING: Logging before InitGoogleLogging() is written to STDERR
I0622 21:58:27.707149 83395 net.cpp:49] Initializing net from parameters: 
name: "102FlowerCaffeNet"
input: "data"
state {
  phase: TEST
}
input_shape {
  dim: 10
  dim: 3
  dim: 227
  dim: 227
}
layer {
  name: "conv1"
  type: "Convolution"
  bottom: "data"
  top: "conv1"
  convolution_param {
    num_output: 96
    kernel_size: 11
    stride: 4
  }
}
layer {
  name: "relu1"
  type: "ReLU"
  bottom: "conv1"
  top: "conv1"
}
layer {
  name: "pool1"
  type: "Pooling"
  bottom: "conv1"
  top: "pool1"
  pooling_param {
    pool: MAX
    kernel_size: 3
    stride: 2
  }
}
layer {
  name: "norm1"
  type: "LRN"
  bottom: "pool1"
  top: "norm1"
  lrn_param {
    local_size: 5
    alpha: 0.0001
    beta: 0.75
  }
}
layer {
  name: "conv2"
  type: "Convolution"
  bottom: "norm1"
  top: "conv2"
  convolution_param {
    num_output: 256
    pad: 2
    kernel_size: 5
    group: 2
  }
}
layer {
  name: "relu2"
  type: "ReLU"
  bottom: "conv2"
  top: "conv2"
}
layer {
  name: "pool2"
  type: "Pooling"
  bottom: "conv2"
  top: "pool2"
  pooling_param {
    pool: MAX
    kernel_size: 3
    stride: 2
  }
}
layer {
  name: "norm2"
  type: "LRN"
  bottom: "pool2"
  top: "norm2"
  lrn_param {
    local_size: 5
    alpha: 0.0001
    beta: 0.75
  }
}
layer {
  name: "conv3"
  type: "Convolution"
  bottom: "norm2"
  top: "conv3"
  convolution_param {
    num_output: 384
    pad: 1
    kernel_size: 3
  }
}
layer {
  name: "relu3"
  type: "ReLU"
  bottom: "conv3"
  top: "conv3"
}
layer {
  name: "conv4"
  type: "Convolution"
  bottom: "conv3"
  top: "conv4"
  convolution_param {
    num_output: 384
    pad: 1
    kernel_size: 3
    group: 2
  }
}
layer {
  name: "relu4"
  type: "ReLU"
  bottom: "conv4"
  top: "conv4"
}
layer {
  name: "conv5"
  type: "Convolution"
  bottom: "conv4"
  top: "conv5"
  convolution_param {
    num_output: 256
    pad: 1
    kernel_size: 3
    group: 2
  }
}
layer {
  name: "relu5"
  type: "ReLU"
  bottom: "conv5"
  top: "conv5"
}
layer {
  name: "pool5"
  type: "Pooling"
  bottom: "conv5"
  top: "pool5"
  pooling_param {
    pool: MAX
    kernel_size: 3
    stride: 2
  }
}
layer {
  name: "fc6"
  type: "InnerProduct"
  bottom: "pool5"
  top: "fc6"
  inner_product_param {
    num_output: 4096
  }
}
layer {
  name: "relu6"
  type: "ReLU"
  bottom: "fc6"
  top: "fc6"
}
layer {
  name: "drop6"
  type: "Dropout"
  bottom: "fc6"
  top: "fc6"
  dropout_param {
    dropout_ratio: 0.5
  }
}
layer {
  name: "fc7"
  type: "InnerProduct"
  bottom: "fc6"
  top: "fc7"
  inner_product_param {
    num_output: 4096
  }
}
layer {
  name: "relu7"
  type: "ReLU"
  bottom: "fc7"
  top: "fc7"
}
layer {
  name: "drop7"
  type: "Dropout"
  bottom: "fc7"
  top: "fc7"
  dropout_param {
    dropout_ratio: 0.5
  }
}
layer {
  name: "102flower"
  type: "InnerProduct"
  bottom: "fc7"
  top: "102flower"
  inner_product_param {
    num_output: 102
  }
}
layer {
  name: "prob"
  type: "Softmax"
  bottom: "102flower"
  top: "prob"
}
I0622 21:58:27.707226 83395 net.cpp:413] Input 0 -> data
I0622 21:58:27.715142 83395 layer_factory.hpp:77] Creating layer conv1
I0622 21:58:27.715184 83395 net.cpp:106] Creating Layer conv1
I0622 21:58:27.715190 83395 net.cpp:454] conv1 <- data
I0622 21:58:27.715196 83395 net.cpp:411] conv1 -> conv1
I0622 21:58:27.829433 83395 net.cpp:150] Setting up conv1
I0622 21:58:27.829465 83395 net.cpp:157] Top shape: 10 96 55 55 (2904000)
I0622 21:58:27.829469 83395 net.cpp:165] Memory required for data: 11616000
I0622 21:58:27.829484 83395 layer_factory.hpp:77] Creating layer relu1
I0622 21:58:27.829495 83395 net.cpp:106] Creating Layer relu1
I0622 21:58:27.829499 83395 net.cpp:454] relu1 <- conv1
I0622 21:58:27.829504 83395 net.cpp:397] relu1 -> conv1 (in-place)
I0622 21:58:27.829646 83395 net.cpp:150] Setting up relu1
I0622 21:58:27.829655 83395 net.cpp:157] Top shape: 10 96 55 55 (2904000)
I0622 21:58:27.829658 83395 net.cpp:165] Memory required for data: 23232000
I0622 21:58:27.829661 83395 layer_factory.hpp:77] Creating layer pool1
I0622 21:58:27.829669 83395 net.cpp:106] Creating Layer pool1
I0622 21:58:27.829673 83395 net.cpp:454] pool1 <- conv1
I0622 21:58:27.829676 83395 net.cpp:411] pool1 -> pool1
I0622 21:58:27.829732 83395 net.cpp:150] Setting up pool1
I0622 21:58:27.829740 83395 net.cpp:157] Top shape: 10 96 27 27 (699840)
I0622 21:58:27.829742 83395 net.cpp:165] Memory required for data: 26031360
I0622 21:58:27.829746 83395 layer_factory.hpp:77] Creating layer norm1
I0622 21:58:27.829752 83395 net.cpp:106] Creating Layer norm1
I0622 21:58:27.829754 83395 net.cpp:454] norm1 <- pool1
I0622 21:58:27.829759 83395 net.cpp:411] norm1 -> norm1
I0622 21:58:27.830078 83395 net.cpp:150] Setting up norm1
I0622 21:58:27.830090 83395 net.cpp:157] Top shape: 10 96 27 27 (699840)
I0622 21:58:27.830092 83395 net.cpp:165] Memory required for data: 28830720
I0622 21:58:27.830096 83395 layer_factory.hpp:77] Creating layer conv2
I0622 21:58:27.830106 83395 net.cpp:106] Creating Layer conv2
I0622 21:58:27.830109 83395 net.cpp:454] conv2 <- norm1
I0622 21:58:27.830114 83395 net.cpp:411] conv2 -> conv2
I0622 21:58:27.833262 83395 net.cpp:150] Setting up conv2
I0622 21:58:27.833276 83395 net.cpp:157] Top shape: 10 256 27 27 (1866240)
I0622 21:58:27.833281 83395 net.cpp:165] Memory required for data: 36295680
I0622 21:58:27.833288 83395 layer_factory.hpp:77] Creating layer relu2
I0622 21:58:27.833295 83395 net.cpp:106] Creating Layer relu2
I0622 21:58:27.833298 83395 net.cpp:454] relu2 <- conv2
I0622 21:58:27.833302 83395 net.cpp:397] relu2 -> conv2 (in-place)
I0622 21:58:27.833443 83395 net.cpp:150] Setting up relu2
I0622 21:58:27.833451 83395 net.cpp:157] Top shape: 10 256 27 27 (1866240)
I0622 21:58:27.833454 83395 net.cpp:165] Memory required for data: 43760640
I0622 21:58:27.833457 83395 layer_factory.hpp:77] Creating layer pool2
I0622 21:58:27.833463 83395 net.cpp:106] Creating Layer pool2
I0622 21:58:27.833467 83395 net.cpp:454] pool2 <- conv2
I0622 21:58:27.833472 83395 net.cpp:411] pool2 -> pool2
I0622 21:58:27.833520 83395 net.cpp:150] Setting up pool2
I0622 21:58:27.833526 83395 net.cpp:157] Top shape: 10 256 13 13 (432640)
I0622 21:58:27.833529 83395 net.cpp:165] Memory required for data: 45491200
I0622 21:58:27.833531 83395 layer_factory.hpp:77] Creating layer norm2
I0622 21:58:27.833537 83395 net.cpp:106] Creating Layer norm2
I0622 21:58:27.833540 83395 net.cpp:454] norm2 <- pool2
I0622 21:58:27.833545 83395 net.cpp:411] norm2 -> norm2
I0622 21:58:27.833868 83395 net.cpp:150] Setting up norm2
I0622 21:58:27.833879 83395 net.cpp:157] Top shape: 10 256 13 13 (432640)
I0622 21:58:27.833883 83395 net.cpp:165] Memory required for data: 47221760
I0622 21:58:27.833886 83395 layer_factory.hpp:77] Creating layer conv3
I0622 21:58:27.833894 83395 net.cpp:106] Creating Layer conv3
I0622 21:58:27.833897 83395 net.cpp:454] conv3 <- norm2
I0622 21:58:27.833904 83395 net.cpp:411] conv3 -> conv3
I0622 21:58:27.836740 83395 net.cpp:150] Setting up conv3
I0622 21:58:27.836755 83395 net.cpp:157] Top shape: 10 384 13 13 (648960)
I0622 21:58:27.836760 83395 net.cpp:165] Memory required for data: 49817600
I0622 21:58:27.836768 83395 layer_factory.hpp:77] Creating layer relu3
I0622 21:58:27.836774 83395 net.cpp:106] Creating Layer relu3
I0622 21:58:27.836777 83395 net.cpp:454] relu3 <- conv3
I0622 21:58:27.836783 83395 net.cpp:397] relu3 -> conv3 (in-place)
I0622 21:58:27.837091 83395 net.cpp:150] Setting up relu3
I0622 21:58:27.837102 83395 net.cpp:157] Top shape: 10 384 13 13 (648960)
I0622 21:58:27.837105 83395 net.cpp:165] Memory required for data: 52413440
I0622 21:58:27.837108 83395 layer_factory.hpp:77] Creating layer conv4
I0622 21:58:27.837117 83395 net.cpp:106] Creating Layer conv4
I0622 21:58:27.837121 83395 net.cpp:454] conv4 <- conv3
I0622 21:58:27.837127 83395 net.cpp:411] conv4 -> conv4
I0622 21:58:27.840579 83395 net.cpp:150] Setting up conv4
I0622 21:58:27.840592 83395 net.cpp:157] Top shape: 10 384 13 13 (648960)
I0622 21:58:27.840595 83395 net.cpp:165] Memory required for data: 55009280
I0622 21:58:27.840602 83395 layer_factory.hpp:77] Creating layer relu4
I0622 21:58:27.840608 83395 net.cpp:106] Creating Layer relu4
I0622 21:58:27.840611 83395 net.cpp:454] relu4 <- conv4
I0622 21:58:27.840617 83395 net.cpp:397] relu4 -> conv4 (in-place)
I0622 21:58:27.840761 83395 net.cpp:150] Setting up relu4
I0622 21:58:27.840770 83395 net.cpp:157] Top shape: 10 384 13 13 (648960)
I0622 21:58:27.840772 83395 net.cpp:165] Memory required for data: 57605120
I0622 21:58:27.840776 83395 layer_factory.hpp:77] Creating layer conv5
I0622 21:58:27.840785 83395 net.cpp:106] Creating Layer conv5
I0622 21:58:27.840792 83395 net.cpp:454] conv5 <- conv4
I0622 21:58:27.840798 83395 net.cpp:411] conv5 -> conv5
I0622 21:58:27.843780 83395 net.cpp:150] Setting up conv5
I0622 21:58:27.843796 83395 net.cpp:157] Top shape: 10 256 13 13 (432640)
I0622 21:58:27.843798 83395 net.cpp:165] Memory required for data: 59335680
I0622 21:58:27.843808 83395 layer_factory.hpp:77] Creating layer relu5
I0622 21:58:27.843814 83395 net.cpp:106] Creating Layer relu5
I0622 21:58:27.843818 83395 net.cpp:454] relu5 <- conv5
I0622 21:58:27.843822 83395 net.cpp:397] relu5 -> conv5 (in-place)
I0622 21:58:27.843969 83395 net.cpp:150] Setting up relu5
I0622 21:58:27.843978 83395 net.cpp:157] Top shape: 10 256 13 13 (432640)
I0622 21:58:27.843981 83395 net.cpp:165] Memory required for data: 61066240
I0622 21:58:27.843983 83395 layer_factory.hpp:77] Creating layer pool5
I0622 21:58:27.843991 83395 net.cpp:106] Creating Layer pool5
I0622 21:58:27.843994 83395 net.cpp:454] pool5 <- conv5
I0622 21:58:27.843998 83395 net.cpp:411] pool5 -> pool5
I0622 21:58:27.844053 83395 net.cpp:150] Setting up pool5
I0622 21:58:27.844058 83395 net.cpp:157] Top shape: 10 256 6 6 (92160)
I0622 21:58:27.844060 83395 net.cpp:165] Memory required for data: 61434880
I0622 21:58:27.844063 83395 layer_factory.hpp:77] Creating layer fc6
I0622 21:58:27.844070 83395 net.cpp:106] Creating Layer fc6
I0622 21:58:27.844074 83395 net.cpp:454] fc6 <- pool5
I0622 21:58:27.844076 83395 net.cpp:411] fc6 -> fc6
I0622 21:58:27.928766 83395 net.cpp:150] Setting up fc6
I0622 21:58:27.928814 83395 net.cpp:157] Top shape: 10 4096 (40960)
I0622 21:58:27.928818 83395 net.cpp:165] Memory required for data: 61598720
I0622 21:58:27.928830 83395 layer_factory.hpp:77] Creating layer relu6
I0622 21:58:27.928843 83395 net.cpp:106] Creating Layer relu6
I0622 21:58:27.928851 83395 net.cpp:454] relu6 <- fc6
I0622 21:58:27.928858 83395 net.cpp:397] relu6 -> fc6 (in-place)
I0622 21:58:27.929395 83395 net.cpp:150] Setting up relu6
I0622 21:58:27.929406 83395 net.cpp:157] Top shape: 10 4096 (40960)
I0622 21:58:27.929409 83395 net.cpp:165] Memory required for data: 61762560
I0622 21:58:27.929412 83395 layer_factory.hpp:77] Creating layer drop6
I0622 21:58:27.929425 83395 net.cpp:106] Creating Layer drop6
I0622 21:58:27.929430 83395 net.cpp:454] drop6 <- fc6
I0622 21:58:27.929435 83395 net.cpp:397] drop6 -> fc6 (in-place)
I0622 21:58:27.929472 83395 net.cpp:150] Setting up drop6
I0622 21:58:27.929478 83395 net.cpp:157] Top shape: 10 4096 (40960)
I0622 21:58:27.929481 83395 net.cpp:165] Memory required for data: 61926400
I0622 21:58:27.929484 83395 layer_factory.hpp:77] Creating layer fc7
I0622 21:58:27.929489 83395 net.cpp:106] Creating Layer fc7
I0622 21:58:27.929492 83395 net.cpp:454] fc7 <- fc6
I0622 21:58:27.929498 83395 net.cpp:411] fc7 -> fc7
I0622 21:58:27.970834 83395 net.cpp:150] Setting up fc7
I0622 21:58:27.970872 83395 net.cpp:157] Top shape: 10 4096 (40960)
I0622 21:58:27.970875 83395 net.cpp:165] Memory required for data: 62090240
I0622 21:58:27.970887 83395 layer_factory.hpp:77] Creating layer relu7
I0622 21:58:27.970898 83395 net.cpp:106] Creating Layer relu7
I0622 21:58:27.970903 83395 net.cpp:454] relu7 <- fc7
I0622 21:58:27.970909 83395 net.cpp:397] relu7 -> fc7 (in-place)
I0622 21:58:27.971140 83395 net.cpp:150] Setting up relu7
I0622 21:58:27.971148 83395 net.cpp:157] Top shape: 10 4096 (40960)
I0622 21:58:27.971151 83395 net.cpp:165] Memory required for data: 62254080
I0622 21:58:27.971154 83395 layer_factory.hpp:77] Creating layer drop7
I0622 21:58:27.971163 83395 net.cpp:106] Creating Layer drop7
I0622 21:58:27.971165 83395 net.cpp:454] drop7 <- fc7
I0622 21:58:27.971169 83395 net.cpp:397] drop7 -> fc7 (in-place)
I0622 21:58:27.971204 83395 net.cpp:150] Setting up drop7
I0622 21:58:27.971210 83395 net.cpp:157] Top shape: 10 4096 (40960)
I0622 21:58:27.971213 83395 net.cpp:165] Memory required for data: 62417920
I0622 21:58:27.971216 83395 layer_factory.hpp:77] Creating layer 102flower
I0622 21:58:27.971223 83395 net.cpp:106] Creating Layer 102flower
I0622 21:58:27.971226 83395 net.cpp:454] 102flower <- fc7
I0622 21:58:27.971231 83395 net.cpp:411] 102flower -> 102flower
I0622 21:58:27.972767 83395 net.cpp:150] Setting up 102flower
I0622 21:58:27.972827 83395 net.cpp:157] Top shape: 10 102 (1020)
I0622 21:58:27.972831 83395 net.cpp:165] Memory required for data: 62422000
I0622 21:58:27.972841 83395 layer_factory.hpp:77] Creating layer prob
I0622 21:58:27.972849 83395 net.cpp:106] Creating Layer prob
I0622 21:58:27.972853 83395 net.cpp:454] prob <- 102flower
I0622 21:58:27.972862 83395 net.cpp:411] prob -> prob
I0622 21:58:27.973381 83395 net.cpp:150] Setting up prob
I0622 21:58:27.973394 83395 net.cpp:157] Top shape: 10 102 (1020)
I0622 21:58:27.973397 83395 net.cpp:165] Memory required for data: 62426080
I0622 21:58:27.973400 83395 net.cpp:228] prob does not need backward computation.
I0622 21:58:27.973404 83395 net.cpp:228] 102flower does not need backward computation.
I0622 21:58:27.973407 83395 net.cpp:228] drop7 does not need backward computation.
I0622 21:58:27.973412 83395 net.cpp:228] relu7 does not need backward computation.
…
