…
 'ROOT_DIR': '/home/zheda/workspace/cnn/flower-classify',
 'TEST': {'TARGET_SIZE': [227, 227]},
 'TRAIN': {'BATCH_SIZE': 255,
           'SNAPSHOT_INFIX': '',
           'SNAPSHOT_ITERS': 10000,
           'TARGET_SIZE': [227, 227],
           'USE_FLIPPED': True,
           'USE_PREFETCH': False}}
WARNING: Logging before InitGoogleLogging() is written to STDERR
I0621 18:14:23.669034 55613 net.cpp:49] Initializing net from parameters: 
name: "102FlowerCaffeNet"
input: "data"
state {
  phase: TEST
}
input_shape {
  dim: 10
  dim: 3
  dim: 227
  dim: 227
}
layer {
  name: "conv1"
  type: "Convolution"
  bottom: "data"
  top: "conv1"
  convolution_param {
    num_output: 96
    kernel_size: 11
    stride: 4
  }
}
layer {
  name: "relu1"
  type: "ReLU"
  bottom: "conv1"
  top: "conv1"
}
layer {
  name: "pool1"
  type: "Pooling"
  bottom: "conv1"
  top: "pool1"
  pooling_param {
    pool: MAX
    kernel_size: 3
    stride: 2
  }
}
layer {
  name: "norm1"
  type: "LRN"
  bottom: "pool1"
  top: "norm1"
  lrn_param {
    local_size: 5
    alpha: 0.0001
    beta: 0.75
  }
}
layer {
  name: "conv2"
  type: "Convolution"
  bottom: "norm1"
  top: "conv2"
  convolution_param {
    num_output: 256
    pad: 2
    kernel_size: 5
    group: 2
  }
}
layer {
  name: "relu2"
  type: "ReLU"
  bottom: "conv2"
  top: "conv2"
}
layer {
  name: "pool2"
  type: "Pooling"
  bottom: "conv2"
  top: "pool2"
  pooling_param {
    pool: MAX
    kernel_size: 3
    stride: 2
  }
}
layer {
  name: "norm2"
  type: "LRN"
  bottom: "pool2"
  top: "norm2"
  lrn_param {
    local_size: 5
    alpha: 0.0001
    beta: 0.75
  }
}
layer {
  name: "conv3"
  type: "Convolution"
  bottom: "norm2"
  top: "conv3"
  convolution_param {
    num_output: 384
    pad: 1
    kernel_size: 3
  }
}
layer {
  name: "relu3"
  type: "ReLU"
  bottom: "conv3"
  top: "conv3"
}
layer {
  name: "conv4"
  type: "Convolution"
  bottom: "conv3"
  top: "conv4"
  convolution_param {
    num_output: 384
    pad: 1
    kernel_size: 3
    group: 2
  }
}
layer {
  name: "relu4"
  type: "ReLU"
  bottom: "conv4"
  top: "conv4"
}
layer {
  name: "conv5"
  type: "Convolution"
  bottom: "conv4"
  top: "conv5"
  convolution_param {
    num_output: 256
    pad: 1
    kernel_size: 3
    group: 2
  }
}
layer {
  name: "relu5"
  type: "ReLU"
  bottom: "conv5"
  top: "conv5"
}
layer {
  name: "pool5"
  type: "Pooling"
  bottom: "conv5"
  top: "pool5"
  pooling_param {
    pool: MAX
    kernel_size: 3
    stride: 2
  }
}
layer {
  name: "fc6"
  type: "InnerProduct"
  bottom: "pool5"
  top: "fc6"
  inner_product_param {
    num_output: 4096
  }
}
layer {
  name: "relu6"
  type: "ReLU"
  bottom: "fc6"
  top: "fc6"
}
layer {
  name: "drop6"
  type: "Dropout"
  bottom: "fc6"
  top: "fc6"
  dropout_param {
    dropout_ratio: 0.5
  }
}
layer {
  name: "fc7"
  type: "InnerProduct"
  bottom: "fc6"
  top: "fc7"
  inner_product_param {
    num_output: 4096
  }
}
layer {
  name: "relu7"
  type: "ReLU"
  bottom: "fc7"
  top: "fc7"
}
layer {
  name: "drop7"
  type: "Dropout"
  bottom: "fc7"
  top: "fc7"
  dropout_param {
    dropout_ratio: 0.5
  }
}
layer {
  name: "102flower"
  type: "InnerProduct"
  bottom: "fc7"
  top: "102flower"
  inner_product_param {
    num_output: 102
  }
}
layer {
  name: "prob"
  type: "Softmax"
  bottom: "102flower"
  top: "prob"
}
I0621 18:14:23.669111 55613 net.cpp:413] Input 0 -> data
I0621 18:14:23.769723 55613 layer_factory.hpp:77] Creating layer conv1
I0621 18:14:23.769774 55613 net.cpp:106] Creating Layer conv1
I0621 18:14:23.769780 55613 net.cpp:454] conv1 <- data
I0621 18:14:23.769788 55613 net.cpp:411] conv1 -> conv1
I0621 18:14:24.140430 55613 net.cpp:150] Setting up conv1
I0621 18:14:24.140465 55613 net.cpp:157] Top shape: 10 96 55 55 (2904000)
I0621 18:14:24.140470 55613 net.cpp:165] Memory required for data: 11616000
I0621 18:14:24.140488 55613 layer_factory.hpp:77] Creating layer relu1
I0621 18:14:24.140504 55613 net.cpp:106] Creating Layer relu1
I0621 18:14:24.140509 55613 net.cpp:454] relu1 <- conv1
I0621 18:14:24.140516 55613 net.cpp:397] relu1 -> conv1 (in-place)
I0621 18:14:24.140661 55613 net.cpp:150] Setting up relu1
I0621 18:14:24.140668 55613 net.cpp:157] Top shape: 10 96 55 55 (2904000)
I0621 18:14:24.140671 55613 net.cpp:165] Memory required for data: 23232000
I0621 18:14:24.140676 55613 layer_factory.hpp:77] Creating layer pool1
I0621 18:14:24.140684 55613 net.cpp:106] Creating Layer pool1
I0621 18:14:24.140687 55613 net.cpp:454] pool1 <- conv1
I0621 18:14:24.140692 55613 net.cpp:411] pool1 -> pool1
I0621 18:14:24.140745 55613 net.cpp:150] Setting up pool1
I0621 18:14:24.140750 55613 net.cpp:157] Top shape: 10 96 27 27 (699840)
I0621 18:14:24.140753 55613 net.cpp:165] Memory required for data: 26031360
I0621 18:14:24.140756 55613 layer_factory.hpp:77] Creating layer norm1
I0621 18:14:24.140765 55613 net.cpp:106] Creating Layer norm1
I0621 18:14:24.140769 55613 net.cpp:454] norm1 <- pool1
I0621 18:14:24.140774 55613 net.cpp:411] norm1 -> norm1
I0621 18:14:24.141139 55613 net.cpp:150] Setting up norm1
I0621 18:14:24.141149 55613 net.cpp:157] Top shape: 10 96 27 27 (699840)
I0621 18:14:24.141152 55613 net.cpp:165] Memory required for data: 28830720
I0621 18:14:24.141155 55613 layer_factory.hpp:77] Creating layer conv2
I0621 18:14:24.141168 55613 net.cpp:106] Creating Layer conv2
I0621 18:14:24.141171 55613 net.cpp:454] conv2 <- norm1
I0621 18:14:24.141177 55613 net.cpp:411] conv2 -> conv2
I0621 18:14:24.144353 55613 net.cpp:150] Setting up conv2
I0621 18:14:24.144366 55613 net.cpp:157] Top shape: 10 256 27 27 (1866240)
I0621 18:14:24.144369 55613 net.cpp:165] Memory required for data: 36295680
I0621 18:14:24.144381 55613 layer_factory.hpp:77] Creating layer relu2
I0621 18:14:24.144387 55613 net.cpp:106] Creating Layer relu2
I0621 18:14:24.144389 55613 net.cpp:454] relu2 <- conv2
I0621 18:14:24.144393 55613 net.cpp:397] relu2 -> conv2 (in-place)
I0621 18:14:24.144539 55613 net.cpp:150] Setting up relu2
I0621 18:14:24.144546 55613 net.cpp:157] Top shape: 10 256 27 27 (1866240)
I0621 18:14:24.144549 55613 net.cpp:165] Memory required for data: 43760640
I0621 18:14:24.144552 55613 layer_factory.hpp:77] Creating layer pool2
I0621 18:14:24.144559 55613 net.cpp:106] Creating Layer pool2
I0621 18:14:24.144562 55613 net.cpp:454] pool2 <- conv2
I0621 18:14:24.144567 55613 net.cpp:411] pool2 -> pool2
I0621 18:14:24.144618 55613 net.cpp:150] Setting up pool2
I0621 18:14:24.144621 55613 net.cpp:157] Top shape: 10 256 13 13 (432640)
I0621 18:14:24.144624 55613 net.cpp:165] Memory required for data: 45491200
I0621 18:14:24.144628 55613 layer_factory.hpp:77] Creating layer norm2
I0621 18:14:24.144634 55613 net.cpp:106] Creating Layer norm2
I0621 18:14:24.144637 55613 net.cpp:454] norm2 <- pool2
I0621 18:14:24.144640 55613 net.cpp:411] norm2 -> norm2
I0621 18:14:24.144991 55613 net.cpp:150] Setting up norm2
I0621 18:14:24.145001 55613 net.cpp:157] Top shape: 10 256 13 13 (432640)
I0621 18:14:24.145004 55613 net.cpp:165] Memory required for data: 47221760
I0621 18:14:24.145007 55613 layer_factory.hpp:77] Creating layer conv3
I0621 18:14:24.145018 55613 net.cpp:106] Creating Layer conv3
I0621 18:14:24.145021 55613 net.cpp:454] conv3 <- norm2
I0621 18:14:24.145026 55613 net.cpp:411] conv3 -> conv3
I0621 18:14:24.147876 55613 net.cpp:150] Setting up conv3
I0621 18:14:24.147887 55613 net.cpp:157] Top shape: 10 384 13 13 (648960)
I0621 18:14:24.147891 55613 net.cpp:165] Memory required for data: 49817600
I0621 18:14:24.147898 55613 layer_factory.hpp:77] Creating layer relu3
I0621 18:14:24.147907 55613 net.cpp:106] Creating Layer relu3
I0621 18:14:24.147909 55613 net.cpp:454] relu3 <- conv3
I0621 18:14:24.147913 55613 net.cpp:397] relu3 -> conv3 (in-place)
I0621 18:14:24.148200 55613 net.cpp:150] Setting up relu3
I0621 18:14:24.148210 55613 net.cpp:157] Top shape: 10 384 13 13 (648960)
I0621 18:14:24.148212 55613 net.cpp:165] Memory required for data: 52413440
I0621 18:14:24.148216 55613 layer_factory.hpp:77] Creating layer conv4
I0621 18:14:24.148224 55613 net.cpp:106] Creating Layer conv4
I0621 18:14:24.148227 55613 net.cpp:454] conv4 <- conv3
I0621 18:14:24.148233 55613 net.cpp:411] conv4 -> conv4
I0621 18:14:24.151504 55613 net.cpp:150] Setting up conv4
I0621 18:14:24.151516 55613 net.cpp:157] Top shape: 10 384 13 13 (648960)
I0621 18:14:24.151520 55613 net.cpp:165] Memory required for data: 55009280
I0621 18:14:24.151526 55613 layer_factory.hpp:77] Creating layer relu4
I0621 18:14:24.151531 55613 net.cpp:106] Creating Layer relu4
I0621 18:14:24.151535 55613 net.cpp:454] relu4 <- conv4
I0621 18:14:24.151540 55613 net.cpp:397] relu4 -> conv4 (in-place)
I0621 18:14:24.151680 55613 net.cpp:150] Setting up relu4
I0621 18:14:24.151686 55613 net.cpp:157] Top shape: 10 384 13 13 (648960)
I0621 18:14:24.151690 55613 net.cpp:165] Memory required for data: 57605120
I0621 18:14:24.151692 55613 layer_factory.hpp:77] Creating layer conv5
I0621 18:14:24.151700 55613 net.cpp:106] Creating Layer conv5
I0621 18:14:24.151702 55613 net.cpp:454] conv5 <- conv4
I0621 18:14:24.151708 55613 net.cpp:411] conv5 -> conv5
I0621 18:14:24.154773 55613 net.cpp:150] Setting up conv5
I0621 18:14:24.154788 55613 net.cpp:157] Top shape: 10 256 13 13 (432640)
I0621 18:14:24.154793 55613 net.cpp:165] Memory required for data: 59335680
I0621 18:14:24.154801 55613 layer_factory.hpp:77] Creating layer relu5
I0621 18:14:24.154808 55613 net.cpp:106] Creating Layer relu5
I0621 18:14:24.154810 55613 net.cpp:454] relu5 <- conv5
I0621 18:14:24.154816 55613 net.cpp:397] relu5 -> conv5 (in-place)
I0621 18:14:24.154958 55613 net.cpp:150] Setting up relu5
I0621 18:14:24.154965 55613 net.cpp:157] Top shape: 10 256 13 13 (432640)
I0621 18:14:24.154968 55613 net.cpp:165] Memory required for data: 61066240
I0621 18:14:24.154971 55613 layer_factory.hpp:77] Creating layer pool5
I0621 18:14:24.154978 55613 net.cpp:106] Creating Layer pool5
I0621 18:14:24.154980 55613 net.cpp:454] pool5 <- conv5
I0621 18:14:24.154985 55613 net.cpp:411] pool5 -> pool5
I0621 18:14:24.155037 55613 net.cpp:150] Setting up pool5
I0621 18:14:24.155043 55613 net.cpp:157] Top shape: 10 256 6 6 (92160)
I0621 18:14:24.155046 55613 net.cpp:165] Memory required for data: 61434880
I0621 18:14:24.155048 55613 layer_factory.hpp:77] Creating layer fc6
I0621 18:14:24.155061 55613 net.cpp:106] Creating Layer fc6
I0621 18:14:24.155064 55613 net.cpp:454] fc6 <- pool5
I0621 18:14:24.155068 55613 net.cpp:411] fc6 -> fc6
I0621 18:14:24.305207 55613 net.cpp:150] Setting up fc6
I0621 18:14:24.305266 55613 net.cpp:157] Top shape: 10 4096 (40960)
I0621 18:14:24.305272 55613 net.cpp:165] Memory required for data: 61598720
I0621 18:14:24.305286 55613 layer_factory.hpp:77] Creating layer relu6
I0621 18:14:24.305304 55613 net.cpp:106] Creating Layer relu6
I0621 18:14:24.305308 55613 net.cpp:454] relu6 <- fc6
I0621 18:14:24.305320 55613 net.cpp:397] relu6 -> fc6 (in-place)
I0621 18:14:24.305968 55613 net.cpp:150] Setting up relu6
I0621 18:14:24.305984 55613 net.cpp:157] Top shape: 10 4096 (40960)
I0621 18:14:24.305989 55613 net.cpp:165] Memory required for data: 61762560
I0621 18:14:24.305994 55613 layer_factory.hpp:77] Creating layer drop6
I0621 18:14:24.306015 55613 net.cpp:106] Creating Layer drop6
I0621 18:14:24.306020 55613 net.cpp:454] drop6 <- fc6
I0621 18:14:24.306027 55613 net.cpp:397] drop6 -> fc6 (in-place)
I0621 18:14:24.306082 55613 net.cpp:150] Setting up drop6
I0621 18:14:24.306089 55613 net.cpp:157] Top shape: 10 4096 (40960)
I0621 18:14:24.306093 55613 net.cpp:165] Memory required for data: 61926400
I0621 18:14:24.306098 55613 layer_factory.hpp:77] Creating layer fc7
I0621 18:14:24.306107 55613 net.cpp:106] Creating Layer fc7
I0621 18:14:24.306113 55613 net.cpp:454] fc7 <- fc6
I0621 18:14:24.306118 55613 net.cpp:411] fc7 -> fc7
I0621 18:14:24.351757 55613 net.cpp:150] Setting up fc7
I0621 18:14:24.351795 55613 net.cpp:157] Top shape: 10 4096 (40960)
I0621 18:14:24.351799 55613 net.cpp:165] Memory required for data: 62090240
I0621 18:14:24.351809 55613 layer_factory.hpp:77] Creating layer relu7
I0621 18:14:24.351820 55613 net.cpp:106] Creating Layer relu7
I0621 18:14:24.351824 55613 net.cpp:454] relu7 <- fc7
I0621 18:14:24.351832 55613 net.cpp:397] relu7 -> fc7 (in-place)
I0621 18:14:24.352085 55613 net.cpp:150] Setting up relu7
I0621 18:14:24.352095 55613 net.cpp:157] Top shape: 10 4096 (40960)
I0621 18:14:24.352098 55613 net.cpp:165] Memory required for data: 62254080
I0621 18:14:24.352102 55613 layer_factory.hpp:77] Creating layer drop7
I0621 18:14:24.352108 55613 net.cpp:106] Creating Layer drop7
I0621 18:14:24.352111 55613 net.cpp:454] drop7 <- fc7
I0621 18:14:24.352115 55613 net.cpp:397] drop7 -> fc7 (in-place)
I0621 18:14:24.352150 55613 net.cpp:150] Setting up drop7
I0621 18:14:24.352157 55613 net.cpp:157] Top shape: 10 4096 (40960)
I0621 18:14:24.352160 55613 net.cpp:165] Memory required for data: 62417920
I0621 18:14:24.352164 55613 layer_factory.hpp:77] Creating layer 102flower
I0621 18:14:24.352169 55613 net.cpp:106] Creating Layer 102flower
I0621 18:14:24.352171 55613 net.cpp:454] 102flower <- fc7
I0621 18:14:24.352176 55613 net.cpp:411] 102flower -> 102flower
I0621 18:14:24.353723 55613 net.cpp:150] Setting up 102flower
I0621 18:14:24.353747 55613 net.cpp:157] Top shape: 10 102 (1020)
I0621 18:14:24.353752 55613 net.cpp:165] Memory required for data: 62422000
I0621 18:14:24.353759 55613 layer_factory.hpp:77] Creating layer prob
I0621 18:14:24.353765 55613 net.cpp:106] Creating Layer prob
I0621 18:14:24.353770 55613 net.cpp:454] prob <- 102flower
I0621 18:14:24.353775 55613 net.cpp:411] prob -> prob
I0621 18:14:24.354212 55613 net.cpp:150] Setting up prob
I0621 18:14:24.354223 55613 net.cpp:157] Top shape: 10 102 (1020)
I0621 18:14:24.354226 55613 net.cpp:165] Memory required for data: 62426080
I0621 18:14:24.354229 55613 net.cpp:228] prob does not need backward computation.
I0621 18:14:24.354233 55613 net.cpp:228] 102flower does not need backward computation.
I0621 18:14:24.354236 55613 net.cpp:228] drop7 does not need backward computation.
I0621 18:14:24.354238 55613 net.cpp:228] relu7 does not need backward computation.
…
