…
 'ROOT_DIR': '/home/zheda/workspace/cnn/flower-classify',
 'TEST': {'TARGET_SIZE': [227, 227]},
 'TRAIN': {'BATCH_SIZE': 255,
           'SNAPSHOT_INFIX': '',
           'SNAPSHOT_ITERS': 10000,
           'TARGET_SIZE': [227, 227],
           'USE_FLIPPED': True,
           'USE_PREFETCH': False}}
WARNING: Logging before InitGoogleLogging() is written to STDERR
I0622 16:38:53.803019 78018 net.cpp:49] Initializing net from parameters: 
name: "102FlowerCaffeNet"
input: "data"
state {
  phase: TEST
}
input_shape {
  dim: 10
  dim: 3
  dim: 227
  dim: 227
}
layer {
  name: "conv1"
  type: "Convolution"
  bottom: "data"
  top: "conv1"
  convolution_param {
    num_output: 96
    kernel_size: 11
    stride: 4
  }
}
layer {
  name: "relu1"
  type: "ReLU"
  bottom: "conv1"
  top: "conv1"
}
layer {
  name: "pool1"
  type: "Pooling"
  bottom: "conv1"
  top: "pool1"
  pooling_param {
    pool: MAX
    kernel_size: 3
    stride: 2
  }
}
layer {
  name: "norm1"
  type: "LRN"
  bottom: "pool1"
  top: "norm1"
  lrn_param {
    local_size: 5
    alpha: 0.0001
    beta: 0.75
  }
}
layer {
  name: "conv2"
  type: "Convolution"
  bottom: "norm1"
  top: "conv2"
  convolution_param {
    num_output: 256
    pad: 2
    kernel_size: 5
    group: 2
  }
}
layer {
  name: "relu2"
  type: "ReLU"
  bottom: "conv2"
  top: "conv2"
}
layer {
  name: "pool2"
  type: "Pooling"
  bottom: "conv2"
  top: "pool2"
  pooling_param {
    pool: MAX
    kernel_size: 3
    stride: 2
  }
}
layer {
  name: "norm2"
  type: "LRN"
  bottom: "pool2"
  top: "norm2"
  lrn_param {
    local_size: 5
    alpha: 0.0001
    beta: 0.75
  }
}
layer {
  name: "conv3"
  type: "Convolution"
  bottom: "norm2"
  top: "conv3"
  convolution_param {
    num_output: 384
    pad: 1
    kernel_size: 3
  }
}
layer {
  name: "relu3"
  type: "ReLU"
  bottom: "conv3"
  top: "conv3"
}
layer {
  name: "conv4"
  type: "Convolution"
  bottom: "conv3"
  top: "conv4"
  convolution_param {
    num_output: 384
    pad: 1
    kernel_size: 3
    group: 2
  }
}
layer {
  name: "relu4"
  type: "ReLU"
  bottom: "conv4"
  top: "conv4"
}
layer {
  name: "conv5"
  type: "Convolution"
  bottom: "conv4"
  top: "conv5"
  convolution_param {
    num_output: 256
    pad: 1
    kernel_size: 3
    group: 2
  }
}
layer {
  name: "relu5"
  type: "ReLU"
  bottom: "conv5"
  top: "conv5"
}
layer {
  name: "pool5"
  type: "Pooling"
  bottom: "conv5"
  top: "pool5"
  pooling_param {
    pool: MAX
    kernel_size: 3
    stride: 2
  }
}
layer {
  name: "fc6"
  type: "InnerProduct"
  bottom: "pool5"
  top: "fc6"
  inner_product_param {
    num_output: 4096
  }
}
layer {
  name: "relu6"
  type: "ReLU"
  bottom: "fc6"
  top: "fc6"
}
layer {
  name: "drop6"
  type: "Dropout"
  bottom: "fc6"
  top: "fc6"
  dropout_param {
    dropout_ratio: 0.5
  }
}
layer {
  name: "fc7"
  type: "InnerProduct"
  bottom: "fc6"
  top: "fc7"
  inner_product_param {
    num_output: 4096
  }
}
layer {
  name: "relu7"
  type: "ReLU"
  bottom: "fc7"
  top: "fc7"
}
layer {
  name: "drop7"
  type: "Dropout"
  bottom: "fc7"
  top: "fc7"
  dropout_param {
    dropout_ratio: 0.5
  }
}
layer {
  name: "102flower"
  type: "InnerProduct"
  bottom: "fc7"
  top: "102flower"
  inner_product_param {
    num_output: 102
  }
}
layer {
  name: "prob"
  type: "Softmax"
  bottom: "102flower"
  top: "prob"
}
I0622 16:38:53.803104 78018 net.cpp:413] Input 0 -> data
I0622 16:38:53.812273 78018 layer_factory.hpp:77] Creating layer conv1
I0622 16:38:53.812316 78018 net.cpp:106] Creating Layer conv1
I0622 16:38:53.812322 78018 net.cpp:454] conv1 <- data
I0622 16:38:53.812330 78018 net.cpp:411] conv1 -> conv1
I0622 16:38:53.937914 78018 net.cpp:150] Setting up conv1
I0622 16:38:53.937945 78018 net.cpp:157] Top shape: 10 96 55 55 (2904000)
I0622 16:38:53.937950 78018 net.cpp:165] Memory required for data: 11616000
I0622 16:38:53.937966 78018 layer_factory.hpp:77] Creating layer relu1
I0622 16:38:53.937981 78018 net.cpp:106] Creating Layer relu1
I0622 16:38:53.937985 78018 net.cpp:454] relu1 <- conv1
I0622 16:38:53.937991 78018 net.cpp:397] relu1 -> conv1 (in-place)
I0622 16:38:53.938146 78018 net.cpp:150] Setting up relu1
I0622 16:38:53.938155 78018 net.cpp:157] Top shape: 10 96 55 55 (2904000)
I0622 16:38:53.938158 78018 net.cpp:165] Memory required for data: 23232000
I0622 16:38:53.938163 78018 layer_factory.hpp:77] Creating layer pool1
I0622 16:38:53.938171 78018 net.cpp:106] Creating Layer pool1
I0622 16:38:53.938174 78018 net.cpp:454] pool1 <- conv1
I0622 16:38:53.938179 78018 net.cpp:411] pool1 -> pool1
I0622 16:38:53.938240 78018 net.cpp:150] Setting up pool1
I0622 16:38:53.938246 78018 net.cpp:157] Top shape: 10 96 27 27 (699840)
I0622 16:38:53.938251 78018 net.cpp:165] Memory required for data: 26031360
I0622 16:38:53.938253 78018 layer_factory.hpp:77] Creating layer norm1
I0622 16:38:53.938261 78018 net.cpp:106] Creating Layer norm1
I0622 16:38:53.938264 78018 net.cpp:454] norm1 <- pool1
I0622 16:38:53.938268 78018 net.cpp:411] norm1 -> norm1
I0622 16:38:53.938601 78018 net.cpp:150] Setting up norm1
I0622 16:38:53.938613 78018 net.cpp:157] Top shape: 10 96 27 27 (699840)
I0622 16:38:53.938616 78018 net.cpp:165] Memory required for data: 28830720
I0622 16:38:53.938621 78018 layer_factory.hpp:77] Creating layer conv2
I0622 16:38:53.938632 78018 net.cpp:106] Creating Layer conv2
I0622 16:38:53.938634 78018 net.cpp:454] conv2 <- norm1
I0622 16:38:53.938640 78018 net.cpp:411] conv2 -> conv2
I0622 16:38:53.943084 78018 net.cpp:150] Setting up conv2
I0622 16:38:53.943104 78018 net.cpp:157] Top shape: 10 256 27 27 (1866240)
I0622 16:38:53.943107 78018 net.cpp:165] Memory required for data: 36295680
I0622 16:38:53.943120 78018 layer_factory.hpp:77] Creating layer relu2
I0622 16:38:53.943127 78018 net.cpp:106] Creating Layer relu2
I0622 16:38:53.943131 78018 net.cpp:454] relu2 <- conv2
I0622 16:38:53.943136 78018 net.cpp:397] relu2 -> conv2 (in-place)
I0622 16:38:53.943363 78018 net.cpp:150] Setting up relu2
I0622 16:38:53.943374 78018 net.cpp:157] Top shape: 10 256 27 27 (1866240)
I0622 16:38:53.943377 78018 net.cpp:165] Memory required for data: 43760640
I0622 16:38:53.943382 78018 layer_factory.hpp:77] Creating layer pool2
I0622 16:38:53.943387 78018 net.cpp:106] Creating Layer pool2
I0622 16:38:53.943390 78018 net.cpp:454] pool2 <- conv2
I0622 16:38:53.943395 78018 net.cpp:411] pool2 -> pool2
I0622 16:38:53.943470 78018 net.cpp:150] Setting up pool2
I0622 16:38:53.943476 78018 net.cpp:157] Top shape: 10 256 13 13 (432640)
I0622 16:38:53.943480 78018 net.cpp:165] Memory required for data: 45491200
I0622 16:38:53.943481 78018 layer_factory.hpp:77] Creating layer norm2
I0622 16:38:53.943490 78018 net.cpp:106] Creating Layer norm2
I0622 16:38:53.943492 78018 net.cpp:454] norm2 <- pool2
I0622 16:38:53.943496 78018 net.cpp:411] norm2 -> norm2
I0622 16:38:53.943868 78018 net.cpp:150] Setting up norm2
I0622 16:38:53.943881 78018 net.cpp:157] Top shape: 10 256 13 13 (432640)
I0622 16:38:53.943883 78018 net.cpp:165] Memory required for data: 47221760
I0622 16:38:53.943887 78018 layer_factory.hpp:77] Creating layer conv3
I0622 16:38:53.943897 78018 net.cpp:106] Creating Layer conv3
I0622 16:38:53.943902 78018 net.cpp:454] conv3 <- norm2
I0622 16:38:53.943907 78018 net.cpp:411] conv3 -> conv3
I0622 16:38:53.949084 78018 net.cpp:150] Setting up conv3
I0622 16:38:53.949112 78018 net.cpp:157] Top shape: 10 384 13 13 (648960)
I0622 16:38:53.949120 78018 net.cpp:165] Memory required for data: 49817600
I0622 16:38:53.949144 78018 layer_factory.hpp:77] Creating layer relu3
I0622 16:38:53.949158 78018 net.cpp:106] Creating Layer relu3
I0622 16:38:53.949167 78018 net.cpp:454] relu3 <- conv3
I0622 16:38:53.949177 78018 net.cpp:397] relu3 -> conv3 (in-place)
I0622 16:38:53.949789 78018 net.cpp:150] Setting up relu3
I0622 16:38:53.949816 78018 net.cpp:157] Top shape: 10 384 13 13 (648960)
I0622 16:38:53.949825 78018 net.cpp:165] Memory required for data: 52413440
I0622 16:38:53.949832 78018 layer_factory.hpp:77] Creating layer conv4
I0622 16:38:53.949848 78018 net.cpp:106] Creating Layer conv4
I0622 16:38:53.949856 78018 net.cpp:454] conv4 <- conv3
I0622 16:38:53.949869 78018 net.cpp:411] conv4 -> conv4
I0622 16:38:53.956827 78018 net.cpp:150] Setting up conv4
I0622 16:38:53.956866 78018 net.cpp:157] Top shape: 10 384 13 13 (648960)
I0622 16:38:53.956873 78018 net.cpp:165] Memory required for data: 55009280
I0622 16:38:53.956889 78018 layer_factory.hpp:77] Creating layer relu4
I0622 16:38:53.956907 78018 net.cpp:106] Creating Layer relu4
I0622 16:38:53.956915 78018 net.cpp:454] relu4 <- conv4
I0622 16:38:53.956925 78018 net.cpp:397] relu4 -> conv4 (in-place)
I0622 16:38:53.957293 78018 net.cpp:150] Setting up relu4
I0622 16:38:53.957309 78018 net.cpp:157] Top shape: 10 384 13 13 (648960)
I0622 16:38:53.957314 78018 net.cpp:165] Memory required for data: 57605120
I0622 16:38:53.957320 78018 layer_factory.hpp:77] Creating layer conv5
I0622 16:38:53.957336 78018 net.cpp:106] Creating Layer conv5
I0622 16:38:53.957343 78018 net.cpp:454] conv5 <- conv4
I0622 16:38:53.957352 78018 net.cpp:411] conv5 -> conv5
I0622 16:38:53.962832 78018 net.cpp:150] Setting up conv5
I0622 16:38:53.962857 78018 net.cpp:157] Top shape: 10 256 13 13 (432640)
I0622 16:38:53.962863 78018 net.cpp:165] Memory required for data: 59335680
I0622 16:38:53.962882 78018 layer_factory.hpp:77] Creating layer relu5
I0622 16:38:53.962896 78018 net.cpp:106] Creating Layer relu5
I0622 16:38:53.962903 78018 net.cpp:454] relu5 <- conv5
I0622 16:38:53.962911 78018 net.cpp:397] relu5 -> conv5 (in-place)
I0622 16:38:53.963222 78018 net.cpp:150] Setting up relu5
I0622 16:38:53.963238 78018 net.cpp:157] Top shape: 10 256 13 13 (432640)
I0622 16:38:53.963245 78018 net.cpp:165] Memory required for data: 61066240
I0622 16:38:53.963253 78018 layer_factory.hpp:77] Creating layer pool5
I0622 16:38:53.963263 78018 net.cpp:106] Creating Layer pool5
I0622 16:38:53.963268 78018 net.cpp:454] pool5 <- conv5
I0622 16:38:53.963280 78018 net.cpp:411] pool5 -> pool5
I0622 16:38:53.963385 78018 net.cpp:150] Setting up pool5
I0622 16:38:53.963397 78018 net.cpp:157] Top shape: 10 256 6 6 (92160)
I0622 16:38:53.963402 78018 net.cpp:165] Memory required for data: 61434880
I0622 16:38:53.963408 78018 layer_factory.hpp:77] Creating layer fc6
I0622 16:38:53.963420 78018 net.cpp:106] Creating Layer fc6
I0622 16:38:53.963426 78018 net.cpp:454] fc6 <- pool5
I0622 16:38:53.963438 78018 net.cpp:411] fc6 -> fc6
I0622 16:38:54.079416 78018 net.cpp:150] Setting up fc6
I0622 16:38:54.079453 78018 net.cpp:157] Top shape: 10 4096 (40960)
I0622 16:38:54.079458 78018 net.cpp:165] Memory required for data: 61598720
I0622 16:38:54.079471 78018 layer_factory.hpp:77] Creating layer relu6
I0622 16:38:54.079485 78018 net.cpp:106] Creating Layer relu6
I0622 16:38:54.079490 78018 net.cpp:454] relu6 <- fc6
I0622 16:38:54.079498 78018 net.cpp:397] relu6 -> fc6 (in-place)
I0622 16:38:54.080055 78018 net.cpp:150] Setting up relu6
I0622 16:38:54.080068 78018 net.cpp:157] Top shape: 10 4096 (40960)
I0622 16:38:54.080075 78018 net.cpp:165] Memory required for data: 61762560
I0622 16:38:54.080078 78018 layer_factory.hpp:77] Creating layer drop6
I0622 16:38:54.080095 78018 net.cpp:106] Creating Layer drop6
I0622 16:38:54.080098 78018 net.cpp:454] drop6 <- fc6
I0622 16:38:54.080103 78018 net.cpp:397] drop6 -> fc6 (in-place)
I0622 16:38:54.080152 78018 net.cpp:150] Setting up drop6
I0622 16:38:54.080159 78018 net.cpp:157] Top shape: 10 4096 (40960)
I0622 16:38:54.080163 78018 net.cpp:165] Memory required for data: 61926400
I0622 16:38:54.080168 78018 layer_factory.hpp:77] Creating layer fc7
I0622 16:38:54.080174 78018 net.cpp:106] Creating Layer fc7
I0622 16:38:54.080178 78018 net.cpp:454] fc7 <- fc6
I0622 16:38:54.080183 78018 net.cpp:411] fc7 -> fc7
I0622 16:38:54.120949 78018 net.cpp:150] Setting up fc7
I0622 16:38:54.120978 78018 net.cpp:157] Top shape: 10 4096 (40960)
I0622 16:38:54.120982 78018 net.cpp:165] Memory required for data: 62090240
I0622 16:38:54.120991 78018 layer_factory.hpp:77] Creating layer relu7
I0622 16:38:54.121001 78018 net.cpp:106] Creating Layer relu7
I0622 16:38:54.121006 78018 net.cpp:454] relu7 <- fc7
I0622 16:38:54.121011 78018 net.cpp:397] relu7 -> fc7 (in-place)
I0622 16:38:54.121218 78018 net.cpp:150] Setting up relu7
I0622 16:38:54.121227 78018 net.cpp:157] Top shape: 10 4096 (40960)
I0622 16:38:54.121229 78018 net.cpp:165] Memory required for data: 62254080
I0622 16:38:54.121232 78018 layer_factory.hpp:77] Creating layer drop7
I0622 16:38:54.121240 78018 net.cpp:106] Creating Layer drop7
I0622 16:38:54.121243 78018 net.cpp:454] drop7 <- fc7
I0622 16:38:54.121248 78018 net.cpp:397] drop7 -> fc7 (in-place)
I0622 16:38:54.121280 78018 net.cpp:150] Setting up drop7
I0622 16:38:54.121285 78018 net.cpp:157] Top shape: 10 4096 (40960)
I0622 16:38:54.121289 78018 net.cpp:165] Memory required for data: 62417920
I0622 16:38:54.121290 78018 layer_factory.hpp:77] Creating layer 102flower
I0622 16:38:54.121300 78018 net.cpp:106] Creating Layer 102flower
I0622 16:38:54.121304 78018 net.cpp:454] 102flower <- fc7
I0622 16:38:54.121309 78018 net.cpp:411] 102flower -> 102flower
I0622 16:38:54.122689 78018 net.cpp:150] Setting up 102flower
I0622 16:38:54.122699 78018 net.cpp:157] Top shape: 10 102 (1020)
I0622 16:38:54.122702 78018 net.cpp:165] Memory required for data: 62422000
I0622 16:38:54.122709 78018 layer_factory.hpp:77] Creating layer prob
I0622 16:38:54.122716 78018 net.cpp:106] Creating Layer prob
I0622 16:38:54.122720 78018 net.cpp:454] prob <- 102flower
I0622 16:38:54.122725 78018 net.cpp:411] prob -> prob
I0622 16:38:54.123132 78018 net.cpp:150] Setting up prob
I0622 16:38:54.123142 78018 net.cpp:157] Top shape: 10 102 (1020)
I0622 16:38:54.123145 78018 net.cpp:165] Memory required for data: 62426080
I0622 16:38:54.123149 78018 net.cpp:228] prob does not need backward computation.
I0622 16:38:54.123152 78018 net.cpp:228] 102flower does not need backward computation.
I0622 16:38:54.123155 78018 net.cpp:228] drop7 does not need backward computation.
I0622 16:38:54.123158 78018 net.cpp:228] relu7 does not need backward computation.
…
