…
 'ROOT_DIR': '/home/zheda/workspace/cnn/flower-classify',
 'TEST': {'TARGET_SIZE': [227, 227]},
 'TRAIN': {'BATCH_SIZE': 255,
           'SNAPSHOT_INFIX': '',
           'SNAPSHOT_ITERS': 10000,
           'TARGET_SIZE': [227, 227],
           'USE_FLIPPED': True,
           'USE_PREFETCH': False}}
WARNING: Logging before InitGoogleLogging() is written to STDERR
I0622 20:34:29.901057 82079 net.cpp:49] Initializing net from parameters: 
name: "102FlowerCaffeNet"
input: "data"
state {
  phase: TEST
}
input_shape {
  dim: 10
  dim: 3
  dim: 227
  dim: 227
}
layer {
  name: "conv1"
  type: "Convolution"
  bottom: "data"
  top: "conv1"
  convolution_param {
    num_output: 96
    kernel_size: 11
    stride: 4
  }
}
layer {
  name: "relu1"
  type: "ReLU"
  bottom: "conv1"
  top: "conv1"
}
layer {
  name: "pool1"
  type: "Pooling"
  bottom: "conv1"
  top: "pool1"
  pooling_param {
    pool: MAX
    kernel_size: 3
    stride: 2
  }
}
layer {
  name: "norm1"
  type: "LRN"
  bottom: "pool1"
  top: "norm1"
  lrn_param {
    local_size: 5
    alpha: 0.0001
    beta: 0.75
  }
}
layer {
  name: "conv2"
  type: "Convolution"
  bottom: "norm1"
  top: "conv2"
  convolution_param {
    num_output: 256
    pad: 2
    kernel_size: 5
    group: 2
  }
}
layer {
  name: "relu2"
  type: "ReLU"
  bottom: "conv2"
  top: "conv2"
}
layer {
  name: "pool2"
  type: "Pooling"
  bottom: "conv2"
  top: "pool2"
  pooling_param {
    pool: MAX
    kernel_size: 3
    stride: 2
  }
}
layer {
  name: "norm2"
  type: "LRN"
  bottom: "pool2"
  top: "norm2"
  lrn_param {
    local_size: 5
    alpha: 0.0001
    beta: 0.75
  }
}
layer {
  name: "conv3"
  type: "Convolution"
  bottom: "norm2"
  top: "conv3"
  convolution_param {
    num_output: 384
    pad: 1
    kernel_size: 3
  }
}
layer {
  name: "relu3"
  type: "ReLU"
  bottom: "conv3"
  top: "conv3"
}
layer {
  name: "conv4"
  type: "Convolution"
  bottom: "conv3"
  top: "conv4"
  convolution_param {
    num_output: 384
    pad: 1
    kernel_size: 3
    group: 2
  }
}
layer {
  name: "relu4"
  type: "ReLU"
  bottom: "conv4"
  top: "conv4"
}
layer {
  name: "conv5"
  type: "Convolution"
  bottom: "conv4"
  top: "conv5"
  convolution_param {
    num_output: 256
    pad: 1
    kernel_size: 3
    group: 2
  }
}
layer {
  name: "relu5"
  type: "ReLU"
  bottom: "conv5"
  top: "conv5"
}
layer {
  name: "pool5"
  type: "Pooling"
  bottom: "conv5"
  top: "pool5"
  pooling_param {
    pool: MAX
    kernel_size: 3
    stride: 2
  }
}
layer {
  name: "fc6"
  type: "InnerProduct"
  bottom: "pool5"
  top: "fc6"
  inner_product_param {
    num_output: 4096
  }
}
layer {
  name: "relu6"
  type: "ReLU"
  bottom: "fc6"
  top: "fc6"
}
layer {
  name: "drop6"
  type: "Dropout"
  bottom: "fc6"
  top: "fc6"
  dropout_param {
    dropout_ratio: 0.5
  }
}
layer {
  name: "fc7"
  type: "InnerProduct"
  bottom: "fc6"
  top: "fc7"
  inner_product_param {
    num_output: 4096
  }
}
layer {
  name: "relu7"
  type: "ReLU"
  bottom: "fc7"
  top: "fc7"
}
layer {
  name: "drop7"
  type: "Dropout"
  bottom: "fc7"
  top: "fc7"
  dropout_param {
    dropout_ratio: 0.5
  }
}
layer {
  name: "102flower"
  type: "InnerProduct"
  bottom: "fc7"
  top: "102flower"
  inner_product_param {
    num_output: 102
  }
}
layer {
  name: "prob"
  type: "Softmax"
  bottom: "102flower"
  top: "prob"
}
I0622 20:34:29.901137 82079 net.cpp:413] Input 0 -> data
I0622 20:34:29.910171 82079 layer_factory.hpp:77] Creating layer conv1
I0622 20:34:29.910207 82079 net.cpp:106] Creating Layer conv1
I0622 20:34:29.910212 82079 net.cpp:454] conv1 <- data
I0622 20:34:29.910219 82079 net.cpp:411] conv1 -> conv1
I0622 20:34:30.065652 82079 net.cpp:150] Setting up conv1
I0622 20:34:30.065690 82079 net.cpp:157] Top shape: 10 96 55 55 (2904000)
I0622 20:34:30.065695 82079 net.cpp:165] Memory required for data: 11616000
I0622 20:34:30.065712 82079 layer_factory.hpp:77] Creating layer relu1
I0622 20:34:30.065726 82079 net.cpp:106] Creating Layer relu1
I0622 20:34:30.065731 82079 net.cpp:454] relu1 <- conv1
I0622 20:34:30.065737 82079 net.cpp:397] relu1 -> conv1 (in-place)
I0622 20:34:30.065949 82079 net.cpp:150] Setting up relu1
I0622 20:34:30.065958 82079 net.cpp:157] Top shape: 10 96 55 55 (2904000)
I0622 20:34:30.065961 82079 net.cpp:165] Memory required for data: 23232000
I0622 20:34:30.065964 82079 layer_factory.hpp:77] Creating layer pool1
I0622 20:34:30.065974 82079 net.cpp:106] Creating Layer pool1
I0622 20:34:30.065978 82079 net.cpp:454] pool1 <- conv1
I0622 20:34:30.065982 82079 net.cpp:411] pool1 -> pool1
I0622 20:34:30.066051 82079 net.cpp:150] Setting up pool1
I0622 20:34:30.066056 82079 net.cpp:157] Top shape: 10 96 27 27 (699840)
I0622 20:34:30.066059 82079 net.cpp:165] Memory required for data: 26031360
I0622 20:34:30.066062 82079 layer_factory.hpp:77] Creating layer norm1
I0622 20:34:30.066074 82079 net.cpp:106] Creating Layer norm1
I0622 20:34:30.066077 82079 net.cpp:454] norm1 <- pool1
I0622 20:34:30.066082 82079 net.cpp:411] norm1 -> norm1
I0622 20:34:30.066427 82079 net.cpp:150] Setting up norm1
I0622 20:34:30.066439 82079 net.cpp:157] Top shape: 10 96 27 27 (699840)
I0622 20:34:30.066443 82079 net.cpp:165] Memory required for data: 28830720
I0622 20:34:30.066447 82079 layer_factory.hpp:77] Creating layer conv2
I0622 20:34:30.066457 82079 net.cpp:106] Creating Layer conv2
I0622 20:34:30.066462 82079 net.cpp:454] conv2 <- norm1
I0622 20:34:30.066467 82079 net.cpp:411] conv2 -> conv2
I0622 20:34:30.070096 82079 net.cpp:150] Setting up conv2
I0622 20:34:30.070132 82079 net.cpp:157] Top shape: 10 256 27 27 (1866240)
I0622 20:34:30.070137 82079 net.cpp:165] Memory required for data: 36295680
I0622 20:34:30.070152 82079 layer_factory.hpp:77] Creating layer relu2
I0622 20:34:30.070163 82079 net.cpp:106] Creating Layer relu2
I0622 20:34:30.070168 82079 net.cpp:454] relu2 <- conv2
I0622 20:34:30.070174 82079 net.cpp:397] relu2 -> conv2 (in-place)
I0622 20:34:30.070353 82079 net.cpp:150] Setting up relu2
I0622 20:34:30.070360 82079 net.cpp:157] Top shape: 10 256 27 27 (1866240)
I0622 20:34:30.070363 82079 net.cpp:165] Memory required for data: 43760640
I0622 20:34:30.070368 82079 layer_factory.hpp:77] Creating layer pool2
I0622 20:34:30.070374 82079 net.cpp:106] Creating Layer pool2
I0622 20:34:30.070377 82079 net.cpp:454] pool2 <- conv2
I0622 20:34:30.070384 82079 net.cpp:411] pool2 -> pool2
I0622 20:34:30.070447 82079 net.cpp:150] Setting up pool2
I0622 20:34:30.070453 82079 net.cpp:157] Top shape: 10 256 13 13 (432640)
I0622 20:34:30.070456 82079 net.cpp:165] Memory required for data: 45491200
I0622 20:34:30.070459 82079 layer_factory.hpp:77] Creating layer norm2
I0622 20:34:30.070466 82079 net.cpp:106] Creating Layer norm2
I0622 20:34:30.070469 82079 net.cpp:454] norm2 <- pool2
I0622 20:34:30.070475 82079 net.cpp:411] norm2 -> norm2
I0622 20:34:30.070840 82079 net.cpp:150] Setting up norm2
I0622 20:34:30.070852 82079 net.cpp:157] Top shape: 10 256 13 13 (432640)
I0622 20:34:30.070855 82079 net.cpp:165] Memory required for data: 47221760
I0622 20:34:30.070859 82079 layer_factory.hpp:77] Creating layer conv3
I0622 20:34:30.070870 82079 net.cpp:106] Creating Layer conv3
I0622 20:34:30.070874 82079 net.cpp:454] conv3 <- norm2
I0622 20:34:30.070879 82079 net.cpp:411] conv3 -> conv3
I0622 20:34:30.077523 82079 net.cpp:150] Setting up conv3
I0622 20:34:30.077563 82079 net.cpp:157] Top shape: 10 384 13 13 (648960)
I0622 20:34:30.077566 82079 net.cpp:165] Memory required for data: 49817600
I0622 20:34:30.077582 82079 layer_factory.hpp:77] Creating layer relu3
I0622 20:34:30.077594 82079 net.cpp:106] Creating Layer relu3
I0622 20:34:30.077597 82079 net.cpp:454] relu3 <- conv3
I0622 20:34:30.077603 82079 net.cpp:397] relu3 -> conv3 (in-place)
I0622 20:34:30.078102 82079 net.cpp:150] Setting up relu3
I0622 20:34:30.078114 82079 net.cpp:157] Top shape: 10 384 13 13 (648960)
I0622 20:34:30.078119 82079 net.cpp:165] Memory required for data: 52413440
I0622 20:34:30.078121 82079 layer_factory.hpp:77] Creating layer conv4
I0622 20:34:30.078132 82079 net.cpp:106] Creating Layer conv4
I0622 20:34:30.078135 82079 net.cpp:454] conv4 <- conv3
I0622 20:34:30.078141 82079 net.cpp:411] conv4 -> conv4
I0622 20:34:30.082227 82079 net.cpp:150] Setting up conv4
I0622 20:34:30.082265 82079 net.cpp:157] Top shape: 10 384 13 13 (648960)
I0622 20:34:30.082270 82079 net.cpp:165] Memory required for data: 55009280
I0622 20:34:30.082281 82079 layer_factory.hpp:77] Creating layer relu4
I0622 20:34:30.082293 82079 net.cpp:106] Creating Layer relu4
I0622 20:34:30.082298 82079 net.cpp:454] relu4 <- conv4
I0622 20:34:30.082305 82079 net.cpp:397] relu4 -> conv4 (in-place)
I0622 20:34:30.082466 82079 net.cpp:150] Setting up relu4
I0622 20:34:30.082475 82079 net.cpp:157] Top shape: 10 384 13 13 (648960)
I0622 20:34:30.082479 82079 net.cpp:165] Memory required for data: 57605120
I0622 20:34:30.082481 82079 layer_factory.hpp:77] Creating layer conv5
I0622 20:34:30.082491 82079 net.cpp:106] Creating Layer conv5
I0622 20:34:30.082494 82079 net.cpp:454] conv5 <- conv4
I0622 20:34:30.082500 82079 net.cpp:411] conv5 -> conv5
I0622 20:34:30.086104 82079 net.cpp:150] Setting up conv5
I0622 20:34:30.086141 82079 net.cpp:157] Top shape: 10 256 13 13 (432640)
I0622 20:34:30.086145 82079 net.cpp:165] Memory required for data: 59335680
I0622 20:34:30.086159 82079 layer_factory.hpp:77] Creating layer relu5
I0622 20:34:30.086169 82079 net.cpp:106] Creating Layer relu5
I0622 20:34:30.086174 82079 net.cpp:454] relu5 <- conv5
I0622 20:34:30.086180 82079 net.cpp:397] relu5 -> conv5 (in-place)
I0622 20:34:30.086343 82079 net.cpp:150] Setting up relu5
I0622 20:34:30.086351 82079 net.cpp:157] Top shape: 10 256 13 13 (432640)
I0622 20:34:30.086354 82079 net.cpp:165] Memory required for data: 61066240
I0622 20:34:30.086357 82079 layer_factory.hpp:77] Creating layer pool5
I0622 20:34:30.086365 82079 net.cpp:106] Creating Layer pool5
I0622 20:34:30.086369 82079 net.cpp:454] pool5 <- conv5
I0622 20:34:30.086374 82079 net.cpp:411] pool5 -> pool5
I0622 20:34:30.086433 82079 net.cpp:150] Setting up pool5
I0622 20:34:30.086439 82079 net.cpp:157] Top shape: 10 256 6 6 (92160)
I0622 20:34:30.086442 82079 net.cpp:165] Memory required for data: 61434880
I0622 20:34:30.086444 82079 layer_factory.hpp:77] Creating layer fc6
I0622 20:34:30.086452 82079 net.cpp:106] Creating Layer fc6
I0622 20:34:30.086455 82079 net.cpp:454] fc6 <- pool5
I0622 20:34:30.086459 82079 net.cpp:411] fc6 -> fc6
I0622 20:34:30.173220 82079 net.cpp:150] Setting up fc6
I0622 20:34:30.173256 82079 net.cpp:157] Top shape: 10 4096 (40960)
I0622 20:34:30.173260 82079 net.cpp:165] Memory required for data: 61598720
I0622 20:34:30.173271 82079 layer_factory.hpp:77] Creating layer relu6
I0622 20:34:30.173283 82079 net.cpp:106] Creating Layer relu6
I0622 20:34:30.173287 82079 net.cpp:454] relu6 <- fc6
I0622 20:34:30.173293 82079 net.cpp:397] relu6 -> fc6 (in-place)
I0622 20:34:30.173782 82079 net.cpp:150] Setting up relu6
I0622 20:34:30.173794 82079 net.cpp:157] Top shape: 10 4096 (40960)
I0622 20:34:30.173797 82079 net.cpp:165] Memory required for data: 61762560
I0622 20:34:30.173800 82079 layer_factory.hpp:77] Creating layer drop6
I0622 20:34:30.173815 82079 net.cpp:106] Creating Layer drop6
I0622 20:34:30.173817 82079 net.cpp:454] drop6 <- fc6
I0622 20:34:30.173826 82079 net.cpp:397] drop6 -> fc6 (in-place)
I0622 20:34:30.173863 82079 net.cpp:150] Setting up drop6
I0622 20:34:30.173868 82079 net.cpp:157] Top shape: 10 4096 (40960)
I0622 20:34:30.173871 82079 net.cpp:165] Memory required for data: 61926400
I0622 20:34:30.173874 82079 layer_factory.hpp:77] Creating layer fc7
I0622 20:34:30.173880 82079 net.cpp:106] Creating Layer fc7
I0622 20:34:30.173882 82079 net.cpp:454] fc7 <- fc6
I0622 20:34:30.173888 82079 net.cpp:411] fc7 -> fc7
I0622 20:34:30.213551 82079 net.cpp:150] Setting up fc7
I0622 20:34:30.213588 82079 net.cpp:157] Top shape: 10 4096 (40960)
I0622 20:34:30.213592 82079 net.cpp:165] Memory required for data: 62090240
I0622 20:34:30.213605 82079 layer_factory.hpp:77] Creating layer relu7
I0622 20:34:30.213615 82079 net.cpp:106] Creating Layer relu7
I0622 20:34:30.213619 82079 net.cpp:454] relu7 <- fc7
I0622 20:34:30.213625 82079 net.cpp:397] relu7 -> fc7 (in-place)
I0622 20:34:30.213852 82079 net.cpp:150] Setting up relu7
I0622 20:34:30.213860 82079 net.cpp:157] Top shape: 10 4096 (40960)
I0622 20:34:30.213863 82079 net.cpp:165] Memory required for data: 62254080
I0622 20:34:30.213866 82079 layer_factory.hpp:77] Creating layer drop7
I0622 20:34:30.213874 82079 net.cpp:106] Creating Layer drop7
I0622 20:34:30.213877 82079 net.cpp:454] drop7 <- fc7
I0622 20:34:30.213881 82079 net.cpp:397] drop7 -> fc7 (in-place)
I0622 20:34:30.213917 82079 net.cpp:150] Setting up drop7
I0622 20:34:30.213922 82079 net.cpp:157] Top shape: 10 4096 (40960)
I0622 20:34:30.213925 82079 net.cpp:165] Memory required for data: 62417920
I0622 20:34:30.213928 82079 layer_factory.hpp:77] Creating layer 102flower
I0622 20:34:30.213938 82079 net.cpp:106] Creating Layer 102flower
I0622 20:34:30.213942 82079 net.cpp:454] 102flower <- fc7
I0622 20:34:30.213945 82079 net.cpp:411] 102flower -> 102flower
I0622 20:34:30.215404 82079 net.cpp:150] Setting up 102flower
I0622 20:34:30.215415 82079 net.cpp:157] Top shape: 10 102 (1020)
I0622 20:34:30.215418 82079 net.cpp:165] Memory required for data: 62422000
I0622 20:34:30.215425 82079 layer_factory.hpp:77] Creating layer prob
I0622 20:34:30.215431 82079 net.cpp:106] Creating Layer prob
I0622 20:34:30.215435 82079 net.cpp:454] prob <- 102flower
I0622 20:34:30.215440 82079 net.cpp:411] prob -> prob
I0622 20:34:30.217213 82079 net.cpp:150] Setting up prob
I0622 20:34:30.217226 82079 net.cpp:157] Top shape: 10 102 (1020)
I0622 20:34:30.217229 82079 net.cpp:165] Memory required for data: 62426080
I0622 20:34:30.217233 82079 net.cpp:228] prob does not need backward computation.
I0622 20:34:30.217236 82079 net.cpp:228] 102flower does not need backward computation.
I0622 20:34:30.217239 82079 net.cpp:228] drop7 does not need backward computation.
I0622 20:34:30.217242 82079 net.cpp:228] relu7 does not need backward computation.
…
