…
 'ROOT_DIR': '/home/zheda/workspace/cnn/flower-classify',
 'TEST': {'TARGET_SIZE': [227, 227]},
 'TRAIN': {'BATCH_SIZE': 255,
           'SNAPSHOT_INFIX': '',
           'SNAPSHOT_ITERS': 10000,
           'TARGET_SIZE': [227, 227],
           'USE_FLIPPED': True,
           'USE_PREFETCH': False}}
WARNING: Logging before InitGoogleLogging() is written to STDERR
I0622 20:02:12.440287 81490 net.cpp:49] Initializing net from parameters: 
name: "102FlowerCaffeNet"
input: "data"
state {
  phase: TEST
}
input_shape {
  dim: 10
  dim: 3
  dim: 227
  dim: 227
}
layer {
  name: "conv1"
  type: "Convolution"
  bottom: "data"
  top: "conv1"
  convolution_param {
    num_output: 96
    kernel_size: 11
    stride: 4
  }
}
layer {
  name: "relu1"
  type: "ReLU"
  bottom: "conv1"
  top: "conv1"
}
layer {
  name: "pool1"
  type: "Pooling"
  bottom: "conv1"
  top: "pool1"
  pooling_param {
    pool: MAX
    kernel_size: 3
    stride: 2
  }
}
layer {
  name: "norm1"
  type: "LRN"
  bottom: "pool1"
  top: "norm1"
  lrn_param {
    local_size: 5
    alpha: 0.0001
    beta: 0.75
  }
}
layer {
  name: "conv2"
  type: "Convolution"
  bottom: "norm1"
  top: "conv2"
  convolution_param {
    num_output: 256
    pad: 2
    kernel_size: 5
    group: 2
  }
}
layer {
  name: "relu2"
  type: "ReLU"
  bottom: "conv2"
  top: "conv2"
}
layer {
  name: "pool2"
  type: "Pooling"
  bottom: "conv2"
  top: "pool2"
  pooling_param {
    pool: MAX
    kernel_size: 3
    stride: 2
  }
}
layer {
  name: "norm2"
  type: "LRN"
  bottom: "pool2"
  top: "norm2"
  lrn_param {
    local_size: 5
    alpha: 0.0001
    beta: 0.75
  }
}
layer {
  name: "conv3"
  type: "Convolution"
  bottom: "norm2"
  top: "conv3"
  convolution_param {
    num_output: 384
    pad: 1
    kernel_size: 3
  }
}
layer {
  name: "relu3"
  type: "ReLU"
  bottom: "conv3"
  top: "conv3"
}
layer {
  name: "conv4"
  type: "Convolution"
  bottom: "conv3"
  top: "conv4"
  convolution_param {
    num_output: 384
    pad: 1
    kernel_size: 3
    group: 2
  }
}
layer {
  name: "relu4"
  type: "ReLU"
  bottom: "conv4"
  top: "conv4"
}
layer {
  name: "conv5"
  type: "Convolution"
  bottom: "conv4"
  top: "conv5"
  convolution_param {
    num_output: 256
    pad: 1
    kernel_size: 3
    group: 2
  }
}
layer {
  name: "relu5"
  type: "ReLU"
  bottom: "conv5"
  top: "conv5"
}
layer {
  name: "pool5"
  type: "Pooling"
  bottom: "conv5"
  top: "pool5"
  pooling_param {
    pool: MAX
    kernel_size: 3
    stride: 2
  }
}
layer {
  name: "fc6"
  type: "InnerProduct"
  bottom: "pool5"
  top: "fc6"
  inner_product_param {
    num_output: 4096
  }
}
layer {
  name: "relu6"
  type: "ReLU"
  bottom: "fc6"
  top: "fc6"
}
layer {
  name: "drop6"
  type: "Dropout"
  bottom: "fc6"
  top: "fc6"
  dropout_param {
    dropout_ratio: 0.5
  }
}
layer {
  name: "fc7"
  type: "InnerProduct"
  bottom: "fc6"
  top: "fc7"
  inner_product_param {
    num_output: 4096
  }
}
layer {
  name: "relu7"
  type: "ReLU"
  bottom: "fc7"
  top: "fc7"
}
layer {
  name: "drop7"
  type: "Dropout"
  bottom: "fc7"
  top: "fc7"
  dropout_param {
    dropout_ratio: 0.5
  }
}
layer {
  name: "102flower"
  type: "InnerProduct"
  bottom: "fc7"
  top: "102flower"
  inner_product_param {
    num_output: 102
  }
}
layer {
  name: "prob"
  type: "Softmax"
  bottom: "102flower"
  top: "prob"
}
I0622 20:02:12.440373 81490 net.cpp:413] Input 0 -> data
I0622 20:02:12.574472 81490 layer_factory.hpp:77] Creating layer conv1
I0622 20:02:12.574537 81490 net.cpp:106] Creating Layer conv1
I0622 20:02:12.574542 81490 net.cpp:454] conv1 <- data
I0622 20:02:12.574549 81490 net.cpp:411] conv1 -> conv1
I0622 20:02:12.768841 81490 net.cpp:150] Setting up conv1
I0622 20:02:12.768874 81490 net.cpp:157] Top shape: 10 96 55 55 (2904000)
I0622 20:02:12.768879 81490 net.cpp:165] Memory required for data: 11616000
I0622 20:02:12.768905 81490 layer_factory.hpp:77] Creating layer relu1
I0622 20:02:12.768926 81490 net.cpp:106] Creating Layer relu1
I0622 20:02:12.768931 81490 net.cpp:454] relu1 <- conv1
I0622 20:02:12.768936 81490 net.cpp:397] relu1 -> conv1 (in-place)
I0622 20:02:12.769235 81490 net.cpp:150] Setting up relu1
I0622 20:02:12.769248 81490 net.cpp:157] Top shape: 10 96 55 55 (2904000)
I0622 20:02:12.769251 81490 net.cpp:165] Memory required for data: 23232000
I0622 20:02:12.769255 81490 layer_factory.hpp:77] Creating layer pool1
I0622 20:02:12.769264 81490 net.cpp:106] Creating Layer pool1
I0622 20:02:12.769268 81490 net.cpp:454] pool1 <- conv1
I0622 20:02:12.769273 81490 net.cpp:411] pool1 -> pool1
I0622 20:02:12.769335 81490 net.cpp:150] Setting up pool1
I0622 20:02:12.769343 81490 net.cpp:157] Top shape: 10 96 27 27 (699840)
I0622 20:02:12.769346 81490 net.cpp:165] Memory required for data: 26031360
I0622 20:02:12.769350 81490 layer_factory.hpp:77] Creating layer norm1
I0622 20:02:12.769357 81490 net.cpp:106] Creating Layer norm1
I0622 20:02:12.769361 81490 net.cpp:454] norm1 <- pool1
I0622 20:02:12.769366 81490 net.cpp:411] norm1 -> norm1
I0622 20:02:12.769821 81490 net.cpp:150] Setting up norm1
I0622 20:02:12.769834 81490 net.cpp:157] Top shape: 10 96 27 27 (699840)
I0622 20:02:12.769837 81490 net.cpp:165] Memory required for data: 28830720
I0622 20:02:12.769841 81490 layer_factory.hpp:77] Creating layer conv2
I0622 20:02:12.769853 81490 net.cpp:106] Creating Layer conv2
I0622 20:02:12.769857 81490 net.cpp:454] conv2 <- norm1
I0622 20:02:12.769862 81490 net.cpp:411] conv2 -> conv2
I0622 20:02:12.773318 81490 net.cpp:150] Setting up conv2
I0622 20:02:12.773344 81490 net.cpp:157] Top shape: 10 256 27 27 (1866240)
I0622 20:02:12.773349 81490 net.cpp:165] Memory required for data: 36295680
I0622 20:02:12.773361 81490 layer_factory.hpp:77] Creating layer relu2
I0622 20:02:12.773371 81490 net.cpp:106] Creating Layer relu2
I0622 20:02:12.773375 81490 net.cpp:454] relu2 <- conv2
I0622 20:02:12.773381 81490 net.cpp:397] relu2 -> conv2 (in-place)
I0622 20:02:12.773704 81490 net.cpp:150] Setting up relu2
I0622 20:02:12.773712 81490 net.cpp:157] Top shape: 10 256 27 27 (1866240)
I0622 20:02:12.773716 81490 net.cpp:165] Memory required for data: 43760640
I0622 20:02:12.773720 81490 layer_factory.hpp:77] Creating layer pool2
I0622 20:02:12.773727 81490 net.cpp:106] Creating Layer pool2
I0622 20:02:12.773730 81490 net.cpp:454] pool2 <- conv2
I0622 20:02:12.773736 81490 net.cpp:411] pool2 -> pool2
I0622 20:02:12.773792 81490 net.cpp:150] Setting up pool2
I0622 20:02:12.773799 81490 net.cpp:157] Top shape: 10 256 13 13 (432640)
I0622 20:02:12.773802 81490 net.cpp:165] Memory required for data: 45491200
I0622 20:02:12.773810 81490 layer_factory.hpp:77] Creating layer norm2
I0622 20:02:12.773818 81490 net.cpp:106] Creating Layer norm2
I0622 20:02:12.773821 81490 net.cpp:454] norm2 <- pool2
I0622 20:02:12.773826 81490 net.cpp:411] norm2 -> norm2
I0622 20:02:12.776134 81490 net.cpp:150] Setting up norm2
I0622 20:02:12.776147 81490 net.cpp:157] Top shape: 10 256 13 13 (432640)
I0622 20:02:12.776150 81490 net.cpp:165] Memory required for data: 47221760
I0622 20:02:12.776154 81490 layer_factory.hpp:77] Creating layer conv3
I0622 20:02:12.776165 81490 net.cpp:106] Creating Layer conv3
I0622 20:02:12.776170 81490 net.cpp:454] conv3 <- norm2
I0622 20:02:12.776175 81490 net.cpp:411] conv3 -> conv3
I0622 20:02:12.783095 81490 net.cpp:150] Setting up conv3
I0622 20:02:12.783115 81490 net.cpp:157] Top shape: 10 384 13 13 (648960)
I0622 20:02:12.783119 81490 net.cpp:165] Memory required for data: 49817600
I0622 20:02:12.783131 81490 layer_factory.hpp:77] Creating layer relu3
I0622 20:02:12.783138 81490 net.cpp:106] Creating Layer relu3
I0622 20:02:12.783143 81490 net.cpp:454] relu3 <- conv3
I0622 20:02:12.783148 81490 net.cpp:397] relu3 -> conv3 (in-place)
I0622 20:02:12.783475 81490 net.cpp:150] Setting up relu3
I0622 20:02:12.783488 81490 net.cpp:157] Top shape: 10 384 13 13 (648960)
I0622 20:02:12.783490 81490 net.cpp:165] Memory required for data: 52413440
I0622 20:02:12.783494 81490 layer_factory.hpp:77] Creating layer conv4
I0622 20:02:12.783509 81490 net.cpp:106] Creating Layer conv4
I0622 20:02:12.783511 81490 net.cpp:454] conv4 <- conv3
I0622 20:02:12.783517 81490 net.cpp:411] conv4 -> conv4
I0622 20:02:12.787267 81490 net.cpp:150] Setting up conv4
I0622 20:02:12.787292 81490 net.cpp:157] Top shape: 10 384 13 13 (648960)
I0622 20:02:12.787297 81490 net.cpp:165] Memory required for data: 55009280
I0622 20:02:12.787307 81490 layer_factory.hpp:77] Creating layer relu4
I0622 20:02:12.787314 81490 net.cpp:106] Creating Layer relu4
I0622 20:02:12.787318 81490 net.cpp:454] relu4 <- conv4
I0622 20:02:12.787323 81490 net.cpp:397] relu4 -> conv4 (in-place)
I0622 20:02:12.787484 81490 net.cpp:150] Setting up relu4
I0622 20:02:12.787493 81490 net.cpp:157] Top shape: 10 384 13 13 (648960)
I0622 20:02:12.787497 81490 net.cpp:165] Memory required for data: 57605120
I0622 20:02:12.787499 81490 layer_factory.hpp:77] Creating layer conv5
I0622 20:02:12.787508 81490 net.cpp:106] Creating Layer conv5
I0622 20:02:12.787513 81490 net.cpp:454] conv5 <- conv4
I0622 20:02:12.787518 81490 net.cpp:411] conv5 -> conv5
I0622 20:02:12.790876 81490 net.cpp:150] Setting up conv5
I0622 20:02:12.790896 81490 net.cpp:157] Top shape: 10 256 13 13 (432640)
I0622 20:02:12.790901 81490 net.cpp:165] Memory required for data: 59335680
I0622 20:02:12.790913 81490 layer_factory.hpp:77] Creating layer relu5
I0622 20:02:12.790920 81490 net.cpp:106] Creating Layer relu5
I0622 20:02:12.790925 81490 net.cpp:454] relu5 <- conv5
I0622 20:02:12.790930 81490 net.cpp:397] relu5 -> conv5 (in-place)
I0622 20:02:12.791090 81490 net.cpp:150] Setting up relu5
I0622 20:02:12.791098 81490 net.cpp:157] Top shape: 10 256 13 13 (432640)
I0622 20:02:12.791101 81490 net.cpp:165] Memory required for data: 61066240
I0622 20:02:12.791105 81490 layer_factory.hpp:77] Creating layer pool5
I0622 20:02:12.791115 81490 net.cpp:106] Creating Layer pool5
I0622 20:02:12.791117 81490 net.cpp:454] pool5 <- conv5
I0622 20:02:12.791122 81490 net.cpp:411] pool5 -> pool5
I0622 20:02:12.791182 81490 net.cpp:150] Setting up pool5
I0622 20:02:12.791188 81490 net.cpp:157] Top shape: 10 256 6 6 (92160)
I0622 20:02:12.791191 81490 net.cpp:165] Memory required for data: 61434880
I0622 20:02:12.791194 81490 layer_factory.hpp:77] Creating layer fc6
I0622 20:02:12.791200 81490 net.cpp:106] Creating Layer fc6
I0622 20:02:12.791203 81490 net.cpp:454] fc6 <- pool5
I0622 20:02:12.791213 81490 net.cpp:411] fc6 -> fc6
I0622 20:02:12.883839 81490 net.cpp:150] Setting up fc6
I0622 20:02:12.883878 81490 net.cpp:157] Top shape: 10 4096 (40960)
I0622 20:02:12.883882 81490 net.cpp:165] Memory required for data: 61598720
I0622 20:02:12.883894 81490 layer_factory.hpp:77] Creating layer relu6
I0622 20:02:12.883908 81490 net.cpp:106] Creating Layer relu6
I0622 20:02:12.883913 81490 net.cpp:454] relu6 <- fc6
I0622 20:02:12.883919 81490 net.cpp:397] relu6 -> fc6 (in-place)
I0622 20:02:12.884428 81490 net.cpp:150] Setting up relu6
I0622 20:02:12.884439 81490 net.cpp:157] Top shape: 10 4096 (40960)
I0622 20:02:12.884443 81490 net.cpp:165] Memory required for data: 61762560
I0622 20:02:12.884448 81490 layer_factory.hpp:77] Creating layer drop6
I0622 20:02:12.884460 81490 net.cpp:106] Creating Layer drop6
I0622 20:02:12.884464 81490 net.cpp:454] drop6 <- fc6
I0622 20:02:12.884469 81490 net.cpp:397] drop6 -> fc6 (in-place)
I0622 20:02:12.884510 81490 net.cpp:150] Setting up drop6
I0622 20:02:12.884516 81490 net.cpp:157] Top shape: 10 4096 (40960)
I0622 20:02:12.884519 81490 net.cpp:165] Memory required for data: 61926400
I0622 20:02:12.884522 81490 layer_factory.hpp:77] Creating layer fc7
I0622 20:02:12.884528 81490 net.cpp:106] Creating Layer fc7
I0622 20:02:12.884531 81490 net.cpp:454] fc7 <- fc6
I0622 20:02:12.884537 81490 net.cpp:411] fc7 -> fc7
I0622 20:02:12.925765 81490 net.cpp:150] Setting up fc7
I0622 20:02:12.925799 81490 net.cpp:157] Top shape: 10 4096 (40960)
I0622 20:02:12.925803 81490 net.cpp:165] Memory required for data: 62090240
I0622 20:02:12.925815 81490 layer_factory.hpp:77] Creating layer relu7
I0622 20:02:12.925827 81490 net.cpp:106] Creating Layer relu7
I0622 20:02:12.925830 81490 net.cpp:454] relu7 <- fc7
I0622 20:02:12.925837 81490 net.cpp:397] relu7 -> fc7 (in-place)
I0622 20:02:12.926056 81490 net.cpp:150] Setting up relu7
I0622 20:02:12.926064 81490 net.cpp:157] Top shape: 10 4096 (40960)
I0622 20:02:12.926069 81490 net.cpp:165] Memory required for data: 62254080
I0622 20:02:12.926071 81490 layer_factory.hpp:77] Creating layer drop7
I0622 20:02:12.926079 81490 net.cpp:106] Creating Layer drop7
I0622 20:02:12.926082 81490 net.cpp:454] drop7 <- fc7
I0622 20:02:12.926089 81490 net.cpp:397] drop7 -> fc7 (in-place)
I0622 20:02:12.926126 81490 net.cpp:150] Setting up drop7
I0622 20:02:12.926133 81490 net.cpp:157] Top shape: 10 4096 (40960)
I0622 20:02:12.926136 81490 net.cpp:165] Memory required for data: 62417920
I0622 20:02:12.926139 81490 layer_factory.hpp:77] Creating layer 102flower
I0622 20:02:12.926146 81490 net.cpp:106] Creating Layer 102flower
I0622 20:02:12.926151 81490 net.cpp:454] 102flower <- fc7
I0622 20:02:12.926154 81490 net.cpp:411] 102flower -> 102flower
I0622 20:02:12.927702 81490 net.cpp:150] Setting up 102flower
I0622 20:02:12.927714 81490 net.cpp:157] Top shape: 10 102 (1020)
I0622 20:02:12.927717 81490 net.cpp:165] Memory required for data: 62422000
I0622 20:02:12.927724 81490 layer_factory.hpp:77] Creating layer prob
I0622 20:02:12.927731 81490 net.cpp:106] Creating Layer prob
I0622 20:02:12.927734 81490 net.cpp:454] prob <- 102flower
I0622 20:02:12.927739 81490 net.cpp:411] prob -> prob
I0622 20:02:12.928177 81490 net.cpp:150] Setting up prob
I0622 20:02:12.928189 81490 net.cpp:157] Top shape: 10 102 (1020)
I0622 20:02:12.928194 81490 net.cpp:165] Memory required for data: 62426080
I0622 20:02:12.928199 81490 net.cpp:228] prob does not need backward computation.
I0622 20:02:12.928202 81490 net.cpp:228] 102flower does not need backward computation.
I0622 20:02:12.928206 81490 net.cpp:228] drop7 does not need backward computation.
I0622 20:02:12.928210 81490 net.cpp:228] relu7 does not need backward computation.
…
