…
I0619 17:29:52.544020  9506 net.cpp:322] The NetState phase (0) differed from the phase (1) specified by a rule in layer accuracy
I0619 17:29:52.544183  9506 net.cpp:49] Initializing net from parameters: 
name: "102FlowerCaffeNet"
state {
  phase: TRAIN
}
layer {
  name: "data"
  type: "Data"
  top: "data"
  top: "label"
  include {
    phase: TRAIN
  }
  transform_param {
    mirror: true
    crop_size: 227
    mean_file: "/home/zheda/data/flower_all/102flowers/102flowers_cropped_train_mean.binaryproto"
  }
  data_param {
    source: "/home/zheda/data/flower_all/102flowers/lmdb/102flowers_cropped_train_lmdb"
    batch_size: 256
    backend: LMDB
  }
}
layer {
  name: "conv1"
  type: "Convolution"
  bottom: "data"
  top: "conv1"
  param {
    lr_mult: 1
    decay_mult: 1
  }
  param {
    lr_mult: 2
    decay_mult: 0
  }
  convolution_param {
    num_output: 96
    kernel_size: 11
    stride: 4
    weight_filler {
      type: "gaussian"
      std: 0.01
    }
    bias_filler {
      type: "constant"
      value: 0
    }
  }
}
layer {
  name: "relu1"
  type: "ReLU"
  bottom: "conv1"
  top: "conv1"
}
layer {
  name: "pool1"
  type: "Pooling"
  bottom: "conv1"
  top: "pool1"
  pooling_param {
    pool: MAX
    kernel_size: 3
    stride: 2
  }
}
layer {
  name: "norm1"
  type: "LRN"
  bottom: "pool1"
  top: "norm1"
  lrn_param {
    local_size: 5
    alpha: 0.0001
    beta: 0.75
  }
}
layer {
  name: "conv2"
  type: "Convolution"
  bottom: "norm1"
  top: "conv2"
  param {
    lr_mult: 1
    decay_mult: 1
  }
  param {
    lr_mult: 2
    decay_mult: 0
  }
  convolution_param {
    num_output: 256
    pad: 2
    kernel_size: 5
    group: 2
    weight_filler {
      type: "gaussian"
      std: 0.01
    }
    bias_filler {
      type: "constant"
      value: 1
    }
  }
}
layer {
  name: "relu2"
  type: "ReLU"
  bottom: "conv2"
  top: "conv2"
}
layer {
  name: "pool2"
  type: "Pooling"
  bottom: "conv2"
  top: "pool2"
  pooling_param {
    pool: MAX
    kernel_size: 3
    stride: 2
  }
}
layer {
  name: "norm2"
  type: "LRN"
  bottom: "pool2"
  top: "norm2"
  lrn_param {
    local_size: 5
    alpha: 0.0001
    beta: 0.75
  }
}
layer {
  name: "conv3"
  type: "Convolution"
  bottom: "norm2"
  top: "conv3"
  param {
    lr_mult: 1
    decay_mult: 1
  }
  param {
    lr_mult: 2
    decay_mult: 0
  }
  convolution_param {
    num_output: 384
    pad: 1
    kernel_size: 3
    weight_filler {
      type: "gaussian"
      std: 0.01
    }
    bias_filler {
      type: "constant"
      value: 0
    }
  }
}
layer {
  name: "relu3"
  type: "ReLU"
  bottom: "conv3"
  top: "conv3"
}
layer {
  name: "conv4"
  type: "Convolution"
  bottom: "conv3"
  top: "conv4"
  param {
    lr_mult: 1
    decay_mult: 1
  }
  param {
    lr_mult: 2
    decay_mult: 0
  }
  convolution_param {
    num_output: 384
    pad: 1
    kernel_size: 3
    group: 2
    weight_filler {
      type: "gaussian"
      std: 0.01
    }
    bias_filler {
      type: "constant"
      value: 1
    }
  }
}
layer {
  name: "relu4"
  type: "ReLU"
  bottom: "conv4"
  top: "conv4"
}
layer {
  name: "conv5"
  type: "Convolution"
  bottom: "conv4"
  top: "conv5"
  param {
    lr_mult: 1
    decay_mult: 1
  }
  param {
    lr_mult: 2
    decay_mult: 0
  }
  convolution_param {
    num_output: 256
    pad: 1
    kernel_size: 3
    group: 2
    weight_filler {
      type: "gaussian"
      std: 0.01
    }
    bias_filler {
      type: "constant"
      value: 1
    }
  }
}
layer {
  name: "relu5"
  type: "ReLU"
  bottom: "conv5"
  top: "conv5"
}
layer {
  name: "pool5"
  type: "Pooling"
  bottom: "conv5"
  top: "pool5"
  pooling_param {
    pool: MAX
    kernel_size: 3
    stride: 2
  }
}
layer {
  name: "fc6"
  type: "InnerProduct"
  bottom: "pool5"
  top: "fc6"
  param {
    lr_mult: 1
    decay_mult: 1
  }
  param {
    lr_mult: 2
    decay_mult: 0
  }
  inner_product_param {
    num_output: 4096
    weight_filler {
      type: "gaussian"
      std: 0.005
    }
    bias_filler {
      type: "constant"
      value: 1
    }
  }
}
layer {
  name: "relu6"
  type: "ReLU"
  bottom: "fc6"
  top: "fc6"
}
layer {
  name: "drop6"
  type: "Dropout"
  bottom: "fc6"
  top: "fc6"
  dropout_param {
    dropout_ratio: 0.5
  }
}
layer {
  name: "fc7"
  type: "InnerProduct"
  bottom: "fc6"
  top: "fc7"
  param {
    lr_mult: 1
    decay_mult: 1
  }
  param {
    lr_mult: 2
    decay_mult: 0
  }
  inner_product_param {
    num_output: 4096
    weight_filler {
      type: "gaussian"
      std: 0.005
    }
    bias_filler {
      type: "constant"
      value: 1
    }
  }
}
layer {
  name: "relu7"
  type: "ReLU"
  bottom: "fc7"
  top: "fc7"
}
layer {
  name: "drop7"
  type: "Dropout"
  bottom: "fc7"
  top: "fc7"
  dropout_param {
    dropout_ratio: 0.5
  }
}
layer {
  name: "102flower"
  type: "InnerProduct"
  bottom: "fc7"
  top: "102flower"
  param {
    lr_mult: 10
    decay_mult: 1
  }
  param {
    lr_mult: 20
    decay_mult: 0
  }
  inner_product_param {
    num_output: 102
    weight_filler {
      type: "gaussian"
      std: 0.01
    }
    bias_filler {
      type: "constant"
      value: 0
    }
  }
}
layer {
  name: "loss"
  type: "SoftmaxWithLoss"
  bottom: "102flower"
  bottom: "label"
  top: "loss"
}
I0619 17:29:52.545194  9506 layer_factory.hpp:77] Creating layer data
I0619 17:29:52.545728  9506 net.cpp:106] Creating Layer data
I0619 17:29:52.545768  9506 net.cpp:411] data -> data
I0619 17:29:52.545797  9506 net.cpp:411] data -> label
I0619 17:29:52.545819  9506 data_transformer.cpp:25] Loading mean file from: /home/zheda/data/flower_all/102flowers/102flowers_cropped_train_mean.binaryproto
I0619 17:29:52.546566  9510 db_lmdb.cpp:38] Opened lmdb /home/zheda/data/flower_all/102flowers/lmdb/102flowers_cropped_train_lmdb
I0619 17:29:52.556010  9506 data_layer.cpp:41] output data size: 256,3,227,227
I0619 17:29:52.808547  9506 net.cpp:150] Setting up data
I0619 17:29:52.808612  9506 net.cpp:157] Top shape: 256 3 227 227 (39574272)
I0619 17:29:52.808624  9506 net.cpp:157] Top shape: 256 (256)
I0619 17:29:52.808631  9506 net.cpp:165] Memory required for data: 158298112
I0619 17:29:52.808645  9506 layer_factory.hpp:77] Creating layer conv1
I0619 17:29:52.808673  9506 net.cpp:106] Creating Layer conv1
I0619 17:29:52.808683  9506 net.cpp:454] conv1 <- data
I0619 17:29:52.808703  9506 net.cpp:411] conv1 -> conv1
I0619 17:29:52.957808  9506 net.cpp:150] Setting up conv1
I0619 17:29:52.957859  9506 net.cpp:157] Top shape: 256 96 55 55 (74342400)
I0619 17:29:52.957868  9506 net.cpp:165] Memory required for data: 455667712
I0619 17:29:52.957892  9506 layer_factory.hpp:77] Creating layer relu1
I0619 17:29:52.957908  9506 net.cpp:106] Creating Layer relu1
I0619 17:29:52.957916  9506 net.cpp:454] relu1 <- conv1
I0619 17:29:52.957927  9506 net.cpp:397] relu1 -> conv1 (in-place)
I0619 17:29:52.958076  9506 net.cpp:150] Setting up relu1
I0619 17:29:52.958092  9506 net.cpp:157] Top shape: 256 96 55 55 (74342400)
I0619 17:29:52.958099  9506 net.cpp:165] Memory required for data: 753037312
I0619 17:29:52.958106  9506 layer_factory.hpp:77] Creating layer pool1
I0619 17:29:52.958118  9506 net.cpp:106] Creating Layer pool1
I0619 17:29:52.958125  9506 net.cpp:454] pool1 <- conv1
I0619 17:29:52.958134  9506 net.cpp:411] pool1 -> pool1
I0619 17:29:52.958189  9506 net.cpp:150] Setting up pool1
I0619 17:29:52.958220  9506 net.cpp:157] Top shape: 256 96 27 27 (17915904)
I0619 17:29:52.958228  9506 net.cpp:165] Memory required for data: 824700928
I0619 17:29:52.958269  9506 layer_factory.hpp:77] Creating layer norm1
I0619 17:29:52.958287  9506 net.cpp:106] Creating Layer norm1
I0619 17:29:52.958297  9506 net.cpp:454] norm1 <- pool1
I0619 17:29:52.958305  9506 net.cpp:411] norm1 -> norm1
I0619 17:29:52.958634  9506 net.cpp:150] Setting up norm1
I0619 17:29:52.958654  9506 net.cpp:157] Top shape: 256 96 27 27 (17915904)
I0619 17:29:52.958662  9506 net.cpp:165] Memory required for data: 896364544
I0619 17:29:52.958669  9506 layer_factory.hpp:77] Creating layer conv2
I0619 17:29:52.958685  9506 net.cpp:106] Creating Layer conv2
I0619 17:29:52.958693  9506 net.cpp:454] conv2 <- norm1
I0619 17:29:52.958703  9506 net.cpp:411] conv2 -> conv2
I0619 17:29:52.970379  9506 net.cpp:150] Setting up conv2
I0619 17:29:52.970423  9506 net.cpp:157] Top shape: 256 256 27 27 (47775744)
I0619 17:29:52.970432  9506 net.cpp:165] Memory required for data: 1087467520
I0619 17:29:52.970449  9506 layer_factory.hpp:77] Creating layer relu2
I0619 17:29:52.970463  9506 net.cpp:106] Creating Layer relu2
I0619 17:29:52.970471  9506 net.cpp:454] relu2 <- conv2
I0619 17:29:52.970482  9506 net.cpp:397] relu2 -> conv2 (in-place)
I0619 17:29:52.970638  9506 net.cpp:150] Setting up relu2
I0619 17:29:52.970665  9506 net.cpp:157] Top shape: 256 256 27 27 (47775744)
I0619 17:29:52.970674  9506 net.cpp:165] Memory required for data: 1278570496
I0619 17:29:52.970682  9506 layer_factory.hpp:77] Creating layer pool2
I0619 17:29:52.970695  9506 net.cpp:106] Creating Layer pool2
I0619 17:29:52.970702  9506 net.cpp:454] pool2 <- conv2
I0619 17:29:52.970712  9506 net.cpp:411] pool2 -> pool2
I0619 17:29:52.970758  9506 net.cpp:150] Setting up pool2
I0619 17:29:52.970769  9506 net.cpp:157] Top shape: 256 256 13 13 (11075584)
I0619 17:29:52.970777  9506 net.cpp:165] Memory required for data: 1322872832
I0619 17:29:52.970784  9506 layer_factory.hpp:77] Creating layer norm2
I0619 17:29:52.970798  9506 net.cpp:106] Creating Layer norm2
I0619 17:29:52.970805  9506 net.cpp:454] norm2 <- pool2
I0619 17:29:52.970815  9506 net.cpp:411] norm2 -> norm2
I0619 17:29:52.971140  9506 net.cpp:150] Setting up norm2
I0619 17:29:52.971159  9506 net.cpp:157] Top shape: 256 256 13 13 (11075584)
I0619 17:29:52.971166  9506 net.cpp:165] Memory required for data: 1367175168
I0619 17:29:52.971174  9506 layer_factory.hpp:77] Creating layer conv3
I0619 17:29:52.971189  9506 net.cpp:106] Creating Layer conv3
I0619 17:29:52.971196  9506 net.cpp:454] conv3 <- norm2
I0619 17:29:52.971209  9506 net.cpp:411] conv3 -> conv3
I0619 17:29:52.998971  9506 net.cpp:150] Setting up conv3
I0619 17:29:52.999032  9506 net.cpp:157] Top shape: 256 384 13 13 (16613376)
I0619 17:29:52.999042  9506 net.cpp:165] Memory required for data: 1433628672
I0619 17:29:52.999060  9506 layer_factory.hpp:77] Creating layer relu3
I0619 17:29:52.999076  9506 net.cpp:106] Creating Layer relu3
I0619 17:29:52.999084  9506 net.cpp:454] relu3 <- conv3
I0619 17:29:52.999095  9506 net.cpp:397] relu3 -> conv3 (in-place)
I0619 17:29:52.999402  9506 net.cpp:150] Setting up relu3
I0619 17:29:52.999420  9506 net.cpp:157] Top shape: 256 384 13 13 (16613376)
I0619 17:29:52.999428  9506 net.cpp:165] Memory required for data: 1500082176
I0619 17:29:52.999435  9506 layer_factory.hpp:77] Creating layer conv4
I0619 17:29:52.999452  9506 net.cpp:106] Creating Layer conv4
I0619 17:29:52.999459  9506 net.cpp:454] conv4 <- conv3
I0619 17:29:52.999469  9506 net.cpp:411] conv4 -> conv4
I0619 17:29:53.021695  9506 net.cpp:150] Setting up conv4
I0619 17:29:53.021745  9506 net.cpp:157] Top shape: 256 384 13 13 (16613376)
I0619 17:29:53.021754  9506 net.cpp:165] Memory required for data: 1566535680
I0619 17:29:53.021767  9506 layer_factory.hpp:77] Creating layer relu4
I0619 17:29:53.021785  9506 net.cpp:106] Creating Layer relu4
I0619 17:29:53.021795  9506 net.cpp:454] relu4 <- conv4
I0619 17:29:53.021806  9506 net.cpp:397] relu4 -> conv4 (in-place)
I0619 17:29:53.021975  9506 net.cpp:150] Setting up relu4
I0619 17:29:53.021992  9506 net.cpp:157] Top shape: 256 384 13 13 (16613376)
I0619 17:29:53.022028  9506 net.cpp:165] Memory required for data: 1632989184
I0619 17:29:53.022037  9506 layer_factory.hpp:77] Creating layer conv5
I0619 17:29:53.022054  9506 net.cpp:106] Creating Layer conv5
I0619 17:29:53.022063  9506 net.cpp:454] conv5 <- conv4
I0619 17:29:53.022076  9506 net.cpp:411] conv5 -> conv5
I0619 17:29:53.037209  9506 net.cpp:150] Setting up conv5
I0619 17:29:53.037240  9506 net.cpp:157] Top shape: 256 256 13 13 (11075584)
I0619 17:29:53.037248  9506 net.cpp:165] Memory required for data: 1677291520
I0619 17:29:53.037266  9506 layer_factory.hpp:77] Creating layer relu5
I0619 17:29:53.037277  9506 net.cpp:106] Creating Layer relu5
I0619 17:29:53.037286  9506 net.cpp:454] relu5 <- conv5
I0619 17:29:53.037294  9506 net.cpp:397] relu5 -> conv5 (in-place)
I0619 17:29:53.037448  9506 net.cpp:150] Setting up relu5
I0619 17:29:53.037462  9506 net.cpp:157] Top shape: 256 256 13 13 (11075584)
I0619 17:29:53.037469  9506 net.cpp:165] Memory required for data: 1721593856
I0619 17:29:53.037477  9506 layer_factory.hpp:77] Creating layer pool5
I0619 17:29:53.037487  9506 net.cpp:106] Creating Layer pool5
I0619 17:29:53.037493  9506 net.cpp:454] pool5 <- conv5
I0619 17:29:53.037503  9506 net.cpp:411] pool5 -> pool5
I0619 17:29:53.037546  9506 net.cpp:150] Setting up pool5
I0619 17:29:53.037560  9506 net.cpp:157] Top shape: 256 256 6 6 (2359296)
I0619 17:29:53.037566  9506 net.cpp:165] Memory required for data: 1731031040
I0619 17:29:53.037572  9506 layer_factory.hpp:77] Creating layer fc6
I0619 17:29:53.037585  9506 net.cpp:106] Creating Layer fc6
I0619 17:29:53.037592  9506 net.cpp:454] fc6 <- pool5
I0619 17:29:53.037603  9506 net.cpp:411] fc6 -> fc6
I0619 17:29:54.127904  9506 net.cpp:150] Setting up fc6
I0619 17:29:54.127960  9506 net.cpp:157] Top shape: 256 4096 (1048576)
I0619 17:29:54.127969  9506 net.cpp:165] Memory required for data: 1735225344
I0619 17:29:54.127986  9506 layer_factory.hpp:77] Creating layer relu6
I0619 17:29:54.128007  9506 net.cpp:106] Creating Layer relu6
I0619 17:29:54.128017  9506 net.cpp:454] relu6 <- fc6
I0619 17:29:54.128028  9506 net.cpp:397] relu6 -> fc6 (in-place)
I0619 17:29:54.128615  9506 net.cpp:150] Setting up relu6
I0619 17:29:54.128639  9506 net.cpp:157] Top shape: 256 4096 (1048576)
I0619 17:29:54.128648  9506 net.cpp:165] Memory required for data: 1739419648
I0619 17:29:54.128654  9506 layer_factory.hpp:77] Creating layer drop6
I0619 17:29:54.128672  9506 net.cpp:106] Creating Layer drop6
I0619 17:29:54.128682  9506 net.cpp:454] drop6 <- fc6
I0619 17:29:54.128690  9506 net.cpp:397] drop6 -> fc6 (in-place)
I0619 17:29:54.128727  9506 net.cpp:150] Setting up drop6
I0619 17:29:54.128741  9506 net.cpp:157] Top shape: 256 4096 (1048576)
I0619 17:29:54.128747  9506 net.cpp:165] Memory required for data: 1743613952
I0619 17:29:54.128756  9506 layer_factory.hpp:77] Creating layer fc7
I0619 17:29:54.128770  9506 net.cpp:106] Creating Layer fc7
I0619 17:29:54.128778  9506 net.cpp:454] fc7 <- fc6
I0619 17:29:54.128805  9506 net.cpp:411] fc7 -> fc7
I0619 17:29:54.603119  9506 net.cpp:150] Setting up fc7
I0619 17:29:54.603171  9506 net.cpp:157] Top shape: 256 4096 (1048576)
I0619 17:29:54.603180  9506 net.cpp:165] Memory required for data: 1747808256
I0619 17:29:54.603198  9506 layer_factory.hpp:77] Creating layer relu7
I0619 17:29:54.603220  9506 net.cpp:106] Creating Layer relu7
I0619 17:29:54.603229  9506 net.cpp:454] relu7 <- fc7
I0619 17:29:54.603241  9506 net.cpp:397] relu7 -> fc7 (in-place)
I0619 17:29:54.603560  9506 net.cpp:150] Setting up relu7
I0619 17:29:54.603577  9506 net.cpp:157] Top shape: 256 4096 (1048576)
I0619 17:29:54.603585  9506 net.cpp:165] Memory required for data: 1752002560
I0619 17:29:54.603591  9506 layer_factory.hpp:77] Creating layer drop7
I0619 17:29:54.603608  9506 net.cpp:106] Creating Layer drop7
I0619 17:29:54.603615  9506 net.cpp:454] drop7 <- fc7
I0619 17:29:54.603624  9506 net.cpp:397] drop7 -> fc7 (in-place)
I0619 17:29:54.603651  9506 net.cpp:150] Setting up drop7
I0619 17:29:54.603662  9506 net.cpp:157] Top shape: 256 4096 (1048576)
I0619 17:29:54.603698  9506 net.cpp:165] Memory required for data: 1756196864
I0619 17:29:54.603708  9506 layer_factory.hpp:77] Creating layer 102flower
I0619 17:29:54.603724  9506 net.cpp:106] Creating Layer 102flower
I0619 17:29:54.603731  9506 net.cpp:454] 102flower <- fc7
I0619 17:29:54.603744  9506 net.cpp:411] 102flower -> 102flower
I0619 17:29:54.615808  9506 net.cpp:150] Setting up 102flower
I0619 17:29:54.615828  9506 net.cpp:157] Top shape: 256 102 (26112)
I0619 17:29:54.615834  9506 net.cpp:165] Memory required for data: 1756301312
I0619 17:29:54.615844  9506 layer_factory.hpp:77] Creating layer loss
I0619 17:29:54.615855  9506 net.cpp:106] Creating Layer loss
I0619 17:29:54.615862  9506 net.cpp:454] loss <- 102flower
I0619 17:29:54.615870  9506 net.cpp:454] loss <- label
I0619 17:29:54.615888  9506 net.cpp:411] loss -> loss
I0619 17:29:54.615902  9506 layer_factory.hpp:77] Creating layer loss
…
I0619 17:29:54.617357  9506 net.cpp:322] The NetState phase (1) differed from the phase (0) specified by a rule in layer data
I0619 17:29:54.617537  9506 net.cpp:49] Initializing net from parameters: 
name: "102FlowerCaffeNet"
state {
  phase: TEST
}
layer {
  name: "data"
  type: "Data"
  top: "data"
  top: "label"
  include {
    phase: TEST
  }
  transform_param {
    mirror: false
    crop_size: 227
    mean_file: "/home/zheda/data/flower_all/102flowers/102flowers_val_mean.binaryproto"
  }
  data_param {
    source: "/home/zheda/data/flower_all/102flowers/lmdb/102flowers_val_lmdb"
    batch_size: 64
    backend: LMDB
  }
}
layer {
  name: "conv1"
  type: "Convolution"
  bottom: "data"
  top: "conv1"
  param {
    lr_mult: 1
    decay_mult: 1
  }
  param {
    lr_mult: 2
    decay_mult: 0
  }
  convolution_param {
    num_output: 96
    kernel_size: 11
    stride: 4
    weight_filler {
      type: "gaussian"
      std: 0.01
    }
    bias_filler {
      type: "constant"
      value: 0
    }
  }
}
layer {
  name: "relu1"
  type: "ReLU"
  bottom: "conv1"
  top: "conv1"
}
layer {
  name: "pool1"
  type: "Pooling"
  bottom: "conv1"
  top: "pool1"
  pooling_param {
    pool: MAX
    kernel_size: 3
    stride: 2
  }
}
layer {
  name: "norm1"
  type: "LRN"
  bottom: "pool1"
  top: "norm1"
  lrn_param {
    local_size: 5
    alpha: 0.0001
    beta: 0.75
  }
}
layer {
  name: "conv2"
  type: "Convolution"
  bottom: "norm1"
  top: "conv2"
  param {
    lr_mult: 1
    decay_mult: 1
  }
  param {
    lr_mult: 2
    decay_mult: 0
  }
  convolution_param {
    num_output: 256
    pad: 2
    kernel_size: 5
    group: 2
    weight_filler {
      type: "gaussian"
      std: 0.01
    }
    bias_filler {
      type: "constant"
      value: 1
    }
  }
}
layer {
  name: "relu2"
  type: "ReLU"
  bottom: "conv2"
  top: "conv2"
}
layer {
  name: "pool2"
  type: "Pooling"
  bottom: "conv2"
  top: "pool2"
  pooling_param {
    pool: MAX
    kernel_size: 3
    stride: 2
  }
}
layer {
  name: "norm2"
  type: "LRN"
  bottom: "pool2"
  top: "norm2"
  lrn_param {
    local_size: 5
    alpha: 0.0001
    beta: 0.75
  }
}
layer {
  name: "conv3"
  type: "Convolution"
  bottom: "norm2"
  top: "conv3"
  param {
    lr_mult: 1
    decay_mult: 1
  }
  param {
    lr_mult: 2
    decay_mult: 0
  }
  convolution_param {
    num_output: 384
    pad: 1
    kernel_size: 3
    weight_filler {
      type: "gaussian"
      std: 0.01
    }
    bias_filler {
      type: "constant"
      value: 0
    }
  }
}
layer {
  name: "relu3"
  type: "ReLU"
  bottom: "conv3"
  top: "conv3"
}
layer {
  name: "conv4"
  type: "Convolution"
  bottom: "conv3"
  top: "conv4"
  param {
    lr_mult: 1
    decay_mult: 1
  }
  param {
    lr_mult: 2
    decay_mult: 0
  }
  convolution_param {
    num_output: 384
    pad: 1
    kernel_size: 3
    group: 2
    weight_filler {
      type: "gaussian"
      std: 0.01
    }
    bias_filler {
      type: "constant"
      value: 1
    }
  }
}
layer {
  name: "relu4"
  type: "ReLU"
  bottom: "conv4"
  top: "conv4"
}
layer {
  name: "conv5"
  type: "Convolution"
  bottom: "conv4"
  top: "conv5"
  param {
    lr_mult: 1
    decay_mult: 1
  }
  param {
    lr_mult: 2
    decay_mult: 0
  }
  convolution_param {
    num_output: 256
    pad: 1
    kernel_size: 3
    group: 2
    weight_filler {
      type: "gaussian"
      std: 0.01
    }
    bias_filler {
      type: "constant"
      value: 1
    }
  }
}
layer {
  name: "relu5"
  type: "ReLU"
  bottom: "conv5"
  top: "conv5"
}
layer {
  name: "pool5"
  type: "Pooling"
  bottom: "conv5"
  top: "pool5"
  pooling_param {
    pool: MAX
    kernel_size: 3
    stride: 2
  }
}
layer {
  name: "fc6"
  type: "InnerProduct"
  bottom: "pool5"
  top: "fc6"
  param {
    lr_mult: 1
    decay_mult: 1
  }
  param {
    lr_mult: 2
    decay_mult: 0
  }
  inner_product_param {
    num_output: 4096
    weight_filler {
      type: "gaussian"
      std: 0.005
    }
    bias_filler {
      type: "constant"
      value: 1
    }
  }
}
layer {
  name: "relu6"
  type: "ReLU"
  bottom: "fc6"
  top: "fc6"
}
layer {
  name: "drop6"
  type: "Dropout"
  bottom: "fc6"
  top: "fc6"
  dropout_param {
    dropout_ratio: 0.5
  }
}
layer {
  name: "fc7"
  type: "InnerProduct"
  bottom: "fc6"
  top: "fc7"
  param {
    lr_mult: 1
    decay_mult: 1
  }
  param {
    lr_mult: 2
    decay_mult: 0
  }
  inner_product_param {
    num_output: 4096
    weight_filler {
      type: "gaussian"
      std: 0.005
    }
    bias_filler {
      type: "constant"
      value: 1
    }
  }
}
layer {
  name: "relu7"
  type: "ReLU"
  bottom: "fc7"
  top: "fc7"
}
layer {
  name: "drop7"
  type: "Dropout"
  bottom: "fc7"
  top: "fc7"
  dropout_param {
    dropout_ratio: 0.5
  }
}
layer {
  name: "102flower"
  type: "InnerProduct"
  bottom: "fc7"
  top: "102flower"
  param {
    lr_mult: 10
    decay_mult: 1
  }
  param {
    lr_mult: 20
    decay_mult: 0
  }
  inner_product_param {
    num_output: 102
    weight_filler {
      type: "gaussian"
      std: 0.01
    }
    bias_filler {
      type: "constant"
      value: 0
    }
  }
}
layer {
  name: "accuracy"
  type: "Accuracy"
  bottom: "102flower"
  bottom: "label"
  top: "accuracy"
  include {
    phase: TEST
  }
}
layer {
  name: "loss"
  type: "SoftmaxWithLoss"
  bottom: "102flower"
  bottom: "label"
  top: "loss"
}
I0619 17:29:54.618196  9506 layer_factory.hpp:77] Creating layer data
I0619 17:29:54.618309  9506 net.cpp:106] Creating Layer data
I0619 17:29:54.618325  9506 net.cpp:411] data -> data
I0619 17:29:54.618337  9506 net.cpp:411] data -> label
I0619 17:29:54.618350  9506 data_transformer.cpp:25] Loading mean file from: /home/zheda/data/flower_all/102flowers/102flowers_val_mean.binaryproto
I0619 17:29:54.619833  9512 db_lmdb.cpp:38] Opened lmdb /home/zheda/data/flower_all/102flowers/lmdb/102flowers_val_lmdb
I0619 17:29:54.620566  9506 data_layer.cpp:41] output data size: 64,3,227,227
I0619 17:29:54.684279  9506 net.cpp:150] Setting up data
I0619 17:29:54.684336  9506 net.cpp:157] Top shape: 64 3 227 227 (9893568)
I0619 17:29:54.684346  9506 net.cpp:157] Top shape: 64 (64)
I0619 17:29:54.684353  9506 net.cpp:165] Memory required for data: 39574528
I0619 17:29:54.684365  9506 layer_factory.hpp:77] Creating layer label_data_1_split
I0619 17:29:54.684382  9506 net.cpp:106] Creating Layer label_data_1_split
I0619 17:29:54.684391  9506 net.cpp:454] label_data_1_split <- label
I0619 17:29:54.684401  9506 net.cpp:411] label_data_1_split -> label_data_1_split_0
I0619 17:29:54.684417  9506 net.cpp:411] label_data_1_split -> label_data_1_split_1
I0619 17:29:54.684576  9506 net.cpp:150] Setting up label_data_1_split
I0619 17:29:54.684592  9506 net.cpp:157] Top shape: 64 (64)
I0619 17:29:54.684600  9506 net.cpp:157] Top shape: 64 (64)
I0619 17:29:54.684609  9506 net.cpp:165] Memory required for data: 39575040
I0619 17:29:54.684617  9506 layer_factory.hpp:77] Creating layer conv1
I0619 17:29:54.684633  9506 net.cpp:106] Creating Layer conv1
I0619 17:29:54.684641  9506 net.cpp:454] conv1 <- data
I0619 17:29:54.684654  9506 net.cpp:411] conv1 -> conv1
I0619 17:29:54.690846  9506 net.cpp:150] Setting up conv1
I0619 17:29:54.690881  9506 net.cpp:157] Top shape: 64 96 55 55 (18585600)
I0619 17:29:54.690889  9506 net.cpp:165] Memory required for data: 113917440
I0619 17:29:54.690906  9506 layer_factory.hpp:77] Creating layer relu1
I0619 17:29:54.690918  9506 net.cpp:106] Creating Layer relu1
I0619 17:29:54.690925  9506 net.cpp:454] relu1 <- conv1
I0619 17:29:54.690935  9506 net.cpp:397] relu1 -> conv1 (in-place)
I0619 17:29:54.691092  9506 net.cpp:150] Setting up relu1
I0619 17:29:54.691109  9506 net.cpp:157] Top shape: 64 96 55 55 (18585600)
I0619 17:29:54.691117  9506 net.cpp:165] Memory required for data: 188259840
I0619 17:29:54.691123  9506 layer_factory.hpp:77] Creating layer pool1
I0619 17:29:54.691135  9506 net.cpp:106] Creating Layer pool1
I0619 17:29:54.691143  9506 net.cpp:454] pool1 <- conv1
I0619 17:29:54.691153  9506 net.cpp:411] pool1 -> pool1
I0619 17:29:54.691198  9506 net.cpp:150] Setting up pool1
I0619 17:29:54.691216  9506 net.cpp:157] Top shape: 64 96 27 27 (4478976)
I0619 17:29:54.691223  9506 net.cpp:165] Memory required for data: 206175744
I0619 17:29:54.691231  9506 layer_factory.hpp:77] Creating layer norm1
I0619 17:29:54.691242  9506 net.cpp:106] Creating Layer norm1
I0619 17:29:54.691251  9506 net.cpp:454] norm1 <- pool1
I0619 17:29:54.691259  9506 net.cpp:411] norm1 -> norm1
I0619 17:29:54.691596  9506 net.cpp:150] Setting up norm1
I0619 17:29:54.691620  9506 net.cpp:157] Top shape: 64 96 27 27 (4478976)
I0619 17:29:54.691628  9506 net.cpp:165] Memory required for data: 224091648
I0619 17:29:54.691637  9506 layer_factory.hpp:77] Creating layer conv2
I0619 17:29:54.691656  9506 net.cpp:106] Creating Layer conv2
I0619 17:29:54.691664  9506 net.cpp:454] conv2 <- norm1
I0619 17:29:54.691674  9506 net.cpp:411] conv2 -> conv2
I0619 17:29:54.702209  9506 net.cpp:150] Setting up conv2
I0619 17:29:54.702301  9506 net.cpp:157] Top shape: 64 256 27 27 (11943936)
I0619 17:29:54.702311  9506 net.cpp:165] Memory required for data: 271867392
I0619 17:29:54.702328  9506 layer_factory.hpp:77] Creating layer relu2
I0619 17:29:54.702342  9506 net.cpp:106] Creating Layer relu2
I0619 17:29:54.702352  9506 net.cpp:454] relu2 <- conv2
I0619 17:29:54.702363  9506 net.cpp:397] relu2 -> conv2 (in-place)
I0619 17:29:54.702674  9506 net.cpp:150] Setting up relu2
I0619 17:29:54.702694  9506 net.cpp:157] Top shape: 64 256 27 27 (11943936)
I0619 17:29:54.702702  9506 net.cpp:165] Memory required for data: 319643136
I0619 17:29:54.702709  9506 layer_factory.hpp:77] Creating layer pool2
I0619 17:29:54.702723  9506 net.cpp:106] Creating Layer pool2
I0619 17:29:54.702730  9506 net.cpp:454] pool2 <- conv2
I0619 17:29:54.702740  9506 net.cpp:411] pool2 -> pool2
I0619 17:29:54.702788  9506 net.cpp:150] Setting up pool2
I0619 17:29:54.702807  9506 net.cpp:157] Top shape: 64 256 13 13 (2768896)
I0619 17:29:54.702814  9506 net.cpp:165] Memory required for data: 330718720
I0619 17:29:54.702822  9506 layer_factory.hpp:77] Creating layer norm2
I0619 17:29:54.702833  9506 net.cpp:106] Creating Layer norm2
I0619 17:29:54.702841  9506 net.cpp:454] norm2 <- pool2
I0619 17:29:54.702849  9506 net.cpp:411] norm2 -> norm2
I0619 17:29:54.703025  9506 net.cpp:150] Setting up norm2
I0619 17:29:54.703042  9506 net.cpp:157] Top shape: 64 256 13 13 (2768896)
I0619 17:29:54.703048  9506 net.cpp:165] Memory required for data: 341794304
I0619 17:29:54.703055  9506 layer_factory.hpp:77] Creating layer conv3
I0619 17:29:54.703075  9506 net.cpp:106] Creating Layer conv3
I0619 17:29:54.703083  9506 net.cpp:454] conv3 <- norm2
I0619 17:29:54.703094  9506 net.cpp:411] conv3 -> conv3
I0619 17:29:54.729660  9506 net.cpp:150] Setting up conv3
I0619 17:29:54.729712  9506 net.cpp:157] Top shape: 64 384 13 13 (4153344)
I0619 17:29:54.729719  9506 net.cpp:165] Memory required for data: 358407680
I0619 17:29:54.729737  9506 layer_factory.hpp:77] Creating layer relu3
I0619 17:29:54.729750  9506 net.cpp:106] Creating Layer relu3
I0619 17:29:54.729759  9506 net.cpp:454] relu3 <- conv3
I0619 17:29:54.729771  9506 net.cpp:397] relu3 -> conv3 (in-place)
I0619 17:29:54.730075  9506 net.cpp:150] Setting up relu3
I0619 17:29:54.730095  9506 net.cpp:157] Top shape: 64 384 13 13 (4153344)
I0619 17:29:54.730106  9506 net.cpp:165] Memory required for data: 375021056
I0619 17:29:54.730114  9506 layer_factory.hpp:77] Creating layer conv4
I0619 17:29:54.730131  9506 net.cpp:106] Creating Layer conv4
I0619 17:29:54.730140  9506 net.cpp:454] conv4 <- conv3
I0619 17:29:54.730151  9506 net.cpp:411] conv4 -> conv4
I0619 17:29:54.750798  9506 net.cpp:150] Setting up conv4
I0619 17:29:54.750828  9506 net.cpp:157] Top shape: 64 384 13 13 (4153344)
I0619 17:29:54.750843  9506 net.cpp:165] Memory required for data: 391634432
I0619 17:29:54.750852  9506 layer_factory.hpp:77] Creating layer relu4
I0619 17:29:54.750864  9506 net.cpp:106] Creating Layer relu4
I0619 17:29:54.750871  9506 net.cpp:454] relu4 <- conv4
I0619 17:29:54.750881  9506 net.cpp:397] relu4 -> conv4 (in-place)
I0619 17:29:54.751188  9506 net.cpp:150] Setting up relu4
I0619 17:29:54.751209  9506 net.cpp:157] Top shape: 64 384 13 13 (4153344)
I0619 17:29:54.751215  9506 net.cpp:165] Memory required for data: 408247808
I0619 17:29:54.751222  9506 layer_factory.hpp:77] Creating layer conv5
I0619 17:29:54.751236  9506 net.cpp:106] Creating Layer conv5
I0619 17:29:54.751245  9506 net.cpp:454] conv5 <- conv4
I0619 17:29:54.751255  9506 net.cpp:411] conv5 -> conv5
I0619 17:29:54.765529  9506 net.cpp:150] Setting up conv5
I0619 17:29:54.765560  9506 net.cpp:157] Top shape: 64 256 13 13 (2768896)
I0619 17:29:54.765568  9506 net.cpp:165] Memory required for data: 419323392
I0619 17:29:54.765583  9506 layer_factory.hpp:77] Creating layer relu5
I0619 17:29:54.765594  9506 net.cpp:106] Creating Layer relu5
I0619 17:29:54.765601  9506 net.cpp:454] relu5 <- conv5
I0619 17:29:54.765611  9506 net.cpp:397] relu5 -> conv5 (in-place)
I0619 17:29:54.765794  9506 net.cpp:150] Setting up relu5
I0619 17:29:54.765810  9506 net.cpp:157] Top shape: 64 256 13 13 (2768896)
I0619 17:29:54.765815  9506 net.cpp:165] Memory required for data: 430398976
I0619 17:29:54.765822  9506 layer_factory.hpp:77] Creating layer pool5
I0619 17:29:54.765836  9506 net.cpp:106] Creating Layer pool5
I0619 17:29:54.765842  9506 net.cpp:454] pool5 <- conv5
I0619 17:29:54.765851  9506 net.cpp:411] pool5 -> pool5
I0619 17:29:54.765898  9506 net.cpp:150] Setting up pool5
I0619 17:29:54.765909  9506 net.cpp:157] Top shape: 64 256 6 6 (589824)
I0619 17:29:54.765915  9506 net.cpp:165] Memory required for data: 432758272
I0619 17:29:54.765921  9506 layer_factory.hpp:77] Creating layer fc6
I0619 17:29:54.765933  9506 net.cpp:106] Creating Layer fc6
I0619 17:29:54.765939  9506 net.cpp:454] fc6 <- pool5
I0619 17:29:54.765949  9506 net.cpp:411] fc6 -> fc6
I0619 17:29:55.831729  9506 net.cpp:150] Setting up fc6
I0619 17:29:55.831778  9506 net.cpp:157] Top shape: 64 4096 (262144)
I0619 17:29:55.831786  9506 net.cpp:165] Memory required for data: 433806848
I0619 17:29:55.831801  9506 layer_factory.hpp:77] Creating layer relu6
I0619 17:29:55.831816  9506 net.cpp:106] Creating Layer relu6
I0619 17:29:55.831825  9506 net.cpp:454] relu6 <- fc6
I0619 17:29:55.831836  9506 net.cpp:397] relu6 -> fc6 (in-place)
I0619 17:29:55.832329  9506 net.cpp:150] Setting up relu6
I0619 17:29:55.832348  9506 net.cpp:157] Top shape: 64 4096 (262144)
I0619 17:29:55.832356  9506 net.cpp:165] Memory required for data: 434855424
I0619 17:29:55.832363  9506 layer_factory.hpp:77] Creating layer drop6
I0619 17:29:55.832376  9506 net.cpp:106] Creating Layer drop6
I0619 17:29:55.832382  9506 net.cpp:454] drop6 <- fc6
I0619 17:29:55.832392  9506 net.cpp:397] drop6 -> fc6 (in-place)
I0619 17:29:55.832435  9506 net.cpp:150] Setting up drop6
I0619 17:29:55.832448  9506 net.cpp:157] Top shape: 64 4096 (262144)
I0619 17:29:55.832455  9506 net.cpp:165] Memory required for data: 435904000
I0619 17:29:55.832463  9506 layer_factory.hpp:77] Creating layer fc7
I0619 17:29:55.832474  9506 net.cpp:106] Creating Layer fc7
I0619 17:29:55.832484  9506 net.cpp:454] fc7 <- fc6
I0619 17:29:55.832494  9506 net.cpp:411] fc7 -> fc7
I0619 17:29:56.305368  9506 net.cpp:150] Setting up fc7
I0619 17:29:56.305418  9506 net.cpp:157] Top shape: 64 4096 (262144)
I0619 17:29:56.305425  9506 net.cpp:165] Memory required for data: 436952576
I0619 17:29:56.305438  9506 layer_factory.hpp:77] Creating layer relu7
I0619 17:29:56.305457  9506 net.cpp:106] Creating Layer relu7
I0619 17:29:56.305466  9506 net.cpp:454] relu7 <- fc7
I0619 17:29:56.305476  9506 net.cpp:397] relu7 -> fc7 (in-place)
I0619 17:29:56.305696  9506 net.cpp:150] Setting up relu7
I0619 17:29:56.305711  9506 net.cpp:157] Top shape: 64 4096 (262144)
I0619 17:29:56.305719  9506 net.cpp:165] Memory required for data: 438001152
I0619 17:29:56.305726  9506 layer_factory.hpp:77] Creating layer drop7
I0619 17:29:56.305737  9506 net.cpp:106] Creating Layer drop7
I0619 17:29:56.305743  9506 net.cpp:454] drop7 <- fc7
I0619 17:29:56.305752  9506 net.cpp:397] drop7 -> fc7 (in-place)
I0619 17:29:56.305783  9506 net.cpp:150] Setting up drop7
I0619 17:29:56.305794  9506 net.cpp:157] Top shape: 64 4096 (262144)
I0619 17:29:56.305801  9506 net.cpp:165] Memory required for data: 439049728
I0619 17:29:56.305810  9506 layer_factory.hpp:77] Creating layer 102flower
I0619 17:29:56.305822  9506 net.cpp:106] Creating Layer 102flower
I0619 17:29:56.305830  9506 net.cpp:454] 102flower <- fc7
I0619 17:29:56.305841  9506 net.cpp:411] 102flower -> 102flower
I0619 17:29:56.317878  9506 net.cpp:150] Setting up 102flower
I0619 17:29:56.317898  9506 net.cpp:157] Top shape: 64 102 (6528)
I0619 17:29:56.317904  9506 net.cpp:165] Memory required for data: 439075840
I0619 17:29:56.317914  9506 layer_factory.hpp:77] Creating layer 102flower_102flower_0_split
I0619 17:29:56.317924  9506 net.cpp:106] Creating Layer 102flower_102flower_0_split
I0619 17:29:56.317931  9506 net.cpp:454] 102flower_102flower_0_split <- 102flower
I0619 17:29:56.317941  9506 net.cpp:411] 102flower_102flower_0_split -> 102flower_102flower_0_split_0
I0619 17:29:56.317981  9506 net.cpp:411] 102flower_102flower_0_split -> 102flower_102flower_0_split_1
I0619 17:29:56.318022  9506 net.cpp:150] Setting up 102flower_102flower_0_split
I0619 17:29:56.318033  9506 net.cpp:157] Top shape: 64 102 (6528)
I0619 17:29:56.318040  9506 net.cpp:157] Top shape: 64 102 (6528)
I0619 17:29:56.318047  9506 net.cpp:165] Memory required for data: 439128064
I0619 17:29:56.318053  9506 layer_factory.hpp:77] Creating layer accuracy
I0619 17:29:56.318070  9506 net.cpp:106] Creating Layer accuracy
I0619 17:29:56.318078  9506 net.cpp:454] accuracy <- 102flower_102flower_0_split_0
I0619 17:29:56.318085  9506 net.cpp:454] accuracy <- label_data_1_split_0
I0619 17:29:56.318094  9506 net.cpp:411] accuracy -> accuracy
…
