…
base_lr: 0.001
display: 20
max_iter: 100000
lr_policy: "step"
gamma: 0.1
momentum: 0.9
weight_decay: 0.0005
stepsize: 10000
snapshot: 0
snapshot_prefix: "alexnet"
I0621 13:08:08.898061 50796 solver.cpp:81] Creating training net from train_net file: models/caffenet/train_self_part.prototxt
I0621 13:08:08.898769 50796 net.cpp:49] Initializing net from parameters: 
name: "102FlowerCaffeNet"
state {
  phase: TRAIN
}
layer {
  name: "data"
  type: "Python"
  top: "data"
  top: "labels"
  python_param {
    module: "datalayer.datalayer"
    layer: "DataLayer"
  }
}
layer {
  name: "conv1"
  type: "Convolution"
  bottom: "data"
  top: "conv1"
  param {
    lr_mult: 1
    decay_mult: 1
  }
  param {
    lr_mult: 2
    decay_mult: 0
  }
  convolution_param {
    num_output: 96
    kernel_size: 11
    stride: 4
    weight_filler {
      type: "gaussian"
      std: 0.01
    }
    bias_filler {
      type: "constant"
      value: 0
    }
  }
}
layer {
  name: "relu1"
  type: "ReLU"
  bottom: "conv1"
  top: "conv1"
}
layer {
  name: "pool1"
  type: "Pooling"
  bottom: "conv1"
  top: "pool1"
  pooling_param {
    pool: MAX
    kernel_size: 3
    stride: 2
  }
}
layer {
  name: "norm1"
  type: "LRN"
  bottom: "pool1"
  top: "norm1"
  lrn_param {
    local_size: 5
    alpha: 0.0001
    beta: 0.75
  }
}
layer {
  name: "conv2"
  type: "Convolution"
  bottom: "norm1"
  top: "conv2"
  param {
    lr_mult: 1
    decay_mult: 1
  }
  param {
    lr_mult: 2
    decay_mult: 0
  }
  convolution_param {
    num_output: 256
    pad: 2
    kernel_size: 5
    group: 2
    weight_filler {
      type: "gaussian"
      std: 0.01
    }
    bias_filler {
      type: "constant"
      value: 1
    }
  }
}
layer {
  name: "relu2"
  type: "ReLU"
  bottom: "conv2"
  top: "conv2"
}
layer {
  name: "pool2"
  type: "Pooling"
  bottom: "conv2"
  top: "pool2"
  pooling_param {
    pool: MAX
    kernel_size: 3
    stride: 2
  }
}
layer {
  name: "norm2"
  type: "LRN"
  bottom: "pool2"
  top: "norm2"
  lrn_param {
    local_size: 5
    alpha: 0.0001
    beta: 0.75
  }
}
layer {
  name: "conv3"
  type: "Convolution"
  bottom: "norm2"
  top: "conv3"
  param {
    lr_mult: 1
    decay_mult: 1
  }
  param {
    lr_mult: 2
    decay_mult: 0
  }
  convolution_param {
    num_output: 384
    pad: 1
    kernel_size: 3
    weight_filler {
      type: "gaussian"
      std: 0.01
    }
    bias_filler {
      type: "constant"
      value: 0
    }
  }
}
layer {
  name: "relu3"
  type: "ReLU"
  bottom: "conv3"
  top: "conv3"
}
layer {
  name: "conv4"
  type: "Convolution"
  bottom: "conv3"
  top: "conv4"
  param {
    lr_mult: 1
    decay_mult: 1
  }
  param {
    lr_mult: 2
    decay_mult: 0
  }
  convolution_param {
    num_output: 384
    pad: 1
    kernel_size: 3
    group: 2
    weight_filler {
      type: "gaussian"
      std: 0.01
    }
    bias_filler {
      type: "constant"
      value: 1
    }
  }
}
layer {
  name: "relu4"
  type: "ReLU"
  bottom: "conv4"
  top: "conv4"
}
layer {
  name: "conv5"
  type: "Convolution"
  bottom: "conv4"
  top: "conv5"
  param {
    lr_mult: 1
    decay_mult: 1
  }
  param {
    lr_mult: 2
    decay_mult: 0
  }
  convolution_param {
    num_output: 256
    pad: 1
    kernel_size: 3
    group: 2
    weight_filler {
      type: "gaussian"
      std: 0.01
    }
    bias_filler {
      type: "constant"
      value: 1
    }
  }
}
layer {
  name: "relu5"
  type: "ReLU"
  bottom: "conv5"
  top: "conv5"
}
layer {
  name: "pool5"
  type: "Pooling"
  bottom: "conv5"
  top: "pool5"
  pooling_param {
    pool: MAX
    kernel_size: 3
    stride: 2
  }
}
layer {
  name: "fc6"
  type: "InnerProduct"
  bottom: "pool5"
  top: "fc6"
  param {
    lr_mult: 1
    decay_mult: 1
  }
  param {
    lr_mult: 2
    decay_mult: 0
  }
  inner_product_param {
    num_output: 4096
    weight_filler {
      type: "gaussian"
      std: 0.005
    }
    bias_filler {
      type: "constant"
      value: 1
    }
  }
}
layer {
  name: "relu6"
  type: "ReLU"
  bottom: "fc6"
  top: "fc6"
}
layer {
  name: "drop6"
  type: "Dropout"
  bottom: "fc6"
  top: "fc6"
  dropout_param {
    dropout_ratio: 0.5
  }
}
layer {
  name: "fc7"
  type: "InnerProduct"
  bottom: "fc6"
  top: "fc7"
  param {
    lr_mult: 1
    decay_mult: 1
  }
  param {
    lr_mult: 2
    decay_mult: 0
  }
  inner_product_param {
    num_output: 4096
    weight_filler {
      type: "gaussian"
      std: 0.005
    }
    bias_filler {
      type: "constant"
      value: 1
    }
  }
}
layer {
  name: "relu7"
  type: "ReLU"
  bottom: "fc7"
  top: "fc7"
}
layer {
  name: "drop7"
  type: "Dropout"
  bottom: "fc7"
  top: "fc7"
  dropout_param {
    dropout_ratio: 0.5
  }
}
layer {
  name: "102flower"
  type: "InnerProduct"
  bottom: "fc7"
  top: "102flower"
  param {
    lr_mult: 1
    decay_mult: 1
  }
  param {
    lr_mult: 2
    decay_mult: 0
  }
  inner_product_param {
    num_output: 102
    weight_filler {
      type: "gaussian"
      std: 0.01
    }
    bias_filler {
      type: "constant"
      value: 0
    }
  }
}
layer {
  name: "loss"
  type: "SoftmaxWithLoss"
  bottom: "102flower"
  bottom: "labels"
  top: "loss"
}
I0621 13:08:08.898874 50796 layer_factory.hpp:77] Creating layer data
I0621 13:08:08.927544 50796 net.cpp:106] Creating Layer data
I0621 13:08:08.927597 50796 net.cpp:411] data -> data
I0621 13:08:08.927616 50796 net.cpp:411] data -> labels
I0621 13:08:08.943483 50796 net.cpp:150] Setting up data
I0621 13:08:08.943512 50796 net.cpp:157] Top shape: 255 3 227 227 (39419685)
I0621 13:08:08.943517 50796 net.cpp:157] Top shape: 255 (255)
I0621 13:08:08.943521 50796 net.cpp:165] Memory required for data: 157679760
I0621 13:08:08.943528 50796 layer_factory.hpp:77] Creating layer conv1
I0621 13:08:08.943552 50796 net.cpp:106] Creating Layer conv1
I0621 13:08:08.943557 50796 net.cpp:454] conv1 <- data
I0621 13:08:08.943564 50796 net.cpp:411] conv1 -> conv1
I0621 13:08:09.142101 50796 net.cpp:150] Setting up conv1
I0621 13:08:09.142138 50796 net.cpp:157] Top shape: 255 96 55 55 (74052000)
I0621 13:08:09.142144 50796 net.cpp:165] Memory required for data: 453887760
I0621 13:08:09.142163 50796 layer_factory.hpp:77] Creating layer relu1
I0621 13:08:09.142179 50796 net.cpp:106] Creating Layer relu1
I0621 13:08:09.142184 50796 net.cpp:454] relu1 <- conv1
I0621 13:08:09.142191 50796 net.cpp:397] relu1 -> conv1 (in-place)
I0621 13:08:09.142390 50796 net.cpp:150] Setting up relu1
I0621 13:08:09.142400 50796 net.cpp:157] Top shape: 255 96 55 55 (74052000)
I0621 13:08:09.142405 50796 net.cpp:165] Memory required for data: 750095760
I0621 13:08:09.142410 50796 layer_factory.hpp:77] Creating layer pool1
I0621 13:08:09.142418 50796 net.cpp:106] Creating Layer pool1
I0621 13:08:09.142423 50796 net.cpp:454] pool1 <- conv1
I0621 13:08:09.142429 50796 net.cpp:411] pool1 -> pool1
I0621 13:08:09.142505 50796 net.cpp:150] Setting up pool1
I0621 13:08:09.142513 50796 net.cpp:157] Top shape: 255 96 27 27 (17845920)
I0621 13:08:09.142518 50796 net.cpp:165] Memory required for data: 821479440
I0621 13:08:09.142523 50796 layer_factory.hpp:77] Creating layer norm1
I0621 13:08:09.142532 50796 net.cpp:106] Creating Layer norm1
I0621 13:08:09.142537 50796 net.cpp:454] norm1 <- pool1
I0621 13:08:09.142544 50796 net.cpp:411] norm1 -> norm1
I0621 13:08:09.142958 50796 net.cpp:150] Setting up norm1
I0621 13:08:09.142974 50796 net.cpp:157] Top shape: 255 96 27 27 (17845920)
I0621 13:08:09.142978 50796 net.cpp:165] Memory required for data: 892863120
I0621 13:08:09.142983 50796 layer_factory.hpp:77] Creating layer conv2
I0621 13:08:09.142999 50796 net.cpp:106] Creating Layer conv2
I0621 13:08:09.143004 50796 net.cpp:454] conv2 <- norm1
I0621 13:08:09.143013 50796 net.cpp:411] conv2 -> conv2
I0621 13:08:09.158192 50796 net.cpp:150] Setting up conv2
I0621 13:08:09.158215 50796 net.cpp:157] Top shape: 255 256 27 27 (47589120)
I0621 13:08:09.158220 50796 net.cpp:165] Memory required for data: 1083219600
I0621 13:08:09.158231 50796 layer_factory.hpp:77] Creating layer relu2
I0621 13:08:09.158241 50796 net.cpp:106] Creating Layer relu2
I0621 13:08:09.158244 50796 net.cpp:454] relu2 <- conv2
I0621 13:08:09.158252 50796 net.cpp:397] relu2 -> conv2 (in-place)
I0621 13:08:09.158443 50796 net.cpp:150] Setting up relu2
I0621 13:08:09.158454 50796 net.cpp:157] Top shape: 255 256 27 27 (47589120)
I0621 13:08:09.158458 50796 net.cpp:165] Memory required for data: 1273576080
I0621 13:08:09.158463 50796 layer_factory.hpp:77] Creating layer pool2
I0621 13:08:09.158470 50796 net.cpp:106] Creating Layer pool2
I0621 13:08:09.158474 50796 net.cpp:454] pool2 <- conv2
I0621 13:08:09.158481 50796 net.cpp:411] pool2 -> pool2
I0621 13:08:09.158546 50796 net.cpp:150] Setting up pool2
I0621 13:08:09.158553 50796 net.cpp:157] Top shape: 255 256 13 13 (11032320)
I0621 13:08:09.158556 50796 net.cpp:165] Memory required for data: 1317705360
I0621 13:08:09.158560 50796 layer_factory.hpp:77] Creating layer norm2
I0621 13:08:09.158571 50796 net.cpp:106] Creating Layer norm2
I0621 13:08:09.158574 50796 net.cpp:454] norm2 <- pool2
I0621 13:08:09.158581 50796 net.cpp:411] norm2 -> norm2
I0621 13:08:09.158982 50796 net.cpp:150] Setting up norm2
I0621 13:08:09.158999 50796 net.cpp:157] Top shape: 255 256 13 13 (11032320)
I0621 13:08:09.159003 50796 net.cpp:165] Memory required for data: 1361834640
I0621 13:08:09.159008 50796 layer_factory.hpp:77] Creating layer conv3
I0621 13:08:09.159023 50796 net.cpp:106] Creating Layer conv3
I0621 13:08:09.159026 50796 net.cpp:454] conv3 <- norm2
I0621 13:08:09.159034 50796 net.cpp:411] conv3 -> conv3
I0621 13:08:09.188618 50796 net.cpp:150] Setting up conv3
I0621 13:08:09.188644 50796 net.cpp:157] Top shape: 255 384 13 13 (16548480)
I0621 13:08:09.188648 50796 net.cpp:165] Memory required for data: 1428028560
I0621 13:08:09.188659 50796 layer_factory.hpp:77] Creating layer relu3
I0621 13:08:09.188669 50796 net.cpp:106] Creating Layer relu3
I0621 13:08:09.188673 50796 net.cpp:454] relu3 <- conv3
I0621 13:08:09.188678 50796 net.cpp:397] relu3 -> conv3 (in-place)
I0621 13:08:09.189954 50796 net.cpp:150] Setting up relu3
I0621 13:08:09.189968 50796 net.cpp:157] Top shape: 255 384 13 13 (16548480)
I0621 13:08:09.189971 50796 net.cpp:165] Memory required for data: 1494222480
I0621 13:08:09.189975 50796 layer_factory.hpp:77] Creating layer conv4
I0621 13:08:09.189990 50796 net.cpp:106] Creating Layer conv4
I0621 13:08:09.189995 50796 net.cpp:454] conv4 <- conv3
I0621 13:08:09.190001 50796 net.cpp:411] conv4 -> conv4
I0621 13:08:09.210921 50796 net.cpp:150] Setting up conv4
I0621 13:08:09.210942 50796 net.cpp:157] Top shape: 255 384 13 13 (16548480)
I0621 13:08:09.210947 50796 net.cpp:165] Memory required for data: 1560416400
I0621 13:08:09.210954 50796 layer_factory.hpp:77] Creating layer relu4
I0621 13:08:09.210963 50796 net.cpp:106] Creating Layer relu4
I0621 13:08:09.210965 50796 net.cpp:454] relu4 <- conv4
I0621 13:08:09.210973 50796 net.cpp:397] relu4 -> conv4 (in-place)
I0621 13:08:09.211118 50796 net.cpp:150] Setting up relu4
I0621 13:08:09.211139 50796 net.cpp:157] Top shape: 255 384 13 13 (16548480)
I0621 13:08:09.211143 50796 net.cpp:165] Memory required for data: 1626610320
I0621 13:08:09.211146 50796 layer_factory.hpp:77] Creating layer conv5
I0621 13:08:09.211171 50796 net.cpp:106] Creating Layer conv5
I0621 13:08:09.211175 50796 net.cpp:454] conv5 <- conv4
I0621 13:08:09.211181 50796 net.cpp:411] conv5 -> conv5
I0621 13:08:09.225956 50796 net.cpp:150] Setting up conv5
I0621 13:08:09.225972 50796 net.cpp:157] Top shape: 255 256 13 13 (11032320)
I0621 13:08:09.225976 50796 net.cpp:165] Memory required for data: 1670739600
I0621 13:08:09.225987 50796 layer_factory.hpp:77] Creating layer relu5
I0621 13:08:09.225996 50796 net.cpp:106] Creating Layer relu5
I0621 13:08:09.225998 50796 net.cpp:454] relu5 <- conv5
I0621 13:08:09.226003 50796 net.cpp:397] relu5 -> conv5 (in-place)
I0621 13:08:09.226151 50796 net.cpp:150] Setting up relu5
I0621 13:08:09.226160 50796 net.cpp:157] Top shape: 255 256 13 13 (11032320)
I0621 13:08:09.226162 50796 net.cpp:165] Memory required for data: 1714868880
I0621 13:08:09.226166 50796 layer_factory.hpp:77] Creating layer pool5
I0621 13:08:09.226172 50796 net.cpp:106] Creating Layer pool5
I0621 13:08:09.226176 50796 net.cpp:454] pool5 <- conv5
I0621 13:08:09.226181 50796 net.cpp:411] pool5 -> pool5
I0621 13:08:09.226238 50796 net.cpp:150] Setting up pool5
I0621 13:08:09.226243 50796 net.cpp:157] Top shape: 255 256 6 6 (2350080)
I0621 13:08:09.226246 50796 net.cpp:165] Memory required for data: 1724269200
I0621 13:08:09.226249 50796 layer_factory.hpp:77] Creating layer fc6
I0621 13:08:09.226258 50796 net.cpp:106] Creating Layer fc6
I0621 13:08:09.226261 50796 net.cpp:454] fc6 <- pool5
I0621 13:08:09.226267 50796 net.cpp:411] fc6 -> fc6
I0621 13:08:10.692221 50796 net.cpp:150] Setting up fc6
I0621 13:08:10.692265 50796 net.cpp:157] Top shape: 255 4096 (1044480)
I0621 13:08:10.692268 50796 net.cpp:165] Memory required for data: 1728447120
I0621 13:08:10.692281 50796 layer_factory.hpp:77] Creating layer relu6
I0621 13:08:10.692296 50796 net.cpp:106] Creating Layer relu6
I0621 13:08:10.692301 50796 net.cpp:454] relu6 <- fc6
I0621 13:08:10.692308 50796 net.cpp:397] relu6 -> fc6 (in-place)
I0621 13:08:10.692844 50796 net.cpp:150] Setting up relu6
I0621 13:08:10.692857 50796 net.cpp:157] Top shape: 255 4096 (1044480)
I0621 13:08:10.692860 50796 net.cpp:165] Memory required for data: 1732625040
I0621 13:08:10.692863 50796 layer_factory.hpp:77] Creating layer drop6
I0621 13:08:10.692893 50796 net.cpp:106] Creating Layer drop6
I0621 13:08:10.692896 50796 net.cpp:454] drop6 <- fc6
I0621 13:08:10.692903 50796 net.cpp:397] drop6 -> fc6 (in-place)
I0621 13:08:10.692935 50796 net.cpp:150] Setting up drop6
I0621 13:08:10.692940 50796 net.cpp:157] Top shape: 255 4096 (1044480)
I0621 13:08:10.692944 50796 net.cpp:165] Memory required for data: 1736802960
I0621 13:08:10.692946 50796 layer_factory.hpp:77] Creating layer fc7
I0621 13:08:10.692953 50796 net.cpp:106] Creating Layer fc7
I0621 13:08:10.692956 50796 net.cpp:454] fc7 <- fc6
I0621 13:08:10.692962 50796 net.cpp:411] fc7 -> fc7
I0621 13:08:11.183645 50796 net.cpp:150] Setting up fc7
I0621 13:08:11.183687 50796 net.cpp:157] Top shape: 255 4096 (1044480)
I0621 13:08:11.183691 50796 net.cpp:165] Memory required for data: 1740980880
I0621 13:08:11.183703 50796 layer_factory.hpp:77] Creating layer relu7
I0621 13:08:11.183725 50796 net.cpp:106] Creating Layer relu7
I0621 13:08:11.183733 50796 net.cpp:454] relu7 <- fc7
I0621 13:08:11.183740 50796 net.cpp:397] relu7 -> fc7 (in-place)
I0621 13:08:11.183989 50796 net.cpp:150] Setting up relu7
I0621 13:08:11.183995 50796 net.cpp:157] Top shape: 255 4096 (1044480)
I0621 13:08:11.183998 50796 net.cpp:165] Memory required for data: 1745158800
I0621 13:08:11.184001 50796 layer_factory.hpp:77] Creating layer drop7
I0621 13:08:11.184011 50796 net.cpp:106] Creating Layer drop7
I0621 13:08:11.184013 50796 net.cpp:454] drop7 <- fc7
I0621 13:08:11.184020 50796 net.cpp:397] drop7 -> fc7 (in-place)
I0621 13:08:11.184051 50796 net.cpp:150] Setting up drop7
I0621 13:08:11.184056 50796 net.cpp:157] Top shape: 255 4096 (1044480)
I0621 13:08:11.184059 50796 net.cpp:165] Memory required for data: 1749336720
I0621 13:08:11.184062 50796 layer_factory.hpp:77] Creating layer 102flower
I0621 13:08:11.184074 50796 net.cpp:106] Creating Layer 102flower
I0621 13:08:11.184077 50796 net.cpp:454] 102flower <- fc7
I0621 13:08:11.184082 50796 net.cpp:411] 102flower -> 102flower
I0621 13:08:11.197393 50796 net.cpp:150] Setting up 102flower
I0621 13:08:11.197415 50796 net.cpp:157] Top shape: 255 102 (26010)
I0621 13:08:11.197419 50796 net.cpp:165] Memory required for data: 1749440760
I0621 13:08:11.197427 50796 layer_factory.hpp:77] Creating layer loss
I0621 13:08:11.197448 50796 net.cpp:106] Creating Layer loss
I0621 13:08:11.197451 50796 net.cpp:454] loss <- 102flower
I0621 13:08:11.197458 50796 net.cpp:454] loss <- labels
I0621 13:08:11.197463 50796 net.cpp:411] loss -> loss
I0621 13:08:11.197471 50796 layer_factory.hpp:77] Creating layer loss
…
