…
 'ROOT_DIR': '/home/zheda/workspace/cnn/flower-classify',
 'TEST': {'TARGET_SIZE': [227, 227]},
 'TRAIN': {'BATCH_SIZE': 255,
           'SNAPSHOT_INFIX': '',
           'SNAPSHOT_ITERS': 10000,
           'TARGET_SIZE': [227, 227],
           'USE_FLIPPED': True,
           'USE_PREFETCH': False}}
WARNING: Logging before InitGoogleLogging() is written to STDERR
I0622 19:54:36.014415 81302 net.cpp:49] Initializing net from parameters: 
name: "102FlowerCaffeNet"
input: "data"
state {
  phase: TEST
}
input_shape {
  dim: 10
  dim: 3
  dim: 227
  dim: 227
}
layer {
  name: "conv1"
  type: "Convolution"
  bottom: "data"
  top: "conv1"
  convolution_param {
    num_output: 96
    kernel_size: 11
    stride: 4
  }
}
layer {
  name: "relu1"
  type: "ReLU"
  bottom: "conv1"
  top: "conv1"
}
layer {
  name: "pool1"
  type: "Pooling"
  bottom: "conv1"
  top: "pool1"
  pooling_param {
    pool: MAX
    kernel_size: 3
    stride: 2
  }
}
layer {
  name: "norm1"
  type: "LRN"
  bottom: "pool1"
  top: "norm1"
  lrn_param {
    local_size: 5
    alpha: 0.0001
    beta: 0.75
  }
}
layer {
  name: "conv2"
  type: "Convolution"
  bottom: "norm1"
  top: "conv2"
  convolution_param {
    num_output: 256
    pad: 2
    kernel_size: 5
    group: 2
  }
}
layer {
  name: "relu2"
  type: "ReLU"
  bottom: "conv2"
  top: "conv2"
}
layer {
  name: "pool2"
  type: "Pooling"
  bottom: "conv2"
  top: "pool2"
  pooling_param {
    pool: MAX
    kernel_size: 3
    stride: 2
  }
}
layer {
  name: "norm2"
  type: "LRN"
  bottom: "pool2"
  top: "norm2"
  lrn_param {
    local_size: 5
    alpha: 0.0001
    beta: 0.75
  }
}
layer {
  name: "conv3"
  type: "Convolution"
  bottom: "norm2"
  top: "conv3"
  convolution_param {
    num_output: 384
    pad: 1
    kernel_size: 3
  }
}
layer {
  name: "relu3"
  type: "ReLU"
  bottom: "conv3"
  top: "conv3"
}
layer {
  name: "conv4"
  type: "Convolution"
  bottom: "conv3"
  top: "conv4"
  convolution_param {
    num_output: 384
    pad: 1
    kernel_size: 3
    group: 2
  }
}
layer {
  name: "relu4"
  type: "ReLU"
  bottom: "conv4"
  top: "conv4"
}
layer {
  name: "conv5"
  type: "Convolution"
  bottom: "conv4"
  top: "conv5"
  convolution_param {
    num_output: 256
    pad: 1
    kernel_size: 3
    group: 2
  }
}
layer {
  name: "relu5"
  type: "ReLU"
  bottom: "conv5"
  top: "conv5"
}
layer {
  name: "pool5"
  type: "Pooling"
  bottom: "conv5"
  top: "pool5"
  pooling_param {
    pool: MAX
    kernel_size: 3
    stride: 2
  }
}
layer {
  name: "fc6"
  type: "InnerProduct"
  bottom: "pool5"
  top: "fc6"
  inner_product_param {
    num_output: 4096
  }
}
layer {
  name: "relu6"
  type: "ReLU"
  bottom: "fc6"
  top: "fc6"
}
layer {
  name: "drop6"
  type: "Dropout"
  bottom: "fc6"
  top: "fc6"
  dropout_param {
    dropout_ratio: 0.5
  }
}
layer {
  name: "fc7"
  type: "InnerProduct"
  bottom: "fc6"
  top: "fc7"
  inner_product_param {
    num_output: 4096
  }
}
layer {
  name: "relu7"
  type: "ReLU"
  bottom: "fc7"
  top: "fc7"
}
layer {
  name: "drop7"
  type: "Dropout"
  bottom: "fc7"
  top: "fc7"
  dropout_param {
    dropout_ratio: 0.5
  }
}
layer {
  name: "102flower"
  type: "InnerProduct"
  bottom: "fc7"
  top: "102flower"
  inner_product_param {
    num_output: 102
  }
}
layer {
  name: "prob"
  type: "Softmax"
  bottom: "102flower"
  top: "prob"
}
I0622 19:54:36.014499 81302 net.cpp:413] Input 0 -> data
I0622 19:54:36.030673 81302 layer_factory.hpp:77] Creating layer conv1
I0622 19:54:36.030707 81302 net.cpp:106] Creating Layer conv1
I0622 19:54:36.030712 81302 net.cpp:454] conv1 <- data
I0622 19:54:36.030719 81302 net.cpp:411] conv1 -> conv1
I0622 19:54:36.499428 81302 net.cpp:150] Setting up conv1
I0622 19:54:36.499470 81302 net.cpp:157] Top shape: 10 96 55 55 (2904000)
I0622 19:54:36.499475 81302 net.cpp:165] Memory required for data: 11616000
I0622 19:54:36.499495 81302 layer_factory.hpp:77] Creating layer relu1
I0622 19:54:36.499516 81302 net.cpp:106] Creating Layer relu1
I0622 19:54:36.499519 81302 net.cpp:454] relu1 <- conv1
I0622 19:54:36.499526 81302 net.cpp:397] relu1 -> conv1 (in-place)
I0622 19:54:36.500655 81302 net.cpp:150] Setting up relu1
I0622 19:54:36.500666 81302 net.cpp:157] Top shape: 10 96 55 55 (2904000)
I0622 19:54:36.500669 81302 net.cpp:165] Memory required for data: 23232000
I0622 19:54:36.500674 81302 layer_factory.hpp:77] Creating layer pool1
I0622 19:54:36.500682 81302 net.cpp:106] Creating Layer pool1
I0622 19:54:36.500686 81302 net.cpp:454] pool1 <- conv1
I0622 19:54:36.500692 81302 net.cpp:411] pool1 -> pool1
I0622 19:54:36.500761 81302 net.cpp:150] Setting up pool1
I0622 19:54:36.500767 81302 net.cpp:157] Top shape: 10 96 27 27 (699840)
I0622 19:54:36.500771 81302 net.cpp:165] Memory required for data: 26031360
I0622 19:54:36.500773 81302 layer_factory.hpp:77] Creating layer norm1
I0622 19:54:36.500782 81302 net.cpp:106] Creating Layer norm1
I0622 19:54:36.500790 81302 net.cpp:454] norm1 <- pool1
I0622 19:54:36.500795 81302 net.cpp:411] norm1 -> norm1
I0622 19:54:36.502490 81302 net.cpp:150] Setting up norm1
I0622 19:54:36.502502 81302 net.cpp:157] Top shape: 10 96 27 27 (699840)
I0622 19:54:36.502506 81302 net.cpp:165] Memory required for data: 28830720
I0622 19:54:36.502511 81302 layer_factory.hpp:77] Creating layer conv2
I0622 19:54:36.502523 81302 net.cpp:106] Creating Layer conv2
I0622 19:54:36.502529 81302 net.cpp:454] conv2 <- norm1
I0622 19:54:36.502534 81302 net.cpp:411] conv2 -> conv2
I0622 19:54:36.517050 81302 net.cpp:150] Setting up conv2
I0622 19:54:36.517077 81302 net.cpp:157] Top shape: 10 256 27 27 (1866240)
I0622 19:54:36.517081 81302 net.cpp:165] Memory required for data: 36295680
I0622 19:54:36.517093 81302 layer_factory.hpp:77] Creating layer relu2
I0622 19:54:36.517103 81302 net.cpp:106] Creating Layer relu2
I0622 19:54:36.517107 81302 net.cpp:454] relu2 <- conv2
I0622 19:54:36.517114 81302 net.cpp:397] relu2 -> conv2 (in-place)
I0622 19:54:36.517288 81302 net.cpp:150] Setting up relu2
I0622 19:54:36.517297 81302 net.cpp:157] Top shape: 10 256 27 27 (1866240)
I0622 19:54:36.517300 81302 net.cpp:165] Memory required for data: 43760640
I0622 19:54:36.517304 81302 layer_factory.hpp:77] Creating layer pool2
I0622 19:54:36.517314 81302 net.cpp:106] Creating Layer pool2
I0622 19:54:36.517318 81302 net.cpp:454] pool2 <- conv2
I0622 19:54:36.517325 81302 net.cpp:411] pool2 -> pool2
I0622 19:54:36.517384 81302 net.cpp:150] Setting up pool2
I0622 19:54:36.517390 81302 net.cpp:157] Top shape: 10 256 13 13 (432640)
I0622 19:54:36.517393 81302 net.cpp:165] Memory required for data: 45491200
I0622 19:54:36.517396 81302 layer_factory.hpp:77] Creating layer norm2
I0622 19:54:36.517405 81302 net.cpp:106] Creating Layer norm2
I0622 19:54:36.517408 81302 net.cpp:454] norm2 <- pool2
I0622 19:54:36.517417 81302 net.cpp:411] norm2 -> norm2
I0622 19:54:36.519278 81302 net.cpp:150] Setting up norm2
I0622 19:54:36.519290 81302 net.cpp:157] Top shape: 10 256 13 13 (432640)
I0622 19:54:36.519301 81302 net.cpp:165] Memory required for data: 47221760
I0622 19:54:36.519305 81302 layer_factory.hpp:77] Creating layer conv3
I0622 19:54:36.519320 81302 net.cpp:106] Creating Layer conv3
I0622 19:54:36.519323 81302 net.cpp:454] conv3 <- norm2
I0622 19:54:36.519330 81302 net.cpp:411] conv3 -> conv3
I0622 19:54:36.527845 81302 net.cpp:150] Setting up conv3
I0622 19:54:36.527879 81302 net.cpp:157] Top shape: 10 384 13 13 (648960)
I0622 19:54:36.527884 81302 net.cpp:165] Memory required for data: 49817600
I0622 19:54:36.527906 81302 layer_factory.hpp:77] Creating layer relu3
I0622 19:54:36.527918 81302 net.cpp:106] Creating Layer relu3
I0622 19:54:36.527922 81302 net.cpp:454] relu3 <- conv3
I0622 19:54:36.527930 81302 net.cpp:397] relu3 -> conv3 (in-place)
I0622 19:54:36.533241 81302 net.cpp:150] Setting up relu3
I0622 19:54:36.533255 81302 net.cpp:157] Top shape: 10 384 13 13 (648960)
I0622 19:54:36.533258 81302 net.cpp:165] Memory required for data: 52413440
I0622 19:54:36.533262 81302 layer_factory.hpp:77] Creating layer conv4
I0622 19:54:36.533275 81302 net.cpp:106] Creating Layer conv4
I0622 19:54:36.533279 81302 net.cpp:454] conv4 <- conv3
I0622 19:54:36.533284 81302 net.cpp:411] conv4 -> conv4
I0622 19:54:36.553084 81302 net.cpp:150] Setting up conv4
I0622 19:54:36.553119 81302 net.cpp:157] Top shape: 10 384 13 13 (648960)
I0622 19:54:36.553124 81302 net.cpp:165] Memory required for data: 55009280
I0622 19:54:36.553135 81302 layer_factory.hpp:77] Creating layer relu4
I0622 19:54:36.553154 81302 net.cpp:106] Creating Layer relu4
I0622 19:54:36.553159 81302 net.cpp:454] relu4 <- conv4
I0622 19:54:36.553165 81302 net.cpp:397] relu4 -> conv4 (in-place)
I0622 19:54:36.556450 81302 net.cpp:150] Setting up relu4
I0622 19:54:36.556462 81302 net.cpp:157] Top shape: 10 384 13 13 (648960)
I0622 19:54:36.556465 81302 net.cpp:165] Memory required for data: 57605120
I0622 19:54:36.556468 81302 layer_factory.hpp:77] Creating layer conv5
I0622 19:54:36.556483 81302 net.cpp:106] Creating Layer conv5
I0622 19:54:36.556485 81302 net.cpp:454] conv5 <- conv4
I0622 19:54:36.556491 81302 net.cpp:411] conv5 -> conv5
I0622 19:54:36.577008 81302 net.cpp:150] Setting up conv5
I0622 19:54:36.577044 81302 net.cpp:157] Top shape: 10 256 13 13 (432640)
I0622 19:54:36.577049 81302 net.cpp:165] Memory required for data: 59335680
I0622 19:54:36.577064 81302 layer_factory.hpp:77] Creating layer relu5
I0622 19:54:36.577077 81302 net.cpp:106] Creating Layer relu5
I0622 19:54:36.577081 81302 net.cpp:454] relu5 <- conv5
I0622 19:54:36.577087 81302 net.cpp:397] relu5 -> conv5 (in-place)
I0622 19:54:36.580271 81302 net.cpp:150] Setting up relu5
I0622 19:54:36.580301 81302 net.cpp:157] Top shape: 10 256 13 13 (432640)
I0622 19:54:36.580304 81302 net.cpp:165] Memory required for data: 61066240
I0622 19:54:36.580308 81302 layer_factory.hpp:77] Creating layer pool5
I0622 19:54:36.580318 81302 net.cpp:106] Creating Layer pool5
I0622 19:54:36.580322 81302 net.cpp:454] pool5 <- conv5
I0622 19:54:36.580330 81302 net.cpp:411] pool5 -> pool5
I0622 19:54:36.580417 81302 net.cpp:150] Setting up pool5
I0622 19:54:36.580425 81302 net.cpp:157] Top shape: 10 256 6 6 (92160)
I0622 19:54:36.580428 81302 net.cpp:165] Memory required for data: 61434880
I0622 19:54:36.580431 81302 layer_factory.hpp:77] Creating layer fc6
I0622 19:54:36.580437 81302 net.cpp:106] Creating Layer fc6
I0622 19:54:36.580441 81302 net.cpp:454] fc6 <- pool5
I0622 19:54:36.580451 81302 net.cpp:411] fc6 -> fc6
I0622 19:54:36.672945 81302 net.cpp:150] Setting up fc6
I0622 19:54:36.672984 81302 net.cpp:157] Top shape: 10 4096 (40960)
I0622 19:54:36.672988 81302 net.cpp:165] Memory required for data: 61598720
I0622 19:54:36.673001 81302 layer_factory.hpp:77] Creating layer relu6
I0622 19:54:36.673015 81302 net.cpp:106] Creating Layer relu6
I0622 19:54:36.673020 81302 net.cpp:454] relu6 <- fc6
I0622 19:54:36.673027 81302 net.cpp:397] relu6 -> fc6 (in-place)
I0622 19:54:36.673543 81302 net.cpp:150] Setting up relu6
I0622 19:54:36.673555 81302 net.cpp:157] Top shape: 10 4096 (40960)
I0622 19:54:36.673558 81302 net.cpp:165] Memory required for data: 61762560
I0622 19:54:36.673563 81302 layer_factory.hpp:77] Creating layer drop6
I0622 19:54:36.673578 81302 net.cpp:106] Creating Layer drop6
I0622 19:54:36.673581 81302 net.cpp:454] drop6 <- fc6
I0622 19:54:36.673589 81302 net.cpp:397] drop6 -> fc6 (in-place)
I0622 19:54:36.673631 81302 net.cpp:150] Setting up drop6
I0622 19:54:36.673638 81302 net.cpp:157] Top shape: 10 4096 (40960)
I0622 19:54:36.673641 81302 net.cpp:165] Memory required for data: 61926400
I0622 19:54:36.673645 81302 layer_factory.hpp:77] Creating layer fc7
I0622 19:54:36.673651 81302 net.cpp:106] Creating Layer fc7
I0622 19:54:36.673655 81302 net.cpp:454] fc7 <- fc6
I0622 19:54:36.673660 81302 net.cpp:411] fc7 -> fc7
I0622 19:54:36.715490 81302 net.cpp:150] Setting up fc7
I0622 19:54:36.715533 81302 net.cpp:157] Top shape: 10 4096 (40960)
I0622 19:54:36.715536 81302 net.cpp:165] Memory required for data: 62090240
I0622 19:54:36.715549 81302 layer_factory.hpp:77] Creating layer relu7
I0622 19:54:36.715562 81302 net.cpp:106] Creating Layer relu7
I0622 19:54:36.715567 81302 net.cpp:454] relu7 <- fc7
I0622 19:54:36.715574 81302 net.cpp:397] relu7 -> fc7 (in-place)
I0622 19:54:36.715808 81302 net.cpp:150] Setting up relu7
I0622 19:54:36.715818 81302 net.cpp:157] Top shape: 10 4096 (40960)
I0622 19:54:36.715821 81302 net.cpp:165] Memory required for data: 62254080
I0622 19:54:36.715827 81302 layer_factory.hpp:77] Creating layer drop7
I0622 19:54:36.715836 81302 net.cpp:106] Creating Layer drop7
I0622 19:54:36.715838 81302 net.cpp:454] drop7 <- fc7
I0622 19:54:36.715843 81302 net.cpp:397] drop7 -> fc7 (in-place)
I0622 19:54:36.715885 81302 net.cpp:150] Setting up drop7
I0622 19:54:36.715893 81302 net.cpp:157] Top shape: 10 4096 (40960)
I0622 19:54:36.715895 81302 net.cpp:165] Memory required for data: 62417920
I0622 19:54:36.715898 81302 layer_factory.hpp:77] Creating layer 102flower
I0622 19:54:36.715904 81302 net.cpp:106] Creating Layer 102flower
I0622 19:54:36.715909 81302 net.cpp:454] 102flower <- fc7
I0622 19:54:36.715914 81302 net.cpp:411] 102flower -> 102flower
I0622 19:54:36.717456 81302 net.cpp:150] Setting up 102flower
I0622 19:54:36.717471 81302 net.cpp:157] Top shape: 10 102 (1020)
I0622 19:54:36.717475 81302 net.cpp:165] Memory required for data: 62422000
I0622 19:54:36.717483 81302 layer_factory.hpp:77] Creating layer prob
I0622 19:54:36.717492 81302 net.cpp:106] Creating Layer prob
I0622 19:54:36.717496 81302 net.cpp:454] prob <- 102flower
I0622 19:54:36.717507 81302 net.cpp:411] prob -> prob
I0622 19:54:36.717980 81302 net.cpp:150] Setting up prob
I0622 19:54:36.717993 81302 net.cpp:157] Top shape: 10 102 (1020)
I0622 19:54:36.717995 81302 net.cpp:165] Memory required for data: 62426080
I0622 19:54:36.717999 81302 net.cpp:228] prob does not need backward computation.
I0622 19:54:36.718003 81302 net.cpp:228] 102flower does not need backward computation.
I0622 19:54:36.718006 81302 net.cpp:228] drop7 does not need backward computation.
I0622 19:54:36.718009 81302 net.cpp:228] relu7 does not need backward computation.
…
