…
base_lr: 0.001
display: 20
max_iter: 100000
lr_policy: "step"
gamma: 0.1
momentum: 0.9
weight_decay: 0.0005
stepsize: 10000
snapshot: 0
snapshot_prefix: "alexnet"
I0622 09:19:07.989322 68830 solver.cpp:81] Creating training net from train_net file: models/caffenet/train_self_part.prototxt
I0622 09:19:07.989897 68830 net.cpp:49] Initializing net from parameters: 
name: "102FlowerCaffeNet"
state {
  phase: TRAIN
}
layer {
  name: "data"
  type: "Python"
  top: "data"
  top: "labels"
  python_param {
    module: "datalayer.datalayer"
    layer: "DataLayer"
  }
}
layer {
  name: "conv1"
  type: "Convolution"
  bottom: "data"
  top: "conv1"
  param {
    lr_mult: 1
    decay_mult: 1
  }
  param {
    lr_mult: 2
    decay_mult: 0
  }
  convolution_param {
    num_output: 96
    kernel_size: 11
    stride: 4
    weight_filler {
      type: "gaussian"
      std: 0.01
    }
    bias_filler {
      type: "constant"
      value: 0
    }
  }
}
layer {
  name: "relu1"
  type: "ReLU"
  bottom: "conv1"
  top: "conv1"
}
layer {
  name: "pool1"
  type: "Pooling"
  bottom: "conv1"
  top: "pool1"
  pooling_param {
    pool: MAX
    kernel_size: 3
    stride: 2
  }
}
layer {
  name: "norm1"
  type: "LRN"
  bottom: "pool1"
  top: "norm1"
  lrn_param {
    local_size: 5
    alpha: 0.0001
    beta: 0.75
  }
}
layer {
  name: "conv2"
  type: "Convolution"
  bottom: "norm1"
  top: "conv2"
  param {
    lr_mult: 1
    decay_mult: 1
  }
  param {
    lr_mult: 2
    decay_mult: 0
  }
  convolution_param {
    num_output: 256
    pad: 2
    kernel_size: 5
    group: 2
    weight_filler {
      type: "gaussian"
      std: 0.01
    }
    bias_filler {
      type: "constant"
      value: 1
    }
  }
}
layer {
  name: "relu2"
  type: "ReLU"
  bottom: "conv2"
  top: "conv2"
}
layer {
  name: "pool2"
  type: "Pooling"
  bottom: "conv2"
  top: "pool2"
  pooling_param {
    pool: MAX
    kernel_size: 3
    stride: 2
  }
}
layer {
  name: "norm2"
  type: "LRN"
  bottom: "pool2"
  top: "norm2"
  lrn_param {
    local_size: 5
    alpha: 0.0001
    beta: 0.75
  }
}
layer {
  name: "conv3"
  type: "Convolution"
  bottom: "norm2"
  top: "conv3"
  param {
    lr_mult: 1
    decay_mult: 1
  }
  param {
    lr_mult: 2
    decay_mult: 0
  }
  convolution_param {
    num_output: 384
    pad: 1
    kernel_size: 3
    weight_filler {
      type: "gaussian"
      std: 0.01
    }
    bias_filler {
      type: "constant"
      value: 0
    }
  }
}
layer {
  name: "relu3"
  type: "ReLU"
  bottom: "conv3"
  top: "conv3"
}
layer {
  name: "conv4"
  type: "Convolution"
  bottom: "conv3"
  top: "conv4"
  param {
    lr_mult: 1
    decay_mult: 1
  }
  param {
    lr_mult: 2
    decay_mult: 0
  }
  convolution_param {
    num_output: 384
    pad: 1
    kernel_size: 3
    group: 2
    weight_filler {
      type: "gaussian"
      std: 0.01
    }
    bias_filler {
      type: "constant"
      value: 1
    }
  }
}
layer {
  name: "relu4"
  type: "ReLU"
  bottom: "conv4"
  top: "conv4"
}
layer {
  name: "conv5"
  type: "Convolution"
  bottom: "conv4"
  top: "conv5"
  param {
    lr_mult: 1
    decay_mult: 1
  }
  param {
    lr_mult: 2
    decay_mult: 0
  }
  convolution_param {
    num_output: 256
    pad: 1
    kernel_size: 3
    group: 2
    weight_filler {
      type: "gaussian"
      std: 0.01
    }
    bias_filler {
      type: "constant"
      value: 1
    }
  }
}
layer {
  name: "relu5"
  type: "ReLU"
  bottom: "conv5"
  top: "conv5"
}
layer {
  name: "pool5"
  type: "Pooling"
  bottom: "conv5"
  top: "pool5"
  pooling_param {
    pool: MAX
    kernel_size: 3
    stride: 2
  }
}
layer {
  name: "fc6"
  type: "InnerProduct"
  bottom: "pool5"
  top: "fc6"
  param {
    lr_mult: 1
    decay_mult: 1
  }
  param {
    lr_mult: 2
    decay_mult: 0
  }
  inner_product_param {
    num_output: 4096
    weight_filler {
      type: "gaussian"
      std: 0.005
    }
    bias_filler {
      type: "constant"
      value: 1
    }
  }
}
layer {
  name: "relu6"
  type: "ReLU"
  bottom: "fc6"
  top: "fc6"
}
layer {
  name: "drop6"
  type: "Dropout"
  bottom: "fc6"
  top: "fc6"
  dropout_param {
    dropout_ratio: 0.5
  }
}
layer {
  name: "fc7"
  type: "InnerProduct"
  bottom: "fc6"
  top: "fc7"
  param {
    lr_mult: 1
    decay_mult: 1
  }
  param {
    lr_mult: 2
    decay_mult: 0
  }
  inner_product_param {
    num_output: 4096
    weight_filler {
      type: "gaussian"
      std: 0.005
    }
    bias_filler {
      type: "constant"
      value: 1
    }
  }
}
layer {
  name: "relu7"
  type: "ReLU"
  bottom: "fc7"
  top: "fc7"
}
layer {
  name: "drop7"
  type: "Dropout"
  bottom: "fc7"
  top: "fc7"
  dropout_param {
    dropout_ratio: 0.5
  }
}
layer {
  name: "102flower"
  type: "InnerProduct"
  bottom: "fc7"
  top: "102flower"
  param {
    lr_mult: 1
    decay_mult: 1
  }
  param {
    lr_mult: 2
    decay_mult: 0
  }
  inner_product_param {
    num_output: 102
    weight_filler {
      type: "gaussian"
      std: 0.01
    }
    bias_filler {
      type: "constant"
      value: 0
    }
  }
}
layer {
  name: "loss"
  type: "SoftmaxWithLoss"
  bottom: "102flower"
  bottom: "labels"
  top: "loss"
}
I0622 09:19:07.989986 68830 layer_factory.hpp:77] Creating layer data
I0622 09:19:08.005070 68830 net.cpp:106] Creating Layer data
I0622 09:19:08.005084 68830 net.cpp:411] data -> data
I0622 09:19:08.005095 68830 net.cpp:411] data -> labels
I0622 09:19:08.018199 68830 net.cpp:150] Setting up data
I0622 09:19:08.018216 68830 net.cpp:157] Top shape: 255 3 227 227 (39419685)
I0622 09:19:08.018221 68830 net.cpp:157] Top shape: 255 (255)
I0622 09:19:08.018224 68830 net.cpp:165] Memory required for data: 157679760
I0622 09:19:08.018229 68830 layer_factory.hpp:77] Creating layer conv1
I0622 09:19:08.018242 68830 net.cpp:106] Creating Layer conv1
I0622 09:19:08.018246 68830 net.cpp:454] conv1 <- data
I0622 09:19:08.018254 68830 net.cpp:411] conv1 -> conv1
I0622 09:19:08.170305 68830 net.cpp:150] Setting up conv1
I0622 09:19:08.170336 68830 net.cpp:157] Top shape: 255 96 55 55 (74052000)
I0622 09:19:08.170341 68830 net.cpp:165] Memory required for data: 453887760
I0622 09:19:08.170354 68830 layer_factory.hpp:77] Creating layer relu1
I0622 09:19:08.170367 68830 net.cpp:106] Creating Layer relu1
I0622 09:19:08.170372 68830 net.cpp:454] relu1 <- conv1
I0622 09:19:08.170377 68830 net.cpp:397] relu1 -> conv1 (in-place)
I0622 09:19:08.170516 68830 net.cpp:150] Setting up relu1
I0622 09:19:08.170522 68830 net.cpp:157] Top shape: 255 96 55 55 (74052000)
I0622 09:19:08.170526 68830 net.cpp:165] Memory required for data: 750095760
I0622 09:19:08.170528 68830 layer_factory.hpp:77] Creating layer pool1
I0622 09:19:08.170536 68830 net.cpp:106] Creating Layer pool1
I0622 09:19:08.170538 68830 net.cpp:454] pool1 <- conv1
I0622 09:19:08.170543 68830 net.cpp:411] pool1 -> pool1
I0622 09:19:08.170591 68830 net.cpp:150] Setting up pool1
I0622 09:19:08.170596 68830 net.cpp:157] Top shape: 255 96 27 27 (17845920)
I0622 09:19:08.170599 68830 net.cpp:165] Memory required for data: 821479440
I0622 09:19:08.170601 68830 layer_factory.hpp:77] Creating layer norm1
I0622 09:19:08.170609 68830 net.cpp:106] Creating Layer norm1
I0622 09:19:08.170613 68830 net.cpp:454] norm1 <- pool1
I0622 09:19:08.170620 68830 net.cpp:411] norm1 -> norm1
I0622 09:19:08.170931 68830 net.cpp:150] Setting up norm1
I0622 09:19:08.170943 68830 net.cpp:157] Top shape: 255 96 27 27 (17845920)
I0622 09:19:08.170945 68830 net.cpp:165] Memory required for data: 892863120
I0622 09:19:08.170949 68830 layer_factory.hpp:77] Creating layer conv2
I0622 09:19:08.170961 68830 net.cpp:106] Creating Layer conv2
I0622 09:19:08.170964 68830 net.cpp:454] conv2 <- norm1
I0622 09:19:08.170970 68830 net.cpp:411] conv2 -> conv2
I0622 09:19:08.183961 68830 net.cpp:150] Setting up conv2
I0622 09:19:08.183975 68830 net.cpp:157] Top shape: 255 256 27 27 (47589120)
I0622 09:19:08.183979 68830 net.cpp:165] Memory required for data: 1083219600
I0622 09:19:08.183989 68830 layer_factory.hpp:77] Creating layer relu2
I0622 09:19:08.183995 68830 net.cpp:106] Creating Layer relu2
I0622 09:19:08.183998 68830 net.cpp:454] relu2 <- conv2
I0622 09:19:08.184002 68830 net.cpp:397] relu2 -> conv2 (in-place)
I0622 09:19:08.184140 68830 net.cpp:150] Setting up relu2
I0622 09:19:08.184147 68830 net.cpp:157] Top shape: 255 256 27 27 (47589120)
I0622 09:19:08.184150 68830 net.cpp:165] Memory required for data: 1273576080
I0622 09:19:08.184154 68830 layer_factory.hpp:77] Creating layer pool2
I0622 09:19:08.184159 68830 net.cpp:106] Creating Layer pool2
I0622 09:19:08.184162 68830 net.cpp:454] pool2 <- conv2
I0622 09:19:08.184167 68830 net.cpp:411] pool2 -> pool2
I0622 09:19:08.184216 68830 net.cpp:150] Setting up pool2
I0622 09:19:08.184221 68830 net.cpp:157] Top shape: 255 256 13 13 (11032320)
I0622 09:19:08.184223 68830 net.cpp:165] Memory required for data: 1317705360
I0622 09:19:08.184226 68830 layer_factory.hpp:77] Creating layer norm2
I0622 09:19:08.184234 68830 net.cpp:106] Creating Layer norm2
I0622 09:19:08.184237 68830 net.cpp:454] norm2 <- pool2
I0622 09:19:08.184242 68830 net.cpp:411] norm2 -> norm2
I0622 09:19:08.184550 68830 net.cpp:150] Setting up norm2
I0622 09:19:08.184559 68830 net.cpp:157] Top shape: 255 256 13 13 (11032320)
I0622 09:19:08.184562 68830 net.cpp:165] Memory required for data: 1361834640
I0622 09:19:08.184566 68830 layer_factory.hpp:77] Creating layer conv3
I0622 09:19:08.184576 68830 net.cpp:106] Creating Layer conv3
I0622 09:19:08.184579 68830 net.cpp:454] conv3 <- norm2
I0622 09:19:08.184586 68830 net.cpp:411] conv3 -> conv3
I0622 09:19:08.211702 68830 net.cpp:150] Setting up conv3
I0622 09:19:08.211719 68830 net.cpp:157] Top shape: 255 384 13 13 (16548480)
I0622 09:19:08.211721 68830 net.cpp:165] Memory required for data: 1428028560
I0622 09:19:08.211730 68830 layer_factory.hpp:77] Creating layer relu3
I0622 09:19:08.211740 68830 net.cpp:106] Creating Layer relu3
I0622 09:19:08.211742 68830 net.cpp:454] relu3 <- conv3
I0622 09:19:08.211747 68830 net.cpp:397] relu3 -> conv3 (in-place)
I0622 09:19:08.212060 68830 net.cpp:150] Setting up relu3
I0622 09:19:08.212070 68830 net.cpp:157] Top shape: 255 384 13 13 (16548480)
I0622 09:19:08.212074 68830 net.cpp:165] Memory required for data: 1494222480
I0622 09:19:08.212077 68830 layer_factory.hpp:77] Creating layer conv4
I0622 09:19:08.212095 68830 net.cpp:106] Creating Layer conv4
I0622 09:19:08.212097 68830 net.cpp:454] conv4 <- conv3
I0622 09:19:08.212103 68830 net.cpp:411] conv4 -> conv4
I0622 09:19:08.233475 68830 net.cpp:150] Setting up conv4
I0622 09:19:08.233496 68830 net.cpp:157] Top shape: 255 384 13 13 (16548480)
I0622 09:19:08.233500 68830 net.cpp:165] Memory required for data: 1560416400
I0622 09:19:08.233507 68830 layer_factory.hpp:77] Creating layer relu4
I0622 09:19:08.233515 68830 net.cpp:106] Creating Layer relu4
I0622 09:19:08.233520 68830 net.cpp:454] relu4 <- conv4
I0622 09:19:08.233523 68830 net.cpp:397] relu4 -> conv4 (in-place)
I0622 09:19:08.233666 68830 net.cpp:150] Setting up relu4
I0622 09:19:08.233674 68830 net.cpp:157] Top shape: 255 384 13 13 (16548480)
I0622 09:19:08.233676 68830 net.cpp:165] Memory required for data: 1626610320
I0622 09:19:08.233680 68830 layer_factory.hpp:77] Creating layer conv5
I0622 09:19:08.233690 68830 net.cpp:106] Creating Layer conv5
I0622 09:19:08.233693 68830 net.cpp:454] conv5 <- conv4
I0622 09:19:08.233700 68830 net.cpp:411] conv5 -> conv5
I0622 09:19:08.248109 68830 net.cpp:150] Setting up conv5
I0622 09:19:08.248122 68830 net.cpp:157] Top shape: 255 256 13 13 (11032320)
I0622 09:19:08.248126 68830 net.cpp:165] Memory required for data: 1670739600
I0622 09:19:08.248136 68830 layer_factory.hpp:77] Creating layer relu5
I0622 09:19:08.248142 68830 net.cpp:106] Creating Layer relu5
I0622 09:19:08.248145 68830 net.cpp:454] relu5 <- conv5
I0622 09:19:08.248149 68830 net.cpp:397] relu5 -> conv5 (in-place)
I0622 09:19:08.248291 68830 net.cpp:150] Setting up relu5
I0622 09:19:08.248298 68830 net.cpp:157] Top shape: 255 256 13 13 (11032320)
I0622 09:19:08.248301 68830 net.cpp:165] Memory required for data: 1714868880
I0622 09:19:08.248304 68830 layer_factory.hpp:77] Creating layer pool5
I0622 09:19:08.248311 68830 net.cpp:106] Creating Layer pool5
I0622 09:19:08.248313 68830 net.cpp:454] pool5 <- conv5
I0622 09:19:08.248319 68830 net.cpp:411] pool5 -> pool5
I0622 09:19:08.248373 68830 net.cpp:150] Setting up pool5
I0622 09:19:08.248378 68830 net.cpp:157] Top shape: 255 256 6 6 (2350080)
I0622 09:19:08.248379 68830 net.cpp:165] Memory required for data: 1724269200
I0622 09:19:08.248383 68830 layer_factory.hpp:77] Creating layer fc6
I0622 09:19:08.248392 68830 net.cpp:106] Creating Layer fc6
I0622 09:19:08.248396 68830 net.cpp:454] fc6 <- pool5
I0622 09:19:08.248400 68830 net.cpp:411] fc6 -> fc6
I0622 09:19:09.335821 68830 net.cpp:150] Setting up fc6
I0622 09:19:09.335861 68830 net.cpp:157] Top shape: 255 4096 (1044480)
I0622 09:19:09.335865 68830 net.cpp:165] Memory required for data: 1728447120
I0622 09:19:09.335877 68830 layer_factory.hpp:77] Creating layer relu6
I0622 09:19:09.335889 68830 net.cpp:106] Creating Layer relu6
I0622 09:19:09.335893 68830 net.cpp:454] relu6 <- fc6
I0622 09:19:09.335901 68830 net.cpp:397] relu6 -> fc6 (in-place)
I0622 09:19:09.336382 68830 net.cpp:150] Setting up relu6
I0622 09:19:09.336392 68830 net.cpp:157] Top shape: 255 4096 (1044480)
I0622 09:19:09.336395 68830 net.cpp:165] Memory required for data: 1732625040
I0622 09:19:09.336398 68830 layer_factory.hpp:77] Creating layer drop6
I0622 09:19:09.336406 68830 net.cpp:106] Creating Layer drop6
I0622 09:19:09.336410 68830 net.cpp:454] drop6 <- fc6
I0622 09:19:09.336415 68830 net.cpp:397] drop6 -> fc6 (in-place)
I0622 09:19:09.336454 68830 net.cpp:150] Setting up drop6
I0622 09:19:09.336459 68830 net.cpp:157] Top shape: 255 4096 (1044480)
I0622 09:19:09.336462 68830 net.cpp:165] Memory required for data: 1736802960
I0622 09:19:09.336465 68830 layer_factory.hpp:77] Creating layer fc7
I0622 09:19:09.336474 68830 net.cpp:106] Creating Layer fc7
I0622 09:19:09.336477 68830 net.cpp:454] fc7 <- fc6
I0622 09:19:09.336482 68830 net.cpp:411] fc7 -> fc7
I0622 09:19:09.818608 68830 net.cpp:150] Setting up fc7
I0622 09:19:09.818639 68830 net.cpp:157] Top shape: 255 4096 (1044480)
I0622 09:19:09.818642 68830 net.cpp:165] Memory required for data: 1740980880
I0622 09:19:09.818652 68830 layer_factory.hpp:77] Creating layer relu7
I0622 09:19:09.818662 68830 net.cpp:106] Creating Layer relu7
I0622 09:19:09.818666 68830 net.cpp:454] relu7 <- fc7
I0622 09:19:09.818673 68830 net.cpp:397] relu7 -> fc7 (in-place)
I0622 09:19:09.818877 68830 net.cpp:150] Setting up relu7
I0622 09:19:09.818884 68830 net.cpp:157] Top shape: 255 4096 (1044480)
I0622 09:19:09.818887 68830 net.cpp:165] Memory required for data: 1745158800
I0622 09:19:09.818891 68830 layer_factory.hpp:77] Creating layer drop7
I0622 09:19:09.818898 68830 net.cpp:106] Creating Layer drop7
I0622 09:19:09.818902 68830 net.cpp:454] drop7 <- fc7
I0622 09:19:09.818905 68830 net.cpp:397] drop7 -> fc7 (in-place)
I0622 09:19:09.818938 68830 net.cpp:150] Setting up drop7
I0622 09:19:09.818943 68830 net.cpp:157] Top shape: 255 4096 (1044480)
I0622 09:19:09.818944 68830 net.cpp:165] Memory required for data: 1749336720
I0622 09:19:09.818948 68830 layer_factory.hpp:77] Creating layer 102flower
I0622 09:19:09.818959 68830 net.cpp:106] Creating Layer 102flower
I0622 09:19:09.818963 68830 net.cpp:454] 102flower <- fc7
I0622 09:19:09.818969 68830 net.cpp:411] 102flower -> 102flower
I0622 09:19:09.831181 68830 net.cpp:150] Setting up 102flower
I0622 09:19:09.831192 68830 net.cpp:157] Top shape: 255 102 (26010)
I0622 09:19:09.831195 68830 net.cpp:165] Memory required for data: 1749440760
I0622 09:19:09.831202 68830 layer_factory.hpp:77] Creating layer loss
I0622 09:19:09.831207 68830 net.cpp:106] Creating Layer loss
I0622 09:19:09.831212 68830 net.cpp:454] loss <- 102flower
I0622 09:19:09.831215 68830 net.cpp:454] loss <- labels
I0622 09:19:09.831219 68830 net.cpp:411] loss -> loss
I0622 09:19:09.831233 68830 layer_factory.hpp:77] Creating layer loss
…
