…
I0619 19:32:28.326263 11478 net.cpp:322] The NetState phase (0) differed from the phase (1) specified by a rule in layer accuracy
I0619 19:32:28.326438 11478 net.cpp:49] Initializing net from parameters: 
name: "102FlowerCaffeNet"
state {
  phase: TRAIN
}
layer {
  name: "data"
  type: "Data"
  top: "data"
  top: "label"
  include {
    phase: TRAIN
  }
  transform_param {
    mirror: true
    crop_size: 227
    mean_file: "/home/zheda/data/flower_all/102flowers/102flowers_cropped_256_train_mean.binaryproto"
  }
  data_param {
    source: "/home/zheda/data/flower_all/102flowers/lmdb/102flowers_cropped_256_train_lmdb"
    batch_size: 256
    backend: LMDB
  }
}
layer {
  name: "conv1"
  type: "Convolution"
  bottom: "data"
  top: "conv1"
  param {
    lr_mult: 1
    decay_mult: 1
  }
  param {
    lr_mult: 2
    decay_mult: 0
  }
  convolution_param {
    num_output: 96
    kernel_size: 11
    stride: 4
    weight_filler {
      type: "gaussian"
      std: 0.01
    }
    bias_filler {
      type: "constant"
      value: 0
    }
  }
}
layer {
  name: "relu1"
  type: "ReLU"
  bottom: "conv1"
  top: "conv1"
}
layer {
  name: "pool1"
  type: "Pooling"
  bottom: "conv1"
  top: "pool1"
  pooling_param {
    pool: MAX
    kernel_size: 3
    stride: 2
  }
}
layer {
  name: "norm1"
  type: "LRN"
  bottom: "pool1"
  top: "norm1"
  lrn_param {
    local_size: 5
    alpha: 0.0001
    beta: 0.75
  }
}
layer {
  name: "conv2"
  type: "Convolution"
  bottom: "norm1"
  top: "conv2"
  param {
    lr_mult: 1
    decay_mult: 1
  }
  param {
    lr_mult: 2
    decay_mult: 0
  }
  convolution_param {
    num_output: 256
    pad: 2
    kernel_size: 5
    group: 2
    weight_filler {
      type: "gaussian"
      std: 0.01
    }
    bias_filler {
      type: "constant"
      value: 1
    }
  }
}
layer {
  name: "relu2"
  type: "ReLU"
  bottom: "conv2"
  top: "conv2"
}
layer {
  name: "pool2"
  type: "Pooling"
  bottom: "conv2"
  top: "pool2"
  pooling_param {
    pool: MAX
    kernel_size: 3
    stride: 2
  }
}
layer {
  name: "norm2"
  type: "LRN"
  bottom: "pool2"
  top: "norm2"
  lrn_param {
    local_size: 5
    alpha: 0.0001
    beta: 0.75
  }
}
layer {
  name: "conv3"
  type: "Convolution"
  bottom: "norm2"
  top: "conv3"
  param {
    lr_mult: 1
    decay_mult: 1
  }
  param {
    lr_mult: 2
    decay_mult: 0
  }
  convolution_param {
    num_output: 384
    pad: 1
    kernel_size: 3
    weight_filler {
      type: "gaussian"
      std: 0.01
    }
    bias_filler {
      type: "constant"
      value: 0
    }
  }
}
layer {
  name: "relu3"
  type: "ReLU"
  bottom: "conv3"
  top: "conv3"
}
layer {
  name: "conv4"
  type: "Convolution"
  bottom: "conv3"
  top: "conv4"
  param {
    lr_mult: 1
    decay_mult: 1
  }
  param {
    lr_mult: 2
    decay_mult: 0
  }
  convolution_param {
    num_output: 384
    pad: 1
    kernel_size: 3
    group: 2
    weight_filler {
      type: "gaussian"
      std: 0.01
    }
    bias_filler {
      type: "constant"
      value: 1
    }
  }
}
layer {
  name: "relu4"
  type: "ReLU"
  bottom: "conv4"
  top: "conv4"
}
layer {
  name: "conv5"
  type: "Convolution"
  bottom: "conv4"
  top: "conv5"
  param {
    lr_mult: 1
    decay_mult: 1
  }
  param {
    lr_mult: 2
    decay_mult: 0
  }
  convolution_param {
    num_output: 256
    pad: 1
    kernel_size: 3
    group: 2
    weight_filler {
      type: "gaussian"
      std: 0.01
    }
    bias_filler {
      type: "constant"
      value: 1
    }
  }
}
layer {
  name: "relu5"
  type: "ReLU"
  bottom: "conv5"
  top: "conv5"
}
layer {
  name: "pool5"
  type: "Pooling"
  bottom: "conv5"
  top: "pool5"
  pooling_param {
    pool: MAX
    kernel_size: 3
    stride: 2
  }
}
layer {
  name: "fc6"
  type: "InnerProduct"
  bottom: "pool5"
  top: "fc6"
  param {
    lr_mult: 1
    decay_mult: 1
  }
  param {
    lr_mult: 2
    decay_mult: 0
  }
  inner_product_param {
    num_output: 4096
    weight_filler {
      type: "gaussian"
      std: 0.005
    }
    bias_filler {
      type: "constant"
      value: 1
    }
  }
}
layer {
  name: "relu6"
  type: "ReLU"
  bottom: "fc6"
  top: "fc6"
}
layer {
  name: "drop6"
  type: "Dropout"
  bottom: "fc6"
  top: "fc6"
  dropout_param {
    dropout_ratio: 0.5
  }
}
layer {
  name: "fc7"
  type: "InnerProduct"
  bottom: "fc6"
  top: "fc7"
  param {
    lr_mult: 1
    decay_mult: 1
  }
  param {
    lr_mult: 2
    decay_mult: 0
  }
  inner_product_param {
    num_output: 4096
    weight_filler {
      type: "gaussian"
      std: 0.005
    }
    bias_filler {
      type: "constant"
      value: 1
    }
  }
}
layer {
  name: "relu7"
  type: "ReLU"
  bottom: "fc7"
  top: "fc7"
}
layer {
  name: "drop7"
  type: "Dropout"
  bottom: "fc7"
  top: "fc7"
  dropout_param {
    dropout_ratio: 0.5
  }
}
layer {
  name: "102flower"
  type: "InnerProduct"
  bottom: "fc7"
  top: "102flower"
  param {
    lr_mult: 5
    decay_mult: 1
  }
  param {
    lr_mult: 10
    decay_mult: 0
  }
  inner_product_param {
    num_output: 102
    weight_filler {
      type: "gaussian"
      std: 0.01
    }
    bias_filler {
      type: "constant"
      value: 0
    }
  }
}
layer {
  name: "loss"
  type: "SoftmaxWithLoss"
  bottom: "102flower"
  bottom: "label"
  top: "loss"
}
I0619 19:32:28.327461 11478 layer_factory.hpp:77] Creating layer data
I0619 19:32:28.327996 11478 net.cpp:106] Creating Layer data
I0619 19:32:28.328013 11478 net.cpp:411] data -> data
I0619 19:32:28.328042 11478 net.cpp:411] data -> label
I0619 19:32:28.328061 11478 data_transformer.cpp:25] Loading mean file from: /home/zheda/data/flower_all/102flowers/102flowers_cropped_256_train_mean.binaryproto
I0619 19:32:28.329365 11482 db_lmdb.cpp:38] Opened lmdb /home/zheda/data/flower_all/102flowers/lmdb/102flowers_cropped_256_train_lmdb
I0619 19:32:28.338178 11478 data_layer.cpp:41] output data size: 256,3,227,227
I0619 19:32:28.590855 11478 net.cpp:150] Setting up data
I0619 19:32:28.590935 11478 net.cpp:157] Top shape: 256 3 227 227 (39574272)
I0619 19:32:28.590948 11478 net.cpp:157] Top shape: 256 (256)
I0619 19:32:28.590968 11478 net.cpp:165] Memory required for data: 158298112
I0619 19:32:28.590986 11478 layer_factory.hpp:77] Creating layer conv1
I0619 19:32:28.591025 11478 net.cpp:106] Creating Layer conv1
I0619 19:32:28.591037 11478 net.cpp:454] conv1 <- data
I0619 19:32:28.591056 11478 net.cpp:411] conv1 -> conv1
I0619 19:32:28.743119 11478 net.cpp:150] Setting up conv1
I0619 19:32:28.743199 11478 net.cpp:157] Top shape: 256 96 55 55 (74342400)
I0619 19:32:28.743216 11478 net.cpp:165] Memory required for data: 455667712
I0619 19:32:28.743254 11478 layer_factory.hpp:77] Creating layer relu1
I0619 19:32:28.743281 11478 net.cpp:106] Creating Layer relu1
I0619 19:32:28.743299 11478 net.cpp:454] relu1 <- conv1
I0619 19:32:28.743316 11478 net.cpp:397] relu1 -> conv1 (in-place)
I0619 19:32:28.743592 11478 net.cpp:150] Setting up relu1
I0619 19:32:28.743618 11478 net.cpp:157] Top shape: 256 96 55 55 (74342400)
I0619 19:32:28.743629 11478 net.cpp:165] Memory required for data: 753037312
I0619 19:32:28.743643 11478 layer_factory.hpp:77] Creating layer pool1
I0619 19:32:28.743662 11478 net.cpp:106] Creating Layer pool1
I0619 19:32:28.743674 11478 net.cpp:454] pool1 <- conv1
I0619 19:32:28.743690 11478 net.cpp:411] pool1 -> pool1
I0619 19:32:28.743795 11478 net.cpp:150] Setting up pool1
I0619 19:32:28.743816 11478 net.cpp:157] Top shape: 256 96 27 27 (17915904)
I0619 19:32:28.743827 11478 net.cpp:165] Memory required for data: 824700928
I0619 19:32:28.743872 11478 layer_factory.hpp:77] Creating layer norm1
I0619 19:32:28.743901 11478 net.cpp:106] Creating Layer norm1
I0619 19:32:28.743913 11478 net.cpp:454] norm1 <- pool1
I0619 19:32:28.743928 11478 net.cpp:411] norm1 -> norm1
I0619 19:32:28.744444 11478 net.cpp:150] Setting up norm1
I0619 19:32:28.744477 11478 net.cpp:157] Top shape: 256 96 27 27 (17915904)
I0619 19:32:28.744489 11478 net.cpp:165] Memory required for data: 896364544
I0619 19:32:28.744503 11478 layer_factory.hpp:77] Creating layer conv2
I0619 19:32:28.744529 11478 net.cpp:106] Creating Layer conv2
I0619 19:32:28.744541 11478 net.cpp:454] conv2 <- norm1
I0619 19:32:28.744559 11478 net.cpp:411] conv2 -> conv2
I0619 19:32:28.767892 11478 net.cpp:150] Setting up conv2
I0619 19:32:28.767957 11478 net.cpp:157] Top shape: 256 256 27 27 (47775744)
I0619 19:32:28.767976 11478 net.cpp:165] Memory required for data: 1087467520
I0619 19:32:28.768007 11478 layer_factory.hpp:77] Creating layer relu2
I0619 19:32:28.768049 11478 net.cpp:106] Creating Layer relu2
I0619 19:32:28.768064 11478 net.cpp:454] relu2 <- conv2
I0619 19:32:28.768084 11478 net.cpp:397] relu2 -> conv2 (in-place)
I0619 19:32:28.768407 11478 net.cpp:150] Setting up relu2
I0619 19:32:28.768438 11478 net.cpp:157] Top shape: 256 256 27 27 (47775744)
I0619 19:32:28.768453 11478 net.cpp:165] Memory required for data: 1278570496
I0619 19:32:28.768466 11478 layer_factory.hpp:77] Creating layer pool2
I0619 19:32:28.768489 11478 net.cpp:106] Creating Layer pool2
I0619 19:32:28.768503 11478 net.cpp:454] pool2 <- conv2
I0619 19:32:28.768522 11478 net.cpp:411] pool2 -> pool2
I0619 19:32:28.768604 11478 net.cpp:150] Setting up pool2
I0619 19:32:28.768626 11478 net.cpp:157] Top shape: 256 256 13 13 (11075584)
I0619 19:32:28.768640 11478 net.cpp:165] Memory required for data: 1322872832
I0619 19:32:28.768652 11478 layer_factory.hpp:77] Creating layer norm2
I0619 19:32:28.768676 11478 net.cpp:106] Creating Layer norm2
I0619 19:32:28.768690 11478 net.cpp:454] norm2 <- pool2
I0619 19:32:28.768708 11478 net.cpp:411] norm2 -> norm2
I0619 19:32:28.769317 11478 net.cpp:150] Setting up norm2
I0619 19:32:28.769354 11478 net.cpp:157] Top shape: 256 256 13 13 (11075584)
I0619 19:32:28.769369 11478 net.cpp:165] Memory required for data: 1367175168
I0619 19:32:28.769383 11478 layer_factory.hpp:77] Creating layer conv3
I0619 19:32:28.769412 11478 net.cpp:106] Creating Layer conv3
I0619 19:32:28.769426 11478 net.cpp:454] conv3 <- norm2
I0619 19:32:28.769450 11478 net.cpp:411] conv3 -> conv3
I0619 19:32:28.833693 11478 net.cpp:150] Setting up conv3
I0619 19:32:28.833750 11478 net.cpp:157] Top shape: 256 384 13 13 (16613376)
I0619 19:32:28.833768 11478 net.cpp:165] Memory required for data: 1433628672
I0619 19:32:28.833794 11478 layer_factory.hpp:77] Creating layer relu3
I0619 19:32:28.833813 11478 net.cpp:106] Creating Layer relu3
I0619 19:32:28.833825 11478 net.cpp:454] relu3 <- conv3
I0619 19:32:28.833842 11478 net.cpp:397] relu3 -> conv3 (in-place)
I0619 19:32:28.834278 11478 net.cpp:150] Setting up relu3
I0619 19:32:28.834306 11478 net.cpp:157] Top shape: 256 384 13 13 (16613376)
I0619 19:32:28.834316 11478 net.cpp:165] Memory required for data: 1500082176
I0619 19:32:28.834327 11478 layer_factory.hpp:77] Creating layer conv4
I0619 19:32:28.834349 11478 net.cpp:106] Creating Layer conv4
I0619 19:32:28.834360 11478 net.cpp:454] conv4 <- conv3
I0619 19:32:28.834378 11478 net.cpp:411] conv4 -> conv4
I0619 19:32:28.866575 11478 net.cpp:150] Setting up conv4
I0619 19:32:28.866626 11478 net.cpp:157] Top shape: 256 384 13 13 (16613376)
I0619 19:32:28.866638 11478 net.cpp:165] Memory required for data: 1566535680
I0619 19:32:28.866654 11478 layer_factory.hpp:77] Creating layer relu4
I0619 19:32:28.866670 11478 net.cpp:106] Creating Layer relu4
I0619 19:32:28.866682 11478 net.cpp:454] relu4 <- conv4
I0619 19:32:28.866695 11478 net.cpp:397] relu4 -> conv4 (in-place)
I0619 19:32:28.866920 11478 net.cpp:150] Setting up relu4
I0619 19:32:28.866940 11478 net.cpp:157] Top shape: 256 384 13 13 (16613376)
I0619 19:32:28.866977 11478 net.cpp:165] Memory required for data: 1632989184
I0619 19:32:28.866987 11478 layer_factory.hpp:77] Creating layer conv5
I0619 19:32:28.867009 11478 net.cpp:106] Creating Layer conv5
I0619 19:32:28.867022 11478 net.cpp:454] conv5 <- conv4
I0619 19:32:28.867035 11478 net.cpp:411] conv5 -> conv5
I0619 19:32:28.887410 11478 net.cpp:150] Setting up conv5
I0619 19:32:28.887459 11478 net.cpp:157] Top shape: 256 256 13 13 (11075584)
I0619 19:32:28.887470 11478 net.cpp:165] Memory required for data: 1677291520
I0619 19:32:28.887490 11478 layer_factory.hpp:77] Creating layer relu5
I0619 19:32:28.887506 11478 net.cpp:106] Creating Layer relu5
I0619 19:32:28.887516 11478 net.cpp:454] relu5 <- conv5
I0619 19:32:28.887527 11478 net.cpp:397] relu5 -> conv5 (in-place)
I0619 19:32:28.887732 11478 net.cpp:150] Setting up relu5
I0619 19:32:28.887749 11478 net.cpp:157] Top shape: 256 256 13 13 (11075584)
I0619 19:32:28.887758 11478 net.cpp:165] Memory required for data: 1721593856
I0619 19:32:28.887766 11478 layer_factory.hpp:77] Creating layer pool5
I0619 19:32:28.887781 11478 net.cpp:106] Creating Layer pool5
I0619 19:32:28.887790 11478 net.cpp:454] pool5 <- conv5
I0619 19:32:28.887801 11478 net.cpp:411] pool5 -> pool5
I0619 19:32:28.887859 11478 net.cpp:150] Setting up pool5
I0619 19:32:28.887872 11478 net.cpp:157] Top shape: 256 256 6 6 (2359296)
I0619 19:32:28.887881 11478 net.cpp:165] Memory required for data: 1731031040
I0619 19:32:28.887888 11478 layer_factory.hpp:77] Creating layer fc6
I0619 19:32:28.887904 11478 net.cpp:106] Creating Layer fc6
I0619 19:32:28.887912 11478 net.cpp:454] fc6 <- pool5
I0619 19:32:28.887925 11478 net.cpp:411] fc6 -> fc6
I0619 19:32:29.995689 11478 net.cpp:150] Setting up fc6
I0619 19:32:29.995744 11478 net.cpp:157] Top shape: 256 4096 (1048576)
I0619 19:32:29.995753 11478 net.cpp:165] Memory required for data: 1735225344
I0619 19:32:29.995770 11478 layer_factory.hpp:77] Creating layer relu6
I0619 19:32:29.995789 11478 net.cpp:106] Creating Layer relu6
I0619 19:32:29.995797 11478 net.cpp:454] relu6 <- fc6
I0619 19:32:29.995808 11478 net.cpp:397] relu6 -> fc6 (in-place)
I0619 19:32:29.996394 11478 net.cpp:150] Setting up relu6
I0619 19:32:29.996414 11478 net.cpp:157] Top shape: 256 4096 (1048576)
I0619 19:32:29.996422 11478 net.cpp:165] Memory required for data: 1739419648
I0619 19:32:29.996428 11478 layer_factory.hpp:77] Creating layer drop6
I0619 19:32:29.996443 11478 net.cpp:106] Creating Layer drop6
I0619 19:32:29.996449 11478 net.cpp:454] drop6 <- fc6
I0619 19:32:29.996457 11478 net.cpp:397] drop6 -> fc6 (in-place)
I0619 19:32:29.996500 11478 net.cpp:150] Setting up drop6
I0619 19:32:29.996522 11478 net.cpp:157] Top shape: 256 4096 (1048576)
I0619 19:32:29.996529 11478 net.cpp:165] Memory required for data: 1743613952
I0619 19:32:29.996536 11478 layer_factory.hpp:77] Creating layer fc7
I0619 19:32:29.996548 11478 net.cpp:106] Creating Layer fc7
I0619 19:32:29.996556 11478 net.cpp:454] fc7 <- fc6
I0619 19:32:29.996563 11478 net.cpp:411] fc7 -> fc7
I0619 19:32:30.469408 11478 net.cpp:150] Setting up fc7
I0619 19:32:30.469460 11478 net.cpp:157] Top shape: 256 4096 (1048576)
I0619 19:32:30.469467 11478 net.cpp:165] Memory required for data: 1747808256
I0619 19:32:30.469485 11478 layer_factory.hpp:77] Creating layer relu7
I0619 19:32:30.469502 11478 net.cpp:106] Creating Layer relu7
I0619 19:32:30.469511 11478 net.cpp:454] relu7 <- fc7
I0619 19:32:30.469523 11478 net.cpp:397] relu7 -> fc7 (in-place)
I0619 19:32:30.469831 11478 net.cpp:150] Setting up relu7
I0619 19:32:30.469847 11478 net.cpp:157] Top shape: 256 4096 (1048576)
I0619 19:32:30.469854 11478 net.cpp:165] Memory required for data: 1752002560
I0619 19:32:30.469861 11478 layer_factory.hpp:77] Creating layer drop7
I0619 19:32:30.469869 11478 net.cpp:106] Creating Layer drop7
I0619 19:32:30.469876 11478 net.cpp:454] drop7 <- fc7
I0619 19:32:30.469883 11478 net.cpp:397] drop7 -> fc7 (in-place)
I0619 19:32:30.469909 11478 net.cpp:150] Setting up drop7
I0619 19:32:30.469919 11478 net.cpp:157] Top shape: 256 4096 (1048576)
I0619 19:32:30.469964 11478 net.cpp:165] Memory required for data: 1756196864
I0619 19:32:30.469972 11478 layer_factory.hpp:77] Creating layer 102flower
I0619 19:32:30.469986 11478 net.cpp:106] Creating Layer 102flower
I0619 19:32:30.469993 11478 net.cpp:454] 102flower <- fc7
I0619 19:32:30.470003 11478 net.cpp:411] 102flower -> 102flower
I0619 19:32:30.481994 11478 net.cpp:150] Setting up 102flower
I0619 19:32:30.482012 11478 net.cpp:157] Top shape: 256 102 (26112)
I0619 19:32:30.482019 11478 net.cpp:165] Memory required for data: 1756301312
I0619 19:32:30.482028 11478 layer_factory.hpp:77] Creating layer loss
I0619 19:32:30.482039 11478 net.cpp:106] Creating Layer loss
I0619 19:32:30.482045 11478 net.cpp:454] loss <- 102flower
I0619 19:32:30.482053 11478 net.cpp:454] loss <- label
I0619 19:32:30.482066 11478 net.cpp:411] loss -> loss
I0619 19:32:30.482080 11478 layer_factory.hpp:77] Creating layer loss
…
I0619 19:32:30.483486 11478 net.cpp:322] The NetState phase (1) differed from the phase (0) specified by a rule in layer data
I0619 19:32:30.483675 11478 net.cpp:49] Initializing net from parameters: 
name: "102FlowerCaffeNet"
state {
  phase: TEST
}
layer {
  name: "data"
  type: "Data"
  top: "data"
  top: "label"
  include {
    phase: TEST
  }
  transform_param {
    mirror: false
    crop_size: 227
    mean_file: "/home/zheda/data/flower_all/102flowers/102flowers_val_mean.binaryproto"
  }
  data_param {
    source: "/home/zheda/data/flower_all/102flowers/lmdb/102flowers_val_lmdb"
    batch_size: 64
    backend: LMDB
  }
}
layer {
  name: "conv1"
  type: "Convolution"
  bottom: "data"
  top: "conv1"
  param {
    lr_mult: 1
    decay_mult: 1
  }
  param {
    lr_mult: 2
    decay_mult: 0
  }
  convolution_param {
    num_output: 96
    kernel_size: 11
    stride: 4
    weight_filler {
      type: "gaussian"
      std: 0.01
    }
    bias_filler {
      type: "constant"
      value: 0
    }
  }
}
layer {
  name: "relu1"
  type: "ReLU"
  bottom: "conv1"
  top: "conv1"
}
layer {
  name: "pool1"
  type: "Pooling"
  bottom: "conv1"
  top: "pool1"
  pooling_param {
    pool: MAX
    kernel_size: 3
    stride: 2
  }
}
layer {
  name: "norm1"
  type: "LRN"
  bottom: "pool1"
  top: "norm1"
  lrn_param {
    local_size: 5
    alpha: 0.0001
    beta: 0.75
  }
}
layer {
  name: "conv2"
  type: "Convolution"
  bottom: "norm1"
  top: "conv2"
  param {
    lr_mult: 1
    decay_mult: 1
  }
  param {
    lr_mult: 2
    decay_mult: 0
  }
  convolution_param {
    num_output: 256
    pad: 2
    kernel_size: 5
    group: 2
    weight_filler {
      type: "gaussian"
      std: 0.01
    }
    bias_filler {
      type: "constant"
      value: 1
    }
  }
}
layer {
  name: "relu2"
  type: "ReLU"
  bottom: "conv2"
  top: "conv2"
}
layer {
  name: "pool2"
  type: "Pooling"
  bottom: "conv2"
  top: "pool2"
  pooling_param {
    pool: MAX
    kernel_size: 3
    stride: 2
  }
}
layer {
  name: "norm2"
  type: "LRN"
  bottom: "pool2"
  top: "norm2"
  lrn_param {
    local_size: 5
    alpha: 0.0001
    beta: 0.75
  }
}
layer {
  name: "conv3"
  type: "Convolution"
  bottom: "norm2"
  top: "conv3"
  param {
    lr_mult: 1
    decay_mult: 1
  }
  param {
    lr_mult: 2
    decay_mult: 0
  }
  convolution_param {
    num_output: 384
    pad: 1
    kernel_size: 3
    weight_filler {
      type: "gaussian"
      std: 0.01
    }
    bias_filler {
      type: "constant"
      value: 0
    }
  }
}
layer {
  name: "relu3"
  type: "ReLU"
  bottom: "conv3"
  top: "conv3"
}
layer {
  name: "conv4"
  type: "Convolution"
  bottom: "conv3"
  top: "conv4"
  param {
    lr_mult: 1
    decay_mult: 1
  }
  param {
    lr_mult: 2
    decay_mult: 0
  }
  convolution_param {
    num_output: 384
    pad: 1
    kernel_size: 3
    group: 2
    weight_filler {
      type: "gaussian"
      std: 0.01
    }
    bias_filler {
      type: "constant"
      value: 1
    }
  }
}
layer {
  name: "relu4"
  type: "ReLU"
  bottom: "conv4"
  top: "conv4"
}
layer {
  name: "conv5"
  type: "Convolution"
  bottom: "conv4"
  top: "conv5"
  param {
    lr_mult: 1
    decay_mult: 1
  }
  param {
    lr_mult: 2
    decay_mult: 0
  }
  convolution_param {
    num_output: 256
    pad: 1
    kernel_size: 3
    group: 2
    weight_filler {
      type: "gaussian"
      std: 0.01
    }
    bias_filler {
      type: "constant"
      value: 1
    }
  }
}
layer {
  name: "relu5"
  type: "ReLU"
  bottom: "conv5"
  top: "conv5"
}
layer {
  name: "pool5"
  type: "Pooling"
  bottom: "conv5"
  top: "pool5"
  pooling_param {
    pool: MAX
    kernel_size: 3
    stride: 2
  }
}
layer {
  name: "fc6"
  type: "InnerProduct"
  bottom: "pool5"
  top: "fc6"
  param {
    lr_mult: 1
    decay_mult: 1
  }
  param {
    lr_mult: 2
    decay_mult: 0
  }
  inner_product_param {
    num_output: 4096
    weight_filler {
      type: "gaussian"
      std: 0.005
    }
    bias_filler {
      type: "constant"
      value: 1
    }
  }
}
layer {
  name: "relu6"
  type: "ReLU"
  bottom: "fc6"
  top: "fc6"
}
layer {
  name: "drop6"
  type: "Dropout"
  bottom: "fc6"
  top: "fc6"
  dropout_param {
    dropout_ratio: 0.5
  }
}
layer {
  name: "fc7"
  type: "InnerProduct"
  bottom: "fc6"
  top: "fc7"
  param {
    lr_mult: 1
    decay_mult: 1
  }
  param {
    lr_mult: 2
    decay_mult: 0
  }
  inner_product_param {
    num_output: 4096
    weight_filler {
      type: "gaussian"
      std: 0.005
    }
    bias_filler {
      type: "constant"
      value: 1
    }
  }
}
layer {
  name: "relu7"
  type: "ReLU"
  bottom: "fc7"
  top: "fc7"
}
layer {
  name: "drop7"
  type: "Dropout"
  bottom: "fc7"
  top: "fc7"
  dropout_param {
    dropout_ratio: 0.5
  }
}
layer {
  name: "102flower"
  type: "InnerProduct"
  bottom: "fc7"
  top: "102flower"
  param {
    lr_mult: 5
    decay_mult: 1
  }
  param {
    lr_mult: 10
    decay_mult: 0
  }
  inner_product_param {
    num_output: 102
    weight_filler {
      type: "gaussian"
      std: 0.01
    }
    bias_filler {
      type: "constant"
      value: 0
    }
  }
}
layer {
  name: "accuracy"
  type: "Accuracy"
  bottom: "102flower"
  bottom: "label"
  top: "accuracy"
  include {
    phase: TEST
  }
}
layer {
  name: "loss"
  type: "SoftmaxWithLoss"
  bottom: "102flower"
  bottom: "label"
  top: "loss"
}
I0619 19:32:30.484465 11478 layer_factory.hpp:77] Creating layer data
I0619 19:32:30.484931 11478 net.cpp:106] Creating Layer data
I0619 19:32:30.484946 11478 net.cpp:411] data -> data
I0619 19:32:30.484956 11478 net.cpp:411] data -> label
I0619 19:32:30.484987 11478 data_transformer.cpp:25] Loading mean file from: /home/zheda/data/flower_all/102flowers/102flowers_val_mean.binaryproto
I0619 19:32:30.486464 11484 db_lmdb.cpp:38] Opened lmdb /home/zheda/data/flower_all/102flowers/lmdb/102flowers_val_lmdb
I0619 19:32:30.487254 11478 data_layer.cpp:41] output data size: 64,3,227,227
I0619 19:32:30.551007 11478 net.cpp:150] Setting up data
I0619 19:32:30.551065 11478 net.cpp:157] Top shape: 64 3 227 227 (9893568)
I0619 19:32:30.551074 11478 net.cpp:157] Top shape: 64 (64)
I0619 19:32:30.551081 11478 net.cpp:165] Memory required for data: 39574528
I0619 19:32:30.551091 11478 layer_factory.hpp:77] Creating layer label_data_1_split
I0619 19:32:30.551108 11478 net.cpp:106] Creating Layer label_data_1_split
I0619 19:32:30.551118 11478 net.cpp:454] label_data_1_split <- label
I0619 19:32:30.551131 11478 net.cpp:411] label_data_1_split -> label_data_1_split_0
I0619 19:32:30.551146 11478 net.cpp:411] label_data_1_split -> label_data_1_split_1
I0619 19:32:30.551214 11478 net.cpp:150] Setting up label_data_1_split
I0619 19:32:30.551229 11478 net.cpp:157] Top shape: 64 (64)
I0619 19:32:30.551236 11478 net.cpp:157] Top shape: 64 (64)
I0619 19:32:30.551242 11478 net.cpp:165] Memory required for data: 39575040
I0619 19:32:30.551249 11478 layer_factory.hpp:77] Creating layer conv1
I0619 19:32:30.551265 11478 net.cpp:106] Creating Layer conv1
I0619 19:32:30.551272 11478 net.cpp:454] conv1 <- data
I0619 19:32:30.551282 11478 net.cpp:411] conv1 -> conv1
I0619 19:32:30.557718 11478 net.cpp:150] Setting up conv1
I0619 19:32:30.557756 11478 net.cpp:157] Top shape: 64 96 55 55 (18585600)
I0619 19:32:30.557765 11478 net.cpp:165] Memory required for data: 113917440
I0619 19:32:30.557780 11478 layer_factory.hpp:77] Creating layer relu1
I0619 19:32:30.557791 11478 net.cpp:106] Creating Layer relu1
I0619 19:32:30.557801 11478 net.cpp:454] relu1 <- conv1
I0619 19:32:30.557809 11478 net.cpp:397] relu1 -> conv1 (in-place)
I0619 19:32:30.557972 11478 net.cpp:150] Setting up relu1
I0619 19:32:30.557987 11478 net.cpp:157] Top shape: 64 96 55 55 (18585600)
I0619 19:32:30.558001 11478 net.cpp:165] Memory required for data: 188259840
I0619 19:32:30.558007 11478 layer_factory.hpp:77] Creating layer pool1
I0619 19:32:30.558018 11478 net.cpp:106] Creating Layer pool1
I0619 19:32:30.558024 11478 net.cpp:454] pool1 <- conv1
I0619 19:32:30.558033 11478 net.cpp:411] pool1 -> pool1
I0619 19:32:30.558092 11478 net.cpp:150] Setting up pool1
I0619 19:32:30.558105 11478 net.cpp:157] Top shape: 64 96 27 27 (4478976)
I0619 19:32:30.558114 11478 net.cpp:165] Memory required for data: 206175744
I0619 19:32:30.558120 11478 layer_factory.hpp:77] Creating layer norm1
I0619 19:32:30.558133 11478 net.cpp:106] Creating Layer norm1
I0619 19:32:30.558140 11478 net.cpp:454] norm1 <- pool1
I0619 19:32:30.558151 11478 net.cpp:411] norm1 -> norm1
I0619 19:32:30.558490 11478 net.cpp:150] Setting up norm1
I0619 19:32:30.558507 11478 net.cpp:157] Top shape: 64 96 27 27 (4478976)
I0619 19:32:30.558521 11478 net.cpp:165] Memory required for data: 224091648
I0619 19:32:30.558526 11478 layer_factory.hpp:77] Creating layer conv2
I0619 19:32:30.558540 11478 net.cpp:106] Creating Layer conv2
I0619 19:32:30.558548 11478 net.cpp:454] conv2 <- norm1
I0619 19:32:30.558559 11478 net.cpp:411] conv2 -> conv2
I0619 19:32:30.568965 11478 net.cpp:150] Setting up conv2
I0619 19:32:30.569032 11478 net.cpp:157] Top shape: 64 256 27 27 (11943936)
I0619 19:32:30.569041 11478 net.cpp:165] Memory required for data: 271867392
I0619 19:32:30.569056 11478 layer_factory.hpp:77] Creating layer relu2
I0619 19:32:30.569068 11478 net.cpp:106] Creating Layer relu2
I0619 19:32:30.569077 11478 net.cpp:454] relu2 <- conv2
I0619 19:32:30.569087 11478 net.cpp:397] relu2 -> conv2 (in-place)
I0619 19:32:30.569386 11478 net.cpp:150] Setting up relu2
I0619 19:32:30.569404 11478 net.cpp:157] Top shape: 64 256 27 27 (11943936)
I0619 19:32:30.569411 11478 net.cpp:165] Memory required for data: 319643136
I0619 19:32:30.569418 11478 layer_factory.hpp:77] Creating layer pool2
I0619 19:32:30.569432 11478 net.cpp:106] Creating Layer pool2
I0619 19:32:30.569438 11478 net.cpp:454] pool2 <- conv2
I0619 19:32:30.569448 11478 net.cpp:411] pool2 -> pool2
I0619 19:32:30.569494 11478 net.cpp:150] Setting up pool2
I0619 19:32:30.569516 11478 net.cpp:157] Top shape: 64 256 13 13 (2768896)
I0619 19:32:30.569522 11478 net.cpp:165] Memory required for data: 330718720
I0619 19:32:30.569530 11478 layer_factory.hpp:77] Creating layer norm2
I0619 19:32:30.569541 11478 net.cpp:106] Creating Layer norm2
I0619 19:32:30.569547 11478 net.cpp:454] norm2 <- pool2
I0619 19:32:30.569557 11478 net.cpp:411] norm2 -> norm2
I0619 19:32:30.569736 11478 net.cpp:150] Setting up norm2
I0619 19:32:30.569751 11478 net.cpp:157] Top shape: 64 256 13 13 (2768896)
I0619 19:32:30.569756 11478 net.cpp:165] Memory required for data: 341794304
I0619 19:32:30.569762 11478 layer_factory.hpp:77] Creating layer conv3
I0619 19:32:30.569777 11478 net.cpp:106] Creating Layer conv3
I0619 19:32:30.569783 11478 net.cpp:454] conv3 <- norm2
I0619 19:32:30.569793 11478 net.cpp:411] conv3 -> conv3
I0619 19:32:30.595834 11478 net.cpp:150] Setting up conv3
I0619 19:32:30.595880 11478 net.cpp:157] Top shape: 64 384 13 13 (4153344)
I0619 19:32:30.595886 11478 net.cpp:165] Memory required for data: 358407680
I0619 19:32:30.595903 11478 layer_factory.hpp:77] Creating layer relu3
I0619 19:32:30.595916 11478 net.cpp:106] Creating Layer relu3
I0619 19:32:30.595924 11478 net.cpp:454] relu3 <- conv3
I0619 19:32:30.595933 11478 net.cpp:397] relu3 -> conv3 (in-place)
I0619 19:32:30.596228 11478 net.cpp:150] Setting up relu3
I0619 19:32:30.596248 11478 net.cpp:157] Top shape: 64 384 13 13 (4153344)
I0619 19:32:30.596256 11478 net.cpp:165] Memory required for data: 375021056
I0619 19:32:30.596263 11478 layer_factory.hpp:77] Creating layer conv4
I0619 19:32:30.596279 11478 net.cpp:106] Creating Layer conv4
I0619 19:32:30.596287 11478 net.cpp:454] conv4 <- conv3
I0619 19:32:30.596297 11478 net.cpp:411] conv4 -> conv4
I0619 19:32:30.616533 11478 net.cpp:150] Setting up conv4
I0619 19:32:30.616557 11478 net.cpp:157] Top shape: 64 384 13 13 (4153344)
I0619 19:32:30.616565 11478 net.cpp:165] Memory required for data: 391634432
I0619 19:32:30.616575 11478 layer_factory.hpp:77] Creating layer relu4
I0619 19:32:30.616585 11478 net.cpp:106] Creating Layer relu4
I0619 19:32:30.616591 11478 net.cpp:454] relu4 <- conv4
I0619 19:32:30.616600 11478 net.cpp:397] relu4 -> conv4 (in-place)
I0619 19:32:30.616922 11478 net.cpp:150] Setting up relu4
I0619 19:32:30.616940 11478 net.cpp:157] Top shape: 64 384 13 13 (4153344)
I0619 19:32:30.616947 11478 net.cpp:165] Memory required for data: 408247808
I0619 19:32:30.616955 11478 layer_factory.hpp:77] Creating layer conv5
I0619 19:32:30.616967 11478 net.cpp:106] Creating Layer conv5
I0619 19:32:30.616974 11478 net.cpp:454] conv5 <- conv4
I0619 19:32:30.616984 11478 net.cpp:411] conv5 -> conv5
I0619 19:32:30.631062 11478 net.cpp:150] Setting up conv5
I0619 19:32:30.631083 11478 net.cpp:157] Top shape: 64 256 13 13 (2768896)
I0619 19:32:30.631089 11478 net.cpp:165] Memory required for data: 419323392
I0619 19:32:30.631103 11478 layer_factory.hpp:77] Creating layer relu5
I0619 19:32:30.631113 11478 net.cpp:106] Creating Layer relu5
I0619 19:32:30.631119 11478 net.cpp:454] relu5 <- conv5
I0619 19:32:30.631127 11478 net.cpp:397] relu5 -> conv5 (in-place)
I0619 19:32:30.631302 11478 net.cpp:150] Setting up relu5
I0619 19:32:30.631315 11478 net.cpp:157] Top shape: 64 256 13 13 (2768896)
I0619 19:32:30.631321 11478 net.cpp:165] Memory required for data: 430398976
I0619 19:32:30.631327 11478 layer_factory.hpp:77] Creating layer pool5
I0619 19:32:30.631340 11478 net.cpp:106] Creating Layer pool5
I0619 19:32:30.631346 11478 net.cpp:454] pool5 <- conv5
I0619 19:32:30.631356 11478 net.cpp:411] pool5 -> pool5
I0619 19:32:30.631398 11478 net.cpp:150] Setting up pool5
I0619 19:32:30.631408 11478 net.cpp:157] Top shape: 64 256 6 6 (589824)
I0619 19:32:30.631413 11478 net.cpp:165] Memory required for data: 432758272
I0619 19:32:30.631419 11478 layer_factory.hpp:77] Creating layer fc6
I0619 19:32:30.631430 11478 net.cpp:106] Creating Layer fc6
I0619 19:32:30.631436 11478 net.cpp:454] fc6 <- pool5
I0619 19:32:30.631444 11478 net.cpp:411] fc6 -> fc6
I0619 19:32:31.697501 11478 net.cpp:150] Setting up fc6
I0619 19:32:31.697549 11478 net.cpp:157] Top shape: 64 4096 (262144)
I0619 19:32:31.697557 11478 net.cpp:165] Memory required for data: 433806848
I0619 19:32:31.697573 11478 layer_factory.hpp:77] Creating layer relu6
I0619 19:32:31.697592 11478 net.cpp:106] Creating Layer relu6
I0619 19:32:31.697602 11478 net.cpp:454] relu6 <- fc6
I0619 19:32:31.697613 11478 net.cpp:397] relu6 -> fc6 (in-place)
I0619 19:32:31.698211 11478 net.cpp:150] Setting up relu6
I0619 19:32:31.698230 11478 net.cpp:157] Top shape: 64 4096 (262144)
I0619 19:32:31.698237 11478 net.cpp:165] Memory required for data: 434855424
I0619 19:32:31.698243 11478 layer_factory.hpp:77] Creating layer drop6
I0619 19:32:31.698256 11478 net.cpp:106] Creating Layer drop6
I0619 19:32:31.698263 11478 net.cpp:454] drop6 <- fc6
I0619 19:32:31.698271 11478 net.cpp:397] drop6 -> fc6 (in-place)
I0619 19:32:31.698304 11478 net.cpp:150] Setting up drop6
I0619 19:32:31.698317 11478 net.cpp:157] Top shape: 64 4096 (262144)
I0619 19:32:31.698323 11478 net.cpp:165] Memory required for data: 435904000
I0619 19:32:31.698329 11478 layer_factory.hpp:77] Creating layer fc7
I0619 19:32:31.698341 11478 net.cpp:106] Creating Layer fc7
I0619 19:32:31.698348 11478 net.cpp:454] fc7 <- fc6
I0619 19:32:31.698364 11478 net.cpp:411] fc7 -> fc7
I0619 19:32:32.173311 11478 net.cpp:150] Setting up fc7
I0619 19:32:32.173354 11478 net.cpp:157] Top shape: 64 4096 (262144)
I0619 19:32:32.173362 11478 net.cpp:165] Memory required for data: 436952576
I0619 19:32:32.173377 11478 layer_factory.hpp:77] Creating layer relu7
I0619 19:32:32.173394 11478 net.cpp:106] Creating Layer relu7
I0619 19:32:32.173405 11478 net.cpp:454] relu7 <- fc7
I0619 19:32:32.173416 11478 net.cpp:397] relu7 -> fc7 (in-place)
I0619 19:32:32.173738 11478 net.cpp:150] Setting up relu7
I0619 19:32:32.173754 11478 net.cpp:157] Top shape: 64 4096 (262144)
I0619 19:32:32.173761 11478 net.cpp:165] Memory required for data: 438001152
I0619 19:32:32.173768 11478 layer_factory.hpp:77] Creating layer drop7
I0619 19:32:32.173779 11478 net.cpp:106] Creating Layer drop7
I0619 19:32:32.173787 11478 net.cpp:454] drop7 <- fc7
I0619 19:32:32.173796 11478 net.cpp:397] drop7 -> fc7 (in-place)
I0619 19:32:32.173828 11478 net.cpp:150] Setting up drop7
I0619 19:32:32.173851 11478 net.cpp:157] Top shape: 64 4096 (262144)
I0619 19:32:32.173857 11478 net.cpp:165] Memory required for data: 439049728
I0619 19:32:32.173863 11478 layer_factory.hpp:77] Creating layer 102flower
I0619 19:32:32.173876 11478 net.cpp:106] Creating Layer 102flower
I0619 19:32:32.173882 11478 net.cpp:454] 102flower <- fc7
I0619 19:32:32.173892 11478 net.cpp:411] 102flower -> 102flower
I0619 19:32:32.185961 11478 net.cpp:150] Setting up 102flower
I0619 19:32:32.185979 11478 net.cpp:157] Top shape: 64 102 (6528)
I0619 19:32:32.185986 11478 net.cpp:165] Memory required for data: 439075840
I0619 19:32:32.185995 11478 layer_factory.hpp:77] Creating layer 102flower_102flower_0_split
I0619 19:32:32.186005 11478 net.cpp:106] Creating Layer 102flower_102flower_0_split
I0619 19:32:32.186012 11478 net.cpp:454] 102flower_102flower_0_split <- 102flower
I0619 19:32:32.186035 11478 net.cpp:411] 102flower_102flower_0_split -> 102flower_102flower_0_split_0
I0619 19:32:32.186048 11478 net.cpp:411] 102flower_102flower_0_split -> 102flower_102flower_0_split_1
I0619 19:32:32.186087 11478 net.cpp:150] Setting up 102flower_102flower_0_split
I0619 19:32:32.186099 11478 net.cpp:157] Top shape: 64 102 (6528)
I0619 19:32:32.186105 11478 net.cpp:157] Top shape: 64 102 (6528)
I0619 19:32:32.186110 11478 net.cpp:165] Memory required for data: 439128064
I0619 19:32:32.186116 11478 layer_factory.hpp:77] Creating layer accuracy
I0619 19:32:32.186133 11478 net.cpp:106] Creating Layer accuracy
I0619 19:32:32.186141 11478 net.cpp:454] accuracy <- 102flower_102flower_0_split_0
I0619 19:32:32.186147 11478 net.cpp:454] accuracy <- label_data_1_split_0
I0619 19:32:32.186156 11478 net.cpp:411] accuracy -> accuracy
…
